TradeSimulator-v0_D3QN_-1/act_target.pth (torch, 151778 bytes, 14 tensors)

state_avg f4 [10]
0	0x3e8797f3	0.26483116
1	0x3a7a7f1e	0.0009555685
2	0xbbe809be	-0.0070812395
3	0x3e6ffa19	0.23435248
4	0x3b5c4e85	0.0033616137
5	0xbc26792d	-0.0101607265
6	0xbda67a3d	-0.08128784
7	0x3e9f8305	0.31154647
8	0x3b9e83a0	0.0048374683
9	0xbca4954a	-0.020090718

state_std f4 [10]
0	0x3f4e17df	0.80505174
1	0x3f27344a	0.6531416
2	0x3f5610cd	0.83619386
3	0x3f65997c	0.89687324
4	0x3f461c9d	0.7738741
5	0x3f3a79e5	0.72842246
6	0x3f7c3c3c	0.9852941
7	0x3f499668	0.78745127
8	0x3f434ef1	0.7629233
9	0x3f3b6298	0.7319732

weight f4 [128, 10]
0	0x3e2c95e9	0.16854061
1	0x3d1dc963	0.038522135
2	0xbd4b7346	-0.04967048
3	0x3e2f5c94	0.1712516
4	0xbe92d2d3	-0.2867647
5	0x3e544234	0.2072838
6	0xbdaa0ba2	-0.08303
7	0x3e2c3816	0.1681827
8	0x3d318375	0.043338258
9	0xbd150170	-0.036378324
10	0x3dbe5a18	0.09294528
11	0x3eb83fed	0.35986272
12	0x3e032972	0.12808779
13	0xbdef67f9	-0.11689753
14	0xbd2db71a	-0.042410947
15	0xbd10146f	-0.035175737
16	0x3d35300d	0.044235278
17	0xb8e23b38	-0.0001078755
18	0x3e862fc7	0.26208326
19	0x3de5a5a6	0.112132356
20	0xbdeb30dc	-0.114839286
21	0xbeda9e8e	-0.42699093
22	0xbd7e34be	-0.062062018
23	0xbe0b7f04	-0.13622671
24	0xbddb42e1	-0.107061155
25	0x3b387274	0.0028144391
26	0x3e40bd5f	0.1882224
27	0x3e30f0f1	0.17279412
28	0xbe8b4b4b	-0.2720588
29	0x3e38e3c0	0.1805563
30	0x3da6f2ed	0.08151803
31	0x3d36682f	0.04453295
32	0x3e5e1e1f	0.21691178
33	0xbe935dba	-0.28782445
34	0xbe7d8892	-0.24759129
35	0xbe1799fc	-0.14804834
36	0x3e92d2d3	0.2867647
37	0xbd615e5d	-0.055021632
38	0x3e0773ca	0.13227764
39	0xbde9efcd	-0.114226915
40	0x3e9a5a5b	0.3014706
41	0xbedcd46d	-0.43130818
42	0x3e5e1e1e	0.21691176
43	0x3c964cdf	0.018347202
44	0xbe1fbfa5	-0.1560045
45	0x3e25dd96	0.1619781
46	0xbe387879	-0.18014707
47	0x3dde1e1f	0.10845589
48	0xbdb014c0	-0.08597708
49	0xbd22fd4d	-0.039792348
50	0xbea1e1e2	-0.31617647
51	0xbe93d31b	-0.28871998
52	0x3e2ba920	0.16763735
53	0xbdc0c1eb	-0.09411987
54	0x3ea144dd	0.3149785
55	0x3e57163a	0.21004573
56	0xbceab74e	-0.02865186
57	0xbe324e3c	-0.17412657
58	0x3e3fffff	0.18749999
59	0x3da56b69	0.080771275
60	0xbe4b0384	-0.1982556
61	0xbe0467e7	-0.1293026
62	0x3e385296	0.18000254
63	0x3e97a378	0.29616904
64	0xbe2f2eb4	-0.1710766
65	0xbd79b538	-0.06096384
66	0xbc109664	-0.008824918
67	0x3d32e043	0.043670904
68	0xbe61d6ca	-0.22054592
69	0xbe497934	-0.19675142
70	0x3e379cd5	0.1793092
71	0xbeac9a9e	-0.33711714
72	0x3e12c495	0.14332803
73	0x3cb0f0f1	0.021599265
74	0x3dc6a6c2	0.09699775
75	0x3d5c5413	0.053791117
76	0x3dcf0f0f	0.10110294
77	0x3e29696a	0.16544119
78	0xbe8b4b4b	-0.2720588
79	0x3e0fe7a8	0.14053214
80	0xbe6eed8f	-0.23332809
81	0xbe6bbcc7	-0.23021232
82	0x3cc94480	0.024568796
83	0xbd57fa51	-0.052728955
84	0x3e3c4c94	0.18388587
85	0xbe478787	-0.19485293
86	0xbe8b4b4b	-0.2720588
87	0x3e6d2d2e	0.23161766
88	0xbd626062	-0.0552677
89	0x3e41ffc6	0.18945226
90	0x3dc8e844	0.09809926
91	0xbf14aea5	-0.58078986
92	0x3d7c3c3c	0.06158088
93	0x3d9d8b99	0.07692642
94	0xbe569696	-0.20955881
95	0xbe198c44	-0.14994913
96	0x3dd85c40	0.1056447
97	0x3d85c8c7	0.06532436
98	0xbe0b4b4c	-0.13602942
99	0xbdc78787	-0.09742647
100	0x3e92d2d3	0.2867647
101	0xbe92d2d2	-0.28676468
102	0x3e3690c1	0.17828657
103	0x3e0200f3	0.12695675
104	0xbe344ab4	-0.17606622
105	0xbe83c3c3	-0.25735292
106	0x3e9a5a5b	0.3014706
107	0x3c8f2b3b	0.017476669
108	0x3e569696	0.20955881
109	0x3d3df972	0.046380468
110	0x3dc76911	0.09736837
111	0xbc9949b6	-0.018711906
112	0x3e92d2d2	0.28676468
113	0xbe569696	-0.20955881
114	0x3d43b5cb	0.047780793
115	0x3e63f9e7	0.22263299
116	0x3e722162	0.23645547
117	0x3e4f0f10	0.2022059
118	0xbe3a1cb7	-0.18175016
119	0xbe4e8ac0	-0.20170116
120	0xbe3b5aaf	-0.18296312
121	0xbe68c768	-0.22732317
122	0x3e9a5a5a	0.30147058
123	0xbe4f0f10	-0.2022059
124	0x3e269dd0	0.16271138
125	0xbe186e95	-0.14885934
126	0xbe983aa1	-0.2973223
127	0xbd83c3c3	-0.06433823
128	0x3e2d2a9e	0.16910788
129	0x3e92d2d2	0.28676468
130	0xbe3fffff	-0.18749999
131	0x3e248a87	0.16068469
132	0x3e83c3c3	0.25735292
133	0x3e569696	0.20955881
134	0x3e4a354d	0.19746895
135	0x3e74b4b4	0.23897058
136	0x3e4f0f10	0.2022059
137	0x3dd3e158	0.10345715
138	0xbe3739c3	-0.17893128
139	0xbe809dd9	-0.25120428
140	0xbe0e51be	-0.1389837
141	0xbd543c21	-0.051815156
142	0xbe441ec9	-0.19152369
143	0x3dfddb3b	0.123953305
144	0x3daac5f0	0.08338535
145	0xbd7164e8	-0.058934122
146	0x3dea5b0d	0.11443148
147	0x3db6511a	0.08902188
148	0x3e3fffff	0.18749999
149	0x3e2c579d	0.16830297
150	0xbdde1e1f	-0.10845589
151	0xbcf5f5de	-0.030024465
152	0xbd388b2d	-0.045054603
153	0xbc1a54ff	-0.009419679
154	0xbe92d2d2	-0.28676468
155	0xbe38476f	-0.17996
156	0xbe47d7fc	-0.19515985
157	0xbe0b4b4c	-0.13602942
158	0x3e5b0aa9	0.21390785
159	0xbdd05c16	-0.10173814
160	0xbe75a635	-0.23989184
161	0x3d9c9c09	0.07646949
162	0x3dc5d572	0.09659852
163	0x3e442ce3	0.19157748
164	0xbe226da9	-0.15862145
165	0x3d6c49c9	0.057687555
166	0xbdca1de1	-0.0986898
167	0xbd94f8b2	-0.07273997
168	0xbe810728	-0.25200772
169	0xbe1a5a5b	-0.1507353
170	0xbdb406c3	-0.08790352
171	0xbdae9bb8	-0.08525795
172	0x3d7c3c3c	0.06158088
173	0x3da9696a	0.08272059
174	0x3ea01c01	0.31271365
175	0x3e8b4b4b	0.2720588
176	0x3e77decd	0.24206086
177	0x3c0d2004	0.00861359
178	0xbe48b7fb	-0.19601433
179	0x3e5a2379	0.21302594
180	0xbd9a5a5b	-0.07536765
181	0xbeaf6e53	-0.34263858
182	0xbe83c3c3	-0.25735292
183	0xbd7a684d	-0.061134625
184	0xbe38facc	-0.18064421
185	0x3e71bc09	0.23606886
186	0xbe92d2d3	-0.2867647
187	0xbe7c3c3d	-0.24632354
188	0xbbeec255	-0.00728635
189	0xbe296969	-0.16544117
190	0x3dedc6ea	0.116102055
191	0xbe42cc63	-0.1902328
192	0xbe184278	-0.14869106
193	0x3c99a58f	0.018755702
194	0x3e5cc056	0.21557745
195	0xbe4e1b4e	-0.20127603
196	0x3e2012ca	0.15632167
197	0x3e4f72a6	0.20258579
198	0x3e8f41dc	0.27979934
199	0xbe745937	-0.23862158
200	0x3dbbe384	0.091742545
201	0x3d5e9e34	0.054350093
202	0x3e8b4b4c	0.27205884
203	0xbdd69696	-0.10477941
204	0x3e478787	0.19485293
205	0xbbdd7e5e	-0.006759449
206	0xbc99954d	-0.01874795
207	0x3a1b95d1	0.0005935105
208	0x3d4fdef2	0.050749727
209	0x3e18a56c	0.14906853
210	0x3d56a8b8	0.052406996
211	0xbe3d45ac	-0.18483609
212	0xbe8397bd	-0.25701705
213	0x3e7933aa	0.24336115
214	0x3e6f35b2	0.23360327
215	0x3e5c1dfd	0.21495815
216	0x3e7c3c3d	0.24632354
217	0xbe66e0c0	-0.22546673
218	0xbdde1e1f	-0.10845589
219	0x3e8b4b4b	0.2720588
220	0xbe6d2d2d	-0.23161764
221	0x3cb9cdc3	0.022681123
222	0xbe7c3c3c	-0.24632353
223	0xbe6db31f	-0.2321286
224	0x3e1a5a5a	0.15073529
225	0xbe4a65ef	-0.19765447
226	0xbda96969	-0.082720585
227	0x3e74b4b5	0.2389706
228	0x3e83c3c3	0.25735292
229	0x3e90be59	0.28270224
230	0xbd449447	-0.04799297
231	0xbf1d3c0c	-0.6141975
232	0x3e92d2d2	0.28676468
233	0xbd78a6e8	-0.06070605
234	0xbde9091f	-0.11378693
235	0x3da3f5f1	0.08005894
236	0xbe65a5a6	-0.22426471
237	0x3e67af03	0.22625355
238	0x3e3fffff	0.18749999
239	0xbe8078b1	-0.2509208
240	0xbe83c3c4	-0.25735295
241	0xbdf3619c	-0.11883852
242	0x3ddd00d7	0.10791176
243	0x3c2720e6	0.010200715
244	0xbe027e94	-0.12743598
245	0x3cc14515	0.023592511
246	0xbe9a5a5a	-0.30147058
247	0xbe5e1e1f	-0.21691178
248	0xbe62b681	-0.22139932
249	0x3e5da4d2	0.21644905
250	0x3e8eb930	0.27875662
251	0xbe93a2b9	-0.28835085
252	0x3c188ed1	0.009311394
253	0x3e155268	0.14582217
254	0x3d165689	0.03670362
255	0xbe21e1e1	-0.15808822

bias f4 [128]
0	0x3d034a80	0.03205347
1	0xbbdd4a2c	-0.0067532267
2	0x3d77c4e6	0.06049051
3	0xbb9da113	-0.0048104613
4	0x3e3b87f4	0.18313581
5	0x3ba15134	0.0049230102
6	0x3e68d97b	0.22739212
7	0x3db2b81e	0.08726524
8	0x3ba41ac1	0.005008072
9	0x3d6c5652	0.05769951
10	0x3e6c64da	0.23085347
11	0x3d7be4e1	0.061497573
12	0x3e6d2d2d	0.23161764
13	0xbc75d1da	-0.015003646
14	0x3ba66308	0.0050777234
15	0x3e8b4b4c	0.27205884
16	0xbe9a5a5b	-0.3014706
17	0x3d421767	0.0473856
18	0x3e994da8	0.2994206
19	0xbe16345b	-0.1466841
20	0xbd3b4c53	-0.045727085
21	0xbb90138d	-0.004396862
22	0x3ded2d2d	0.11580882
23	0x3e132a72	0.1437166
24	0x3dab38b7	0.08360427
25	0x3e03c3c4	0.12867647
26	0xbe03c3c3	-0.12867646
27	0x3e130ace	0.1435959
28	0xbdc434b4	-0.09580365
29	0x3e5e1e1f	0.21691178
30	0xbd9da79c	-0.076979846
31	0xbe89dddc	-0.26927078
32	0x3d21b340	0.039477587
33	0x3e400000	0.1875
34	0xbbbb75a6	-0.005720812
35	0xbbe3269c	-0.006932093
36	0x3bb84110	0.0056229904
37	0x3e358aae	0.17728683
38	0x3cab58c0	0.020916343
39	0xbe998479	-0.2998388
40	0xbe697115	-0.22797044
41	0x3d0a0248	0.03369358
42	0xbc162337	-0.009163669
43	0x3ea33878	0.3187902
44	0xbd4106df	-0.047125693
45	0x3e7a3153	0.24432878
46	0xbe7c8c0e	-0.24662802
47	0xbe9a5a5a	-0.30147058
48	0xbc590e02	-0.013247969
49	0xbe5ea4ab	-0.21742503
50	0xbdb9ea63	-0.09077909
51	0x3cf6fdd2	0.030150328
52	0xbe83c3c3	-0.25735292
53	0x3e6d2d2e	0.23161766
54	0xbe336c1b	-0.17521708
55	0x3e83c3c4	0.25735295
56	0x3dcf2d37	0.10116046
57	0xbd3b8dc3	-0.04578949
58	0xbe87bcef	-0.26511332
59	0x3d3c1c37	0.045925345
60	0xbe296969	-0.16544117
61	0x3e9113a2	0.2833529
62	0xbe83c3c3	-0.25735292
63	0xbdae5591	-0.08512414
64	0xbe1b5a92	-0.15171269
65	0xbe478787	-0.19485293
66	0xbe46f31c	-0.19428676
67	0xbc8d8074	-0.017273165
68	0x3c96ebc7	0.018422974
69	0x3d98b23b	0.0745587
70	0x3e2e42f0	0.17017722
71	0xbdebe251	-0.11517776
72	0xbe5d9cd5	-0.21641858
73	0xbd84b514	-0.064798504
74	0x3e9dbc53	0.30807742
75	0xbd2071fd	-0.039171208
76	0xbe8b4b4c	-0.27205884
77	0x3e83c3c4	0.25735295
78	0x3d86e845	0.06587271
79	0x3d9a5a5b	0.07536765
80	0x3d8437a4	0.06455925
81	0x3e65a5a6	0.22426471
82	0xbe12d2d2	-0.14338234
83	0x3e7c3c3c	0.24632353
84	0x3ea1e1e2	0.31617647
85	0xbd92a025	-0.071594514
86	0x3e5e1e1f	0.21691178
87	0x3e4469e8	0.19181025
88	0x3e9c6857	0.30548355
89	0xbd85c33b	-0.06531378
90	0xbe4a36a4	-0.19747406
91	0xbddb16ca	-0.10697706
92	0xbe4fcffd	-0.20294185
93	0x3ccfd4d2	0.025370035
94	0x3ea1e1e2	0.31617647
95	0x3ea1e1e2	0.31617647
96	0x3e6f37ac	0.23361081
97	0x3d28507f	0.041092392
98	0x3cbc0204	0.02295018
99	0x3e5442b9	0.20728578
100	0x3e4f0f0f	0.20220588
101	0xbcff8d93	-0.031195438
102	0xbda86c72	-0.08223809
103	0x3e045f12	0.12926891
104	0x3c89bcbd	0.01681363
105	0xbe51de8c	-0.20495051
106	0xbe1d81da	-0.15381566
107	0x3e85c981	0.26130298
108	0x3e8b4b4c	0.27205884
109	0xbde10f3c	-0.10989234
110	0xbd6ab5dc	-0.05730234
111	0xbe20cf2b	-0.15704028
112	0xbdc785fb	-0.097423516
113	0x3e92d2d3	0.2867647
114	0xbe9f4ca4	-0.3111316
115	0x3e1a5a5a	0.15073529
116	0xbe92d2d3	-0.2867647
117	0xbe12d2d2	-0.14338234
118	0xbd4bcc96	-0.049755655
119	0x3cb14f49	0.021644251
120	0xbd1bd002	-0.03804017
121	0xbe1b64ce	-0.15175173
122	0xbe0b4b4b	-0.1360294
123	0xbe4f0f0f	-0.20220588
124	0xbe6206b7	-0.22072874
125	0xbe478788	-0.19485295
126	0x3ea1e1e2	0.31617647
127	0xbe03cbd6	-0.12870726

weight f4 [128, 128]
0	0xbdacfacb	-0.084462725
1	0x3d869e6e	0.06573187
2	0x3d218c9b	0.039440732
3	0x3d8b4b4b	0.0680147
4	0xbdb0f0f0	-0.08639705
5	0xbd9ccd2b	-0.0765632
6	0xbd7e8285	-0.062136192
7	0xbd496dee	-0.049177103
8	0xbc470d35	-0.012149145
9	0x3d35d9ef	0.04439729
10	0x3d615dc2	0.055021055
11	0xbd83c3c3	-0.06433823
12	0x3d07159d	0.032979596
13	0xbd14cf5f	-0.036330577
14	0x3c2a5908	0.010397203
15	0x3d21e1e2	0.03952206
16	0x3ca91de9	0.020644145
17	0x3cf70445	0.030153403
18	0xba8955b5	-0.0010477813
19	0x3d67d107	0.05659583
20	0x3ca3eee4	0.020011373
21	0x3da19fb9	0.07891793
22	0x3c823c7e	0.015897986
23	0xbd1e9fe8	-0.038726717
24	0x3d40a3f1	0.047031347
25	0x3b2a8f3b	0.0026025313
26	0x3dbdec72	0.09273614
27	0xbc66e2f5	-0.014092197
28	0x3da1e1e1	0.07904411
29	0xbd57bced	-0.052670408
30	0x3d24dd52	0.04025013
31	0xbd796a14	-0.06089218
32	0x3d61afdc	0.055099353
33	0x3cb0f0f0	0.021599263
34	0x3d7d8d7e	0.061902516
35	0xbd9a5a5b	-0.07536765
36	0xbdb27ed6	-0.08715598
37	0x3d296969	0.041360293
38	0xbcbedfd2	-0.023300085
39	0x3d12d2d2	0.035845585
40	0xbd478787	-0.048713233
41	0xbcc78787	-0.024356617
42	0x3c98cf76	0.018653613
43	0x3d56aa23	0.05240835
44	0x3d101638	0.03517744
45	0x3b4d464b	0.0031322415
46	0xbcf51e45	-0.02992166
47	0x3c9370e6	0.01799817
48	0x3ce78aa7	0.028264357
49	0xbd83c3c3	-0.06433823
50	0xbca1e1e2	-0.01976103
51	0xbdb482a7	-0.088139825
52	0x3be8e6f1	0.0071076085
53	0xbc10ade7	-0.008830524
54	0x3d4f0f0f	0.05055147
55	0x3da9696a	0.08272059
56	0xbd8cbed7	-0.06872337
57	0xbcfc981c	-0.03083425
58	0xbd571b3d	-0.05251621
59	0xbab9064f	-0.001411626
60	0xbd270b49	-0.040782247
61	0xbd6ef95c	-0.058343276
62	0xbd10351c	-0.0352069
63	0xbbe5201c	-0.006992353
64	0x3d604c56	0.0547603
65	0xbcb14525	-0.021639416
66	0x3d7c3c3c	0.06158088
67	0xbd8b4b4b	-0.0680147
68	0x3bcee186	0.0063135056
69	0xbd644c8c	-0.055737063
70	0xbdb40d15	-0.08791558
71	0x3c4047c5	0.011735861
72	0xbd251cdf	-0.040310737
73	0x3d83c3c3	0.06433823
74	0x3d82b235	0.063816465
75	0xbd9d6f39	-0.0768723
76	0x3a06640a	0.00051266013
77	0xbbe63575	-0.0070254155
78	0xbd30f0f1	-0.04319853
79	0xbd32918b	-0.04359583
80	0xbd422feb	-0.04740898
81	0x3d3fffff	0.046874996
82	0x3c0e4b66	0.008684969
83	0x3d83c3c4	0.06433824
84	0xbc1dd801	-0.009634019
85	0x3d30481b	0.043037515
86	0x3c723b9e	0.014784722
87	0xbc997a03	-0.018734938
88	0xbc77f747	-0.015134639
89	0xbdb0f0f1	-0.08639706
90	0xbc85edf1	-0.01634881
91	0xbcd25296	-0.025674146
92	0xbd3ea06d	-0.046539713
93	0xbcf2f8be	-0.029659625
94	0xbd19f74e	-0.037589364
95	0xbd83c3c4	-0.06433824
96	0x3c3151d7	0.010822735
97	0xbb123cc3	-0.002231405
98	0xbcfe2dad	-0.03102764
99	0x3db0f0f1	0.08639706
100	0x3d8c32df	0.068456404
101	0x3d24eb59	0.040263508
102	0xbd387eb2	-0.0450427
103	0xbabe43f1	-0.0014516098
104	0xbd9792b0	-0.07401025
105	0x3d713750	0.05889064
106	0x3d964c36	0.07338755
107	0xbc466cb7	-0.012110881
108	0x3d786eb0	0.060652435
109	0x3d9a5a5a	0.075367644
110	0xbc3da164	-0.011574123
111	0xbd0f52f4	-0.03499122
112	0xbc07ebda	-0.0082959775
113	0x3c388518	0.011262201
114	0xbd95e7b4	-0.073195845
115	0x3c06bbfb	0.008223529
116	0xbcdefcd2	-0.027220163
117	0x3d800000	0.0625
118	0xbcf0dbbb	-0.02940165
119	0x3d840693	0.064465664
120	0x3d7205a8	0.059087425
121	0xbcc76216	-0.024338763
122	0x3d0018e6	0.031273745
123	0xbc6598c1	-0.01401347
124	0xbd03c3c4	-0.03216912
125	0xbd1d754a	-0.038441934
126	0x3b9bdfde	0.0047569117
127	0x3cd612aa	0.026131947
128	0xbc387878	-0.011259191
129	0x3c5c2dfa	0.013438696
130	0x3d74b4b4	0.059742644
131	0x3d216636	0.039404117
132	0x3d29696a	0.041360296
133	0x3cecec99	0.028921412
134	0xbd7c3c3c	-0.06158088
135	0xbd569696	-0.052389704
136	0xbd763370	-0.06010765
137	0x3d7c3c3d	0.061580885
138	0xbd9a5a5a	-0.075367644
139	0xbd7c3c3d	-0.061580885
140	0x3d6b0161	0.057374362
141	0x3d5ab7ef	0.05339807
142	0xbda1e1e1	-0.07904411
143	0x3d64caaa	0.055857338
144	0xbcb87878	-0.022518381
145	0x3c95e99b	0.018299868
146	0xbd415f1a	-0.047209837
147	0xbc5e1e1f	-0.013556986
148	0x3c8b4b4c	0.017003678
149	0x3d8b4b4b	0.0680147
150	0x3d65a5a5	0.056066174
151	0xbd296969	-0.041360293
152	0xbd67934b	-0.056536954
153	0x3a124f1b	0.00055812456
154	0x3ce4988d	0.027904773
155	0x3d65a5a6	0.056066178
156	0xbdb0f0f0	-0.08639705
157	0x3ada1acc	0.0016640066
158	0x3c2f986c	0.010717493
159	0xbd2da875	-0.04239698
160	0x3d9a5a5a	0.075367644
161	0xbc6f5c8b	-0.014609466
162	0xbd9ccd6a	-0.07656367
163	0xbd3fffff	-0.046874996
164	0x3b92bcca	0.004478072
165	0xbd65a81f	-0.056068536
166	0x3cb4d452	0.022073898
167	0x3d9c5479	0.076332994
168	0x3c2b5c78	0.010459058
169	0xbc4690ed	-0.012119514
170	0x3db87879	0.09007353
171	0x3d92d2d2	0.07169117
172	0x3d7d2411	0.061801974
173	0x3c6210e2	0.0137979705
174	0x3c158d49	0.009127923
175	0xbd7c3c3c	-0.06158088
176	0x3c6f32d2	0.014599519
177	0x3dc00000	0.09375
178	0x3c38672d	0.011255068
179	0xbd935ec5	-0.0719581
180	0x3d12d2d2	0.035845585
181	0x3da7340b	0.08164223
182	0x3da1e1e2	0.07904412
183	0x3c4e4187	0.012588865
184	0x3cbe85cf	0.023257164
185	0x3ca1e1e1	0.019761028
186	0xbd127589	-0.03575662
187	0xbc3c1bbd	-0.011481223
188	0x3d85e3a0	0.06537557
189	0x3c8fc5e9	0.017550426
190	0x3da5daf0	0.080984
191	0xbd83a4b2	-0.064278975
192	0xbc12d2d2	-0.008961396
193	0x3b5644ab	0.0032694738
194	0xbd30f0f1	-0.04319853
195	0x3d92d2d2	0.07169117
196	0x3d800000	0.0625
197	0xbd29696a	-0.041360296
198	0x3da31daa	0.07964642
199	0x3d9a5a5a	0.075367644
200	0xbd478787	-0.048713233
201	0x3a8091d5	0.0009809086
202	0x3db87878	0.090073526
203	0xbd619c4d	-0.0550807
204	0xbc0db834	-0.0086498745
205	0xbd65a5a6	-0.056066178
206	0x3d8b4b4c	0.06801471
207	0x3ca6d5cf	0.020365624
208	0x3d24c615	0.04022797
209	0x3d92d2d3	0.07169118
210	0xbc84a1ec	-0.016190492
211	0xbd92d2d2	-0.07169117
212	0x3c49f22a	0.012325803
213	0xbb27a730	-0.002558183
214	0x3d21e1e1	0.039522056
215	0x3d3f7fbe	0.046752684
216	0xbd12d2d3	-0.03584559
217	0xbcfc3c3c	-0.03079044
218	0x3d614a45	0.05500247
219	0x3cde637a	0.027147043
220	0x3ca9696a	0.020680148
221	0x3d478788	0.048713237
222	0x3d38089b	0.04493008
223	0xbd6d2d2d	-0.05790441
224	0x3c83c3c3	0.016084557
225	0x3bb8ddc1	0.0056416695
226	0xbda1e1e1	-0.07904411
227	0x3cdd2a62	0.026997749
228	0x3bfe9ca1	0.0077701365
229	0x3d8b5ba9	0.06804592
230	0xbdb0df5e	-0.08636354
231	0x3db0f0f1	0.08639706
232	0xbd296969	-0.041360293
233	0x3d4115de	0.047139995
234	0x3d6d2d2e	0.057904415
235	0xbb89565f	-0.0041912044
236	0xbd24db83	-0.040248405
237	0xbc400000	-0.01171875
238	0xbd6b4cdc	-0.057446346
239	0x3c55b68c	0.013044011
240	0x3d12d2d2	0.035845585
241	0x3cbdd9ea	0.023175199
242	0xbd4f0f10	-0.050551474
243	0x3d74b4b5	0.05974265
244	0x3d9a5a5a	0.075367644
245	0xbccfcd1f	-0.025366364
246	0x3d387879	0.045036767
247	0xbc03c3c4	-0.00804228
248	0x3d12d2d3	0.03584559
249	0xbd83c3c4	-0.06433824
250	0xbd92d2d2	-0.07169117
251	0xbc526f5c	-0.012843933
252	0xbd8b4b4b	-0.0680147
253	0x3d120911	0.035653178
254	0x3db7d5f9	0.08976359
255	0xbc8ca7f0	-0.017169923

bias f4 [128]
0	0x3d83c3c3	0.06433823
1	0x3d697a64	0.057001486
2	0xbcb0f0f0	-0.021599263
3	0x3d3fffff	0.046874996
4	0xbced7da9	-0.028990583
5	0xbc49478f	-0.012285127
6	0xbda38013	-0.079834126
7	0x3d387878	0.045036763
8	0x3d83c3c3	0.06433823
9	0x3bfccdbc	0.007714955
10	0xbdb0f0f1	-0.08639706
11	0xbb65d33a	-0.0035068528
12	0xbd6d2d2e	-0.057904415
13	0xbd2e3e04	-0.04253961
14	0xbc7af183	-0.01531637
15	0x3d2befbd	0.04197668
16	0x3d4c499f	0.049874898
17	0xbda1e1e2	-0.07904412
18	0xbd4f0f0f	-0.05055147
19	0xbd43779b	-0.047721487
20	0x3cf0c61c	0.02939134
21	0x3ac5634d	0.0015059501
22	0xbc8220d7	-0.0158848
23	0x3c478788	0.012178309
24	0x3bae3b77	0.0053171474
25	0xbd98eb45	-0.07466749
26	0x3cfbac8b	0.030721923
27	0x3ca9013d	0.020630473
28	0x3c885635	0.01664267
29	0x3d42d085	0.04756214
30	0x3c9db7d3	0.019252693
31	0xbd5658a6	-0.052330635
32	0x3dcbc05e	0.099488005
33	0x3d3bc0fc	0.04583834
34	0x3db78e43	0.08962681
35	0x3c864250	0.016389042
36	0x3d8770d5	0.06613318
37	0xbbb23c48	-0.005439315
38	0x3abbe4c2	0.0014335143
39	0x3d47ad20	0.04874909
40	0xbd1c10b9	-0.038101885
41	0xbda176a4	-0.07883957
42	0x3cc26c11	0.02373317
43	0x3d819754	0.06327692
44	0x3dbb05b8	0.0913195
45	0xbbeff652	-0.007323065
46	0xbcd46863	-0.025928682
47	0xbd641420	-0.055683255
48	0x3dbbea0a	0.09175499
49	0x3a9e3839	0.0012071199
50	0xbd2370ea	-0.039902605
51	0xbd6d2d2e	-0.057904415
52	0xbca74526	-0.020418715
53	0x3da8c612	0.08240904
54	0x3d2f3ab7	0.042780604
55	0xbd92d2d2	-0.07169117
56	0x3d3b40ec	0.04571621
57	0xbcd63c1e	-0.026151713
58	0x3db521b6	0.088443205
59	0xbcdcaca8	-0.026937798
60	0x3a438d65	0.0007459729
61	0x3cfc3c3d	0.030790443
62	0xbc261b53	-0.010138351
63	0xbd3d7852	-0.046257325
64	0xbaf65375	-0.0018793183
65	0x3dc41976	0.09575169
66	0xbd8be50d	-0.06830797
67	0x3d83633e	0.06415413
68	0x3d54fe63	0.052000415
69	0x3db0f0f1	0.08639706
70	0x3cc92ffb	0.024559012
71	0xbb17c2c9	-0.0023156872
72	0xbd51a85b	-0.051185947
73	0x3dca1db6	0.09868948
74	0x3c131fd3	0.008979755
75	0x3a6293b6	0.00086432265
76	0x3cde9058	0.027168438
77	0xbc6eda13	-0.01457836
78	0x3bf620b9	0.007511225
79	0x3cd2baa0	0.025723755
80	0x3d83c4f0	0.06434047
81	0x3d75a3de	0.05997073
82	0xbdb87879	-0.09007353
83	0xbc638cdc	-0.013888564
84	0x3a1a9117	0.0005896254
85	0x3d2c70f3	0.042099904
86	0xbd54bee6	-0.051939867
87	0xbc3f6bc7	-0.011683411
88	0xbd2352ff	-0.039874073
89	0xbd64d10d	-0.05586343
90	0x3c8b363c	0.016993634
91	0x3d8b4b4c	0.06801471
92	0x3cf0a4ee	0.02937552
93	0xbd16b35d	-0.036792148
94	0xbb1e1dc9	-0.002412664
95	0xbce8021d	-0.02832132
96	0x3dc2ca97	0.09511297
97	0x3d03c3c4	0.03216912
98	0xbd572098	-0.05252132
99	0xbd9730a2	-0.07382323
100	0xbd156bd8	-0.0364798
101	0xbd859ab5	-0.06523649
102	0x3ce06fa0	0.027396977
103	0xbd11c149	-0.03558472
104	0xbdaacbc0	-0.083396435
105	0xbcb87879	-0.022518383
106	0xbd1d2f0d	-0.03837495
107	0xbcf4bb49	-0.02987446
108	0x3d99c3f9	0.07508082
109	0xb9bb64ec	-0.00035742612
110	0xbd6c68ca	-0.057717122
111	0xbd3b89ae	-0.0457856
112	0x3db54598	0.088511646
113	0xbbce383c	-0.0062933248
114	0xbcdfc9f8	-0.027317986
115	0xbcaab90b	-0.020840188
116	0x3d1d15ec	0.038350984
117	0x3d9eefe5	0.077606
118	0xbc47a160	-0.012184471
119	0xbb958ecd	-0.0045641423
120	0xbce7ecbb	-0.028311124
121	0xbd7584d9	-0.059941147
122	0x3d54fb61	0.051997546
123	0x3c8aa1c2	0.016922835
124	0x3c313d8f	0.010817899
125	0x3c98b58b	0.018641254
126	0x3cc07546	0.02349342
127	0x3da1e1e1	0.07904411

weight f4 [128, 128]
0	0x3ad5be9e	0.0016307419
1	0x3d296969	0.041360293
2	0x3c0d1306	0.008610493
3	0x3cfc3c3c	0.03079044
4	0xbd7b88a9	-0.061409626
5	0x3d5c991d	0.053856958
6	0xbd6ffb8e	-0.05858951
7	0x3c47becf	0.012191488
8	0x3d9cb32c	0.07651362
9	0xbc9a5a5a	-0.018841911
10	0xbd1c3bcd	-0.038142968
11	0x3d478788	0.048713237
12	0xbd6d9854	-0.0580066
13	0xbd01d36a	-0.03169576
14	0xbc027689	-0.007962831
15	0x3d0b258f	0.033971366
16	0x3d822d80	0.06356335
17	0xbd12d2d2	-0.035845585
18	0x3c24b3a0	0.010052592
19	0x3de72771	0.1128682
20	0x3d8f5460	0.06998515
21	0xbd5e1e1f	-0.054227944
22	0xbd2ca407	-0.042148616
23	0xbbd152d2	-0.006388047
24	0xbd53a98d	-0.051675368
25	0xbcf39081	-0.02973199
26	0xbbec8d5c	-0.007219
27	0xbd09f4d9	-0.03368077
28	0xbd569696	-0.052389704
29	0xbd0b4b4c	-0.034007356
30	0x3cedd272	0.029031012
31	0xbd867a8a	-0.06566341
32	0x3da1e1e1	0.07904411
33	0x3da9696a	0.08272059
34	0x3cc8283b	0.024433246
35	0xbd21e1e1	-0.039522056
36	0x3caa4d51	0.02078882
37	0xbd9a4f7a	-0.0753469
38	0x3d2fe638	0.042944163
39	0x3d5e1e1f	0.054227944
40	0x3d5ebe83	0.054380905
41	0x3d83c3c4	0.06433824
42	0x3d4ff0b0	0.050766647
43	0xbdb87879	-0.09007353
44	0xbd4f0f10	-0.050551474
45	0xbc4de97d	-0.012567875
46	0x3c8791ee	0.016549077
47	0x3d5ec681	0.054388527
48	0xbdb87879	-0.09007353
49	0xbd5e1e1e	-0.05422794
50	0x3d229777	0.03969523
51	0x3d5bb6ab	0.053641003
52	0x3b475d05	0.0030420434
53	0x3d296969	0.041360293
54	0x3da0543e	0.07828568
55	0x3da1e1e2	0.07904412
56	0x3ca96969	0.020680146
57	0xbd9a5a5b	-0.07536765
58	0xbd03c3c4	-0.03216912
59	0xbd4f0f10	-0.050551474
60	0xbd5e3433	-0.054249
61	0x3d83c3c3	0.06433823
62	0x3bac1f0d	0.005252725
63	0xbd64f0cb	-0.0558937
64	0x3d23cf56	0.039992653
65	0xbcfa4c03	-0.030553823
66	0xbd49c8ce	-0.049263768
67	0xbb7c3fd5	-0.0038490195
68	0xbd3845bf	-0.04498839
69	0xbd545fa9	-0.05184904
70	0xbd478787	-0.048713233
71	0xbd7c3c3d	-0.061580885
72	0xbcf06945	-0.029347071
73	0x3d4f0f0f	0.05055147
74	0xbd322a08	-0.043497115
75	0x3dbc308f	0.09188949
76	0x3c40c17d	0.011764881
77	0xbcae538d	-0.021280074
78	0xbbe5a5a5	-0.0070082718
79	0xbbf23c22	-0.0073924223
80	0x3ca8e20c	0.0206156
81	0x3d71eae1	0.05906189
82	0x3cb8032b	0.022462448
83	0xbdbfffff	-0.09374999
84	0x3c1c814d	0.009552312
85	0x3ccf0f0f	0.025275735
86	0xbd83c3c4	-0.06433824
87	0xbd83c3c4	-0.06433824
88	0x3d1511ec	0.036394045
89	0xbdb36295	-0.087590374
90	0xbd8b4b4c	-0.06801471
91	0x3d8d347f	0.068947785
92	0xbbf8fa03	-0.007598163
93	0xbc477fa3	-0.012176427
94	0x3d5ce1ec	0.053926393
95	0x3cfc3c3c	0.03079044
96	0xbc9e0bda	-0.01929276
97	0x3b8f0165	0.00436418
98	0x3d674eed	0.056471754
99	0x3da1e1e1	0.07904411
100	0xbd1a5a5a	-0.037683822
101	0xbbf2a78f	-0.0074052284
102	0x3d620707	0.055182483
103	0x3d65a5a6	0.056066178
104	0x3c11f2fd	0.008908031
105	0x3cc2f39c	0.023797803
106	0x3d83c3c3	0.06433823
107	0xbd5e1e1f	-0.054227944
108	0x3ac2e93d	0.0014870536
109	0x3c4aedb3	0.0123857735
110	0xbc979c70	-0.018507212
111	0xbd387878	-0.045036763
112	0xbc47093d	-0.012148199
113	0xbdcbaf0e	-0.099454984
114	0xbd86b650	-0.06577742
115	0xbd3915cf	-0.045186814
116	0xbcda5ba9	-0.026655035
117	0xbd6d2d2e	-0.057904415
118	0x3cb0f112	0.021599326
119	0xbdb0f0f1	-0.08639706
120	0xbc92d2d3	-0.017922794
121	0xbdb0f0f1	-0.08639706
122	0x3c900c60	0.017584026
123	0xbcc57bb1	-0.024106832
124	0x3b23ab56	0.002497395
125	0xbcb95a88	-0.022626176
126	0xbd9a5a5b	-0.07536765
127	0x3d74b4b5	0.05974265
128	0xbd9a5a5b	-0.07536765
129	0x3cd69696	0.026194852
130	0x3dc00000	0.09375
131	0x3d92d7db	0.071700774
132	0x3d922f26	0.07137899
133	0xbd800000	-0.0625
134	0x3d4e7928	0.050408512
135	0xbce5a5a6	-0.028033089
136	0xbc3fee6a	-0.011714557
137	0xbd7db208	-0.061937362
138	0x3db87879	0.09007353
139	0x3d3e9203	0.046525966
140	0xbcebc3ce	-0.02877989
141	0x3d9a5a5a	0.075367644
142	0xbd55f234	-0.052232936
143	0xbce7fc2f	-0.028318493
144	0xbc50d021	-0.012744934
145	0xbd12d2d2	-0.035845585
146	0x3d229f7c	0.039702877
147	0x3d5d5509	0.054036174
148	0xbbc68c13	-0.0060591786
149	0x3ce793de	0.02826875
150	0xbd7618a7	-0.060082104
151	0x3cfa338e	0.030542161
152	0xbd6742a3	-0.056460034
153	0x3d9a5a5b	0.07536765
154	0xbd4f0f10	-0.050551474
155	0x3da860a3	0.08221557
156	0xbd21e1e1	-0.039522056
157	0x3cb87878	0.022518381
158	0x3c077625	0.008267914
159	0xbc5f62a6	-0.013634359
160	0x3d6dc929	0.05805317
161	0x3d4fbcc2	0.050717123
162	0xbac51299	-0.001503545
163	0x3aabaeaa	0.0013098319
164	0xbd5e1e1f	-0.054227944
165	0x3ce7996b	0.028271398
166	0xbccf8786	-0.025333177
167	0x3d62911f	0.05531418
168	0xbdb87878	-0.090073526
169	0x3d83c3c4	0.06433824
170	0xbd7fcfa7	-0.062453892
171	0xbdb0f0f1	-0.08639706
172	0x3c22957a	0.009923333
173	0x3d9b97fb	0.07597347
174	0xbcc825a5	-0.024432013
175	0x3d92d2d2	0.07169117
176	0x3d3fffff	0.046874996
177	0xbcd27059	-0.025688337
178	0xbd39314a	-0.04521302
179	0xbd2402bb	-0.040041666
180	0x3d5924b4	0.05301352
181	0x3cc55649	0.024088996
182	0x3ac84a56	0.0015280943
183	0xbd0a9aab	-0.03383891
184	0x3da9116c	0.08255276
185	0x3d820737	0.06349032
186	0xbdaaa7fd	-0.083328225
187	0xbd7c2507	-0.06155875
188	0xbd8b4b4c	-0.06801471
189	0x3cb093ec	0.02155491
190	0xbd29696a	-0.041360296
191	0xbc9c2153	-0.019058859
192	0xbd903129	-0.070406266
193	0xbd92d2d3	-0.07169118
194	0xbab2e93f	-0.0013649835
195	0xbda9696a	-0.08272059
196	0xbcc7c350	-0.024385124
197	0x3b9dd75a	0.0048169317
198	0x3ceccac5	0.028905282
199	0xbdb0f0f1	-0.08639706
200	0x3c1e14e4	0.009648535
201	0x3d92d2d2	0.07169117
202	0xbd7248b0	-0.05915135
203	0xbd1a5a5a	-0.037683822
204	0x3ce1acbc	0.027548186
205	0xbbade629	-0.0053069782
206	0xbd24f07b	-0.040268403
207	0x3d387879	0.045036767
208	0xbdaf5416	-0.0856096
209	0xbdaf67b9	-0.085647054
210	0x3d4f0f0f	0.05055147
211	0x3d0b4b4b	0.03400735
212	0x3c39e648	0.011346407
213	0x3da1e1e1	0.07904411
214	0xbd9a5a5b	-0.07536765
215	0x3d83c3c3	0.06433823
216	0x3c1fb508	0.009747751
217	0x3d7bd9a5	0.06148686
218	0x3d26d126	0.040726803
219	0x3cde5b26	0.027143072
220	0xbda96969	-0.082720585
221	0x3b8ecc79	0.004357871
222	0xbd075b5c	-0.03304611
223	0xbc49e623	-0.012322935
224	0x3d92d2d2	0.07169117
225	0xbc82d824	-0.015972205
226	0xbd34309d	-0.043991674
227	0xbd03c3c4	-0.03216912
228	0xbca9696a	-0.020680148
229	0x3d4f0f10	0.050551474
230	0x3c39bb3e	0.011336146
231	0x3c2a02e5	0.010376667
232	0xbd5e1e1e	-0.05422794
233	0x3da9696a	0.08272059
234	0xbcb87878	-0.022518381
235	0x3cfc3c3c	0.03079044
236	0xbd9549ba	-0.07289453
237	0x3d30f0f1	0.04319853
238	0x3d0a0192	0.033692904
239	0x3d83c3c4	0.06433824
240	0x3d387878	0.045036763
241	0xbde4ca8d	-0.11171446
242	0xbcf282a7	-0.029603316
243	0x3d5ba5fb	0.05362509
244	0x3d0d017e	0.03442525
245	0xbca76fb7	-0.020439012
246	0x3d3fffff	0.046874996
247	0x3d92d2d2	0.07169117
248	0x3c35584b	0.011068414
249	0x3be1635c	0.0068782996
250	0x3da1e1e1	0.07904411
251	0x3d92d2d3	0.07169118
252	0xbd03c3c4	-0.03216912
253	0xbb44e141	-0.0030041488
254	0xbc5aaa52	-0.013346272
255	0x3d21e1e1	0.039522056

bias f4 [128]
0	0xbd4d6fac	-0.050155327
1	0xbd2a1dc2	-0.041532286
2	0xbcdd0b80	-0.026983023
3	0xbd939e56	-0.072079346
4	0x3dad7160	0.0846889
5	0x3d8b4b4c	0.06801471
6	0x3c17952e	0.009251876
7	0x3ba6ffdc	0.005096419
8	0x3d8b4b4c	0.06801471
9	0x3d9a5a5b	0.07536765
10	0xbcdec1b6	-0.027191978
11	0xbd2d8740	-0.042365313
12	0x3d3d4ab6	0.046213828
13	0xbd6f82fd	-0.05847453
14	0x3d44fa12	0.048090048
15	0xbd96df81	-0.07366849
16	0xbd28faf2	-0.041254945
17	0xbbbf46a5	-0.005837279
18	0xbd4b437d	-0.04962491
19	0x3ce37d31	0.027769657
20	0x3b4fd75b	0.0031714055
21	0x3c0184cb	0.0079051955
22	0x3d8f327a	0.069920495
23	0x3d178395	0.03699072
24	0xbd7221f4	-0.05911441
25	0xbd5cc803	-0.053901684
26	0x3ccd349d	0.025049502
27	0xbd2c52d8	-0.042071193
28	0x3d92d2d2	0.07169117
29	0x3dbfc27f	0.09363269
30	0xbc919154	-0.017769493
31	0xbda1e1e2	-0.07904412
32	0xbdc00000	-0.09375
33	0xbd881b39	-0.06645817
34	0xbd9eecfa	-0.077600434
35	0x3d7c3c3d	0.061580885
36	0xbd64c37b	-0.055850487
37	0xbd92d2d3	-0.07169118
38	0x3db87879	0.09007353
39	0xbd839c99	-0.06426353
40	0x3d8b4b4c	0.06801471
41	0xbcf05b6f	-0.029340474
42	0xbc89df8c	-0.016830228
43	0x3d2131cf	0.03935414
44	0x3d5bcba7	0.053661015
45	0xbcb5c859	-0.02219026
46	0x3db3d217	0.08780306
47	0x3d04bba0	0.032405496
48	0x3d94801d	0.07250998
49	0x3d9be52c	0.076120704
50	0xbd632855	-0.055458385
51	0x3c7fefc5	0.01562113
52	0xbd90ca2a	-0.0706981
53	0xbd8b4b4c	-0.06801471
54	0x3c62c5be	0.013841091
55	0xbce78e14	-0.02826599
56	0xbd65a5a6	-0.056066178
57	0x3c8b9934	0.017040826
58	0xbd1245bd	-0.03571104
59	0xbda1748c	-0.07883558
60	0x3d1b3a43	0.03789736
61	0xbbbba308	-0.005726222
62	0x3d1e3838	0.038627833
63	0xbd3190e2	-0.04335106
64	0xbcb4818a	-0.022034425
65	0x3d4630b6	0.048386298
66	0xbd879c5e	-0.066216215
67	0x3ba4726f	0.0050185244
68	0x3dc59711	0.09647954
69	0x3c58f1ec	0.013241272
70	0x3d17df27	0.03707805
71	0xbd9a5a5b	-0.07536765
72	0x3d0cfb20	0.03441918
73	0xbda96571	-0.082713015
74	0x3da4766d	0.080304004
75	0x3c8a6a5a	0.016896416
76	0xbd759897	-0.059959974
77	0x3c888223	0.016663617
78	0x3dc78788	0.097426474
79	0xbd52f3eb	-0.05150215
80	0xbb4a5148	-0.0030871201
81	0x3db621f0	0.08893192
82	0x3b6c7c7e	0.0036084945
83	0x3d569697	0.052389707
84	0x3d784df8	0.06062123
85	0xbcaa25f4	-0.02077005
86	0x3dbe9115	0.09305016
87	0xbcd11a6a	-0.02552529
88	0x3dc9335f	0.098242514
89	0xbc8e6eec	-0.017386876
90	0x3ccc58d7	0.024944706
91	0xbdb7bcd6	-0.089715645
92	0x3d153dc5	0.03643586
93	0xbb0966d5	-0.0020965834
94	0xbda9696a	-0.08272059
95	0xbd2141ac	-0.03936927
96	0x3d940345	0.07227186
97	0xbdb0033b	-0.08594366
98	0x3cea45af	0.02859768
99	0xb8afcfde	-8.3833685e-05
100	0x3c262fa8	0.010143198
101	0xbaae97bb	-0.0013320366
102	0x3b88ec44	0.0041785557
103	0xbce60a8f	-0.028081207
104	0xbdc32e11	-0.09530271
105	0xbca74b64	-0.020421691
106	0x3d7cae81	0.061689857
107	0xbdb927ab	-0.09040769
108	0xbd35f9a2	-0.04442752
109	0xbd83c3c3	-0.06433823
110	0xbd78e341	-0.0607636
111	0xbce04984	-0.027378805
112	0x3d746089	0.059662376
113	0x3d681ee7	0.056670096
114	0x3d130c1b	0.035900217
115	0x3d4ca01b	0.049957376
116	0xbdceb2b1	-0.100926764
117	0xbdb7ca99	-0.08974189
118	0x3dbbc319	0.09168071
119	0x3d9a5a5b	0.07536765
120	0x3d3afcc4	0.045651212
121	0xbdab25bb	-0.08356806
122	0xbd9729bb	-0.07381006
123	0x3dae5b10	0.085134625
124	0xbd864c89	-0.06557567
125	0xbca16efd	-0.019706244
126	0x3ca52afb	0.020162096
127	0x3dc78788	0.097426474

weight f4 [1, 128]
0	0x3c88cd68	0.016699508
1	0x3c70e7e4	0.0147037245
2	0x3c8c797a	0.017147768
3	0x399ddf1a	0.00030111597
4	0xbbe633bf	-0.0070252116
5	0xbbd00cdc	-0.006349189
6	0xbc26a43a	-0.010170991
7	0x3b754ada	0.0037428648
8	0xbc8e96c9	-0.017405884
9	0xbb54d677	-0.0032476464
10	0x3c541b62	0.012945982
11	0xbc65a7af	-0.01401703
12	0x3a9ed4d0	0.0012117866
13	0x3c6ef805	0.0145855
14	0xbaf25682	-0.0018488916
15	0x3c2b12b4	0.010441471
16	0x3c93d4e4	0.01804585
17	0x3c301995	0.010748287
18	0xbc6774ca	-0.014126966
19	0xbba161bf	-0.0049249823
20	0xba4f9a30	-0.0007919399
21	0x3a9b1e3f	0.0011834576
22	0xbc441914	-0.01196887
23	0x3c3f8011	0.011688248
24	0xbc6bd9b1	-0.014395163
25	0x3bf381d5	0.0074312487
26	0xbc93ef99	-0.018058585
27	0x3c55643d	0.013024387
28	0x3b663eb0	0.003513258
29	0xbcccb62f	-0.024989216
30	0x3c80b15f	0.015709577
31	0x3be8bc0e	0.007102496
32	0x3c10b4b7	0.008832148
33	0x3cbd7a78	0.023129687
34	0x3cbd2b7b	0.023092022
35	0xbc02d0a5	-0.007984315
36	0x3c7aabc2	0.015299739
37	0x3c5caf17	0.013469479
38	0xbab5ca4b	-0.0013869492
39	0xbc3d7911	-0.011564509
40	0xbb73ea41	-0.0037218484
41	0x3c75b4c7	0.014996714
42	0x3a68f0df	0.000888599
43	0xbb340a39	-0.0027471913
44	0xbcd93ec3	-0.026519185
45	0xbbd609d3	-0.006531933
46	0xbc42d211	-0.011890904
47	0xbc62623e	-0.013817368
48	0xbc94d155	-0.018166224
49	0xbc0617d9	-0.008184397
50	0x3c04818a	0.008087525
51	0xbc58a47d	-0.013222811
52	0xbbff38e0	-0.0077887625
53	0x3abd9627	0.0014464305
54	0x3bcb256d	0.00619953
55	0x3c8712b0	0.016488403
56	0xbb0e0321	-0.0021669345
57	0x3a4f22d3	0.00079016126
58	0xbcda91ec	-0.02668091
59	0x3ccded92	0.025137696
60	0xbcac00d7	-0.020996494
61	0x3c8302d5	0.015992561
62	0xbbf781eb	-0.007553329
63	0x3b9d3c08	0.004798416
64	0x3d2c10e3	0.042008292
65	0xbbe47477	-0.0069718915
66	0x3c276e4a	0.010219166
67	0xbbc74095	-0.006080697
68	0xbbe2d148	-0.006921921
69	0x3c9a5a5a	0.018841911
70	0xbc6a095e	-0.01428446
71	0x3c54591c	0.012960698
72	0x3c5e1e1f	0.013556986
73	0x3c5e6073	0.0135728
74	0xbbedb83d	-0.007254629
75	0x3ba28778	0.004959997
76	0xbc1e8ed3	-0.009677607
77	0xbb863b79	-0.004096445
78	0xbc9b59cb	-0.018963715
79	0xbc9849fd	-0.018589968
80	0x3bebd3d4	0.0071968827
81	0xbc67113c	-0.01410323
82	0xbca1785d	-0.019710714
83	0xbb90c3d4	-0.004417876
84	0xbba49b42	-0.005023391
85	0x3c44fd28	0.012023248
86	0xbcf85367	-0.030313207
87	0x3c3e0db3	0.011599946
88	0xbc62ddac	-0.013846796
89	0x3b3db98f	0.0028949713
90	0x3c03c3c4	0.00804228
91	0x3cb677e7	0.02227397
92	0xbc525b83	-0.012839201
93	0x3c243125	0.010021483
94	0xba67e6d0	-0.00088463444
95	0x3c8fb368	0.017541602
96	0xbccc6613	-0.024951017
97	0x3c745b35	0.014914324
98	0xbcb87879	-0.022518383
99	0x3c4dbd63	0.01255736
100	0xbb6c3e2d	-0.0036047802
101	0xbacdf620	-0.001571361
102	0x3c6d2d2e	0.014476104
103	0x3ca0e3be	0.019639846
104	0x3ba60b61	0.0050672744
105	0xbc8adba1	-0.01695043
106	0xbc84759a	-0.016169358
107	0x3c860b1c	0.01636272
108	0xbc7f0d19	-0.015567088
109	0xbbbb35e9	-0.0057132137
110	0x3cb9c415	0.022676507
111	0x3cd73eed	0.026275123
112	0x3c09fc40	0.0084219575
113	0xbcc4d351	-0.024026545
114	0xbbc7f697	-0.006102394
115	0xbba7bd78	-0.005119022
116	0x3cc9e898	0.024647042
117	0x3b36c5c0	0.0027888864
118	0xbc89ccd5	-0.016821304
119	0xbc9e9205	-0.019356737
120	0x3c91792c	0.017757975
121	0x3c84fa85	0.016232738
122	0x3c05f4ab	0.008176009
123	0xbbd867be	-0.006604164
124	0x3c7cc155	0.015426953
125	0x3c890215	0.016724626
126	0x3c08fc2a	0.008360902
127	0xbb9ff546	-0.004881534

weight f4 [3, 128]
0	0xbc3fffff	-0.011718749
1	0x3c003377	0.00782477
2	0x3b483bfd	0.0030553334
3	0x3bc3e8fa	0.0059787007
4	0xbc0f0523	-0.008729252
5	0x3af441bc	0.0018635313
6	0x3c4dc71a	0.012559677
7	0xbac7d2ee	-0.0015245357
8	0x3bc3c3c3	0.0059742643
9	0x3c1a5aee	0.009421093
10	0x3bc01818	0.005862247
11	0x3cb8142e	0.02247056
12	0x3c1c89c0	0.0095543265
13	0xba88292b	-0.0010388246
14	0xbbf2ffb4	-0.007415736
15	0xbba5c8b1	-0.0050593247
16	0x3b2a3d05	0.0025976312
17	0xbb425639	-0.0029653443
18	0xbafaae26	-0.0019125387
19	0xbb1ebdd4	-0.0024222033
20	0x3c3402a9	0.010986962
21	0x3ba540de	0.005043133
22	0x3c6ad403	0.014332774
23	0xbc4f0f0f	-0.012637868
24	0xbc57ac92	-0.013163703
25	0x3bb8230d	0.0056194128
26	0x3c05eb6e	0.008173807
27	0x3b879e92	0.004138776
28	0xbc021132	-0.00793867
29	0xbc4eed1e	-0.012629775
30	0xbb7af8f3	-0.0038295358
31	0xbb38eed5	-0.0028218527
32	0x3bbe532f	0.005808256
33	0xbbec3af5	-0.0072091767
34	0x3c8f5e09	0.017500894
35	0x3c6f6dcb	0.014613579
36	0xbaedae0c	-0.0018133535
37	0x3b44e0fc	0.0030041328
38	0x3ae16f93	0.0017199389
39	0xbc6739cb	-0.0141129
40	0xbb976911	-0.004620679
41	0xb9cf9017	-0.00039589472
42	0x3b991d2b	0.0046726665
43	0x3b3503a2	0.0027620574
44	0xbb63214b	-0.0034657295
45	0x3cb4c74e	0.022067692
46	0x3c58c3d0	0.013230279
47	0xbba63ae7	-0.0050729397
48	0x3aea69c0	0.0017884299
49	0xbb8d0aee	-0.0043042814
50	0xbb7f27ed	-0.003893371
51	0x3c80887d	0.015690083
52	0x3c26d7f7	0.010183326
53	0x3c04ad55	0.008097966
54	0x3be01746	0.006838712
55	0x3c3747b2	0.011186527
56	0x3a50b823	0.0007962009
57	0xbb483fd7	-0.003055563
58	0xbc47930a	-0.012181053
59	0xbb29f851	-0.0025935362
60	0xb8af1b95	-8.349788e-05
61	0xbc538491	-0.012910024
62	0xbc3852af	-0.011250182
63	0xba9d25a4	-0.0011989367
64	0xbb62a463	-0.0034582845
65	0xbbcb150a	-0.0061975764
66	0xbb550acb	-0.0032507654
67	0x3c569696	0.013097426
68	0xbac3e608	-0.0014945874
69	0xb9cca20b	-0.00039030644
70	0x391c35ed	0.00014897408
71	0xbc246fd9	-0.010036432
72	0x3b0ab00c	0.002116206
73	0x39b720cb	0.00034928913
74	0xbc478787	-0.012178308
75	0x3c6d2d2e	0.014476104
76	0xba966580	-0.0011474341
77	0x3abd6381	0.001444921
78	0x3b3818c0	0.0028090924
79	0xbbb557fa	-0.0055341693
80	0x3b241def	0.0025042256
81	0xba58f2af	-0.0008275909
82	0x3c1eff59	0.009704434
83	0x3b05791a	0.0020366372
84	0x3c8fc1cc	0.017548464
85	0xbbea69eb	-0.0071537397
86	0x3c0b4c42	0.008502068
87	0xbc288d48	-0.01028759
88	0x3c0155aa	0.007893959
89	0xbc60e8ab	-0.013727347
90	0x3b83acba	0.0040183933
91	0x3bef8448	0.0073094703
92	0xbb3f29be	-0.0029169167
93	0xbc5e1e1f	-0.013556986
94	0x3c57803a	0.01315313
95	0xbc05d5c2	-0.00816864
96	0xbc3ce68a	-0.011529574
97	0x3c043fbb	0.008071835
98	0xbba0bfa9	-0.00490566
99	0xbba0801e	-0.0048980853
100	0xbbfc5c80	-0.0077014565
101	0x3b4d756b	0.0031350504
102	0x3c4761b0	0.012169287
103	0x3c0d0fd6	0.008609733
104	0x3bf0d30e	0.0073493784
105	0x3c4b5fb8	0.012412958
106	0xbc0f7464	-0.008755777
107	0x3be77a73	0.0070641576
108	0xbaceafdf	-0.0015768966
109	0x3b6e904c	0.0036401926
110	0xbc0978bf	-0.0083906045
111	0x3b627e8b	0.0034560289
112	0x3b37949c	0.0028012162
113	0x3b86b894	0.004111359
114	0xba840b3b	-0.0010074148
115	0x3ad436f9	0.00161907
116	0x3b83e063	0.0040245517
117	0x3b970c82	0.0046096453
118	0xb9e4063c	-0.00043492194
119	0xbbbed501	-0.005823732
120	0x3bbdfc01	0.0057978635
121	0xba57508c	-0.00082136015
122	0xb9e1b314	-0.00043048768
123	0xbb5c26c9	-0.0033592454
124	0xbc627bca	-0.013823459
125	0xbc3fffff	-0.011718749
126	0x3b7ee31e	0.0038892697
127	0xbb3359d0	-0.0027366765
128	0x3b41a791	0.002954934
129	0xbb8210fc	-0.00396931
130	0xbb92d2d2	-0.004480698
131	0x3c65a5a5	0.0140165435
132	0x3c1ae98c	0.009455096
133	0xbbe78699	-0.007065606
134	0x3c4c3542	0.0124638695
135	0xbb7ef03d	-0.0038900517
136	0xbb84ec40	-0.0040564835
137	0x3c164e1c	0.009173896
138	0xbae730dc	-0.0017638463
139	0x3c8b4b4b	0.017003676
140	0x3b09f0b6	0.0021048016
141	0xbcb0f0f1	-0.021599265
142	0x3c190bf2	0.009341227
143	0x3c7a382a	0.01527218
144	0x3b2de384	0.0026533315
145	0xbb86a29e	-0.004108741
146	0x3c5abd44	0.0133507885
147	0xbb9ffb0a	-0.004882221
148	0xbb9ea3b2	-0.0048412913
149	0x3c74cc42	0.014941277
150	0x3bbbe34b	0.0057338825
151	0xba5a14ab	-0.000831912
152	0xba92baf5	-0.0011194634
153	0xbb8466ae	-0.0040405607
154	0x3bdcbbf1	0.0067362715
155	0xbbc98ed6	-0.0061510606
156	0x3c4b3306	0.012402302
157	0xbadf4283	-0.0017033372
158	0x3c5c3c56	0.01344212
159	0xbb395a3c	-0.0028282544
160	0xbbc68800	-0.006058693
161	0xbb03e554	-0.0020125704
162	0x3c48da13	0.012259024
163	0xbbaf113f	-0.005342632
164	0xbb644b71	-0.0034835006
165	0x3b83d2b1	0.004022919
166	0x386417f8	5.438176e-05
167	0xbbf0d885	-0.00735003
168	0x3bbb701d	0.005720152
169	0x3c4ec307	0.01261974
170	0x3a404dc5	0.00073358073
171	0xbc2da88e	-0.010599269
172	0x3b8d12f5	0.0043052384
173	0xbc17de63	-0.00926933
174	0xbb9f07f8	-0.004853245
175	0xbb75f810	-0.003753189
176	0xbc74b4b4	-0.014935661
177	0x3be18568	0.0068823583
178	0xbb309e6b	-0.0026949893
179	0xbb1f5217	-0.0024310404
180	0x3b810f42	0.0039385865
181	0x3c469252	0.012119846
182	0x3bf6e8b6	0.0075350655
183	0x3c0668a6	0.008203661
184	0xbc2fb0a8	-0.0107232705
185	0xb9df83e5	-0.00042632144
186	0xbab5761a	-0.0013844401
187	0x3b4ae74a	0.0030960613
188	0x3b30f0f0	0.0026999079
189	0x3bcf0f0f	0.006318934
190	0xbb7c4bd1	-0.0038497339
191	0xbc32308a	-0.01087583
192	0x3c7cb906	0.015424972
193	0x3c46f40e	0.012143148
194	0x3bbaa977	0.0056964713
195	0xbc031460	-0.008000463
196	0xbb3c85e3	-0.0028766326
197	0x3c0074e9	0.007840374
198	0xbc0b7629	-0.008512058
199	0x3afc27c6	0.0019237928
200	0xbb828cbb	-0.0039840615
201	0xbc92d2d3	-0.017922794
202	0x3c368289	0.01113952
203	0x3a4b5171	0.0007755971
204	0x3b79473d	0.0038036846
205	0x3a5d7cbd	0.00084490684
206	0xbb84b6f6	-0.004050131
207	0xbc648bb7	-0.013949326
208	0x3c58feba	0.013244325
209	0x39bd2cfb	0.00036082402
210	0xbc18acda	-0.009318555
211	0x3ac05532	0.0014673828
212	0x3c47a6b0	0.0121857375
213	0x3ad1a29b	0.0015993895
214	0x3bf84dc5	0.00757763
215	0x39126079	0.00013959584
216	0x3b140822	0.0022587855
217	0xbc97f72b	-0.018550476
218	0x3c045493	0.008076805
219	0xbbb541f8	-0.0055315457
220	0x3b81beb6	0.003959502
221	0x3bd2673c	0.006420998
222	0x3b860dee	0.004091016
223	0x3c243fa9	0.010024943
224	0xbc115515	-0.008870383
225	0x3c30e820	0.01079753
226	0x3b2f50d9	0.002675107
227	0xbc28e5d7	-0.010308704
228	0x3a27c9ae	0.0006400597
229	0x3b832c57	0.0040030885
230	0xbc31abaa	-0.010844151
231	0x3becfce9	0.0072322977
232	0x3b6ac606	0.0035823598
233	0xbab285d5	-0.0013620207
234	0x3afcadd7	0.0019277883
235	0x3a843b23	0.0010088425
236	0xbb0c854d	-0.0021441758
237	0x3c3f0671	0.011659251
238	0x3ca1e1e1	0.019761028
239	0x3bbbd509	0.005732183
240	0x3c0ece34	0.008716155
241	0x3be75c67	0.0070605758
242	0x3b38a9f9	0.0028177483
243	0x3c4f249a	0.012643004
244	0xbac9df55	-0.0015401641
245	0x3ae0b79e	0.0017144566
246	0xbc3bb394	-0.011456389
247	0x3c087e09	0.00833083
248	0x3bb486a4	0.0055092145
249	0xbc4f0f0f	-0.012637868
250	0xba40059f	-0.00073250564
251	0xbbb64253	-0.0055621057
252	0x3a2e5cba	0.00066513906
253	0xbbb7fd8e	-0.005614943
254	0xbc8abb37	-0.016934974
255	0x3ae027db	0.0017101722

bias f4 [3]
0	0x3ac56980	0.0015061349
1	0x3b5425e0	0.0032371208
2	0xbb4c9dd2	-0.0031221998

weight f4 [1, 128]
0	0x3c3e2358	0.011605106
1	0x3cc25b0e	0.023725059
2	0x3c64e260	0.013969988
3	0x3c7c9f67	0.015418864
4	0xbc498620	-0.012300044
5	0xbcb7fdf3	-0.02245996
6	0xbba637ef	-0.005072586
7	0x3c8b4b4c	0.017003678
8	0xbcd9bed8	-0.02658026
9	0x3b848e20	0.004045263
10	0x3c4f2224	0.012642417
11	0xbca7292c	-0.020405374
12	0x3cbfffff	0.023437498
13	0x3c40d2a9	0.011768975
14	0x3b9a66e8	0.0047119744
15	0x3c25892f	0.010103508
16	0x3c1a1a51	0.009405688
17	0x3b99f072	0.004697853
18	0xbc533c70	-0.012892827
19	0x3c2d03b1	0.010559962
20	0xbc5e1e1e	-0.013556985
21	0x3c861617	0.016367955
22	0xbc607662	-0.0137001
23	0x3c83c3c3	0.016084557
24	0xba2cbd5b	-0.00065894955
25	0x3bfdd098	0.0077458136
26	0xbc7dea25	-0.015497719
27	0x3cb164c2	0.02165449
28	0xbb0eeb49	-0.0021807721
29	0xbc4f371e	-0.012647418
30	0x3c538156	0.012909254
31	0x3ca18e3d	0.019721145
32	0x3be59795	0.0070065954
33	0x3d013fc0	0.031554937
34	0xbac6d421	-0.001516942
35	0x3ba65f33	0.0050772666
36	0x3cd2d293	0.025735175
37	0x3c510716	0.012758037
38	0xbc9c48be	-0.019077655
39	0xbca1e1e2	-0.01976103
40	0x3acf904c	0.001583585
41	0x3be37c6b	0.006942322
42	0x3ba7e716	0.005123983
43	0x3c2f63f2	0.010704981
44	0xbcb8b352	-0.022546444
45	0xbc4f11fa	-0.012638563
46	0xbc23f78e	-0.010007752
47	0xbc5867e5	-0.013208364
48	0xbc3e91b1	-0.011631415
49	0xbc7db670	-0.015485391
50	0x3b953a76	0.004554088
51	0xbc14ee0f	-0.009089961
52	0xbc83c3c3	-0.016084557
53	0x3c4d9bfc	0.012549397
54	0x3c940830	0.01807031
55	0x3bf0e11a	0.007351053
56	0x3bac2176	0.0052530123
57	0xbc500900	-0.012697458
58	0xbbe5c82c	-0.0070123877
59	0x3c43b57b	0.011945124
60	0xbca8798c	-0.02056577
61	0xbc51eeb4	-0.012813259
62	0xbc12ee63	-0.008967969
63	0x3c3b6aaf	0.01143901
64	0x3c2bac04	0.010478023
65	0xbc9c2f40	-0.0190655
66	0x3c4d258d	0.01252116
67	0x3b4894b0	0.0030606203
68	0xbc139a4a	-0.009008953
69	0x3c92d2d3	0.017922794
70	0xbcb2e6fb	-0.021838656
71	0x3c13abf8	0.0090131685
72	0x3b746d5d	0.003729663
73	0x3a790648	0.0009499532
74	0xbc821647	-0.015879763
75	0x3c96a244	0.018387921
76	0x3c75110a	0.014957676
77	0xbc38239e	-0.011238961
78	0xbbdfe8b0	-0.0068331584
79	0x3bcc2c3f	0.0062308605
80	0x3c606f01	0.01369834
81	0xbbc8acc3	-0.0061241104
82	0x3b6c03d8	0.0036013033
83	0xbb3a1a22	-0.0028396924
84	0xbc604ef7	-0.013690702
85	0xbb02cf91	-0.0019960145
86	0xbc5aa330	-0.013344571
87	0x3c51e14d	0.012810064
88	0xbc974922	-0.01846749
89	0x3c08a034	0.008338977
90	0xb89753ce	-7.215851e-05
91	0x3ce14601	0.0274992
92	0xbb4a44f1	-0.0030863846
93	0x3ba4c593	0.0050284355
94	0x3c23f207	0.010006434
95	0x3c0471ec	0.008083802
96	0xbc9cb0f3	-0.019127345
97	0x3b699a31	0.0035644884
98	0xbcb8f72f	-0.022578804
99	0x3c6c8665	0.014436339
100	0xbc9654cc	-0.018350981
101	0xbc41654f	-0.011803939
102	0x3bdb2d7b	0.0066887713
103	0x3cca3b8e	0.024686601
104	0x3cbd75b6	0.023127418
105	0x3c50dac7	0.012747473
106	0xbcb1b836	-0.021694284
107	0x3c095fbc	0.008384641
108	0xbb159167	-0.0022822262
109	0xbc292b85	-0.010325317
110	0x3cc4e31c	0.024034075
111	0x3c0d8837	0.008638433
112	0x3bcafc9a	0.0061946632
113	0xba15d983	-0.00057163107
114	0xbc2a9448	-0.01041133
115	0xbc8a0be1	-0.016851367
116	0x3c5617ef	0.01306723
117	0x3c8d82c6	0.017274272
118	0xbbd1fb72	-0.0064081484
119	0xbc82025f	-0.015870271
120	0x3cd5938c	0.026071332
121	0xb9b5a5da	-0.0003464658
122	0x3c9dd162	0.01926488
123	0xbc2ec47e	-0.010666965
124	0x3bd015d4	0.0063502584
125	0x3c6f3c3f	0.014601766
126	0x3c76a02e	0.015052838
127	0xbc90382b	-0.017604908
