TradeSimulator-v0_D3QN_-1/actor_00265440_490.739.pth (torch, 152106 bytes, 14 tensors)

state_avg f4 [10]
000000 71 94 41 3e a7 90 2f 3a 29 c9 a5 bb f2 fa 2c 3e
       0.18904282 0.0006697275 -0.0050593805 0.16892603
000010 1c 7a 1e 3b 64 c2 ef bb 0e d7 6f bd 9c 1a 66 3e
       0.002418167 -0.0073168743 -0.0585547 0.22471088
000020 2d 2e 64 3b 50 58 6d bc
       0.0034817562 -0.014486387

state_std f4 [10]
000000 dc 96 5e 3f 1b 13 42 3f 1a 00 64 3f a6 5c 6f 3f
       0.86948943 0.758104 0.89062655 0.93500745
000010 6d 70 58 3f ab 47 50 3f fe cf 7e 3f ae 01 5b 3f
       0.8454655 0.81359357 0.9953612 0.8554944
000020 d7 4a 56 3f a2 ca 50 3f
       0.83707947 0.81559193

weight f4 [128, 10]
000000 eb 2d 29 3e 25 0a 79 bd 5f 29 70 bd c5 3e 2b 3e
       0.16521423 -0.06080069 -0.058633205 0.16723163
000010 fd 5a 93 be 65 3d 5e 3e e9 32 aa bd 76 ce 30 3e
       -0.28780356 0.21703108 -0.083104916 0.17266259
000020 90 dd 14 3d 2f 6b 3a bd 7f 63 c1 3d 97 bf b1 3e
       0.03634411 -0.045512374 0.094428055 0.34716484
000030 b0 96 02 3e 72 a2 ec bd 00 4d 20 bd 23 bd 24 bd
       0.12752795 -0.115544215 -0.039135933 -0.040219437
000040 d6 2d 2d 3d f8 ad f6 b9 43 8f 8c 3e 59 00 ed 3d
       0.04228004 -0.00047050393 0.2745305 0.11572332
000050 a9 27 f0 bd 30 1c eb be af 9a 83 bd 74 42 11 be
       -0.117263146 -0.45919943 -0.06425988 -0.14185506
000060 8f 43 d5 bd b1 7a a2 3b 36 01 46 3e f7 bd 34 3e
       -0.104132764 0.0049584736 0.193364 0.17650591
000070 55 21 8e be c8 07 3f 3e 6c b2 b4 3d ff ab 4c 3d
       -0.27759805 0.18655312 0.08823094 0.049968716
000080 43 48 63 3e 6d 36 98 be 87 90 82 be c9 30 1d be
       0.22195534 -0.29729024 -0.2550089 -0.15350641
000090 ce 11 95 3e 43 5e 4e bd 12 2d 0a 3e f9 ac 01 be
       0.29115146 -0.050382864 0.13493755 -0.1266364
0000a0 7a 0c 9b 3e d9 27 f7 be 7e f9 60 3e 19 b0 b1 3c
       0.30282956 -0.4827259 0.21970174 0.021690415
0000b0 38 54 22 be 32 21 29 3e 8c e8 3c be ba d5 e1 3d
       -0.1585244 0.1651657 -0.18448085 0.11027093
0000c0 96 76 b3 bd 97 ac 16 bd 57 12 a5 be b9 07 30 be
       -0.08762853 -0.03678569 -0.32240555 -0.17190446
0000d0 3b b8 28 3e 3e 9f bd bd 48 9e 9f 3e 5d e5 6c 3e
       0.16476528 -0.09258889 0.31175447 0.2313437
0000e0 77 74 4e bc cc e8 42 be d6 b8 44 3e 7e ea ac 3d
       -0.01260101 -0.19034117 0.19211134 0.08443163
0000f0 2c ae 4e be 2d 1e 23 be 99 5d 42 3e 7d e1 94 3e
       -0.20183629 -0.1592948 0.18981017 0.29078284
000100 d8 a7 33 be fe ea 72 bd 14 52 fd bb 10 c6 1f 3d
       -0.17544496 -0.059306137 -0.0077307317 0.039007246
000110 13 b9 70 be 3c 62 55 be 58 fd 34 3e c0 51 b4 be
       -0.235081 -0.20838255 0.17674768 -0.3521862
000120 3a 36 14 3e 16 e8 b4 3c 06 63 d7 3d ef 6b 63 3d
       0.14473811 0.022083323 0.10516934 0.055522855
000130 2d 34 cf 3d 2a 1c 2e 3e 94 82 87 be 02 cf 0f 3e
       0.101173736 0.17002931 -0.2646681 0.14043811
000140 de 38 74 be 58 1c 33 be 65 67 b9 3c 77 15 67 bd
       -0.23849818 -0.17491281 0.02263231 -0.056416955
000150 1c 61 3f 3e 08 72 54 be c1 5c 89 be 92 e2 72 3e
       0.18689388 -0.20746624 -0.26828578 0.23719242
000160 3b 3e 7e bd f0 1a 46 3e 53 c2 c0 3d af a1 12 bf
       -0.062071066 0.19346213 0.094120644 -0.5727796
000170 c4 24 7e 3d 0c 74 a5 3d 65 18 5e be 3e 6b 15 be
       0.06204678 0.08078775 -0.21688993 -0.14591691
000180 b9 4b da 3d 0f db 80 3d 07 dd 13 be 4a 93 c8 bd
       0.10658974 0.06291782 -0.14439784 -0.09793718
000190 89 cc 94 3e eb a5 ae be 79 86 37 3e d0 71 06 3e
       0.29062298 -0.3411096 0.17922391 0.13129354
0001a0 30 0b 37 be f8 c5 86 be 66 21 9b 3e 1b 3a 84 3c
       -0.17875361 -0.26322913 0.30298918 0.016140988
0001b0 8c 10 58 3e 67 00 47 3d b8 99 c7 3d 83 59 ff bc
       0.21100062 0.048584368 0.097461164 -0.031170612
0001c0 0b 2e 95 3e 20 3f 53 be b1 17 48 3d e6 80 69 3e
       0.2913669 -0.20629549 0.04885072 0.22803077
0001d0 17 ae 71 3e a5 bb 54 3e ab 84 41 be 97 d9 53 be
       0.23601566 0.20774706 -0.18898265 -0.20688473
0001e0 8f a0 39 be 11 fb 82 be 37 ba 98 3e f1 f4 53 be
       -0.18127654 -0.25582173 0.2982957 -0.20698906
0001f0 fe 4d 2a 3e 75 ce 18 be 47 13 99 be 12 03 85 bd
       0.16631314 -0.14922507 -0.2989752 -0.06494726
000200 43 ba 33 3e 12 32 93 3e 7b a0 3f be 15 22 8d 3d
       0.17551522 0.28749138 -0.18713562 0.06891266
000210 ad 0e 87 3e 7d 05 54 3e 7f a0 40 3e d6 83 7f 3e
       0.26378384 0.20705219 0.18811224 0.24952635
000220 62 5f 51 3e 6e 13 d8 3d 9f 26 3d be 0d fb 85 be
       0.20446542 0.10550581 -0.18471764 -0.261681
000230 94 a0 14 be e1 4b c0 3a 29 0f 43 be 73 39 f2 3d
       -0.1451438 0.0014671051 -0.19048752 0.11827364
000240 79 86 ad 3d 88 73 84 bd 26 70 e1 3d 96 9f c3 3d
       0.08472914 -0.06467348 0.11007719 0.09551923
000250 93 ea 42 3e 76 b0 3b 3e 40 ab de bd 74 64 69 bd
       0.19034795 0.18329033 -0.10872507 -0.056980565
000260 44 6e 33 bd 82 6b 26 bc 49 27 8e be 06 ea 3f be
       -0.04380633 -0.010157468 -0.27764347 -0.18741617
000270 2c 5e 47 be e3 4e 14 be 84 20 62 3e ec 49 e1 bd
       -0.19469517 -0.14483218 0.22082716 -0.110004276
000280 b2 42 7f be e7 2a 05 3e 28 2e ce 3d 6f 53 4a 3e
       -0.24927786 0.13004647 0.10067397 0.1975839
000290 bf 24 25 be bd b7 58 3d 6b a3 ca bd 25 50 a1 bd
       -0.16127299 0.0529096 -0.09894451 -0.078766145
0002a0 38 ba 7c be f2 ad 1b be 41 7b ba bd ac b5 d5 bd
       -0.24680412 -0.15203074 -0.0910554 -0.10435042
0002b0 d5 4a 83 3d 27 79 ad 3d d8 96 9d 3e 68 4b 91 3e
       0.064107575 0.084703736 0.30779147 0.28377843
0002c0 24 18 77 3e b1 ba 4b 3c 29 be 4f be da 30 70 3e
       0.24130303 0.012434647 -0.20287384 0.23456135
0002d0 c0 4f 99 bd c8 16 c0 be e5 33 85 be 45 f3 6f bd
       -0.07485914 -0.3751738 -0.26016155 -0.05858161
0002e0 64 84 3c be 2e 4d 79 3e a0 b3 97 be b2 63 7f be
       -0.18409878 0.24345848 -0.2962923 -0.24940374
0002f0 68 c8 3c bc 6d 8e 2e be 83 cf e3 3d c6 74 55 be
       -0.01152239 -0.17046519 0.11123564 -0.20845327
000300 41 b3 17 be f0 28 88 3c 92 29 65 3e e6 2f 56 be
       -0.14814474 0.016621083 0.22379139 -0.2091671
000310 9e 5d 1d 3e df ae 52 3e 43 06 98 3e ef 39 6e be
       0.15367743 0.2057452 0.29692277 -0.23264287
000320 7b e7 ba 3d 2e 4b 76 3d a6 2e 8f 3e 64 4c d7 bd
       0.09126183 0.06013029 0.27965277 -0.10512617
000330 35 d9 4f 3e 2f 5e 8d bc 23 1b bb bc c4 d0 1c 3b
       0.20297702 -0.017256824 -0.022840088 0.0023928145
000340 df 57 37 3d 93 f8 17 3e 29 e2 51 3d ed 85 23 be
       0.044761535 0.14840917 0.051241074 -0.15969057
000350 b1 4f 81 be 5c 9f 7c 3e 93 84 77 3e 37 3c 60 3e
       -0.25256112 0.24670166 0.24171667 0.2189797
000360 8f 79 81 3e c0 8e 69 be 41 17 d5 bd a7 b9 8f 3e
       0.25288054 -0.22808361 -0.10404826 0.2807133
000370 5d 4b 6c be a4 25 6c 3a ee ff 7e be 68 4c 6c be
       -0.23075624 0.00090082944 -0.24902317 -0.23076022
000380 51 91 1a 3e d5 e2 52 be 1c 5f ae bd 71 84 78 3e
       0.15094496 -0.20594342 -0.085142344 0.24269272
000390 13 91 86 3e 60 9f 8f 3e 66 59 64 bd e8 4a 22 bf
       0.26282558 0.2805128 -0.05574932 -0.6339555
0003a0 45 9f 97 3e 99 29 82 bd 2f ab f1 bd 21 5c ac 3d
       0.296137 -0.063555904 -0.11800229 0.0841601
0003b0 0b 5f 6c be e8 61 64 3e 36 a6 42 3e 0b 99 84 be
       -0.23083131 0.22302973 0.19008717 -0.25898013
0003c0 c7 a8 85 be 6b f3 2e be 62 18 ec 3d 64 28 26 3c
       -0.2610533 -0.17085044 0.11528088 0.010141466
0003d0 8e 17 14 be 30 9d 8a 3c 28 26 a2 be 72 5b 5e be
       -0.1446211 0.016920656 -0.31669736 -0.21714571
0003e0 86 3d 61 be 56 14 65 3e a1 95 8e 3e 17 a3 a5 be
       -0.21996126 0.22371039 0.27848533 -0.3235099
0003f0 b9 06 18 3c ce a7 19 3e ed 86 23 3d 32 a3 28 be
       0.009278947 0.15005419 0.039923597 -0.16468504

bias f4 [128]
000000 be 3e a7 3c 44 1e b4 bb 20 33 74 3d 2a ef 00 b9
       0.02041566 -0.005496772 0.05961907 -0.00012296127
000010 4b b8 40 3e 7b 19 98 3c b8 11 68 3e 59 68 af 3d
       0.18820302 0.018566838 0.22663009 0.085648246
000020 26 4f 9e 3b 92 d7 68 3d 39 88 6c 3e ab 79 75 3d
       0.0048312126 0.05684621 0.2309884 0.059930485
000030 25 7e 73 3e c6 d1 89 bc 6c d7 4c 3b c7 94 8b 3e
       0.23778589 -0.01682366 0.003125633 0.27261946
000040 81 e1 9b be 30 3b 3c 3d a0 ca 9b 3e 8b a4 1b be
       -0.30445483 0.045954883 0.30428028 -0.15199487
000050 cb 5d 42 bd 4e 54 b2 bb 79 2a f6 3d d7 70 0d 3e
       -0.04745273 -0.005442179 0.1201982 0.13812576
000060 a6 28 b7 3d 8a 6a 06 3e f2 ef 03 be 35 08 17 3e
       0.089433 0.13126579 -0.128845 0.14749224
000070 f4 78 ce bd 8a 5e 5d 3e 98 85 a2 bd 7e 52 89 be
       -0.10081664 0.21618095 -0.07935637 -0.2682075
000080 fa 8e 1a 3d d5 ac 48 3e 5c 34 56 bb a7 75 7e bb
       0.03773401 0.1959718 -0.0032685017 -0.003882745
000090 bc ca f1 3b f2 0a 39 3e d4 5b c3 3c 78 24 98 be
       0.007378904 0.18070582 0.023847498 -0.29715323
0000a0 6d 41 62 be 79 6e fb 3c b7 91 26 bc a5 0c a6 3e
       -0.2209527 0.030692326 -0.010166577 0.32431522
0000b0 60 4d 45 bd b0 8b 7c 3e 12 cd 81 be 13 b1 9a be
       -0.048169494 0.24662662 -0.2535177 -0.30213222
0000c0 ed 2e 85 bc c0 f8 53 be 34 a4 a6 bd ac 7d 06 3d
       -0.016257728 -0.2070036 -0.08136788 0.032834694
0000d0 d8 19 87 be 19 46 74 3e 98 21 36 be b7 4a 86 3e
       -0.26386905 0.23854865 -0.17786252 0.26228878
0000e0 20 a0 de 3d 53 30 43 bd 22 5f 89 be 74 1a 54 3d
       0.10870385 -0.047653507 -0.26830393 0.05178304
0000f0 3a 15 2b be d9 0c 93 3e 56 a6 85 be 41 18 a8 bd
       -0.16707316 0.2872074 -0.26103467 -0.08207751
000100 41 d5 23 be cf 87 47 be 40 c4 3b be 83 46 86 bc
       -0.15999319 -0.194854 -0.18336582 -0.016391044
000110 af 5a ce 3c 3c be 9c 3d f1 13 30 3e b0 91 e9 bd
       0.025189726 0.07653472 0.17195107 -0.11404741
000120 9a 16 5d be 7e 5a 70 bd 6e d8 a1 3e f7 a4 1c bd
       -0.21590653 -0.05868005 0.31610435 -0.03824326
000130 65 78 8b be 78 6d 87 3e 4c d5 8f 3d be 67 a3 3d
       -0.2724029 0.26450706 0.07023105 0.079787716
000140 a6 87 7c 3d a5 fb 66 3e a6 db 17 be d0 a5 80 3e
       0.061652802 0.22556932 -0.14829883 0.25126505
000150 be 16 a5 3e 5a 56 99 bd 33 8e 5f 3e 5f 7c 43 3e
       0.32243913 -0.074871734 0.21831588 0.19090413
000160 26 74 a0 3e a9 55 89 bd f9 a1 3c be 2c c6 e4 bd
       0.31338614 -0.067057915 -0.18421163 -0.11170611
000170 a5 0e 57 be 87 56 c3 3c ec 3e a6 3e 06 2a a5 3e
       -0.2100168 0.02384497 0.3246988 0.32258624
000180 a0 ed 79 3e cb 30 17 3d 28 36 b7 3c 69 07 63 3e
       0.24407053 0.036911767 0.02236469 0.22170796
000190 8a ca 59 3e 08 9d 03 bd 53 0e 99 bd f9 6e 09 3e
       0.21268669 -0.03213218 -0.07473435 0.13421239
0001a0 08 cd 5d 3c f8 7b 4e be fb 82 15 be 41 c8 88 3e
       0.013537653 -0.20164478 -0.14600746 0.26715282
0001b0 b1 99 8d 3e cb be e4 bd 10 92 6e bd 9f 4b 1a be
       0.2765632 -0.11169203 -0.058244765 -0.1506791
0001c0 fc ca ce bd e4 5c 97 3e 25 95 9c be e5 cd 16 3e
       -0.1009731 0.29563057 -0.30582538 0.1472698
0001d0 76 a9 90 be eb 73 14 be 0c 0d 41 bd d3 18 c3 3c
       -0.28254288 -0.14497344 -0.047131583 0.023815548
0001e0 99 91 24 bd 78 15 16 be c1 ef 09 be 0d 40 53 be
       -0.040177915 -0.14656627 -0.13470365 -0.20629902
0001f0 51 88 64 be 4d 99 47 be 4b 3b a7 3e 90 80 0a be
       -0.22317626 -0.19492073 0.32662424 -0.13525605

weight f4 [128, 128]
000000 b0 56 a7 bd be 2d 8b 3d 01 12 24 3d 92 ff 8e 3d
       -0.08170831 0.06795834 0.040056232 0.0698234
000010 dd 56 ae bd 2e 80 98 bd 6f 01 7d bd 4d 6d 49 bd
       -0.085126616 -0.07446323 -0.061768945 -0.049176503
000020 d3 af 41 bc 03 95 34 3d 4b 84 69 3d 12 dd 82 bd
       -0.011821705 0.04408742 0.05701093 -0.06389822
000030 d4 fa 13 3d 42 ae 3c bd 0d a7 57 3c 61 cb 28 3d
       0.03612788 -0.046064623 0.013162387 0.041209582
000040 b0 83 84 3c 70 5f 11 3d e4 4a 1d 3b f4 4a 4a 3d
       0.016176075 0.035491407 0.0024000937 0.049387887
000050 32 f1 a4 3c 11 34 aa 3d 76 ec 89 3c 10 88 24 bd
       0.020134542 0.08310712 0.016836386 -0.04016882
000060 08 b2 57 3d bc bd 62 3a a8 b0 be 3d b0 90 4e bc
       0.05266002 0.00086494884 0.09311038 -0.012607738
000070 88 2a a3 3d 20 ef 5c bd 40 f4 2a 3d db 18 8b bd
       0.079670966 -0.053938985 0.04173684 -0.0679185
000080 db 2d 69 3d 30 28 c0 3c 71 b6 87 3d cf 19 96 bd
       0.056928497 0.023456663 0.06626595 -0.07329141
000090 bd 0f b2 bd f6 1b 2f 3d c8 53 be bc 0a 27 1f 3d
       -0.08694408 0.042751275 -0.02323331 0.03885559
0000a0 88 cd 48 bd a2 4f c3 bc 78 ae b8 3c 82 a8 64 3d
       -0.049024135 -0.023841683 0.02254413 0.055824764
0000b0 41 03 18 3d 0d a9 52 3b ea 71 f1 bc 8b 26 28 3b
       0.03711248 0.003214422 -0.029473264 0.002565774
0000c0 c0 47 f4 3c ba 4d 86 bd 04 ec 92 bc 40 a3 a6 bd
       0.02981937 -0.06557794 -0.017934807 -0.08136606
0000d0 78 6f 3c 39 3f 6e df bb fc c6 56 3d 3b 54 ae 3d
       0.00017970602 -0.0068185623 0.05243586 0.085121594
0000e0 b9 a8 8a bd 78 6d 03 bd c7 23 4e bd ad 60 07 3b
       -0.067704625 -0.03208682 -0.05032709 0.0020656988
0000f0 72 fd 1e bd 81 94 5f bd 2f 9a 19 bd cd 6f dc bb
       -0.038815923 -0.054584984 -0.037500557 -0.006727195
000100 79 be 4b 3d ca 4e c4 bc 21 fd 83 3d 9c e0 8c bd
       0.049742196 -0.02396335 0.06444765 -0.06878778
000110 d7 5a b5 3b e7 2d 69 bd 91 12 bc bd 7c d9 40 3c
       0.0055345106 -0.05692854 -0.09183229 0.011770602
000120 d2 90 21 bd 66 fb 89 3d e5 f7 8a 3d 03 9d 9b bd
       -0.039444752 0.067374036 0.067855634 -0.07598307
000130 b5 ea 1e bb 2a 51 a4 bb 65 77 2a bd 2b 4a 2a bd
       -0.0024248783 -0.0050145583 -0.04161777 -0.04157464
000140 dd 21 4c bd e6 f5 4a 3d af e8 f0 3b 6a 94 8c 3d
       -0.049836982 0.049550913 0.007351957 0.06864245
000150 8a 47 0b bc b0 3b 3a 3d a3 0b 98 3c ff 4b 9f bc
       -0.008500943 0.04546708 0.018560236 -0.019445417
000160 f1 4f 38 bc 3c bd b6 bd 12 11 52 bc 00 f5 b9 bc
       -0.011249528 -0.08922812 -0.012821453 -0.022699833
000170 75 14 52 bd 29 5a dd bc 52 81 07 bd ef a7 84 bd
       -0.05128904 -0.02702053 -0.033082314 -0.06477343
000180 ae ec 5c 3c 56 4f 15 bb 24 f8 f9 bc ea 27 b8 3d
       0.013484163 -0.0022782884 -0.03051383 0.08991988
000190 59 84 95 3d e8 82 29 3d e8 00 2f bd 42 3a 2c 3a
       0.07300634 0.041384608 -0.042725474 0.00065699604
0001a0 e2 87 88 bd 34 f3 73 3d ef 4f 9d 3d 4d 51 4c bc
       -0.066665426 0.05955811 0.07681262 -0.0124705555
0001b0 b3 3e 83 3d 40 b6 9c 3d c1 c1 20 bc 1c c8 ff bc
       0.06408443 0.07651949 -0.0098118195 -0.03122335
0001c0 55 ba 18 bc db 49 57 3c a2 a9 b3 bd fe c2 23 3c
       -0.009321769 0.013140167 -0.08772589 0.00999522
0001d0 a7 fb 0b bd 4e ba 83 3d c9 4f b7 bc 3b 07 8c 3d
       -0.03417554 0.06432019 -0.022376912 0.068373166
0001e0 1f e2 6c 3d 2f e1 dd bc 79 8b da 3c 36 0f 72 bc
       0.057832833 -0.027084915 0.026677834 -0.014774134
0001f0 94 70 00 bd 1e 88 1c bd 81 2f ee 3b 33 f5 fd 3c
       -0.031357363 -0.03821575 0.0072688465 0.03100071
000200 ab 8a 2e bc 53 52 40 3c c9 2a 79 3d b6 8f 28 3d
       -0.010653178 0.011738378 0.06083182 0.04115268
000210 45 34 2d 3d 0e 09 fe 3c 51 0b 7a bd d5 d2 52 bd
       0.042286176 0.031010177 -0.06104595 -0.051470596
000220 66 18 7b bd 57 2a 81 3d 9c 2d 98 bd 4f 29 7a bd
       -0.061302565 0.06306904 -0.07430574 -0.06107455
000230 d0 e5 75 3d 85 c2 59 3d 8b a5 a3 bd 35 a6 67 3d
       0.06003362 0.053164024 -0.07990559 0.05655499
000240 80 6e ae bc 39 f8 a5 3c 19 38 39 bd 64 e8 5d bc
       -0.021292925 0.020259963 -0.045219515 -0.013544176
000250 39 17 87 3c 30 65 88 3d 51 52 6c 3d e3 85 29 bd
       0.016490566 0.06659925 0.05769569 -0.04138745
000260 7b 6b 66 bd 45 26 32 39 48 55 f0 3c 89 39 6c 3d
       -0.056254845 0.0001698966 0.02933754 0.057672057
000270 aa 53 ae bd 5d d5 25 3b cf 13 39 3c 84 20 30 bd
       -0.085120514 0.0025304176 0.011296227 -0.04299976
000280 9f 2b a1 3d 79 4d 71 bc 04 5f 9b bd 7a fe 40 bd
       0.07869648 -0.014727944 -0.07586482 -0.047117688
000290 96 56 ed 3b fe 6e 69 bd 9f 91 a3 3c 6d ce a0 3d
       0.007242988 -0.056990616 0.019966898 0.078518726
0002a0 b4 e0 4c 3c 19 91 2d bc c4 a5 be 3d d2 9e 97 3d
       0.012504745 -0.010593676 0.09308961 0.074033394
0002b0 77 f3 7b 3d df 5e 74 3c 2a d9 17 3c f1 92 78 bd
       0.061511483 0.014915197 0.009268085 -0.06068701
0002c0 7b ea 7b 3c 00 11 c5 3d 97 74 50 3c 57 0d 96 bd
       0.015375729 0.09622383 0.01272311 -0.07326763
0002d0 1e 2a 0f 3d d6 cb aa 3d 68 77 a7 3d 75 f2 75 3c
       0.034952275 0.0833966 0.08177072 0.01501142
0002e0 d7 32 d2 3c 5e d4 b1 3c 40 27 13 bd 6a 8d 42 bc
       0.025659008 0.02170771 -0.035926104 -0.011874536
0002f0 eb d2 88 3d d2 11 96 3c 26 20 a4 3d ab 77 83 bd
       0.066808544 0.018319044 0.08013944 -0.06419309
000300 78 d1 0d bc fb 9e 68 3b 31 66 24 bd 1a c2 97 3d
       -0.008655898 0.003549515 -0.04013652 0.07410069
000310 fa 4f 84 3d 73 ea 24 bd b9 56 a9 3d a0 8b 9b 3d
       0.06460567 -0.04026265 0.08268494 0.07594991
000320 2d 1e 46 bd b6 ee 7c 3a 33 d3 bc 3d d0 31 61 bd
       -0.04836862 0.0009648608 0.092199706 -0.054979146
000330 e9 e5 1e bc 98 f4 5f bd b9 35 94 3d 04 9a ab 3c
       -0.00969837 -0.054676622 0.07236809 0.020947464
000340 53 6d 27 3d d6 f1 94 3d cf a9 80 bc b4 1a 8f bd
       0.040875744 0.07272689 -0.015705971 -0.06987515
000350 b2 1e 62 3c 06 68 86 ba 4a 26 29 3d f2 76 3f 3d
       0.013801264 -0.001025439 0.04129628 0.046744294
000360 6a 78 14 bd 81 7b fb bc f5 ff 5e 3d b5 91 e6 3c
       -0.03624765 -0.03069854 0.05444332 0.02814565
000370 46 d8 b1 3c 72 41 4e 3d 50 b5 3b 3d 80 ac 6b bd
       0.021709573 0.050355382 0.04582721 -0.057537556
000380 2b dd 92 3c cf 3b cd 3b d1 c6 a2 bd 4a e0 00 3d
       0.017927727 0.0062632333 -0.079480775 0.0314639
000390 70 a0 33 3c 10 59 91 3d 14 d5 b0 bd 16 a0 b5 3d
       0.010963544 0.070970654 -0.086343914 0.088684246
0003a0 ee 2f 2b bd 33 c3 46 3d 4a 52 65 3d 5b 96 7d bb
       -0.041793756 0.048526 0.05598668 -0.0038694355
0003b0 af bc 21 bd 57 77 3e bc a8 4d 6a bd 6a e9 51 3c
       -0.039486583 -0.0116251325 -0.057202965 0.012811998
0003c0 6c a4 13 3d aa 0e c3 3c 95 1c 4d bd 93 c0 7e 3d
       0.036045477 0.023810703 -0.050076086 0.06219537
0003d0 ce 27 98 3d b1 2f c6 bc e0 ea 38 3d 07 df 07 bc
       0.07429467 -0.024192663 0.04514587 -0.00829292
0003e0 01 30 10 3d 4e a1 8a bd 19 49 8f bd 51 91 5c bc
       0.03520203 -0.06769048 -0.06996364 -0.0134623805
0003f0 fd 56 8a bd 3a b8 1c 3d 47 89 bc 3d ab 56 81 bc
       -0.06754873 0.03826163 0.09205871 -0.015788397

bias f4 [128]
000000 bc 8f 88 3d ea 6a 6c 3d ff 48 b7 bc 7d 2c 3e 3d
       0.0666804 0.05771915 -0.022373674 0.046429146
000010 72 94 f5 bc b6 39 57 bc 8b 22 a5 bd cf c2 3f 3d
       -0.02997801 -0.013136318 -0.08063229 0.046816643
000020 e9 36 89 3d b0 bd e9 3b d6 fa b0 bd 9a 12 65 bb
       0.066999264 0.007133208 -0.08641593 -0.0034953714
000030 9d 4e 6c bd 5a 97 2e bd 3b c3 79 bc de 8a 2d 3d
       -0.05769216 -0.04262481 -0.0152443005 0.042368762
000040 21 7a 5d 3d 49 0d a7 bd 22 d1 4c bd d1 cf 3f bd
       0.05407155 -0.08156831 -0.050004132 -0.04682905
000050 90 e9 f1 3c 78 5f 94 3a e6 b4 7c bc 46 88 52 3c
       0.029530317 0.0011319956 -0.015423989 0.012849873
000060 a4 4c bb 3b ae d3 96 bd cc 21 fb 3c 94 2b af 3c
       0.0057159234 -0.073645934 0.030655764 0.021383084
000070 85 e1 88 3c b9 e5 41 3d 63 4d a6 3c 27 92 59 bd
       0.016709099 0.04733822 0.020300573 -0.053117897
000080 1b 9c cb 3d 42 32 3f 3d c5 4b b9 3d b2 49 9b 3c
       0.09941884 0.04667879 0.09047655 0.01895604
000090 d2 b8 89 3d b7 f7 c3 bb d1 c7 52 3b 24 3b 4a 3d
       0.06724705 -0.0059804576 0.0032162557 0.049372807
0000a0 3c 19 1e bd 84 94 a1 bd a8 16 bc 3c de 80 81 3d
       -0.038598284 -0.07889655 0.022960022 0.063234076
0000b0 22 b8 bd 3d 05 41 07 bc 56 3b dc bc a2 5b 66 bd
       0.09263636 -0.008255248 -0.026883762 -0.05623973
0000c0 9a f1 bb 3d d1 8f 59 39 43 ee 0c bd c9 f0 6e bd
       0.09176941 0.00020748308 -0.03440691 -0.0583351
0000d0 c5 e9 a5 bc 14 18 a9 3d 94 3f 2b 3d db c7 92 bd
       -0.020253072 0.08256546 0.04180868 -0.07167026
0000e0 52 71 3b 3d ec cd eb bc fd 8a b6 3d f8 c1 de bc
       0.045762368 -0.028784715 0.08913229 -0.0271921
0000f0 4f 2b 8e 3a bf 1c 00 3d ab e0 34 bc 7b 47 40 bd
       0.0010846647 0.031277414 -0.011039893 -0.04694317
000100 53 a8 77 b8 87 8a c6 3d 9b b3 8d bd fe af 83 3d
       -5.9046153e-05 0.09694391 -0.06919023 0.06430052
000110 38 d1 5a 3d 37 7e b3 3d c4 e9 cd 3c 2c 8d 38 bb
       0.053422183 0.08764308 0.025135882 -0.0028160317
000120 d0 ec 57 bd 68 57 cb 3d 79 4f 1b 3c 9d ee 91 3b
       -0.052716076 0.09928781 0.009479397 0.0044534937
000130 e9 e9 d8 3c 4c 75 59 bc f2 ca e7 3b 44 c7 dc 3c
       0.026478725 -0.013272595 0.0070737535 0.026950486
000140 d5 64 88 3d 56 64 7f 3d 29 6d be bd f1 9b 61 bc
       0.06659857 0.062351547 -0.092981644 -0.0137700895
000150 4e 32 ef b8 1a 6f 2b 3d 7c 80 57 bd ca c9 33 bc
       -0.00011405778 0.041854 -0.052612767 -0.010973403
000160 40 73 28 bd 45 a3 5d bd 4a 8c 86 3c 6e 0a 8c 3d
       -0.041125536 -0.054110784 0.016424317 0.06837927
000170 42 e2 ee 3c 5e 85 14 bd f8 d1 94 ba 28 fe ee bc
       0.029160623 -0.03626 -0.001135408 -0.029173926
000180 95 61 c3 3d 05 47 00 3d 8b ad 5b bd c8 af 97 bd
       0.09540097 0.03131773 -0.0536323 -0.074065745
000190 58 69 1c bd 29 67 83 bd f3 39 dc 3c 38 c2 12 bd
       -0.0381864 -0.064161606 0.026883101 -0.035829753
0001a0 1d b9 ac bd 67 31 ab bc 84 85 21 bd 23 79 01 bd
       -0.08433745 -0.02089758 -0.03943397 -0.031609666
0001b0 87 6b 9a 3d 10 6a 16 ba 1b f7 6f bd c0 6b 3f bd
       0.075400405 -0.00057378504 -0.058585268 -0.046733618
0001c0 97 35 b8 3d 3f e4 f2 bb fe 2f e3 bc 37 62 9f bc
       0.089945965 -0.007412463 -0.027732845 -0.019456012
0001d0 96 5a 1d 3d a4 82 a0 3d 08 b7 4e bc df 85 ae bb
       0.038416468 0.07837418 -0.01261688 -0.0053260173
0001e0 37 3b dd bc a7 5e 77 bd 17 37 56 3d ee 96 8f 3c
       -0.027005775 -0.060393002 0.05229863 0.017528024
0001f0 11 c3 2c 3c 20 c1 91 3c d8 25 c2 3c d2 0f a5 3d
       0.010544554 0.017792284 0.023699686 0.08059658

weight f4 [128, 128]
000000 c0 88 e1 b9 0c 9b 27 3d df e1 2c 3c ed a4 01 3d
       -0.0004301723 0.04091935 0.010551899 0.031651426
000010 48 40 6f bd 43 7a 58 3d 73 75 72 bd 84 4d 42 3c
       -0.058410913 0.052850973 -0.05919404 0.0118593015
000020 ea 15 a3 3d 01 1d a0 bc 87 27 1a bd 03 4f 4c 3d
       0.07963164 -0.01954508 -0.037635352 0.04988004
000030 e7 51 1a bd 02 a3 05 bd 81 c8 af bb 05 fc 11 3d
       -0.037675764 -0.03262616 -0.005364478 0.035640735
000040 87 a4 86 3d 7a 93 0e bd 0a 98 53 3c ba 3b ec 3d
       0.0657435 -0.034808613 0.012914667 0.115348294
000050 61 d9 8e 3d f9 86 66 bd f5 bd 2f bd 13 e6 e0 bb
       0.069750555 -0.056281064 -0.042905767 -0.0068633645
000060 0c 2b 60 bd 97 ec f2 bc 41 a2 fc bb e2 dd 10 bd
       -0.054728553 -0.02965383 -0.007709772 -0.035367854
000070 38 68 5a bd 6c 87 13 bd bf 6f f8 3c e8 7d 8c bd
       -0.053322047 -0.03601782 0.030326722 -0.06859952
000080 65 96 9e 3d 66 3c b2 3d 2b 82 ca 3c d9 72 2d bd
       0.07743529 0.08702926 0.024720272 -0.042345855
000090 2c 13 a7 3c b7 21 9b bd 35 ef 2d 3d b3 67 65 3d
       0.020394884 -0.0757479 0.042464454 0.0560071
0000a0 3b a1 5f 3d de 7a 84 3d 53 31 56 3d 4e 3e ba bd
       0.05459712 0.064687476 0.052293133 -0.09093915
0000b0 6a 33 54 bd 36 cd 51 bc 3e 0a 91 3c 4c d5 5d 3d
       -0.051806845 -0.012805274 0.01770508 0.054158494
0000c0 46 6d bd bd 5d 6b 62 bd 82 6a 09 3d 54 60 63 3d
       -0.09249358 -0.05527817 0.03354884 0.055511788
0000d0 f7 96 77 3b 5d 78 29 3d 49 9e a3 3d 97 b1 a2 3d
       0.003777919 0.041374553 0.07989175 0.07944029
0000e0 da 32 a4 3c cd 73 9d bd c0 28 12 bd 05 ca 53 bd
       0.02004378 -0.07688103 -0.035683393 -0.051706333
0000f0 03 2a 64 bd c2 24 82 3d ea 2b 95 3b 88 61 6a bd
       -0.055704128 0.06354667 0.004552354 -0.05722192
000100 25 22 2a 3d 71 40 fa bc a6 66 51 bd 9f 85 89 bb
       0.04153647 -0.030548306 -0.051123284 -0.004196837
000110 55 94 40 bd 78 66 4f bd 81 a2 51 bd d0 85 83 bd
       -0.04701646 -0.05063483 -0.051180366 -0.06422007
000120 2a 90 fe bc 19 60 4f 3d 3b bc 38 bd d2 5c bd 3d
       -0.031074602 0.050628755 -0.045101386 0.0924622
000130 0d 8b 2c 3c 00 a0 ba bc ee 97 ee bb f9 29 ad bb
       0.010531199 -0.022781372 -0.007281295 -0.0052845445
000140 78 25 ab 3c 0c c1 6d 3d 60 71 c4 3c bf 01 c7 bd
       0.02089189 0.058045432 0.023979843 -0.0971713
000150 53 b8 2b 3c 55 9e cf 3c 8a 70 89 bd 66 04 85 bd
       0.010480958 0.025344053 -0.06710918 -0.064949796
000160 04 b2 14 3d d3 d7 b9 bd 62 d6 91 bd 41 8a 8d 3d
       0.03630258 -0.09074368 -0.071209684 0.069111355
000170 15 47 14 bc 20 5c 47 bc 2d 79 6b 3d 95 33 fa 3c
       -0.00905015 -0.01216796 0.05748861 0.030542174
000180 6d 18 a2 bc 66 9a 52 3b ae 49 69 3d 12 ad 9c 3d
       -0.019787038 0.0032135486 0.056955032 0.07650198
000190 23 2f 1f bd 91 9a af bb 61 43 62 3d c8 2c 65 3d
       -0.038863312 -0.005359002 0.05524004 0.05595091
0001a0 e6 a6 2b 3c 93 22 c3 3c 89 00 85 3d 07 1f 66 bd
       0.010476803 0.023820197 0.06494243 -0.056181934
0001b0 2d f5 d1 3a 98 c8 38 3c 8f 92 a7 bc dd d2 3f bd
       0.0016018503 0.011278294 -0.020455627 -0.046831954
0001c0 bf 30 56 bc 5b 4c b6 bd 40 ba 8a bd 66 00 33 bd
       -0.013073145 -0.089012824 -0.067738056 -0.04370155
0001d0 98 90 dd bc 17 d3 76 bd ac c6 a9 3c ae 5b b9 bd
       -0.027046487 -0.060259905 0.020724617 -0.0905069
0001e0 04 83 9e bc 2b 4e b4 bd 49 f3 92 3c 55 1e dc bc
       -0.019349582 -0.08803972 0.017938273 -0.026869932
0001f0 eb 59 f8 3a 36 c1 b8 bc 95 9d 9f bd 50 f1 76 3d
       0.0018947696 -0.022553068 -0.07793728 0.060288727
000200 99 a9 a0 bd 9e 96 d2 3c 0c 02 c4 3d 9c b1 97 3d
       -0.07844848 0.025706585 0.09570703 0.07406923
000210 e6 80 9d 3d 31 78 84 bd 8d 39 56 3d 84 b2 ec bc
       0.07690601 -0.06468237 0.05230098 -0.028893717
000220 e8 da 2d bc 61 5d 83 bd 16 43 bc 3d 5e 46 43 3d
       -0.010611273 -0.06414295 0.09192483 0.04767453
000230 58 05 f4 bb ee 65 99 3d 53 d5 53 bd a5 c3 e4 bc
       -0.007446926 0.07490145 -0.051717114 -0.027925322
000240 8a bf 71 bc 5f 49 10 bd 5b c9 30 3d 01 f0 5d 3d
       -0.014755139 -0.035226222 0.043160778 0.054183964
000250 87 1d d2 bb 6d 44 e3 3c 56 c2 6f bd d6 99 f9 3c
       -0.0064122113 0.027742589 -0.058534943 0.030468863
000260 27 35 6d bd 10 68 a2 3d 13 c6 52 bd 74 17 a8 3d
       -0.05791202 0.079300046 -0.05145843 0.08207598
000270 71 9b 24 bd 61 e9 b0 3c e0 3b 1a 3c 5e ec 6e bc
       -0.040187303 0.021595659 0.009413689 -0.0145827215
000280 95 60 71 3d 29 b9 59 3d 07 df ce ba 8d 24 1f ba
       0.05893 0.053155098 -0.001578302 -0.0006070815
000290 e3 cf 62 bd 4d 42 e8 3c cd 26 da bc 84 b6 61 3d
       -0.055374037 0.028351927 -0.02662983 0.0551057
0002a0 9e d3 bb bd 41 84 81 3d 47 ec 7f bd f4 1b b7 bd
       -0.09171222 0.063240536 -0.06248119 -0.089408785
0002b0 ec f1 25 3c a4 9a 9e 3d 8b 0b ca bc 83 e7 8f 3d
       0.010128479 0.07744339 -0.024663707 0.07026579
0002c0 c5 08 41 3d 4a e8 da bc 6f 08 54 bd c6 89 28 bd
       0.047127504 -0.026722092 -0.051765855 -0.041147016
0002d0 ed bd 60 3d 6a 9b c2 3c 58 f8 05 3b 2e 65 0e bd
       0.054868627 0.023755748 0.0020442214 -0.03476446
0002e0 5a 26 a5 3d db 74 80 3d 32 f4 b5 bd c7 75 7f bd
       0.080639556 0.062722884 -0.08884467 -0.06236818
0002f0 27 01 93 bd 20 43 b4 3c a8 7b 2e bd b4 d5 a9 bc
       -0.07177954 0.022004664 -0.042598397 -0.020731784
000300 79 b6 8f bd 9a 35 93 bd 1c 04 04 bb 5b 1c ae bd
       -0.07017226 -0.07187958 -0.002014405 -0.08501502
000310 35 61 d7 bc 7d ef d4 3b 4b a7 e0 3c 72 15 b8 bd
       -0.02629147 0.006498276 0.027423522 -0.08988465
000320 62 85 0d 3c d5 5c 95 3d 05 c1 78 bd dd 9c 17 bd
       0.008637758 0.07293097 -0.060730953 -0.03701483
000330 46 8c d9 3c 3f 25 c3 bb 8c b6 2a bd ff 2b 42 3d
       0.026556145 -0.005955368 -0.041677997 0.04740524
000340 e3 34 b1 bd b0 1d b2 bd aa e2 5c 3d 0c 52 06 3d
       -0.086526655 -0.08697069 0.0539271 0.03279309
000350 bf 91 36 3c a5 6b a0 3d 8e cc a0 bd 8b 0c 83 3d
       0.011143147 0.078330316 -0.07851516 0.06398877
000360 3e 17 28 3c 5c 0f 78 3d 4a 29 23 3d cc 6b dd 3c
       0.010259448 0.060561523 0.0398343 0.02702894
000370 d1 99 ad bd 88 2c 86 3b 06 d7 f4 bc c8 75 58 bc
       -0.08476604 0.004094664 -0.029887687 -0.013211675
000380 ae 74 93 3d 80 a7 89 bc 7e c7 34 bd 1b 7b 0a bd
       0.07199989 -0.016803503 -0.044135563 -0.03380881
000390 15 22 af bc ae dc 57 3d 96 d9 37 3c 63 2c 12 3c
       -0.021378556 0.05270069 0.01122131 0.008921715
0003a0 2d 1e 54 bd a7 70 ad 3d 28 ff c2 bc b1 1d f7 3c
       -0.05178659 0.08468752 -0.023803309 0.030165525
0003b0 54 a6 98 bd bc 40 30 3d ef 0f 04 3d 21 d5 81 3d
       -0.074535996 0.043030486 0.032241758 0.06339479
0003c0 f1 0f 34 3d 74 dd ce bd b7 5e fc bc 07 aa 5b 3d
       0.043960515 -0.101008326 -0.030806882 0.053628948
0003d0 f8 77 10 3d d9 4a ac bc 5b a1 3d 3d 75 b8 93 3d
       0.03527066 -0.021031784 0.04629646 0.07212917
0003e0 2d 08 2f 3c b4 8d cd 3b 8c dc a2 3d d7 82 8e 3d
       0.010683102 0.006272996 0.07952222 0.069585495
0003f0 36 7a 07 bd 49 68 3f bb 0a 08 64 bc 8d 34 1d 3d
       -0.033075534 -0.0029206446 -0.013917932 0.038380194

bias f4 [128]
000000 41 42 4f bd c0 56 2a bd f7 02 dd bc 35 c3 95 bd
       -0.050600294 -0.041586637 -0.026978953 -0.073126234
000010 b2 8d af 3d 69 ea 8c 3d 43 b8 15 3c be 69 b6 3b
       0.08571948 0.06880648 0.00913817 0.0055668047
000020 4d a5 8c 3d 93 76 9a 3d fe 29 de bc 90 4b 30 bd
       0.06867466 0.075421475 -0.027119633 -0.043040812
000030 6b 59 41 3d d5 b4 70 bd 02 af 40 3d e0 54 99 bd
       0.047204416 -0.058766205 0.0470419 -0.07486892
000040 bf d2 29 bd 91 24 c0 bb 4d 69 4f bd 35 c7 e9 3c
       -0.04146075 -0.005863734 -0.050637532 0.028537372
000050 a3 55 fb 3a e5 27 09 3c 15 b8 91 3d 98 5c 1a 3d
       0.0019175302 0.008371328 0.07115189 0.03768596
000060 4b 13 76 bd 33 9b 5e bd fa bc cc 3c a9 bb 2d bd
       -0.060076993 -0.05434723 0.024992455 -0.042415295
000070 58 1f 91 3d 09 44 c1 3d 43 79 90 bc 05 16 a4 bd
       0.070860565 0.09436805 -0.017635947 -0.080120124
000080 1a e3 c1 bd 11 97 89 bd e8 9a 9f bd 47 26 7a 3d
       -0.09467144 -0.06718267 -0.07793218 0.06107166
000090 7e 41 65 bd b5 2b 94 bd 1f 18 bb 3d a0 7f 85 bd
       -0.05597066 -0.07234899 0.0913546 -0.06518483
0000a0 a3 fe 8d 3d 24 55 f1 bc 81 9f 81 bc 28 45 1c 3d
       0.06933334 -0.029459544 -0.015823128 0.03815189
0000b0 2c 65 5b 3d 0d a1 ba bc 6f ed b6 3d 6e 40 05 3d
       0.053563282 -0.022781873 0.089320056 0.032532148
0000c0 ae d3 97 3d 1f d6 9e 3d 7f 10 66 bd 83 6d 7c 3c
       0.074134216 0.07755684 -0.056168076 0.015406969
0000d0 e3 e8 92 bd d4 65 8b bd 26 36 70 3c e9 2f e8 bc
       -0.07173326 -0.068065315 0.0146613475 -0.028343158
0000e0 2a 30 63 bd a2 99 86 3c 60 3e 15 bd ed 88 a2 bd
       -0.055465855 0.01643068 -0.03643644 -0.07936273
0000f0 2c bd 1b 3d 10 35 98 bb 12 23 20 3d 8c e9 32 bd
       0.038022205 -0.0046449974 0.039095946 -0.04367976
000100 73 32 b3 bc fc 55 47 3d 5c 38 89 bd 1d b9 a5 3b
       -0.021874642 0.048665985 -0.06700203 0.0050574676
000110 a4 91 c7 3d be 92 61 3c f4 6b 17 3d 46 49 99 bd
       0.097445756 0.013767896 0.036968186 -0.07484679
000120 b6 0e 0f 3d 84 b3 aa bd 46 4d a7 3d 35 50 8f 3c
       0.03492614 -0.08335021 0.081690356 0.0174943
000130 41 a8 77 bd d7 de 86 3c 32 a4 ca 3d f4 37 57 bd
       -0.060463194 0.01646368 0.09894599 -0.052543595
000140 89 da 14 bb 49 6f b8 3d 01 d7 64 3b 6b f8 54 3d
       -0.0022713265 0.09005601 0.0034918191 0.051994722
000150 12 e1 78 3d e4 d6 b1 bc 63 88 c0 3d 4b bb d1 bc
       0.06076152 -0.021708913 0.09401014 -0.025602004
000160 2e 36 cc 3d 5e d8 8d bc d0 5d c6 3c d1 07 b9 bd
       0.099712715 -0.017315086 0.024214655 -0.09034694
000170 0a de 16 3d 7b 53 00 bb 7f 45 af bd 7a 4a 1f bd
       0.036832847 -0.0019581008 -0.08558177 -0.038889386
000180 b4 b8 95 3d 25 83 b1 bd 31 56 e9 3c 90 03 a2 39
       0.0731062 -0.08667592 0.028483482 0.00030901702
000190 90 67 22 3c ba e8 cf ba 40 5b 97 3b 9c ad e4 bc
       0.009912387 -0.0015862205 0.004619032 -0.027914815
0001a0 28 4c c5 bd 6d 3b a8 bc f8 42 7e 3d c4 2e bc bd
       -0.09633666 -0.020536149 0.062075585 -0.09188607
0001b0 ed 59 38 bd 9f 26 85 bd 65 99 7a bd df 2e e0 bc
       -0.045007635 -0.06501507 -0.061181445 -0.0273661
0001c0 34 fc 79 3d 61 d4 69 3d 36 82 13 3d c2 c5 4d 3d
       0.061031535 0.057087306 0.03601285 0.050237425
0001d0 83 3c d0 bd 48 e9 b8 bd 7f 47 be 3d 5d d3 9b 3d
       -0.10167792 -0.0902887 0.092909805 0.07608674
0001e0 be fe 3e 3d 71 cc ae bd fa 03 99 bd 7d 54 b0 3d
       0.04662966 -0.08535088 -0.074714616 0.08609865
0001f0 47 d0 88 bd 19 2b a0 bc cd 31 aa 3c cc bb ca 3d
       -0.06680351 -0.0195518 0.0207757 0.09899101

weight f4 [1, 128]
000000 bc 84 90 3c 32 a9 80 3c 76 76 94 3c 5f b0 27 3a
       0.017641418 0.015705679 0.018122893 0.0006396826
000010 ec bc e6 bb 28 87 d3 bb fb f6 2e bc 0e 8c 74 3b
       -0.007041564 -0.006455321 -0.010679002 0.0037314924
000020 f3 c8 95 bc fb 80 1e bb b7 16 5b 3c 32 e1 78 bc
       -0.018284297 -0.0024185765 0.013372115 -0.0151904095
000030 f9 0c 08 3b de 23 79 3c 67 2b b5 ba bf c6 37 3c
       0.0020759685 0.015206305 -0.0013822139 0.011216818
000040 5d 0e 9a 3c 84 2b 3b 3c 57 68 76 bc e4 fe 82 bb
       0.018805677 0.011423949 -0.015039525 -0.0039976705
000050 3d f5 99 ba 07 2d e1 3a 1a 29 52 bc a6 a5 4d 3c
       -0.001174606 0.0017179557 -0.012827182 0.012551701
000060 82 10 80 bc 44 18 02 3c 5d 25 96 bc f0 e4 5e 3c
       -0.015632872 0.007940356 -0.018328363 0.013604388
000070 ba cc 80 3b b3 31 d6 bc 9d 49 82 3c 95 cf d8 3b
       0.0039306553 -0.026146745 0.015904242 0.0066165426
000080 b5 d6 22 3c 04 88 c0 3c 95 d4 ad 3c 6c 82 02 bc
       0.009938885 0.023502357 0.021219531 -0.007965665
000090 fc f1 88 3c 70 f8 6b 3c e9 ce da ba 15 78 32 bc
       0.01671695 0.014402494 -0.0016693744 -0.010892888
0000a0 53 82 2a bb d0 98 7c 3c d8 a7 0c ba c3 70 20 bb
       -0.002601762 0.015417293 -0.0005365587 -0.0024481274
0000b0 a1 89 e6 bc c0 39 e5 bb b8 78 49 bc 9d fd 68 bc
       -0.028141798 -0.0069954097 -0.012296848 -0.014220622
0000c0 f9 19 98 bc ee 6c 0a bc 9e e4 0d 3c 12 4c 66 bc
       -0.018567072 -0.008448822 0.008660464 -0.0140562225
0000d0 d8 e1 19 bc 17 88 78 b9 c6 50 cc 3b 7e b6 8f 3c
       -0.009392224 -0.0002370182 0.006235215 0.017543074
0000e0 18 56 66 bb 03 07 8f 39 5b e2 e2 bc 00 d3 d1 3c
       -0.003514653 0.0002728031 -0.027695825 0.025613308
0000f0 3f ee b6 bc ba 50 76 3c 70 d8 04 bc a2 b5 9f 3b
       -0.022330401 0.015033895 -0.008108243 0.0048739472
000100 7e 91 33 3d 65 85 f2 bb 18 72 26 3c 54 2d e6 bb
       0.043839924 -0.007401156 0.010159038 -0.0070244465
000110 9b d1 f2 bb b1 d2 a4 3c 14 9a 80 bc fa b4 38 3c
       -0.007410241 0.020119997 -0.01569847 0.011273617
000120 28 64 68 3c f8 8d 65 3c 25 74 09 bc 7d 37 a8 3b
       0.014184035 0.014010899 -0.008389507 0.005133568
000130 e6 bc 20 bc 5b 04 7d bb 16 35 a4 bc f8 13 a1 bc
       -0.009810662 -0.0038607332 -0.020044845 -0.019662842
000140 ab f3 e9 3b c2 fc 72 bc 1f 22 ac bc 81 27 23 bb
       0.007139643 -0.01483077 -0.021012364 -0.0024895372
000150 22 1e d6 bb 1b c0 4e 3c f9 05 00 bd 33 31 49 3c
       -0.006534354 0.012619044 -0.031255696 0.012279796
000160 c2 84 61 bc cc 4c 87 3b d9 ec ef 3b 91 30 bf 3c
       -0.013764562 0.004129028 0.0073219356 0.023338588
000170 f9 3c 58 bc d5 6f 2e 3c da 9c a0 b9 5a f2 97 3c
       -0.013198131 0.01064678 -0.00030634442 0.01854818
000180 3e ed d0 bc fe f1 7c 3c c3 26 c1 bc 03 17 5a 3c
       -0.02550375 0.015438555 -0.023578053 0.0133111505
000190 e1 c9 92 bb c2 9f 14 bb 6d 9b 86 3c 8e 3e ae 3c
       -0.0044796322 -0.002267823 0.016431535 0.021270063
0001a0 6d 8c a1 3b 92 b2 96 bc f1 92 8b bc cd 72 84 3c
       0.00493007 -0.018395696 -0.01703784 0.016168023
0001b0 91 f7 82 bc d5 0a d8 bb b0 bd bf 3c 30 09 dc 3c
       -0.01598719 -0.006593088 0.02340588 0.02685985
0001c0 b4 7b 01 3c b9 79 cc bc 45 34 d5 bb 01 0c b6 bb
       0.007903028 -0.024960386 -0.006506475 -0.00555563
0001d0 1e 07 cf 3c a8 1a 0b 3a cf 04 8e bc 3e b4 9b bc
       0.025271948 0.0005306401 -0.017336277 -0.019006845
0001e0 f4 ff 99 3c 1b 78 87 3c d2 db 11 3c 22 d7 db bb
       0.018798806 0.016536763 0.008902507 -0.0067089954
0001f0 7a 61 84 3c 4b 99 94 3c 94 1e 11 3c 61 d0 a7 bb
       0.016159762 0.018139502 0.008857388 -0.0051212762

weight f4 [3, 128]
000000 48 76 40 bc 6e f0 f9 3b 06 8f 19 3b 25 6b c4 3b
       -0.01174695 0.0076275384 0.0023431196 0.005994218
000010 ce b7 23 bc c1 c0 db 3a 78 39 56 3c ac c8 af ba
       -0.009992553 0.0016765819 0.013075225 -0.0013411245
000020 6f 82 cf 3b 2b 8a 11 3c 60 75 bb 3b 9e 28 c2 3c
       0.0063326876 0.0088830395 0.0057207793 0.023701008
000030 a0 c8 18 3c a6 70 83 ba 7b 83 ea bb e2 d5 bf bb
       0.0093251765 -0.0010028079 -0.007156787 -0.0058543542
000040 ee 98 0e 3b 85 11 88 bb 51 fe 18 bb 58 74 2c bb
       0.0021758634 -0.004152479 -0.0023344944 -0.0026314463
000050 65 02 50 3c d6 38 ab 3b 57 3d 72 3c a1 30 57 bc
       0.012695883 0.005225281 0.014785132 -0.013134153
000060 44 28 6a bc 25 f3 c3 3b ec 2c 08 3c bf 31 a2 3b
       -0.014291827 0.005979913 0.008311491 0.004949778
000070 bb 5f 06 bc 30 48 4b bc 8c 74 84 bb 37 ef 15 bb
       -0.008201535 -0.012407348 -0.004042214 -0.002287818
000080 ce 7a c2 3b 3c 0c 05 bc c6 ec 98 3c ff ad 7e 3c
       0.0059350496 -0.008120593 0.01866759 0.015544414
000090 0a 17 bb ba 47 15 39 3b 42 43 b5 3a 2c 3f 7e bc
       -0.0014273834 0.0028241442 0.0013829248 -0.015517991
0000a0 40 49 82 bb ac 30 6e 38 e2 4b d3 3b a8 20 db 3a
       -0.0039760172 5.678895e-05 0.006448255 0.0016718106
0000b0 31 0c bd bb a2 87 c0 3c 05 8d 6b 3c 97 fd b9 bb
       -0.0057692756 0.023502175 0.014376883 -0.005675982
0000c0 00 7d f9 3a 71 d7 9e bb ec 68 95 bb 78 31 8b 3c
       0.0019034445 -0.00484746 -0.004559627 0.016991362
0000d0 0c 63 3b 3c 0c 33 c4 3b be fc dc 3b d0 87 25 3c
       0.011437189 0.0059875306 0.0067439964 0.010103181
0000e0 ef 8e 89 b8 a0 47 6c bb a1 f2 54 bc 9e ab 22 bb
       -6.5592925e-05 -0.0036053434 -0.0129973 -0.002482153
0000f0 1c 55 08 3a 87 35 43 bc d3 d5 33 bc 91 43 c6 ba
       0.00052006706 -0.011914617 -0.010976273 -0.0015126338
000100 aa 94 90 bb 73 38 e9 bb 33 5f 61 bb ec 71 54 3c
       -0.0044122534 -0.007117325 -0.0034389019 0.012966614
000110 44 8c db ba 09 77 f7 ba d2 dd 0d ba 99 4a 37 bc
       -0.0016750176 -0.001888008 -0.0005411777 -0.011187219
000120 0b d6 17 3b 70 1d 04 3a b6 0d 52 bc 7b 33 71 3c
       0.002316835 0.0005039787 -0.012820652 0.014721747
000130 b1 73 78 ba c0 0b 0e 3a 80 b4 47 3b 55 ea c8 bb
       -0.00094776886 0.0005418621 0.0030472577 -0.00613145
000140 81 87 4f 3b 3d 94 56 ba 75 ee 2c 3c 39 37 29 3b
       0.003166646 -0.00081855414 0.010554899 0.0025820269
000150 16 43 9f 3c 96 ba f3 bb 71 5b 12 3c 47 09 31 bc
       0.019441169 -0.0074380143 0.008932934 -0.010805435
000160 f5 e0 ec 3b e8 2a 78 bc 9e 63 8f 3b 8c a7 04 3c
       0.0072289654 -0.015146948 0.004375889 0.008096587
000170 ef 68 3d bb f7 27 5b bc b3 18 5b 3c 24 38 d4 bb
       -0.0028901657 -0.013376228 0.013372588 -0.006476419
000180 b2 af 40 bc 1b f5 06 3c 27 a1 92 bb 1d 11 9b bb
       -0.011760639 0.008237149 -0.0044747773 -0.0047322647
000190 60 00 ea bb 80 3d 63 3b 37 d3 55 3c b4 33 14 3c
       -0.007141158 0.0034674108 0.013050846 0.00904553
0001a0 00 58 10 3c ac e0 43 3c 6f 4d 12 bc 3f a7 de 3b
       0.008810043 0.011955421 -0.008929594 0.0067948396
0001b0 da ca 01 bb e5 05 41 3b 84 71 08 bc ff 14 6e 3b
       -0.0019804747 0.0029452976 -0.0083278455 0.0036328433
0001c0 54 8d 50 3b 55 e1 80 3b 57 fc 10 ba b9 05 f0 3a
       0.003182252 0.0039331117 -0.00055307656 0.0018312252
0001d0 4c 68 86 3b fc bb d1 3b 0a bd 12 ba 34 d8 ce bb
       0.0041017886 0.0064005833 -0.0005597627 -0.0063123945
0001e0 a1 4c b2 3b 51 6e 3d ba 5e 76 24 ba 7a ff 8f bb
       0.005441264 -0.0007226216 -0.00062737416 -0.004394469
0001f0 29 4c 72 bc 55 04 4c bc 71 2b 59 3b 70 eb 33 bb
       -0.014788666 -0.012452205 0.0033137465 -0.0027453564
000200 53 fa 30 3b 94 fc 3f bb 69 b8 94 bb 55 2c 63 3c
       0.0027004674 -0.0029294835 -0.004538585 0.01386555
000210 23 4d 18 3c 31 33 f7 bb 9a 1f 4f 3c 5d bc 6f bb
       0.009295735 -0.0075439443 0.012641812 -0.003658078
000220 42 58 84 bb 14 50 1c 3c 73 d4 7d ba 45 63 90 3c
       -0.0040388415 0.0095405765 -0.00096828415 0.01762546
000230 ab 91 0f 3b 26 d1 b5 bc 53 e3 2d 3c 65 28 81 3c
       0.0021906893 -0.022194456 0.01061328 0.015766332
000240 e3 fb 2b 3b b2 b5 66 bb 06 17 7d 3c 41 7f bb bb
       0.0026242665 -0.0035203514 0.015447384 -0.005721957
000250 be f0 b1 bb 39 ea 68 3c 42 03 d5 3b 26 78 07 ba
       -0.00543031 0.014215999 0.0065006325 -0.0005167745
000260 1b 74 16 ba 97 ed 80 bb 48 a5 f5 3b bb 51 03 bc
       -0.0005739347 -0.003934573 0.0074965097 -0.0080150915
000270 05 d1 3c 3c 30 2a da ba ed c0 6c 3c 8e 66 f1 ba
       0.0115244435 -0.0016644653 0.014450294 -0.0018417404
000280 65 9b df bb 3d 74 b1 ba 94 3e 53 3c 05 81 db bb
       -0.0068239444 -0.001353867 0.012893338 -0.00669873
000290 d1 ef a6 bb 20 c2 82 3b bb c1 67 b8 1e 65 f7 bb
       -0.0050945063 0.0039904267 -5.5255117e-05 -0.007549896
0002a0 d1 6b e1 3b 30 4a 57 3c be 49 a3 3a b0 ac 32 bc
       0.006879308 0.013140246 0.001245789 -0.01090543
0002b0 7c b1 88 3b ae 99 1f bc d7 63 ab bb 6d 5a 7f bb
       0.0041715484 -0.00974123 -0.0052304077 -0.003896381
0002c0 26 4f 78 bc 0a c9 05 3c 83 ff 35 bb 28 df 1e bb
       -0.015155589 0.008165607 -0.0027770705 -0.0024241898
0002d0 87 b3 95 3b 52 bc 37 3c 39 80 c9 3b 8e a7 05 3c
       0.0045685205 0.011214333 0.0061493185 0.008157624
0002e0 05 52 12 bc 38 16 09 3a dd 5d 90 ba 26 2b 4f 3b
       -0.008930688 0.0005229446 -0.0011014302 0.0031611412
0002f0 20 29 4c 3b ef 8e c8 3b f3 da 77 bb 2b 8a 2d bc
       0.0031152442 0.0061205546 -0.0037819713 -0.010592024
000300 95 ea 71 3c 9c 6f 54 3c 37 31 77 3b c8 6e 13 bc
       0.014765401 0.012966063 0.0037718543 -0.00899858
000310 60 bd 19 bb 68 78 f5 3b 4d 15 0c bc 68 65 97 3a
       -0.0023458824 0.00749116 -0.00855 0.0011550607
000320 81 71 85 bb 95 cc 96 bc e2 5f 48 3c 59 01 2b 39
       -0.0040723686 -0.0184081 0.0122298915 0.00016308333
000330 ea 69 84 3b 07 a0 3c b9 83 ed 78 bb ef fb 6a bc
       0.0040409463 -0.00017988692 -0.0037983365 -0.014342292
000340 a6 48 47 3c fc 3e 3d 3a f8 9d 23 bc 83 5e 95 3b
       0.012163317 0.0007219163 -0.009986393 0.004558386
000350 9b f5 64 3c a6 25 07 3b 97 b8 09 3c f8 2f bc 39
       0.0139745725 0.0020621805 0.008405826 0.00035893894
000360 56 bb c0 3a e6 75 a0 bc 54 3d 0e 3c f6 d4 bd bb
       0.0014704268 -0.019587468 0.008681614 -0.005793209
000370 e4 6f 93 3b 37 77 d3 3b c8 4b 81 3b 8d c9 15 3c
       0.0044994224 0.0064534205 0.0039458014 0.009142292
000380 c6 8f 0e bc e3 2f 2e 3c 00 8c 3c 3b a4 3d 35 bc
       -0.00870127 0.010631534 0.002876997 -0.01106206
000390 fc d4 80 3a c2 df 9f 3b 01 7f 4f bc ec fb f7 3b
       0.0009829099 0.004878969 -0.012664557 0.007567873
0003a0 cf e7 59 3b 51 bf c6 ba 29 c2 19 3b e8 e9 88 3a
       0.003324974 -0.0015163218 0.0023461676 0.0010445686
0003b0 f7 b8 f3 ba bb fc 5d 3c 37 e2 9e 3c 2d e9 9b 3b
       -0.0018594553 0.013549025 0.019394977 0.0047580213
0003c0 64 d3 0f 3c 5d 1f 08 3c 80 e4 13 3b b8 6a 57 3c
       0.008778427 0.008308259 0.0022566617 0.013148002
0003d0 05 cb 3a ba 89 3f 17 b9 e0 41 46 bc a8 2f 15 3c
       -0.0007125589 -0.00014424151 -0.012100667 0.0091056
0003e0 e7 a0 b0 3b 03 78 54 bc cf 16 06 ba e9 50 b1 bb
       0.005390275 -0.012968066 -0.0005115093 -0.0054112566
0003f0 c3 00 81 b9 4d 77 da bb a9 96 91 bc 53 68 d3 3a
       -0.00024605365 -0.006667054 -0.017772036 0.0016129114

bias f4 [3]
000000 1b 8d 89 3a 81 af 3f 3b cb a0 30 bb
       0.0010494323 0.0029248896 -0.0026951309

weight f4 [1, 128]
000000 cf 99 4c 3c 10 90 c5 3c 6f 64 76 3c 2e dd 82 3c
       0.012487843 0.024116546 0.015038594 0.015974607
000010 06 a9 4f bc 48 1e ba bc a4 3e b4 bb f5 30 93 3c
       -0.012674576 -0.022719517 -0.0055006314 0.01796768
000020 00 da df bc c7 4d b3 3b ee 42 59 3c e6 a1 b1 bc
       -0.02732563 0.0054719183 0.013260586 -0.021683645
000030 3e a2 cd 3c 08 f4 41 3c 23 39 d5 3b 91 3b 27 3c
       0.025101777 0.011837967 0.0065070554 0.010207073
000040 8c 51 2a 3c c8 53 a6 3b 1e 18 62 bc 61 76 51 3c
       0.010395419 0.0050759055 -0.013799695 0.012784571
000050 ba e2 70 bc 42 cc 8b 3c cc 7e 6b bc fb 45 8d 3c
       -0.014702493 0.017065171 -0.014373492 0.017245283
000060 65 2d f5 ba 89 78 0b 3c 2b 9e 84 bc c9 0e b5 3c
       -0.0018705545 0.008512625 -0.016188702 0.022101777
000070 60 83 33 bb 69 77 55 bc e0 e0 57 3c f0 b1 a6 3c
       -0.0027391538 -0.013028958 0.013176173 0.02034852
000080 f9 d5 f6 3b 8c 9c 04 3d 21 03 4f bb f4 cd b8 3b
       0.0075328317 0.032375857 -0.0031587558 0.005639786
000090 e4 58 e2 3c cc ce 5a 3c 2f 10 a0 bc b0 c2 a4 bc
       0.027630277 0.013354968 -0.019538967 -0.020112365
0000a0 52 03 53 3b 7b 48 fd 3b 49 ca 69 3b 00 c8 3e 3c
       0.0032198024 0.0077295876 0.003567355 0.011644363
0000b0 28 0c bf bc 62 0c 60 bc 9f ee 1c bc 55 7b 60 bc
       -0.023321226 -0.013674827 -0.009578376 -0.01370128
0000c0 c7 ed 41 bc 57 4a 84 bc 7d a5 b5 3b 3b 68 22 bc
       -0.011836476 -0.01614873 0.0055434094 -0.009912546
0000d0 de 34 93 bc d2 83 6e 3c bd cf 97 3c 10 5a 08 3c
       -0.017969545 0.014557796 0.018531675 0.008322254
0000e0 1c 60 65 3b af 91 53 bc 44 59 e8 bb 34 dd 44 3c
       0.0034999913 -0.012913152 -0.0070907194 0.01201563
0000f0 78 00 b6 bc 23 72 68 bc 0a 0d 1a bc 4d d8 4d 3c
       -0.02221702 -0.014187369 -0.009402523 0.012563777
000100 47 76 35 3c 8e 2f 9f bc 33 69 54 3c 5f 38 27 3b
       0.011075563 -0.019431856 0.012964535 0.0025515778
000110 1d 08 1b bc 1a 7e 9d 3c 80 03 c5 bc 9f a5 c6 3b
       -0.009462384 0.019225169 -0.02404952 0.006062224
000120 86 0a 97 3b ce ee a8 3a 1a d0 89 bc b6 db 98 3c
       0.004609409 0.0012888552 -0.016822863 0.018659454
000130 ad cf 7d 3c ae 2e 3a bc 2a 4b e6 bb aa 77 dc 3b
       0.015491408 -0.011363668 -0.007028003 0.0067281323
000140 28 8a 4c 3c b3 91 dc bb 0b 30 30 3b 3e e1 39 bb
       0.012484111 -0.006731236 0.0026884105 -0.0028363015
000150 2e 5f 6c bc 2d 66 d0 ba b6 57 62 bc c6 2f 6c 3c
       -0.0144269895 -0.0015899591 -0.013814857 0.014415687
000160 a6 e1 96 bc ad 8f 1f 3c 83 87 b9 ba eb f5 eb 3c
       -0.018418144 0.009738845 -0.0014154766 0.028803786
000170 ca 78 58 bb e7 57 aa 3b 29 52 31 3c 95 bf 0e 3c
       -0.003303098 0.005198467 0.010822811 0.008712669
000180 f1 30 9f bc e5 b0 86 3b 2b 1a c3 bc cd 18 7b 3c
       -0.019432517 0.004110443 -0.023816189 0.015325737
000190 94 5d a3 bc 3f 5a 54 bc 0e 47 f5 3b 16 64 d4 3c
       -0.019942082 -0.0129609695 0.007485277 0.025926631
0001a0 4c 77 be 3c 23 e5 4a 3c 1e e7 b7 bc b8 ee 07 3c
       0.023250245 0.012383732 -0.022449072 0.008296661
0001b0 ad 46 23 bb b3 23 3d bc 49 96 c6 3c 38 0a 1e 3c
       -0.0024913952 -0.011544156 0.024241583 0.009645991
0001c0 4e 29 b0 3b ca 9f 23 ba e6 35 2f bc 6e 63 91 bc
       0.0053760177 -0.0006241767 -0.010694003 -0.017747607
0001d0 2a d1 5b 3c 10 fc 68 3c 55 d4 da bb cd b3 76 bc
       0.013416568 0.014220253 -0.006678144 -0.015057516
0001e0 ac 4d e1 3c eb ae d3 b9 f6 58 a5 3c 02 d2 3e bc
       0.027502857 -0.0004037538 0.020184021 -0.011646749
0001f0 3e 7a e1 3b 6f 4b 7e 3c 33 72 81 3c 7b e0 91 bc
       0.0068810275 0.015520914 0.015801525 -0.017807236
