TradeSimulator-v0_D3QN_-1/actor_00085320.pth (torch, 151866 bytes, 14 tensors)

state_avg f4 [10]
000000 45 04 85 3d f6 51 67 39 3a c7 e8 ba a5 80 74 3d
       0.06494955 0.0002206041 -0.001775957 0.059692997
000010 0e be 5f 3a a9 56 29 bb 3f 79 a9 bc 21 50 a2 3d
       0.0008535095 -0.0025839007 -0.020687697 0.079254396
000020 43 09 a1 3a 34 5b a7 bb
       0.0012286085 -0.005107308

state_std f4 [10]
000000 66 c0 74 3f 0f 29 6a 3f 93 21 76 3f 0b 1a 7a 3f
       0.95606077 0.914689 0.9614498 0.9769599
000010 fa 0b 72 3f d4 2c 6f 3f 24 94 7f 3f 45 f1 72 3f
       0.94549525 0.9342778 0.9983542 0.948994
000020 7c 4b 71 3f 73 59 6f 3f
       0.94255805 0.93495864

weight f4 [128, 10]
000000 e5 4c 29 3e fe 1c ad bd 01 09 88 bd 01 d9 22 3e
       0.16533239 -0.084527954 -0.06642342 0.15903093
000010 00 2b 92 be 2a 6c 46 3e b8 7b 96 bd 04 2c 2f 3e
       -0.2854843 0.19377199 -0.07347816 0.17106634
000020 c7 41 34 3d 44 a4 44 bd 01 63 c7 3d 41 de fe 3d
       0.044008043 -0.04800822 0.0973568 0.12444735
000030 bc 28 04 3e 1b 5f df bd f9 a3 f9 bc cc ec 0f bd
       0.12906164 -0.10906812 -0.030473696 -0.035137936
000040 d5 91 21 3d fa b9 79 3a 73 91 8f 3e 4c ba e2 3d
       0.039445717 0.0009526309 0.28040656 0.110706896
000050 89 06 ef bd a9 7c 94 be cc 38 6d bd f7 01 13 be
       -0.11671168 -0.29001358 -0.057915494 -0.14356218
000060 d2 ea d0 bd 21 c0 55 3b 7a 5c 47 3e 35 cc 31 3e
       -0.102010384 0.0032615738 0.19468871 0.17363055
000070 cc 71 94 be 2d 51 45 3e ea 70 b6 3d 22 ab 62 3e
       -0.2899307 0.19269247 0.089082554 0.22135594
000080 a0 a8 54 3e 44 61 97 be 0d 00 93 be d4 5f 21 be
       0.2076745 -0.29566395 -0.28710976 -0.15759212
000090 61 d8 93 3e 0c e0 36 bd 4b bd 10 3e 73 f8 11 be
       0.28876022 -0.04464726 0.1413471 -0.14254932
0000a0 6d 6c 9b 3e bc 54 7e be 2f 16 66 3e ec 4f a3 3c
       0.3035616 -0.24837011 0.224694 0.01993557
0000b0 5e 9e 27 be 47 ef 2e 3e e3 ae 39 be 63 bf df 3d
       -0.16369006 0.17083465 -0.1813312 0.10925176
0000c0 b1 b7 bc bd 07 84 1c bd eb 74 a4 be 47 0b fa bd
       -0.09214724 -0.03821185 -0.3212045 -0.12209182
0000d0 c7 3e 2a 3e 7a 8d 98 bd aa e5 a2 3e 9f f3 82 3e
       0.1662551 -0.074488595 0.31815845 0.25576493
0000e0 cf 40 58 bc ca 78 3f be 2d 2e 44 3e 12 07 c4 3d
       -0.013199045 -0.18698421 0.1915824 0.09571661
0000f0 b2 fa 4c be 3e 28 9b 3d 43 b7 43 3e 73 04 93 3e
       -0.20017508 0.07576035 0.19112878 0.28714332
000100 53 c3 33 be 0e 12 4c bd d2 10 22 bc 6d f0 21 3d
       -0.17554979 -0.049821906 -0.009891706 0.03953593
000110 ee cc 7a be f3 4c 61 be 05 b8 2e 3e c2 74 19 be
       -0.24492237 -0.2200201 0.17062385 -0.14985946
000120 d3 79 16 3e 91 92 a7 3c a0 0a df 3d 4d 9d 87 3d
       0.1469491 0.02045563 0.108906984 0.066217996
000130 d1 d1 d5 3d 3e fc 29 3e 35 55 8d be 45 03 1d 3e
       0.1044041 0.16600129 -0.2760407 0.15333278
000140 c0 c1 6e be 1e 4e 5d be 84 6a 96 3c 5e 66 5d bd
       -0.23316097 -0.2161183 0.018361337 -0.054052703
000150 0e c7 3b 3e 47 08 45 be fa 5f 8b be 8f e0 73 3e
       0.18337652 -0.19241439 -0.27221662 0.23816131
000160 53 79 6d bd cb 2c 3a 3e d0 bd c3 3d 3f 7b b7 be
       -0.057977032 0.1818115 0.09557688 -0.35836217
000170 f0 dc 75 3d 94 a2 a5 3d ca 01 58 be 26 c9 13 be
       0.060025156 0.0808765 -0.21094432 -0.14432201
000180 9b 26 d9 3d 04 40 82 3d 90 fc 09 be 45 5b cf bd
       0.106030665 0.06359866 -0.13475251 -0.1012483
000190 d2 c4 93 3e 56 05 23 be 8e 1c 34 3e c3 36 0a 3e
       0.288611 -0.15920004 0.17589018 0.13497452
0001a0 36 b2 44 be 96 f4 89 be f5 ba 9b 3e ac 6a 98 3c
       -0.19208607 -0.26944417 0.30416074 0.018605553
0001b0 3b f0 60 3e 70 89 5e 3d eb c6 d0 3d fa 4c 32 3e
       0.2196664 0.05433029 0.101941906 0.17412177
0001c0 96 36 96 3e 70 87 57 be 15 b4 4a 3d 20 3d 6a 3e
       0.2933852 -0.21047759 0.049488146 0.2287488
0001d0 b4 af 6e 3e ca 61 50 3e ff 1a 52 be e6 b8 5e be
       0.23309213 0.20349804 -0.2051811 -0.2175022
0001e0 4e a4 3a be 5b d1 85 bd 2b f0 9c 3e 9d c3 53 be
       -0.1822674 -0.06534072 0.30651984 -0.2068009
0001f0 bd 2f 2d 3e 49 09 22 be 4e 0f 9a be 06 e1 87 bd
       0.16912742 -0.15823855 -0.30089802 -0.06634717
000200 d8 92 38 3e 84 c0 94 3e ca 28 42 be 19 44 82 3d
       0.18024766 0.29053128 -0.18960872 0.06360645
000210 7d 66 8e 3e fc 2d 5c 3e 85 45 3d 3e ab ee 69 3e
       0.27812567 0.21501917 0.18483551 0.22844951
000220 22 02 4b 3e 59 9b d0 3d 92 57 54 be af 31 8a be
       0.19825032 0.1018588 -0.2073653 -0.2699103
000230 32 cc 1b be 67 a6 fb bc 79 d5 49 be 66 22 e9 3d
       -0.15214613 -0.030718995 -0.1971034 0.11383514
000240 02 61 be 3d e1 bf 61 bd 30 78 e9 3d c8 65 cc 3d
       0.092958465 -0.05511463 0.11399877 0.09980351
000250 6f 08 3f 3e 0e 1d 50 3e c1 71 d4 bd 50 00 3d 3e
       0.18655561 0.20323583 -0.10373259 0.1845715
000260 64 3c 2c bd 18 aa c2 bb ed 82 93 be a7 4e 44 be
       -0.04204978 -0.005940687 -0.28810826 -0.19170628
000270 f3 29 44 be 2d fd 0b be 9a 6e 64 3e f1 f2 e1 bd
       -0.19156627 -0.13670798 0.22307816 -0.110326655
000280 3e 4a 7b be 5b 00 17 3e 73 d0 d4 3d b8 79 57 3e
       -0.2454004 0.1474623 0.10391321 0.21042526
000290 5f 8d 31 be 4e a1 87 3d 29 e3 e8 bd 81 ef 79 bd
       -0.17339085 0.06622563 -0.11371452 -0.061019424
0002a0 66 8b 81 be 3c 17 0f be 89 2c c4 bd 66 07 4b 3d
       -0.25301665 -0.13973707 -0.09578807 0.049567603
0002b0 b8 0e 7a 3d f4 20 ab 3d ab 22 9d 3e 61 66 96 3e
       0.061049193 0.08355895 0.30690512 0.29374984
0002c0 f2 54 6e 3e 19 3e 43 3c 86 fd 55 be 68 5b 76 3e
       0.23274592 0.011916661 -0.20897493 0.24058306
0002d0 1f 67 97 bd bb aa 10 be f0 f0 89 be ff 91 66 bd
       -0.07392716 -0.14127629 -0.26941633 -0.056291576
0002e0 d3 7c 47 be 32 b9 8a 3e bc e7 94 be df 70 78 be
       -0.1948121 0.27094418 -0.2908305 -0.24261807
0002f0 05 03 02 bc 23 e0 32 be 38 0a e3 3d 1d b3 45 be
       -0.00793529 -0.17468314 0.110859334 -0.19306608
000300 53 00 16 be a6 b8 9e 3c 39 2d 67 3e 58 a2 64 be
       -0.14648561 0.019375157 0.22575845 -0.22327554
000310 d3 f1 1b 3e a4 9b 56 3e a1 d7 9d 3e f0 a5 66 be
       0.15228967 0.2095781 0.30828574 -0.22524238
000320 20 cb b9 3d 98 cd 0d be 05 ce 8f 3e d2 7d db bd
       0.09071946 -0.13847959 0.28086868 -0.10717358
000330 36 c4 47 3e e6 79 3b bc 1f 06 c0 bc 42 8d af b9
       0.19508442 -0.011442637 -0.023440419 -0.00033483846
000340 fc ae 42 3d 05 f4 1b 3e 9d b1 34 3d 15 95 f8 3b
       0.04753016 0.15229805 0.044114698 0.0075861313
000350 06 ac 88 be 1d 3e 75 3e ed 2c 86 3e e9 48 71 3e
       -0.26693743 0.23949476 0.2620615 0.2356297
000360 e4 89 7f 3e 67 f2 6f be d3 a3 d8 bd 02 2f 8c 3e
       0.24954945 -0.23432313 -0.10578122 0.27379614
000370 b5 72 70 be db 56 3d 3e 91 cd 81 be f9 db 65 be
       -0.23481257 0.18490164 -0.25352147 -0.22447194
000380 b1 3b 16 3e 5b e0 57 be fa f4 a5 bd e4 63 77 3e
       0.14671208 -0.21081679 -0.08103366 0.24159199
000390 e6 f6 80 3e 29 fd 93 3e eb fc 79 bd f9 5f c1 be
       0.2518837 0.28904083 -0.061032217 -0.37768534
0003a0 0c 01 9a 3e ff ed 87 bd 9a 77 ff bd 75 79 ae 3d
       0.30078924 -0.06637191 -0.12473984 0.0851926
0003b0 1f 61 6d be 14 14 5f 3e b8 eb 49 3e c9 b9 83 be
       -0.2318158 0.21785003 0.19718826 -0.2572768
0003c0 15 6f 85 be a9 fb a2 bd 11 70 00 3e d1 f7 f5 3b
       -0.2606131 -0.079581566 0.1254275 0.0075063487
0003d0 ca ab 1a be 3f 7b 26 3c ee 50 9f be 69 da 61 be
       -0.15104595 0.01016122 -0.31116432 -0.22055973
0003e0 71 2c 54 be c9 1f 73 3e f4 02 8e 3e 08 df 07 be
       -0.20720078 0.23742594 0.27736628 -0.13268673
0003f0 a4 c4 fa 3b 37 33 1c 3e 6b a3 39 3d 90 8b 24 be
       0.007652836 0.15253912 0.045321863 -0.16068864

bias f4 [128]
000000 01 8b 75 3c dc 26 0e bb 49 70 6c 3d 55 c3 09 3b
       0.014986754 -0.0021690642 0.05772427 0.0021020968
000010 6e fe 3e 3e 25 a3 1d 3d a1 27 6b 3e 48 96 a6 3d
       0.18651745 0.038485665 0.22964336 0.081341326
000020 f1 8d 99 b9 62 76 67 3d e0 7f 69 3e 60 44 65 3d
       -0.0002928819 0.056509383 0.22802687 0.05597341
000030 4f 27 71 3e 2b 67 a2 bc 78 2d 1c 3b 14 64 8e 3e
       0.23550151 -0.019824585 0.0023830812 0.2781073
000040 37 95 95 be 9d d2 2e 3d 33 45 9d 3e aa 73 1b be
       -0.29215404 0.042681325 0.30716857 -0.15180841
000050 72 3d 50 bd 90 bd 23 bc c4 79 f0 3d 23 a9 07 3e
       -0.05083985 -0.009993926 0.11741975 0.13248114
000060 b5 d5 b4 3d 2f 11 07 3e 52 25 08 be 9b d6 16 3e
       0.08829824 0.13190149 -0.13295487 0.14730303
000070 43 dd d3 bd 79 f7 59 3e 6d 33 a8 bd 8c 6c 88 be
       -0.10344937 0.2128581 -0.08212934 -0.26645315
000080 65 b8 10 3d 37 c3 45 3e dc cc 6d bb a1 30 58 3b
       0.035332102 0.1931275 -0.0036285436 0.003298797
000090 27 06 db 3b c7 5f 3a 3e b6 7f ef 3c 2e e8 8f be
       0.006684083 0.18200599 0.029235702 -0.28106827
0000a0 77 79 5b be 79 3a f7 3c bd 2f f4 bb 91 bc a3 3e
       -0.21433054 0.03017925 -0.00745198 0.31979802
0000b0 61 ee 70 bd 1f bc 80 3e c4 ed 83 be 8d 7a 9c be
       -0.058821086 0.25143525 -0.25767338 -0.3056225
0000c0 01 09 95 bc 4e 74 4e be 93 98 a8 bd 15 14 04 3d
       -0.01819277 -0.20161554 -0.08232226 0.032245714
0000d0 8c 49 8c be 91 92 74 3e 6b de 3a be 9b 0b 86 3e
       -0.27399862 0.23884036 -0.18248908 0.2618073
0000e0 a8 50 e7 3d 87 a8 50 bd 1a dc 88 be fd 47 78 3d
       0.11294681 -0.05094197 -0.26730424 0.06061553
0000f0 a5 b6 2a be b5 c9 93 3e 06 06 89 be 94 f7 a7 bd
       -0.16671236 0.28864828 -0.26762408 -0.08201519
000100 48 e6 27 be c8 8f 4a be 5f c5 28 be 9f e2 ab bc
       -0.16396439 -0.1978141 -0.16481541 -0.020982085
000110 13 58 b0 3c 8f 6f 93 3d db 44 31 3e 6a 94 f9 bd
       0.021526372 0.071990125 0.17311423 -0.12186511
000120 93 b1 53 be 64 9d 71 bd cc 12 a1 3e cc 9e 0c bd
       -0.20673208 -0.05898799 0.31459653 -0.034331128
000130 b6 a8 88 be 23 c5 88 3e 21 d7 a1 3d e2 5a 92 3d
       -0.26691216 0.26712903 0.07902361 0.07146241
000140 25 8a 7b 3d e5 27 64 3e f1 3f 17 be 4d 51 79 3e
       0.06141104 0.22280844 -0.14770485 0.2434742
000150 00 54 a4 3e 6c d0 99 bd fc 89 5d 3e 51 57 41 3e
       0.32095337 -0.075104564 0.21634668 0.18880965
000160 61 6f 9e 3e 09 42 88 bd 8f 7c 2c be e8 0c ee bd
       0.3094435 -0.0665322 -0.1684439 -0.116235554
000170 f3 74 55 be 18 3e be 3c de 32 a5 3e 40 0c a4 3e
       -0.20845394 0.023222968 0.3226537 0.32040596
000180 41 b2 78 3e eb 9e 0b 3d cc b2 8d 3c f0 87 6a 3e
       0.24286748 0.034087103 0.017297171 0.22903419
000190 8f cc 56 3e 84 02 09 bd b7 db 9d bd 08 0d 0a 3e
       0.2097647 -0.033449665 -0.07707923 0.13481534
0001a0 b9 5d d1 3b 19 22 54 be 52 03 17 be 3d 0f 89 3e
       0.0063893464 -0.20716132 -0.1474736 0.26769438
0001b0 63 79 8d 3e 51 d4 e7 bd 2a 8b 63 bd ba a9 1d be
       0.27631673 -0.11319793 -0.05555264 -0.15396777
0001c0 ff cd c1 bd fd fd 93 3e cd ed 8f be ca 6e 1b 3e
       -0.09463119 0.28904715 -0.28111115 0.15178981
0001d0 f0 7f 90 be 04 4e 1a be 5e 72 3a bd 08 f2 c8 3c
       -0.2822261 -0.15068823 -0.045519225 0.024529472
0001e0 be 29 38 bd 42 f6 0f be c8 ca 08 be c3 d4 4b be
       -0.044961683 -0.14058784 -0.13358605 -0.19905381
0001f0 29 5f 63 be c8 7d 4c be 42 bf a5 3e 8e fc 0c be
       -0.2220427 -0.19969857 0.3237248 -0.13768217

weight f4 [128, 128]
000000 22 5a 9f bd 78 e4 8d 3d db 25 1f 3d 05 aa 90 3d
       -0.07780863 0.069283426 0.03885446 0.07063679
000010 ef 04 b3 bd 41 4c 9e bd f0 8b 79 bd 96 67 4c bd
       -0.087411754 -0.07729388 -0.06092447 -0.049903475
000020 c8 4a e4 bb 34 00 23 3d fd e5 69 3d db 65 89 bd
       -0.0069669224 0.039795116 0.0571041 -0.067088805
000030 a7 4c 20 3d 66 1a 32 bd 2f 7c 93 3c 5e 1b 2a 3d
       0.0391356 -0.043482207 0.018003551 0.041530006
000040 dc 9a 9e 3c 36 32 1e 3d cf 66 72 3b 20 32 4e 3d
       0.019360952 0.038622104 0.0036987548 0.05034077
000050 10 d3 9a 3c 22 d5 b0 3d a7 d6 ba 3c d9 35 24 bd
       0.01889947 0.08634402 0.022807432 -0.040090416
000060 12 da 64 3d 6d 39 2d b9 35 75 be 3d 07 b0 7d bc
       0.05587203 -0.00016519958 0.09299699 -0.015483863
000070 fe 51 a3 3d 5d e4 5d bd 3b 48 30 3d 74 90 8c bd
       0.07974623 -0.054172862 0.043037634 -0.0686349
000080 2e 94 70 3d 7d 6f bf 3c 0b 92 80 3d 09 01 90 bd
       0.058735065 0.023368591 0.062778555 -0.070314474
000090 0f f1 ac bd 11 0c 3b 3d 58 1e e6 bc 75 6e 1c 3d
       -0.08444416 0.045665804 -0.02809064 0.038191278
0000a0 a4 98 4e bd 60 f1 bd bc 39 31 bb 3c 0b e4 70 3d
       -0.05043854 -0.023186386 0.02285062 0.05881123
0000b0 95 f4 0f 3d 4a b0 de 3a 58 28 ef bc 30 7f 15 bc
       0.03514536 0.0016989794 -0.029194042 -0.009124562
0000c0 e2 f4 0f 3d 22 73 8d bd a6 a6 ac bc 5c 84 a8 bd
       0.035145648 -0.069067255 -0.021075558 -0.082283705
0000d0 31 cf a9 ba 42 df bf bb a8 7c 55 3d 13 05 ac 3d
       -0.0012955425 -0.005855472 0.052120835 0.08399405
0000e0 90 b6 8a bd 94 e2 05 bd e5 24 1a bd 92 e4 84 3b
       -0.06773102 -0.032686785 -0.03763284 0.004055568
0000f0 9a 8f 0b bd b6 4d 4a bd 00 21 3e bd bf ad 00 bc
       -0.034072496 -0.049390517 -0.04641819 -0.007853924
000100 4f f5 53 3d 1d 0d a0 bc d3 36 83 3d d3 80 8c bd
       0.051747616 -0.019537503 0.06406941 -0.06860509
000110 c7 de 99 3b f3 e9 71 bd 29 e4 ac bd 1e ca 5f 3c
       0.0046957466 -0.059061002 -0.084419556 0.013659028
000120 ee f3 23 bd 1a 8f 8a 3d 2a 8c 9c 3d 06 2e a0 bd
       -0.04002755 0.06765576 0.07643922 -0.07821278
000130 53 30 05 bc 69 3f ba bb dd 6c 27 bd 4f 46 34 bd
       -0.008129197 -0.0056838286 -0.040875304 -0.044012364
000140 53 e7 53 bd b8 3b 48 3d d2 9b d8 3b 9d 3e 87 3d
       -0.05173428 0.048885077 0.006610372 0.066037394
000150 a9 4b 04 bc d1 1c 37 3d 5e 85 a7 3c cc b8 af bc
       -0.008074679 0.044705216 0.020449337 -0.021450423
000160 bf f5 01 bc 84 03 b7 bd cf 1c 1c bc 51 03 87 bc
       -0.007932126 -0.089362174 -0.009528353 -0.016481074
000170 e2 f4 48 bd e2 bb d3 bc cf c9 cd bc 03 b6 81 bd
       -0.049061663 -0.025846425 -0.025120644 -0.06333544
000180 47 49 86 3c ea 25 f5 ba 21 ef 13 bd f4 d7 b4 3d
       0.016392363 -0.0018703316 -0.036116723 0.08830252
000190 a3 bd 93 3d 67 91 20 3d 50 0e 22 bd 87 e3 8e 3b
       0.07213905 0.039201166 -0.03956443 0.0043606195
0001a0 38 3b 6a bd 53 d4 8a 3d 71 be a3 3d d2 85 46 bc
       -0.05718538 0.06778779 0.07995308 -0.012116866
0001b0 bf 2f 84 3d 7f 82 a5 3d 42 b9 76 bb 45 89 f7 bc
       0.06454419 0.08081531 -0.0037647043 -0.030216822
0001c0 00 29 0d bc e3 f8 81 3c 8d df af bd d8 35 01 3c
       -0.008615732 0.015865749 -0.08587561 0.0078863725
0001d0 68 b2 1e bd 14 30 83 3d 2f 39 38 bc 57 2b 83 3d
       -0.03874436 0.064056545 -0.011244102 0.06404751
0001e0 ea 88 81 3d c9 6b cf bc 43 5c a3 3c 8b 47 40 bc
       0.063249424 -0.02531995 0.019941455 -0.011735807
0001f0 3e e1 07 bd 17 c5 30 bd 6f 66 03 3c 5f 36 20 3d
       -0.033173792 -0.04315671 0.008020028 0.039114352
000200 9b 25 25 bc fe 20 6b 3c 5e bf 7c 3d 93 66 38 3d
       -0.010079767 0.014351128 0.06170594 0.045019697
000210 43 45 27 3d b2 e3 dd 3c 45 0c 76 bd 8f f5 52 bd
       0.040837537 0.027086113 -0.060070295 -0.051503714
000220 dc e1 79 bd 46 6e 79 3d d3 c7 98 bd 27 fc 7c bd
       -0.061006412 0.06089618 -0.074599884 -0.06176391
000230 29 2e 81 3d 6a d1 63 3d fe 4d a5 bd d6 ff 78 3d
       0.063076325 0.055619635 -0.080715165 0.06079086
000240 af 4b b9 bc 92 5d b3 3c c8 73 26 bd b0 b2 73 bc
       -0.022619097 0.021895204 -0.04063776 -0.014874145
000250 1a 66 81 3c 62 ca 8e 3d 06 55 74 3d 0a c0 29 bd
       0.015795756 0.06972195 0.059651397 -0.04144291
000260 7c eb 5a bd 5a 82 6a ba bb d1 ed 3c b0 aa 66 3d
       -0.05344723 -0.00089458155 0.029030671 0.056315124
000270 18 cb ad bd 7a 49 b1 3a d0 fe 2d 3c 8e e1 31 bd
       -0.08486003 0.0013525926 0.010619834 -0.043427996
000280 52 ae a1 3d 6a e8 7d bc b9 b5 99 bd 2e af 43 bd
       0.07894577 -0.015497306 -0.07505364 -0.047774486
000290 a0 be 1a 3c 94 a9 68 bd 48 0e 96 3c 93 31 ae 3d
       0.009444863 -0.056802347 0.018317357 0.08505549
0002a0 49 7a 60 3c 24 bd 1f bc 68 16 bf 3d 2f 5a 97 3d
       0.01370103 -0.0097496845 0.093304455 0.07390248
0002b0 eb 89 7b 3d 75 c3 83 3c cc 91 fc 3b 66 5e 7c bd
       0.061410826 0.016084412 0.00770781 -0.061613463
0002c0 4a 58 74 3c 09 15 c3 3d 83 58 6d 3c ad f7 94 bd
       0.014913628 0.095254965 0.014486435 -0.07273803
0002d0 f9 6f 01 3d 90 f8 ac 3d d9 8b a6 3d de 97 8a 3c
       0.031600926 0.08445847 0.081321426 0.016918119
0002e0 fe 9c ea 3c 92 5d b2 3c 3b 08 10 bd 51 79 64 bc
       0.028639313 0.021773133 -0.0351641 -0.01394494
0002f0 e9 4f 8d 3d d2 b3 95 3c 05 7a 9f 3d 47 2c 8a bd
       0.06900007 0.018274222 0.07786945 -0.067467265
000300 2e 61 fb bb a2 39 da 3b cc 13 25 bd c4 3e 97 3d
       -0.007671497 0.0066597024 -0.040302083 0.073850185
000310 5c d8 80 3d b0 7e 27 bd 2a 85 ab 3d ca bd a2 3d
       0.06291267 -0.040892303 0.083750084 0.07946356
000320 1d 38 47 bd d1 a9 04 3b 64 9a c1 3d e7 f0 60 bd
       -0.0486375 0.002024282 0.09453276 -0.054917242
000330 4c 88 66 bc 70 5e 56 bd 08 03 90 3d ab cb 9e 3c
       -0.014070582 -0.052336156 0.07031828 0.019384226
000340 b5 d8 28 3d 1d 50 93 3d 6f 07 93 bc e1 03 91 bd
       0.041222293 0.07193015 -0.01794788 -0.07080818
000350 87 82 58 3c 1c 6f 20 bb 11 8c 28 3d 59 20 3d 3d
       0.013214714 -0.002448029 0.041149203 0.046173427
000360 8c d1 16 bd b9 93 fd bc 9c 2c 5c 3d c6 e9 ec 3c
       -0.036820933 -0.030954229 0.05375348 0.028920066
000370 c9 8f ad 3c 7c cb 46 3d f2 a0 46 3d 01 97 6c bd
       0.021186726 0.0485339 0.048493333 -0.057761196
000380 a6 d9 9b 3c 0f 28 d7 3b df 29 a3 bd 5f 6d 0b 3d
       0.019024681 0.0065660547 -0.07966971 0.03403985
000390 e3 91 3f 3c 74 63 8e 3d fc e9 a8 bd 8f d6 b6 3d
       0.011692497 0.06952563 -0.08247754 0.089276426
0003a0 79 c2 25 bd 17 b6 6f 3d 26 ae 61 3d fb 37 6d bb
       -0.040468667 0.058523264 0.05509772 -0.0036196697
0003b0 bb b2 1f bd 9b 3f 2a bc a3 86 61 bd 2a 1e 6a 3c
       -0.03898881 -0.010391141 -0.05506004 0.014289418
0003c0 d6 f4 13 3d 35 15 ca 3c d4 8a 65 bd 46 96 7c 3d
       0.036122166 0.024668315 -0.0560406 0.06166675
0003d0 e0 82 94 3d ff 91 bc bc bb c8 2f 3d f4 c8 19 bc
       0.07251525 -0.023018835 0.04291604 -0.00938629
0003e0 cd a7 11 3d 68 28 84 bd e5 53 93 bd a4 c9 01 bc
       0.035560418 -0.064530194 -0.07193736 -0.00792161
0003f0 4b a3 8e bd f7 a2 14 3d 68 cf bc 3d bd e9 67 bc
       -0.069647394 0.036288228 0.09219247 -0.014154849

bias f4 [128]
000000 37 52 86 3d 35 8a 6a 3d 73 39 b5 bc 41 e7 45 3d
       0.0655865 0.05726071 -0.02212212 0.048316244
000010 42 f1 f5 bc fa 68 66 bc ae d1 a5 bd c9 ff 42 3d
       -0.030022267 -0.014063114 -0.08096634 0.047607217
000020 d3 a9 8d 3d 71 fa ce 3b 3a d1 b0 bd 4e d3 6a bb
       0.06917157 0.006316476 -0.08633657 -0.0035831514
000030 aa 7e 70 bd b5 6a 32 bd 41 1a 99 bc 73 4e 3a 3d
       -0.058714546 -0.043558795 -0.018689277 0.04548497
000040 e4 69 6f 3d 48 92 a5 bd 5b a7 4a bd 98 a6 32 bd
       0.058450595 -0.080845416 -0.04947601 -0.043615907
000050 63 b9 f3 3c 45 65 76 3a ae e5 63 bc c2 34 50 3c
       0.029751485 0.00093992456 -0.01390974 0.012707891
000060 64 f0 92 3b 23 6a 95 bd f2 5d f5 3c e4 af bc 3c
       0.004484223 -0.072956346 0.029952023 0.02303309
000070 34 86 85 3c 2e 31 3c 3d 19 ba a8 3c 3f 49 5a bd
       0.016299345 0.04594534 0.02059655 -0.05329251
000080 d2 9f c7 3d f2 34 43 3d 0c 68 b8 3d b6 df a2 3c
       0.0974728 0.047657914 0.0900422 0.019882064
000090 5c 93 88 3d d6 1a de bb d9 10 7e 3b 37 39 49 3d
       0.066687316 -0.0067781014 0.0038767366 0.04912683
0000a0 52 53 20 bd 40 79 a1 bd d2 f3 b1 3c 65 6e 80 3d
       -0.03914196 -0.07884455 0.021722708 0.06271056
0000b0 9a d1 bc 3d e8 c4 12 bc 3f d3 df bc 5a 40 6b bd
       0.09219666 -0.008958079 -0.02732241 -0.057434417
0000c0 6a c0 b9 3d 6a 3b b2 b9 51 6f 06 bd 36 c7 6d bd
       0.09069903 -0.00033995073 -0.032821003 -0.05805131
0000d0 ec 6b a2 bc 8e 4f a7 3d cf c8 29 3d 7d 99 96 bd
       -0.019826852 0.08169471 0.04145127 -0.07353494
0000e0 2c 39 38 3d c6 da e0 bc 13 05 b2 3d 57 74 e6 bc
       0.0449764 -0.02744807 0.08692374 -0.028131647
0000f0 a9 03 2b ba fd ba f5 3c 1b 0c 45 bc 61 37 47 bd
       -0.0006523678 0.02999639 -0.012026812 -0.048636798
000100 41 87 89 ba 57 dc c2 3d f6 97 8f bd 1a 79 82 3d
       -0.0010492579 0.09514683 -0.07011406 0.063707545
000110 ce a7 63 3d ca 40 b1 3d 77 fa c6 3c 8a 8b 93 bb
       0.055579953 0.08654936 0.024289353 -0.0045027183
000120 a5 f1 5c bd ac bf cb 3d 45 23 ca 3b 0f 19 6f 3b
       -0.053941388 0.09948668 0.0061687552 0.0036483442
000130 66 ca d1 3c 58 f9 46 bc ca 65 a7 3b 35 c7 dc 3c
       0.025609206 -0.012144409 0.0051085697 0.026950458
000140 f2 b7 83 3d 9a 90 7a 3d 84 7b bf bd 5f 5f 71 bc
       0.06431569 0.06117306 -0.093497306 -0.014732211
000150 ff 76 45 b9 b7 57 2d 3d f6 14 5a bd 35 9d 2d bc
       -0.00018831714 0.04231998 -0.053242646 -0.010596563
000160 21 fa 25 bd fa aa 5f bd 94 2d 81 3c f0 bf 8a 3d
       -0.040521745 -0.054606415 0.015768804 0.067748904
000170 72 27 e7 3c 6c 2b 0f bd b4 e2 67 bb 7f b4 f1 bc
       0.028217051 -0.03495352 -0.0035382928 -0.029505013
000180 f6 f6 c1 3d 9f df f7 3c 19 5d 58 bd 3d 1a 98 bd
       0.09470932 0.030257998 -0.05282316 -0.074268796
000190 80 07 21 bd 83 c8 7d bd c6 e7 d1 3c a8 85 12 bd
       -0.039313793 -0.0619588 0.025623213 -0.035771996
0001a0 66 cc a7 bd 6c ba b4 bc 9c d4 22 bd 08 42 07 bd
       -0.08193283 -0.02206155 -0.03975354 -0.033021957
0001b0 69 97 97 3d 3f bd 91 ba ea cd 70 bd 5d 75 42 bd
       0.07401926 -0.0011119022 -0.058790125 -0.047475208
0001c0 96 e7 b6 3d b2 d3 dc bb 74 27 ec bc a2 78 24 bc
       0.0893089 -0.0067391032 -0.028827406 -0.010038527
0001d0 44 7c 1b 3d 61 64 9f 3d d5 05 55 bc ee 33 d0 bb
       0.037960306 0.07782818 -0.013001879 -0.0063538468
0001e0 c9 41 ef bc a5 c5 7b bd 8c 92 50 3d 89 e2 87 3c
       -0.029206173 -0.061467785 0.050921008 0.016587513
0001f0 1f 6a 21 3c aa 68 87 3c 6b bc b7 3c 65 e9 a1 3d
       0.009851961 0.0165294 0.022428712 0.079058446

weight f4 [128, 128]
000000 12 51 15 bb dc d3 22 3d 6d 52 90 3b 62 a7 0d 3d
       -0.0022783917 0.039752826 0.004404357 0.034583457
000010 75 2c 21 bd fb 92 55 3d 0f d8 71 bd c5 13 52 3c
       -0.03934904 0.052142125 -0.05904394 0.012822096
000020 24 e9 6b 3d 68 90 a6 bc 7d b3 13 bd ac 6e 4a 3d
       0.057595387 -0.02033253 -0.036059845 0.04942195
000030 99 09 3f bc 4f ac 01 bd 67 fc 64 bb 04 da 0b 3d
       -0.011660003 -0.031658467 -0.0034940483 0.034143463
000040 17 10 73 3d 3b ce 12 bd 14 3c 8a 3b 6b ff c5 3d
       0.059341516 -0.035841208 0.0042185877 0.09667858
000050 fc 16 8b 3d f6 86 64 bd b1 2c 6c bd 8b 0f 9a bb
       0.06791493 -0.05579277 -0.05765981 -0.00470156
000060 62 5a 4d bd 7d 81 df bc d7 37 04 bc d4 79 1c bd
       -0.050135024 -0.027283425 -0.008069954 -0.03820212
000070 4d ea 5a bd 3a 4d 14 bd d7 82 f3 3c 84 0b 8c bd
       -0.053446103 -0.03620646 0.029725475 -0.06838134
000080 05 80 9e 3d 6f f4 a7 3d a5 f7 cf 3c de ed 35 bd
       0.077392615 0.08200919 0.02538664 -0.0444163
000090 29 6b ad 3c 49 c4 99 bd cb 7d 28 3d 24 4e 67 3d
       0.021169262 -0.075081415 0.04113559 0.056471005
0000a0 34 23 5f 3d 0a cb 84 3d 5a 58 5b 3d 2b b3 bc bd
       0.05447693 0.06484039 0.053551055 -0.09213861
0000b0 f0 d4 50 bd 27 fe 33 bc ee 97 87 3c e1 a3 56 3d
       -0.050984323 -0.010985888 0.016551938 0.05240238
0000c0 96 7c be bd 08 08 61 bd 6b b6 0f 3d 7b 34 4c 3d
       -0.09301107 -0.0549393 0.035086077 0.049854737
0000d0 d0 49 04 3c 42 17 2a 3d 52 bc a8 3d 28 47 ab 3d
       0.008074239 0.041526087 0.08239044 0.08363181
0000e0 77 93 9e 3c 61 9d 9b bd cb 32 0f bd e5 e9 5d bd
       0.019357426 -0.07598377 -0.03496055 -0.054178137
0000f0 20 17 6a bd 03 0f 83 3d 0d ab 83 3b 3b c7 6f bd
       -0.05715096 0.06399348 0.0040181936 -0.05853961
000100 3a 31 36 3d 72 44 fc bc e2 23 57 bd 90 99 73 bb
       0.04448054 -0.030794356 -0.052524455 -0.0037170388
000110 6d c8 50 bd 02 49 4d bd 90 9e 56 bd c4 d8 83 bd
       -0.05097239 -0.050118454 -0.05239731 -0.06437829
000120 59 7c 00 bd a6 d0 50 3d 0d a3 24 bd 5d ee b6 3d
       -0.031368587 0.050980233 -0.04019456 0.08932183
000130 8a 03 1b 3c 80 ae c1 bc a6 08 29 bc 05 5a ab bb
       0.009461293 -0.023642778 -0.010317003 -0.005229237
000140 66 38 b0 3c 0e c3 6b 3d fa ec c7 3c 50 f4 c8 bd
       0.021511268 0.057559066 0.024404991 -0.09812224
000150 5a 77 14 3c 89 47 d7 3c 60 65 89 bd 8e 2c 85 bd
       0.009061659 0.026279228 -0.06708789 -0.06502639
000160 fc b8 fd 3c 91 3c b9 bd 3d e8 93 bd 54 8b 8a 3d
       0.030971996 -0.09044755 -0.0722203 0.06764856
000170 ff 7e 22 bc 7e 01 34 bc 8c 59 3c 3d e7 ff f8 3c
       -0.009917974 -0.010986684 0.045983836 0.030395461
000180 fa e1 a3 bc b3 33 75 3b a9 88 71 3d 17 c7 9f 3d
       -0.020005215 0.0037414848 0.05896822 0.07801645
000190 49 67 20 bd b8 32 89 bc 77 42 64 3d 30 40 5d 3d
       -0.039161 -0.016747817 0.05572745 0.054016292
0001a0 7a 8a d4 3b a4 27 ca 3c c2 ec 81 3d 14 5a 63 bd
       0.0064862343 0.024677105 0.06343986 -0.055505827
0001b0 84 96 40 3b a1 b5 2d 3c c7 e0 b8 bc c2 65 41 bd
       0.002938659 0.010602386 -0.02256812 -0.047216184
0001c0 6a 4a 5e bc f2 07 ad bd 49 93 8b bd ea 34 28 bd
       -0.013567546 -0.08448781 -0.06815202 -0.041066088
0001d0 72 45 db bc 2e e2 75 bd cb 91 a2 3c d3 8e b7 bd
       -0.026766513 -0.060030155 0.01984491 -0.089627884
0001e0 2a 39 91 bc 01 62 ad bd ea 80 a6 3c a3 c6 f0 bc
       -0.017727453 -0.084659584 0.020325143 -0.029391592
0001f0 5f 51 c6 3a 01 6c b8 bc a3 07 a0 bd 04 fe 64 3d
       0.0015130452 -0.022512438 -0.078139566 0.05590631
000200 e9 0b a4 bd 31 9c ca 3c 40 51 b7 3d 8d e8 9c 3d
       -0.08010084 0.024732681 0.08951044 0.07661543
000210 fa 3d b5 3d ba 27 86 bd 25 bc 57 3d c4 69 e7 bc
       0.08849712 -0.06550546 0.052669663 -0.028248675
000220 5a cf 10 bd b7 88 83 bd e3 44 be 3d 7c 5f 3d 3d
       -0.035353996 -0.06422561 0.09290483 0.04623364
000230 c2 6d 99 3c 35 76 9a 3d f8 c7 50 bd 44 96 fc bc
       0.018729094 0.075420775 -0.050971955 -0.030833371
000240 f2 cc d9 bc d9 13 19 bd 63 b7 0c 3d b3 c9 11 3d
       -0.026586983 -0.037372444 0.03435458 0.035592746
000250 87 fc e9 bb 08 e9 e3 3c 4a 50 97 bd ef e8 07 3d
       -0.0071406993 0.027821079 -0.07388361 0.033181127
000260 3d 94 5b bd 94 d0 a4 3d 8b 63 54 bd ea a5 9d 3d
       -0.053608168 0.080475956 -0.051852744 0.07697661
000270 bb 95 24 bd e5 e5 af 3c 05 82 08 3c 68 c4 6e bc
       -0.040181857 0.021471927 0.00833178 -0.014573194
000280 76 2b 73 3d 90 90 3c 3d 68 c9 a0 ba 69 54 00 bb
       0.05936762 0.046036303 -0.0012267055 -0.0019581562
000290 b4 8e 61 bd 1c 88 e8 3c c5 40 e9 bc 27 14 59 3d
       -0.055067733 0.028385215 -0.028473267 0.052997734
0002a0 95 f8 bc bd a7 20 7c 3d 2f 11 76 bd 64 af b8 bd
       -0.09227101 0.061554577 -0.06007498 -0.09017828
0002b0 48 6d 35 3c bc 5d a0 3d 44 dd d8 bc 62 0a 8d 3d
       0.011073418 0.078303784 -0.026472695 0.06886746
0002c0 8f 63 40 3d 26 30 d8 bc 26 e4 62 bd 59 6a 48 bd
       0.046969946 -0.026390146 -0.05539336 -0.048929546
0002d0 38 03 76 3d 99 16 c2 3c 6a 56 40 3b b6 a5 fd bc
       0.060061663 0.023692416 0.0029348382 -0.030962806
0002e0 5a fe a2 3d cd 30 82 3d 97 bc b1 bd 04 0e 86 bd
       0.0795867 0.06356964 -0.08678549 -0.06545642
0002f0 df 55 94 bd 49 5e b9 3c 1f ed 2f bd c9 6a b5 bc
       -0.07242941 0.022627966 -0.042950746 -0.022145646
000300 94 85 89 bd 3b d0 92 bd 5f 42 38 bb 2d d3 ac bd
       -0.06714931 -0.07168623 -0.0028115732 -0.08438716
000310 a6 8c f7 bc b0 5d f1 3b 6a 80 d6 3c c6 55 b8 bd
       -0.030218434 0.0073659047 0.02618428 -0.09000735
000320 f5 7e 0c 3c 7d 1e 97 3d 9b e9 5a bd 7b bc 16 bd
       0.008575191 0.07378862 -0.05344544 -0.036800843
000330 c6 c0 d2 3c ea 5c ec bb 5c 35 33 bd d7 18 40 3d
       0.025726687 -0.0072132247 -0.04375206 0.04689869
000340 00 ed af bd 65 4a b6 bd ca e9 5c 3d b2 56 07 3d
       -0.08590126 -0.089009084 0.053933896 0.033041663
000350 a4 56 28 3c 29 64 a2 3d cd 21 a1 bd ae 46 82 3d
       0.010274563 0.0792926 -0.07867775 0.06361137
000360 5a 7b 34 3b ca f9 75 3d 04 65 1e 3d 10 60 d8 3c
       0.0027539344 0.06005267 0.038670555 0.026412994
000370 0a 16 b0 bd ca 7c ce 3b 54 22 28 bd 98 4f 57 bc
       -0.085979536 0.006301497 -0.041048363 -0.013141535
000380 27 3f 93 3d e0 88 78 bc d2 34 2d bd 1e c9 04 bd
       0.0718978 -0.015169352 -0.0422867 -0.032418363
000390 db 27 af bc 64 c3 2c 3d 9a 8d 35 3c d6 1e 04 3c
       -0.02138131 0.042178527 0.011081124 0.0080639925
0003a0 0d 5b 6b bd e1 3b ac 3d ae 24 cb bc ad 7a fa 3c
       -0.05745988 0.084098585 -0.024797764 0.030576074
0003b0 29 0e 96 bd a7 43 2c 3d 27 b0 03 3d 14 b3 7f 3d
       -0.073269196 0.042056706 0.032150414 0.06242664
0003c0 1a 78 31 3d 45 fd c1 bd 81 af 02 bd 41 cd 5e 3d
       0.04332743 -0.094721355 -0.031905655 0.054394964
0003d0 b2 16 18 3d 7c 33 ab bc 59 e3 3b 3d cc 8b 95 3d
       0.03713102 -0.020898573 0.045871112 0.07302055
0003e0 a2 19 5e 3c a3 31 03 3c 95 53 a4 3d df f9 89 3d
       0.013555916 0.00800744 0.080237545 0.06737112
0003f0 0c cf 07 bd ba a8 80 bb 84 dc 65 bc af 90 10 3d
       -0.03315644 -0.003926364 -0.014029626 0.03529423

bias f4 [128]
000000 96 a0 4d bd eb 16 27 bd 8d 6f d8 bc 0b 05 94 bd
       -0.050201975 -0.04079334 -0.026420379 -0.07227524
000010 f3 19 ae 3d 67 73 8b 3d 30 63 11 3c 4b 79 d6 3b
       0.08501043 0.068091206 0.008873746 0.006545221
000020 c6 66 8b 3d ea 95 9a 3d f4 5a d7 bc c8 43 32 bd
       0.06806712 0.07548125 -0.026288487 -0.043521672
000030 e8 3d 45 3d 9d 56 6f bd 42 ea 41 3d 53 9d 98 bd
       0.04815474 -0.05843221 0.047342546 -0.07451882
000040 21 b4 27 bd ff 63 9b bb b0 30 51 bd 6c 2d ed 3c
       -0.04094327 -0.004742145 -0.051071823 0.028952323
000050 d4 44 b4 3a b6 73 1d 3c de 13 91 3d 91 5b 1d 3d
       0.0013753423 0.009610107 0.070838675 0.038417403
000060 24 67 78 bd a3 d6 5c bd 64 b9 c8 3c 5a 30 2b bd
       -0.060645238 -0.05391563 0.024502464 -0.04179416
000070 82 7c 93 3d 12 a6 bf 3d fa 98 8a bc 14 eb a2 bd
       0.07201482 0.09357847 -0.016918648 -0.07954994
000080 f5 1f c1 bd 2c 4c 88 bd 1e c9 9d bd 0b 0e 7b 3d
       -0.094299234 -0.06655154 -0.07704376 0.06129269
000090 08 30 61 bd 69 ce 92 bd 4e bb b9 3d 17 d6 88 bd
       -0.054977447 -0.07168276 0.09068929 -0.066814594
0000a0 d6 e2 8d 3d 74 68 e7 bc a1 cb 76 bc 4b b0 1e 3d
       0.06928031 -0.02824805 -0.015063197 0.038742345
0000b0 c3 00 59 3d 22 41 c0 bc 92 30 b6 3d 6b d7 01 3d
       0.052979242 -0.023468558 0.08895983 0.03169958
0000c0 6e 12 97 3d 23 d3 9d 3d 12 a8 61 bd 96 27 77 3c
       0.07376562 0.07706287 -0.055091925 0.015085122
0000d0 f1 7a 94 bd 1d 6d 8a bd f5 9d 7d 3c 60 36 e3 bc
       -0.07250012 -0.06759093 0.015479554 -0.027735889
0000e0 ff 8f 67 bd 8d cb 81 3c 3c 6f 17 bd 3e 1b a1 bd
       -0.05653381 0.01584413 -0.036971316 -0.07866524
0000f0 bf c7 18 3d a4 8f c8 bb 76 a9 1d 3d 6f 75 2e bd
       0.037299868 -0.006120639 0.03849169 -0.042592462
000100 e6 b5 ae bc e0 a0 44 3d 5e f6 87 bd 43 df ac 3b
       -0.02132697 0.048004985 -0.06638788 0.0052756383
000110 74 36 c6 3d 85 b7 69 3c f0 1e 14 3d 17 dc 98 bd
       0.09678355 0.014264946 0.036162317 -0.07463854
000120 f9 83 10 3d f1 4c aa bd 61 6c a6 3d 29 16 98 3c
       0.03528211 -0.08315457 0.081261404 0.018565254
000130 1d 0d 77 bd 99 21 83 3c bb 83 c9 3d 1a 43 59 bd
       -0.06031524 0.016007232 0.09839579 -0.05304251
000140 c6 58 d7 b9 f7 a2 b7 3d e1 c4 25 3b 09 ff 54 3d
       -0.00041074137 0.0896663 0.002529435 0.052001033
000150 89 c0 77 3d 4f 29 af bc 02 aa bf 3d 3d 8d ce bc
       0.06048635 -0.021382002 0.09358598 -0.025213832
000160 80 e0 ca 3d 07 3c 8c bc 4a fb cb 3c fc 80 b7 bd
       0.09906101 -0.017118467 0.024900097 -0.08960149
000170 58 2b 14 3d 98 bf b4 ba a8 da ac bd cc 0d 1d bd
       0.03617415 -0.001379001 -0.08440143 -0.038343236
000180 f0 e0 93 3d 26 50 b0 bd 19 f7 e1 3c cd e5 86 3a
       0.07220638 -0.08609037 0.027583646 0.0010291875
000190 e3 72 19 3c 0a 3d 12 bb f2 bb a6 3b ca 98 dc bc
       0.00936577 -0.0022314214 0.005088323 -0.026928324
0001a0 2b a8 c3 bd 60 5d a7 bc b8 c8 7a 3d 5a 0e bb bd
       -0.0955356 -0.020430267 0.061226577 -0.09133597
0001b0 d3 21 3a bd 91 72 86 bd f9 ba 77 bd 76 d5 db bc
       -0.045442414 -0.065648206 -0.060481045 -0.026835185
0001c0 1a 58 7b 3d a3 29 66 3d bd e1 11 3d 33 37 4a 3d
       0.061363317 0.05619205 0.03561567 0.04936905
0001d0 8c dc ce bd d1 50 b7 bd 30 db bb 3d a0 b7 9a 3d
       -0.1010066 -0.089509614 0.09172666 0.07554555
0001e0 66 2b 42 3d e8 1b ae bd ef db 97 bd 5f 41 af 3d
       0.04740467 -0.085014164 -0.07414996 0.085573904
0001f0 f6 e0 87 bd ec 69 9a bc bc e9 ae 3c 30 75 c9 3d
       -0.06634705 -0.018849336 0.021351688 0.09836805

weight f4 [1, 128]
000000 d9 5a 8e 3c 0f e1 87 3c f7 7e 91 3c 14 aa 40 3a
       0.017377304 0.016586808 0.017760737 0.00073495624
000010 6e be d1 bb ca c5 b6 bb 00 7c 36 bc d3 97 7d 3b
       -0.006400875 -0.0055777775 -0.011137962 0.003869523
000020 be ad 92 bc 47 a6 27 bb 8f c6 5f 3c b3 11 78 bc
       -0.017905112 -0.0025581287 0.01365818 -0.015140939
000030 5d 9e 23 3b 70 ab 6f 3c 1f f4 08 ba 55 71 35 3c
       0.0024966218 0.014628276 -0.0005224365 0.011074384
000040 5a e3 9c 3c 96 f5 43 3c 38 03 5d bc c9 e8 74 bb
       0.019151378 0.011960408 -0.013489537 -0.0037370196
000050 7b 76 6a 3b 25 d0 93 3a fa 13 45 bc 96 8f 40 3c
       0.0035776186 0.0011277242 -0.012028689 0.011752984
000060 3f 8c 86 bc e7 f5 01 3c 76 22 8c bc 34 20 45 3c
       -0.016424296 0.007932163 -0.017106276 0.012031604
000070 54 a5 9e 3b fd b8 d5 bc 00 9b 7f 3c 39 66 d4 3b
       0.004841486 -0.026089186 0.01560092 0.0064819125
000080 b8 25 3e 3c cf b6 b4 3c ca 54 a4 3c d0 a2 f5 bb
       0.011605673 0.022059826 0.020059962 -0.0074962154
000090 3c d5 86 3c 74 a3 61 3c f5 89 84 ba 0a c6 28 bc
       0.0164591 0.01377188 -0.0010111915 -0.010301122
0000a0 e0 d5 15 bb 35 16 71 3c 45 7e a2 b9 c3 de 02 bb
       -0.0022863075 0.014714767 -0.00030993126 -0.0019969202
0000b0 31 13 e5 bc f9 96 e6 bb 2e fd 4c bc 32 f8 6c bc
       -0.027963253 -0.0070370403 -0.012511535 -0.014463471
0000c0 d3 32 97 bc 2e 35 0e bc 08 ba 12 3c da 56 7e bc
       -0.018456852 -0.008679671 0.008955486 -0.015523637
0000d0 f1 7d 24 bc f9 69 5a bb c8 d6 b6 3b d8 c1 8d 3c
       -0.010039792 -0.0033327325 0.005579803 0.017304346
0000e0 be 03 6c bb 63 4c 07 3b b2 7c e8 bc db 32 d2 3c
       -0.0036012973 0.0020644895 -0.028379772 0.025659015
0000f0 2b 06 b5 bc 80 c1 71 3c 6a 6a 04 bc 43 b2 82 3b
       -0.022097668 0.014755607 -0.008082012 0.0039885356
000100 ec 41 2e 3d e2 75 ec bb 75 61 1e 3c 54 49 e3 bb
       0.042543337 -0.007216201 0.00966679 -0.0069362316
000110 ff fe e5 bb e6 02 aa 3c 20 23 86 bc 62 f2 b0 3b
       -0.0070189233 0.020753335 -0.01637417 0.005399988
000120 3f 17 6e 3c 39 eb 69 3c 42 a4 0a bc b0 79 98 3b
       0.0145319095 0.014277273 -0.008462014 0.004653178
000130 ea 5f 24 bc 32 f6 96 bb 6b 7a ab bc d3 1e a1 bc
       -0.010032633 -0.0046069855 -0.020932397 -0.019668018
000140 8e a6 11 3c 33 99 6c bc 98 5b ac bc 61 a6 c4 3a
       0.008889807 -0.014440822 -0.021039769 0.0015003198
000150 6c 64 c2 bb 49 75 4b 3c bc bf 00 bd a6 90 4c 3c
       -0.0059323814 0.0124181 -0.031432852 0.012485659
000160 9e e5 46 bc f4 03 90 3b 71 79 01 3c e8 7e ba 3c
       -0.012139706 0.0043950025 0.007902489 0.022765592
000170 b1 a2 54 bc 9e 7f 26 3c 25 86 fd b9 38 9e 97 3c
       -0.012978242 0.010162262 -0.00048355866 0.018508062
000180 a3 2e cf bc 2f 47 7a 3c de 53 c2 bc e2 c9 55 3c
       -0.025290793 0.015275761 -0.023721632 0.013048621
000190 8b e4 94 bb b7 04 25 bb bf 57 80 3c 3e fd ac 3c
       -0.004543846 -0.0025179812 0.01566684 0.021116849
0001a0 6b 56 a0 3b ee db 99 bc 76 ee 88 bc ab 0b 70 3c
       0.0048931143 -0.018781628 -0.01671527 0.014651219
0001b0 cd 77 85 bc 6b b9 b6 bb fd c1 bb 3c 95 64 db 3c
       -0.016292477 -0.0055763028 0.02291965 0.02678136
0001c0 84 62 ec 3b 2f 0f cf bc 80 32 e6 bb 73 b8 af bb
       0.0072138924 -0.025275795 -0.007025063 -0.005362564
0001d0 e6 12 ca 3c cd b7 8f 3a 4e 55 8d bc d8 39 8f bc
       0.024667215 0.0010964811 -0.01725259 -0.017483637
0001e0 fb 27 99 3c 51 6e 82 3c d1 cc 0e 3c 56 8b d7 bb
       0.018695822 0.015921744 0.008715824 -0.0065778894
0001f0 de b6 85 3c 6f b4 94 3c 66 04 05 3c 89 e4 92 bb
       0.01632255 0.018152444 0.008118724 -0.00448281

weight f4 [3, 128]
000000 1a b5 38 bc 63 51 a1 3b 9c 2f 4f 3b 68 80 bf 3b
       -0.011273647 0.004923032 0.003161407 0.0058441646
000010 b8 22 2e bc c8 90 89 3b 98 00 50 3c db 77 bc ba
       -0.010628395 0.0041981675 0.012695454 -0.0014378981
000020 90 d2 a9 3b c2 aa 27 3c f4 91 a1 3b 64 11 c7 3c
       0.0051825717 0.010233583 0.004930729 0.024300285
000030 50 0d 11 3c c6 6b e6 ba 91 78 cb bb 30 ee e1 bb
       0.008853272 -0.0017579726 -0.006209441 -0.0068948492
000040 ee e5 e5 3a e6 c4 9a bb b3 e1 d7 ba d0 22 18 bb
       0.0017539838 -0.004723179 -0.0016470462 -0.002321411
000050 fc ce 24 3c b1 1e a1 3b 61 6b 74 3c f8 b7 4d bc
       0.010059115 0.004916989 0.014918179 -0.012556069
000060 d2 f1 5d bc 73 7a be 3b 26 a6 06 3c f7 00 97 3b
       -0.013546424 0.005812937 0.008218324 0.0046082693
000070 7f 2a 2d bc d2 95 49 bc 03 53 69 bb 2d fb c4 ba
       -0.010569214 -0.012303786 -0.0035602457 -0.001502847
000080 21 6b ab 3b 01 94 04 bc 3d 46 8d 3c 3c 68 77 3c
       0.0052312766 -0.0080919275 0.017245406 0.015100535
000090 01 ab de ba c4 57 82 3b 07 f2 ab 3a 4a 85 8a bc
       -0.0016988219 0.0039777476 0.0013118394 -0.01690926
0000a0 43 44 7e bb c2 b8 96 39 23 f8 c3 3b 08 fc b0 3a
       -0.0038798011 0.00028747885 0.005980508 0.0013502846
0000b0 c6 07 6e bb fb 2b c5 3c 98 29 8e 3c d5 cd d9 bb
       -0.0036320551 0.024068823 0.017353818 -0.0066468515
0000c0 77 6f df 3a ab db 83 bb 5c dc 93 bb 45 47 9e 3c
       0.0017046769 -0.004023989 -0.004512353 0.019321093
0000d0 7a bc 3e 3c f4 fc 4e 3b 4b 95 cf 3b 21 1d 22 3c
       0.011641616 0.0031583877 0.006334936 0.00989464
0000e0 b5 16 40 3b 7e f9 69 bb a4 6c 54 bc 2f 7b 26 bb
       0.002931041 -0.0035701687 -0.012965355 -0.0025403013
0000f0 73 26 35 3a 17 38 2d bc 3c bf 40 bc 72 b2 90 b9
       0.00069103314 -0.010572455 -0.011764344 -0.00027598772
000100 27 15 be bb d8 87 f2 bb c9 43 52 bb af f9 4c 3c
       -0.0058008614 -0.0074014477 -0.003208386 0.012510701
000110 28 f2 e7 ba 89 75 06 bb fe fa 93 3a d3 37 56 bc
       -0.001769607 -0.0020516834 0.0011290011 -0.013074833
000120 34 43 3c 3b dd 14 bf 39 66 09 3d bc 4c 19 6f 3c
       0.002872658 0.00036445903 -0.011537885 0.014593434
000130 42 63 81 ba b0 e6 3a 3a 35 eb 9b 3b 28 82 89 bb
       -0.00098715 0.0007129712 0.0047582635 -0.004196424
000140 ac 03 e0 3a 16 db 7c ba 07 17 3f 3c 69 ac b6 3a
       0.0017090938 -0.00096456835 0.011663205 0.001393688
000150 df 40 a2 3c 13 9e ea bb 52 26 1b 3c 2d 7d 3a bc
       0.019806324 -0.007159957 0.0094695855 -0.011382383
000160 70 c0 f0 3b 9d 71 79 bc 3a c3 f5 3a 2d bc 0b 3c
       0.007347159 -0.015224841 0.0018750199 0.008528751
000170 91 b9 67 bb 5e 62 55 bc 28 b4 5b 3c 84 d2 03 bc
       -0.003535841 -0.013023941 0.013409652 -0.008045796
000180 ae c4 39 bc 88 78 0f 3c e1 78 96 bb 9e 57 8c bb
       -0.011338396 0.008756764 -0.0045920466 -0.0042829057
000190 a8 dd e4 bb 89 9c 21 3b 4c 72 4f 3c fb 2d 08 3c
       -0.0069844313 0.0024659953 0.012661528 0.008311744
0001a0 59 bd 0a 3c 56 c8 2e 3c 6a 7e 0e bc 4c b7 80 3b
       0.008467996 0.010667881 -0.008697132 0.0039281007
0001b0 cb ef 4c bb 48 ee 8b 3b 53 b0 0a bc ca 0b 73 3b
       -0.0031270857 0.0042703487 -0.0084648905 0.0037085884
0001c0 fb 99 19 3b 69 ac 96 3b da 0b b4 38 5d 0d d9 3a
       0.0023437727 0.0045981896 8.5852764e-05 0.0016559769
0001d0 15 05 67 3b 44 aa d0 3b 71 2c a5 ba 9c 76 89 bb
       0.0035250832 0.0063679535 -0.0012601746 -0.0041950475
0001e0 e5 a1 b4 3b c9 05 84 b8 b7 ea 76 ba 4d 57 3c bb
       0.0055124634 -6.295328e-05 -0.00094191305 -0.0028738559
0001f0 aa 18 7e bc 43 27 3f bc c8 f7 75 3b 68 30 12 bb
       -0.01550881 -0.011667076 0.0037531722 -0.0022306684
000200 c2 9d 29 3b fe 1f 81 bb 0c 56 91 bb 8e 5c 58 3c
       0.0025881384 -0.0039405813 -0.0044353064 0.0132056605
000210 8e be 07 3c d7 4f d2 bb a2 9d 45 3c dc 03 7e bb
       0.008285178 -0.006418209 0.012061508 -0.0038759625
000220 3d bf 5b bb 9e c7 36 3c 6e 65 b5 ba fa c6 95 3c
       -0.0033530735 0.011155991 -0.0013839433 0.018283356
000230 97 b2 cc 3a a9 b3 b4 bc 1c e9 4b 3c 83 ad 83 3c
       0.0015617189 -0.022058325 0.012445714 0.016073948
000240 bf 81 17 3b 82 c3 5c bb 94 91 90 3c e5 b3 b1 bb
       0.0023118106 -0.0033685868 0.017647542 -0.0054230564
000250 e2 72 ba bb 39 c0 7a 3c 3d d6 cf 3b 93 5f b7 38
       -0.0056899646 0.0153046185 0.006342678 8.743922e-05
000260 16 3a 52 39 2d 47 4a bb 6b 23 ef 3b 0e b1 fb bb
       0.000200488 -0.0030865178 0.0072979233 -0.0076810187
000270 56 a7 3b 3c 86 ea ce ba 8a a3 6c 3c ea 3e 8a ba
       0.01145347 -0.0015786446 0.014443288 -0.0010547314
000280 7f 0e 11 bc 3a 6c d5 ba 5e b9 2c 3c fd b0 cb bb
       -0.008853554 -0.0016282864 0.010542242 -0.006216167
000290 b9 16 ae bb 8e f6 60 3b 04 e1 4b ba 96 50 21 bc
       -0.0053127673 0.0034326646 -0.00077773654 -0.009845873
0002a0 45 b2 04 3c 3d b5 5a 3c 3a f7 c9 3a 4f 65 31 bc
       0.008099143 0.013348875 0.0015408762 -0.0108273765
0002b0 26 d0 c4 3b 27 25 1f bc 45 a2 6f bb 06 23 82 bb
       0.0060062585 -0.009713448 -0.0036565226 -0.0039714603
0002c0 ef 76 76 bc 59 68 09 3c 98 06 52 bb 4a 5f 32 ba
       -0.015043004 0.008386695 -0.0032047387 -0.00068043603
0002d0 8f 4e c0 3b b8 ff e6 3b 9c 93 ab 3b 37 4a ff 3b
       0.00586874 0.007049527 0.0052361023 0.0077908295
0002e0 45 c7 e9 bb 08 63 96 39 ee 9d 96 ba eb f7 60 3b
       -0.0071343505 0.00028684014 -0.0011491159 0.0034327458
0002f0 b7 bb 8a 3b 95 af 0a 3c ec 78 87 bb 35 3a 11 bc
       0.004233803 0.008464714 -0.004134288 -0.008863975
000300 08 22 60 3c d8 e0 4c 3c fe 1f 42 3b 5f 8c 23 bc
       0.013679989 0.012504779 0.002962112 -0.009982198
000310 7f 21 1b bb 8c 30 e1 3b 17 30 dc bb 82 63 ca 3b
       -0.0023671088 0.0068722423 -0.0067196 0.006176413
000320 d9 b3 91 bb a9 55 99 bc 5b 4e 66 3c 9f 9d 35 39
       -0.0044464883 -0.018717604 0.014056767 0.00017320224
000330 e1 80 90 3b 72 a4 ae 3a 3e a6 2c bb 8e 1d 4d bc
       0.004409895 0.0013324155 -0.0026344205 -0.012519253
000340 97 89 1f 3c 9c a8 5d 3a ed 6c 23 bc 69 69 c7 3a
       0.009737394 0.0008455606 -0.0099747 0.001521391
000350 ba 34 74 3c b6 19 3b 3b 0e 96 21 3c 37 fd 11 3a
       0.014905149 0.002854926 0.009862436 0.0005569043
000360 9a 9f 64 3a 21 27 a5 bc ea 9b ee 3b 41 af d3 bb
       0.0008721292 -0.02016026 0.00728177 -0.006460101
000370 a0 e2 9d 3b 4c 58 14 3c a7 b7 6c 3b 62 d6 f0 3b
       0.0048182756 0.009054255 0.0036120208 0.007349775
000380 58 1f 08 bc 71 22 36 3c 53 68 55 3b 3e 07 36 bc
       -0.008308254 0.01111661 0.0032563403 -0.011110125
000390 00 5f 99 3a 05 24 c9 3b ab a0 49 bc 08 41 03 3c
       0.0011701286 0.006138327 -0.012306373 0.00801111
0003a0 96 7c 7d 3a 2a 32 0b bb db 7e 5f 3b 76 d6 a2 ba
       0.0009669749 -0.0021239617 0.0034102711 -0.0012423533
0003b0 2e 97 1b bb fa a7 72 3c 27 50 a0 3c 9b b6 9a 3b
       -0.0023741233 0.014810557 0.01956947 0.0047214753
0003c0 fc 3c f8 3b fa 7c 12 3c 41 b9 87 3b 66 9c 5c 3c
       0.0075756293 0.00894093 0.004141957 0.013465023
0003d0 bd 4d 2e ba 76 c6 63 b9 63 47 47 bc 42 2a 26 3c
       -0.0006649157 -0.0002172234 -0.012163016 0.010141911
0003e0 ef 51 ba 3b ba de 54 bc ae ac af ba b9 e4 7a bb
       0.005686037 -0.012992555 -0.0013402903 -0.0038283302
0003f0 f4 9f 13 ba 33 df de bb e2 be 90 bc 71 f6 1b 3b
       -0.000563144 -0.0068015098 -0.017669145 0.0023798014

bias f4 [3]
000000 48 c3 96 3a 24 b4 40 3b fe 50 35 bb
       0.001150229 0.0029404247 -0.0027666683

weight f4 [1, 128]
000000 3d fb 43 3c a0 45 cd 3c 57 24 76 3c 02 47 85 3c
       0.011961755 0.025057614 0.0150233125 0.01626921
000010 19 33 4d bc 6c 7b ad bc 2c 6b cd bb d6 34 95 3c
       -0.01252439 -0.021177016 -0.0062688794 0.01821367
000020 68 f3 e5 bc 56 43 c4 3b 93 ff 60 3c ef 45 b0 bc
       -0.028070167 0.0059894724 0.013732809 -0.021517722
000030 36 70 d5 3c dd 05 39 3c 1e 75 10 3c 2b 16 26 3c
       0.026054483 0.011292902 0.008816985 0.010137121
000040 7d bc 36 3c bd 88 ab 3b fd e8 49 bc 86 67 6c 3c
       0.011153338 0.0052348063 -0.012323615 0.014428979
000050 3c 97 30 bc 30 82 8c 3c 56 8a 5d bc d2 47 8c 3c
       -0.010778245 0.017151922 -0.013521751 0.01712409
000060 77 ae cc ba 6e 85 12 3c ea c5 71 bc e2 eb a1 3c
       -0.001561596 0.008942945 -0.014756659 0.019765798
000070 b0 5c bf ba 19 42 56 bc 0f f1 50 3c 4c fa aa 3c
       -0.0014599767 -0.013077282 0.012752785 0.020871304
000080 f5 5e 04 3c 1d b1 01 3d 24 1b 8f bb 23 2a db 3b
       0.00807928 0.03166305 -0.004367249 0.0066883727
000090 2e 47 de 3c bf e0 49 3c 5b ae 99 bc fb c2 95 bc
       0.02713355 0.01232165 -0.018759897 -0.01828145
0000a0 5a 73 93 3b 93 f3 f6 3b b7 69 64 3b 89 ec 4c 3c
       0.004499835 0.0075363605 0.003485305 0.012507566
0000b0 f0 e3 af bc f8 89 67 bc ad 02 12 bc 2c 64 5e bc
       -0.021470994 -0.014132015 -0.008911771 -0.0135736875
0000c0 56 a3 37 bc 4d b4 85 bc b4 85 bb 3b 0d 8e 27 bc
       -0.011208376 -0.016321326 0.0057227258 -0.010226739
0000d0 c4 18 95 bc ac 81 8d 3c bf 23 8d 3c a1 74 fa 3b
       -0.018200286 0.017273746 0.01722896 0.007643298
0000e0 65 27 97 3a f3 e7 37 bc 2b cf 04 bc 00 b4 39 3c
       0.0011532126 -0.011224735 -0.008106033 0.011334419
0000f0 dd b4 ba bc 49 75 82 bc bd 44 11 bc a7 62 45 3c
       -0.02279132 -0.015925067 -0.008866486 0.012047446
000100 1e 28 1f 3c 65 b4 a0 bc 97 89 35 3c 1c b6 5f 3b
       0.0097141545 -0.019617269 0.011080167 0.0034135645
000110 2b f7 17 bc de 2b a1 3c 06 b8 e1 bc 69 4a d4 ba
       -0.009275238 0.019674238 -0.02755357 -0.0016196492
000120 db 1b 9c 3b e3 45 8c 3a cb 64 8d bc 9e ff 93 3c
       0.004764063 0.001070198 -0.017259976 0.018066224
000130 77 fe 80 3c 77 ed 56 bc c2 9d f4 bb ce d8 d6 3b
       0.015746338 -0.0131181395 -0.0074650953 0.006556607
000140 f1 23 2c 3c 04 90 d5 bb 46 11 15 3b a7 b5 5b b8
       0.010506616 -0.006517412 0.0022745891 -5.2382846e-05
000150 8b 21 49 bc 3d 6b 10 bb 4d 7e 61 bc a7 d0 7c 3c
       -0.012276064 -0.0022036575 -0.013763023 0.015430606
000160 8e 21 8a bc 15 49 29 3c 91 d1 b3 ba 88 66 ea 3c
       -0.016861703 0.0103323655 -0.0013719072 0.028613344
000170 7a 8b 3c bb dc 2e 98 3b 75 17 35 3c e3 19 09 3c
       -0.0028769658 0.004644258 0.011052956 0.008367988
000180 f0 11 98 bc 10 33 83 3b 3d a1 c3 bc 5f d8 77 3c
       -0.01856324 0.00400389 -0.023880595 0.0151272705
000190 89 e5 a7 bc d9 9f 58 bc 71 61 bc 3b 9a ca d1 3c
       -0.020495193 -0.013221704 0.0057489206 0.025609303
0001a0 27 b6 c7 3c c4 ad 5e 3c ff 2c b3 bc 6a 21 b0 3b
       0.02437885 0.013591234 -0.021872042 0.005375077
0001b0 a9 9e 0f bb d8 75 34 bc 30 72 c0 3c bb 0a 21 3c
       -0.0021914637 -0.011014424 0.023491949 0.0098292185
0001c0 5c 24 84 3b 79 17 a9 b9 8f 44 31 bc 43 2b 91 bc
       0.0040326547 -0.0003225168 -0.010819568 -0.017720824
0001d0 8a 98 59 3c df c2 3f 3c ac f5 d4 bb 73 22 51 bc
       0.013280997 0.011704176 -0.006499013 -0.012764561
0001e0 ea 26 e3 3c e3 ad 93 ba d2 82 a3 3c da 46 4b bc
       0.027728517 -0.0011267032 0.01995984 -0.012407029
0001f0 1a d7 e5 3b 6e 55 73 3c c9 08 80 3c 8e a9 89 bc
       0.0070141675 0.014851911 0.01562919 -0.016804483
