TradeSimulator-v0_D3QN_-1/actor_00540360.pth (torch, 151866 bytes, 14 tensors)

state_avg f4 [10]
0.33963907 0.0012291537 -0.009087258 0.30011305 0.0043057823 -0.013015286 -0.10393674 0.39947677
0.0061828406 -0.02576772
00000000: 2ce5 ad3e 8e1b a13a b9e2 14bc 6ba8 993e
00000010: 8517 8d3b 113e 55bc c9dc d4bd 3888 cc3e
00000020: 6d99 ca3b d316 d3bc

state_std f4 [10]
0.76395214 0.5699748 0.80553544 0.88466305 0.7252914 0.6686337 0.9917944 0.7431829
0.7103711 0.67213213
00000000: 5e92 433f dee9 113f 9237 4e3f 4779 623f
00000010: b2ac 393f 942b 2b3f 3de6 7d3f 3c41 3e3f
00000020: e1da 353f da10 2c3f

weight f4 [128, 10]
0.17505646 0.10098887 -0.045182537 0.17952245 -0.3003843 0.21084425 -0.087710455 0.17478515
0.04634609 -0.033002168 0.09477865 0.43197018 0.13042885 -0.120582364 -0.047709122 -0.035155907
0.046027586 -8.2358536e-05 0.25650793 0.116952196 -0.11463674 -0.46467623 -0.06446791 -0.14134532
-0.11289099 0.0005944695 0.19198452 0.17684913 -0.26724413 0.17998028 0.07937201 -0.002649605
0.22472292 -0.3006777 -0.23920934 -0.14622815 0.29167107 -0.05844067 0.12918654 -0.10548601
0.30749974 -0.4747541 0.21691783 0.019006869 -0.15397958 0.15954408 -0.18562576 0.11132721
-0.08459666 -0.0423855 -0.33013228 -0.36114419 0.17237893 -0.1018519 0.31387106 0.19755082
-0.03657099 -0.16507798 0.18606007 0.07809186 -0.19651899 -0.18169813 0.17790218 0.30933923
-0.1687411 -0.064162 -0.009609248 0.046004094 -0.21602212 -0.19002846 0.18622349 -0.3883346
0.14033924 0.02217534 0.094495915 0.050692484 0.1004936 0.17144124 -0.26184002 0.13817745
-0.24102542 -0.25223812 0.026457757 -0.05196437 0.18781313 -0.19560301 -0.26435065 0.23759209
-0.054801326 0.19756779 0.10060152 -0.65801543 0.06295448 0.07587592 -0.20857173 -0.15524134
0.107737556 0.068536006 -0.141449 -0.09532049 0.29178417 -0.31495985 0.178403 0.12452635
-0.17427933 -0.25528923 0.30609193 0.017823517 0.20594552 0.042689115 0.09501506 -0.061907507
0.28337988 -0.20723245 0.04971754 0.21946563 0.24403574 0.20879784 -0.17555937 -0.19903748
-0.18855557 -0.27020523 0.29251698 -0.20576757 0.16090846 -0.14646702 -0.29491222 -0.06427763
0.16653033 0.28231996 -0.18478553 0.2118924 0.25566354 0.20622557 0.20711844 0.2408956
0.20974042 0.107366644 -0.17203054 -0.24589804 -0.13665162 -0.07271253 -0.19163546 0.12944515
0.080295466 -0.055845525 0.118046574 0.0848129 0.18853875 0.15890947 -0.1098419 -0.0829727
-0.047743857 -0.009372008 -0.27858868 -0.17641464 -0.20173688 -0.14216065 0.21196486 -0.099952005
-0.24805422 0.048743326 0.09475004 0.18900079 -0.15541993 0.05845732 -0.09659569 -0.07447045
-0.2592541 -0.15421636 -0.0871862 -0.11774994 0.06166916 0.08333092 0.31436074 0.26590255
0.2508919 0.007389146 -0.19410314 0.20284757 -0.077152446 -0.39543724 -0.24919373 -0.0635156
-0.18132038 0.2261184 -0.30348343 -0.25339657 -0.005519214 -0.16321537 0.12055966 -0.19544362
-0.14912567 0.019623293 0.21402591 -0.19729424 0.16174266 0.20770125 0.2704659 -0.24940653
0.09771647 0.10530481 0.27878967 -0.10409217 0.19750504 -0.0050873393 -0.015979651 0.0017791064
0.05358454 0.14821996 0.053847894 -0.24614671 -0.24763706 0.2493871 0.22735772 0.20896457
0.2547761 -0.22827664 -0.11194859 0.2690511 -0.23249938 -0.017402688 -0.24797043 -0.23871127
0.15007645 -0.19333205 -0.08385971 0.24320836 0.26175737 0.276785 -0.043296244 -0.69491065
0.2831227 -0.059391193 -0.110952206 0.07946468 -0.23205838 0.23510532 0.1850019 -0.25750685
-0.27125612 -0.11985794 0.1027892 0.013129114 -0.11843841 0.030604305 -0.3077468 -0.21842903
-0.22834969 0.21129595 0.28506362 -0.31914818 0.008941844 0.14917071 0.035195395 -0.15731184
00000000: 0042 333e 41d3 ce3d 5311 39bd bcd4 373e
00000010: f9cb 99be 8ee7 573e 8aa1 b3bd e1fa 323e
00000020: 66d5 3d3d 482d 07bd 4f1b c23d 322b dd3e
00000030: 248f 053e e3f3 f6bd a46a 43bd a4ff 0fbd
00000040: 6c87 3c3d e7b7 acb8 0255 833e a284 ef3d
00000050: abc6 eabd 0bea edbe c007 84bd d4bc 10be
00000060: 6433 e7bd 2cd6 1b3a 9797 443e f017 353e
00000070: 39d4 88be c04c 383e cb8d a23d ffa4 2dbb
00000080: c41d 663e 6df2 99be 4bf3 74be d5bc 15be
00000090: e955 953e 7c5f 6fbd 7a49 043e 0d09 d8bd
000000a0: 9b70 9d3e f812 f3be b51f 5e3e 4bb4 9b3c
000000b0: d3ac 1dbe 865f 233e ae14 3ebe 85ff e33d
000000c0: 0441 adbd 6b9c 2dbd 1907 a9be e4e7 b8be
000000d0: 1a84 303e bb97 d0bd b5b3 a03e c34a 4a3e
000000e0: 76cb 15bd 340a 29be 8886 3e3e a0ee 9f3d
000000f0: 463c 49be 130f 3abe fd2b 363e b661 9e3e
00000100: 78ca 2cbe 5e67 83bd 1b70 1dbc ca6e 3c3d
00000110: e734 5dbe d296 42be 5fb1 3e3e cbd3 c6be
00000120: 17b5 0f3e 0fa9 b53c 1387 c13d eca2 4f3d
00000130: 97cf cd3d 4b8e 2f3e e50f 86be 647e 0d3e
00000140: 5ecf 76be 5b25 81be f0bd d83c 97d8 54bd
00000150: 1652 403e 284c 48be f858 87be 574b 733e
00000160: 5b77 60bd 364f 4a3e 2b08 ce3d b373 28bf
00000170: 47ee 803d d664 9b3d d493 55be 96f7 1ebe
00000180: 82a5 dc3d 9b5c 8c3d 02d8 10be 6437 c3bd
00000190: bc64 953e 6b42 a1be 47af 363e ac07 ff3d
000001a0: 4876 32be 45b5 82be 15b8 9c3e a002 923c
000001b0: 62e3 523e c8da 2e3d 4197 c23d ba92 7dbd
000001c0: 2b17 913e be34 54be 9fa4 4b3d 99bb 603e
000001d0: 81e4 793e 1acf 553e d6c5 33be 7bd0 4bbe
000001e0: b614 41be 5758 8abe c9c4 953e bcb4 52be
000001f0: 30c5 243e 73fb 15be bcfe 96be fda3 83bd
00000200: ed86 2a3e 3e8c 903e 6b38 3dbe 52fa 583e
00000210: 55e6 823e cc2c 533e db16 543e 56ad 763e
00000220: 31c6 563e 0be3 db3d c628 30be b2cc 7bbe
00000230: 67ee 0bbe 4fea 94bd 163c 44be 458d 043e
00000240: f371 a43d 47be 64bd 67c2 f13d 63b2 ad3d
00000250: 4d10 413e 2ab9 223e caf4 e0bd 97ed a9bd
00000260: 108f 43bd 0d8d 19bc 2da3 8ebe 0aa6 34be
00000270: 1d94 4ebe 9092 11be 510d 593e a3b3 ccbd
00000280: ed01 7ebe 15a7 473d 4f0c c23d 6c89 413e
00000290: 6726 1fbe f170 6f3d f6d3 c5bd f783 98bd
000002a0: f4bc 84be e5ea 1dbe ae8e b2bd e126 f1bd
000002b0: cd98 7c3d 67a9 aa3d e4f3 a03e 6124 883e
000002c0: e774 803e a620 f23b f9c2 46be 46b7 4f3e
000002d0: 1a02 9ebd c076 cabe a42c 7fbe 7814 82bd
000002e0: 0dac 39be 958b 673e 2e62 9bbe 32bd 81be
000002f0: 86da b4bb ee21 27be fce7 f63d 5f22 48be
00000300: 66b4 18be 07c1 a03c 9c29 5b3e 8007 4abe
00000310: de9f 253e a3af 543e 827a 8a3e 6d64 7fbe
00000320: 931f c83d 0caa d73d 85bd 8e3e 472e d5bd
00000330: c33e 4a3e b2b3 a6bb c2e7 82bc e830 e93a
00000340: 767b 5b3d f9c6 173e 9c8f 5c3d e20d 7cbe
00000350: 9294 7dbe 555f 7f3e 76d0 683e cffa 553e
00000360: 0372 823e 5ac1 69be 4d45 e5bd 11c1 893e
00000370: 5114 6ebe 1590 8ebc f6eb 7dbe ba70 74be
00000380: a4ad 193e d6f8 45be a4be abbd 9d0b 793e
00000390: 1005 863e c3b6 8d3e 6757 31bd aae5 31bf
000003a0: 75f5 903e 2e44 73bd e93a e3bd 61be a23d
000003b0: b6a0 6dbe 73bf 703e 2371 3d3e f0d7 83be
000003c0: 15e2 8abe 1478 f5bd 2583 d23d 7f1b 573c
000003d0: d68f f2bd e1b5 fa3c fd90 9dbe dcab 5fbe
000003e0: 80d4 69be f75d 583e dcf3 913e 6467 a3be
000003f0: d080 123c 35c0 183e 0c29 103d 5b16 21be

bias f4 [128]
0.04103061 -0.008637294 0.06297368 -0.005763983 0.18986829 -0.007467563 0.23474479 0.09290289
0.006838948 0.06015873 0.23702948 0.064838186 0.23159455 -0.012098482 0.0062503885 0.27728954
-0.30785298 0.051167104 0.301597 -0.14372943 -0.043620873 -0.0022199578 0.116573475 0.15210783
0.08715007 0.13445088 -0.12566285 0.15129371 -0.094090775 0.22404261 -0.07467269 -0.27137482
0.04307821 0.19607283 -0.006049543 -0.010338616 0.005994082 0.18269292 0.019481922 -0.3112831
-0.23783755 0.037149087 -0.0074003814 0.33299863 -0.04360827 0.24285656 -0.24323072 -0.3015194
-0.010179765 -0.22810937 -0.09550345 0.028925158 -0.25722608 0.23933579 -0.17474376 0.26219377
0.09993401 -0.04394586 -0.26032108 0.0427533 -0.1680594 0.29239082 -0.25984937 -0.088272005
-0.14845952 -0.1929723 -0.2069848 -0.016364088 0.015659887 0.07735363 0.17674203 -0.11460086
-0.22397779 -0.06832525 0.32047307 -0.040722765 -0.2767203 0.2654957 0.06416084 0.07928193
0.06801395 0.22998278 -0.14187835 0.24939643 0.32527784 -0.069660656 0.22383563 0.19851132
0.31947303 -0.0637712 -0.20927916 -0.10463134 -0.20179987 0.028212756 0.32782882 0.32917038
0.23156875 0.04489036 0.025435653 0.20317775 0.20344032 -0.030910747 -0.086985685 0.1379043
0.02247312 -0.20887864 -0.16114216 0.2737052 0.28175893 -0.10922604 -0.057032395 -0.16322719
-0.09883158 0.3046458 -0.32450902 0.15329608 -0.29484263 -0.14186332 -0.04991843 0.021142282
-0.035900306 -0.15888327 -0.13172358 -0.20413072 -0.22262359 -0.19974808 0.32778713 -0.12797152
00000000: b70f 283d 7083 0dbc 58f8 803d cbdf bcbb
00000010: d56c 423e 75b2 f4bb f060 703e df43 be3d
00000020: 4119 e03b 0069 763d dbb7 723e e2c9 843d
00000030: 1f27 6d3e b638 46bc 0fd0 cc3b e5f8 8d3e
00000040: e89e 9dbe 9994 513d ec6a 9a3e cf2d 13be
00000050: cdab 32bd b67c 11bb 13be ee3d 28c2 1b3e
00000060: bc7b b23d 7ead 093e c3ad 00be bdec 1a3e
00000070: aab2 c0bd 6d6b 653e ffed 98bd a4f1 8abe
00000080: c772 303d 51c7 483e 3f3b c6bb 4c63 29bc
00000090: 016a c43b da13 3b3e 8d98 9f3c 8060 9fbe
000000a0: b08b 73be a429 183d e67e f2bb cc7e aa3e
000000b0: 969e 32bd 64af 783e 7911 79be c060 9abe
000000c0: 07c9 26bc 8195 69be 5097 c3bd 74f4 ec3c
000000d0: 23b3 83be 7114 753e 07f0 32be 433e 863e
000000e0: 34aa cc3d 9300 34bd ce48 85be 161e 2f3d
000000f0: c317 2cbe 40b4 953e fa0a 85be f4c7 b4bd
00000100: c605 18be 889a 45be d3f3 53be fb0d 86bc
00000110: 2a49 803c 946b 9e3d ddfb 343e dbb3 eabd
00000120: 6f5a 65be 1cee 8bbd 0c15 a43e eacc 26bd
00000130: 48ae 8dbe 0def 873e c266 833d 915e a23d
00000140: e64a 8b3d 9b80 6b3e 8f48 11be c761 7f3e
00000150: d18a a63e 3faa 8ebd 2b35 653e 8d46 4b3e
00000160: f891 a33e 7a9a 82bd 474d 56be f548 d6bd
00000170: a0a4 4ebe 701e e73c 2ed9 a73e 0589 a83e
00000180: 5c20 6d3e f4de 373d 6e5e d03c d40d 503e
00000190: a952 503e 8938 fdbc 8d25 b2bd c936 0d3e
000001a0: 8c19 b83c 48e4 55be 7302 25be 1723 8c3e
000001b0: b542 903e e7b1 dfbd cd9a 69bd 0725 27be
000001c0: 3668 cabd 89fa 9b3e 0c26 a6be a6f9 1c3e
000001d0: 9df5 96be 9e44 11be 4577 4cbd 9432 ad3c
000001e0: 330c 13bd 4cb2 22be 8ce2 06be a507 51be
000001f0: 70f7 63be c38a 4cbe b7d3 a73e f70a 03be

weight f4 [128, 128]
-0.08946088 0.06863482 0.040076904 0.06846563 -0.085857704 -0.078489274 -0.0632145 -0.05109012
-0.014363287 0.047232665 0.05561189 -0.06420754 0.031786006 -0.03164002 0.0071057174 0.041341655
0.024129344 0.02784241 -0.0019210696 0.060274698 0.020781035 0.078265384 0.014677859 -0.03776583
0.044570733 0.0030087868 0.09553675 -0.014937002 0.07751418 -0.054759 0.039745547 -0.057745934
0.054775573 0.021911807 0.063926145 -0.077270776 -0.09049008 0.040841166 -0.02163624 0.035541754
-0.049353715 -0.024294648 0.019910388 0.051735397 0.033499263 0.0048073614 -0.030884309 0.028209431
0.025368053 -0.06313511 -0.019681089 -0.092981756 0.009803511 -0.009786042 0.05062324 0.084628336
-0.07046528 -0.029377762 -0.060386423 -0.0031462284 -0.04560965 -0.061888434 -0.03388857 -0.007812088
0.055567127 -0.021368442 0.06193651 -0.06786149 0.0071247155 -0.05444415 -0.08951734 0.012274484
-0.041905057 0.065319195 0.06138323 -0.077064544 0.002954667 -0.0067757396 -0.043882158 -0.042640265
-0.04871028 0.047587924 0.0079284925 0.06747129 -0.010805945 0.042851597 0.013119692 -0.017918099
-0.01885073 -0.09000598 -0.019999607 -0.027616452 -0.048114523 -0.03063986 -0.042725693 -0.06669434
0.010454522 -0.0021848353 -0.03212102 0.08922246 0.07095239 0.042262673 -0.048770018 -0.004096785
-0.08099569 0.058565367 0.07209062 -0.011947024 0.05903201 0.07392509 -0.013952168 -0.037402626
-0.009617975 0.009905541 -0.066786736 0.009595708 -0.023615893 0.06420807 -0.037843388 0.06876933
0.057644792 -0.023400748 0.03613179 -0.015113524 -0.032168727 -0.037902933 0.004078667 0.024490554
-0.011309866 0.01382109 0.06010188 0.038745955 0.042745296 0.029390527 -0.061704457 -0.051615216
-0.059869442 0.06369339 -0.07523846 -0.06195947 0.056803007 0.053700123 -0.079480775 0.05533858
-0.02353334 0.017469943 -0.04882275 -0.0137147475 0.017505663 0.06639716 0.055709064 -0.04145482
-0.0584449 0.0015165173 0.027672775 0.05832891 -0.084327646 0.0024528573 0.011615376 -0.043821827
0.07684019 -0.013788506 -0.07776935 -0.047028642 0.0034718798 -0.05564452 0.023633415 0.07542575
0.010419377 -0.011796517 0.093197845 0.07266711 0.06382437 0.014267686 0.010073039 -0.06088721
0.015353735 0.09588019 0.011256413 -0.071709566 0.03511923 0.08332202 0.08069152 0.012647618
0.023395477 0.020193152 -0.03581301 -0.011162804 0.06486067 0.018370796 0.083808824 -0.06534674
-0.00878776 0.0028672896 -0.04351711 0.071786925 0.0638153 -0.042281367 0.08287437 0.073918976
-0.049406562 0.0013144811 0.09059187 -0.05574176 -0.0075649056 -0.057626255 0.0713882 0.02138075
0.041877348 0.072723955 -0.016804397 -0.070483506 0.01297198 -0.0026956901 0.04017799 0.048174877
-0.03618241 -0.030882636 0.05685398 0.028352914 0.021286529 0.05073038 0.045088127 -0.05717203
0.016392868 0.0051886872 -0.079022504 0.026394382 0.0074243494 0.07160376 -0.087853275 0.08866527
-0.040812384 0.04588739 0.058109336 -0.0036199351 -0.04087312 -0.011798141 -0.0592151 0.013580183
0.035095323 0.023770716 -0.051170748 0.06163627 0.07571773 -0.026438959 0.045789476 -0.0083047245
0.03636188 -0.06727277 -0.07003373 -0.0148907425 -0.067704834 0.035165694 0.08981046 -0.018153794
00000000: 4437 b7bd 6a90 8c3d ae27 243d b537 8c3d
00000010: 2ad6 afbd fcbe a0bd 9b76 81bd e043 51bd
00000020: fe53 6bbc 0a77 413d 4bc9 633d 3e7f 83bd
00000030: 0b32 023d f798 01bd 14d7 e83b de55 293d
00000040: e7aa c53c c415 e43c 66cc fbba 9ae2 763d
00000050: fd3c aa3c 9a49 a03d 677b 703c 58b0 1abd
00000060: cd8f 363d 112f 453b c6a8 c33d 54ba 74bc
00000070: c1bf 9e3d f94a 60bd 3acc 223d 0087 6cbd
00000080: 5a5c 603d 6480 b33c b6eb 823d 2440 9ebd
00000090: dd52 b9bd 1149 273d 7c3e b1bc 3b94 113d
000000a0: 1f27 4abd 9205 c7bc 1c1b a33c 7fe8 533d
000000b0: 8636 093d 1287 9d3b 1701 fdbc 7717 e73c
000000c0: aad0 cf3c fb4c 81bd 3c3a a1bc 386d bebd
000000d0: e89e 203c a355 20bc 515a 4f3d 9f51 ad3d
000000e0: 1a50 90bd a2a9 f0bc c157 77bd f430 4ebb
000000f0: 2fd1 3abd ba7e 7dbd bece 0abd 8bfc ffbb
00000100: 5b9a 633d df0c afbc 23b1 7d3d f7fa 8abd
00000110: 7276 e93b d400 5fbd de54 b7bd eb1a 493c
00000120: a3a4 2bbd 12c6 853d fb6c 7b3d 04d4 9dbd
00000130: 16a3 413b 0607 debb c7bd 33bd 8fa7 2ebd
00000140: 6e84 47bd 8eeb 423d 82e6 013c 632e 8a3d
00000150: 6b0b 31bc 2885 2f3d faf3 563c fac8 92bc
00000160: d96c 9abc 0e55 b8bd 37d6 a3bc e63b e2bc
00000170: bc13 45bd 7200 fbbc 2301 2fbd 0b97 88bd
00000180: 7249 2b3c 742f 0fbb 5591 03bd 44ba b63d
00000190: 7d4f 913d a01b 2d3d 12c3 47bd 533e 86bb
000001a0: 11e1 a5bd 3de2 6f3d 3fa4 933d 73bd 43bc
000001b0: 8dcb 713d 0a66 973d a297 64bc 7f33 19bd
000001c0: b694 1dbc da4a 223c 7cc7 88bd 5137 1d3c
000001d0: 1e76 c1bc 857f 833d ab01 1bbd efd6 8c3d
000001e0: f21c 6c3d edb2 bfbc eefe 133d b79e 77bc
000001f0: 5bc3 03bd 1b40 1bbd 57a6 853b 6aa0 c83c
00000200: 044d 39bc da71 623c 642d 763d 14b4 1e3d
00000210: b115 2f3d 67c4 f03c d0bd 7cbd 7a6a 53bd
00000220: a939 75bd ae71 823d 9f16 9abd 37c9 7dbd
00000230: 45aa 683d a9f4 5b3d d1c6 a2bd b5aa 623d
00000240: fec8 c0bc 201d 8f3c 5dfa 47bd d2b3 60bc
00000250: 0968 8f3c 3cfb 873d 302f 643d 88cc 29bd
00000260: eb63 6fbd e0c5 c63a 04b2 e23c 4cea 6e3d
00000270: f9b3 acbd 1ec0 203b 6b4e 3e3c 847e 33bd
00000280: 645e 9d3d 30e9 61bc 8945 9fbd 1ba1 40bd
00000290: 7a88 633b 82eb 63bd dd9a c13c d178 9a3d
000002a0: 09b6 2a3c 2e46 41bc 83de be3d 7ed2 943d
000002b0: 5ab6 823d 03c3 693c 6309 253c de64 79bd
000002c0: 3b8e 7b3c d55c c43d d16c 383c 77dc 92bd
000002d0: 2fd9 0f3d bca4 aa3d 9841 a53d f437 4f3c
000002e0: dfa7 bf3c 1c6c a53c aab0 12bd 32e4 36bc
000002f0: acd5 843d 5a7e 963c f6a3 ab3d 83d4 85bd
00000300: 89fa 0fbc 23e9 3b3b ff3e 32bd 0605 933d
00000310: 99b1 823d 3a2f 2dbd 0aba a93d d562 973d
00000320: 895e 4abd ab4a ac3a 3b88 b93d 7951 64bd
00000330: 07e3 f7bb 8209 6cbd fa33 923d af26 af3c
00000340: 9587 2b3d 4cf0 943d 60a9 89bc a859 90bd
00000350: 6d88 543c 2daa 30bb ad91 243d 0553 453d
00000360: 0234 14bd 95fd fcbc b8df 683d 5f44 e83c
00000370: 1661 ae3c a9ca 4f3d 54ae 383d 382d 6abd
00000380: 564a 863c dd05 aa3b 8dd6 a1bd 0839 d83c
00000390: f547 f33b fea4 923d 6bec b3bd 2396 b53d
000003a0: e32a 27bd 6af4 3b3d 0e04 6e3d 6f3c 6dbb
000003b0: 936a 27bd fd4c 41bc 888b 72bd 6a7f 5e3c
000003c0: 1dc0 0f3d ceba c23c 6b98 51bd 5076 7c3d
000003d0: e611 9b3d 8496 d8bc bf8d 3b3d 8a10 08bc
000003e0: 32f0 143d 4ec6 89bd d86d 8fbd 4df8 73bc
000003f0: d5a8 8abd e709 103d 8cee b73d 44b7 94bc

bias f4 [128]
0.06556856 0.059616853 -0.021883318 0.046429627 -0.029599177 -0.010493343 -0.079536706 0.04491001
0.064979345 0.010112236 -0.08797883 -0.0034866412 -0.058874585 -0.041195516 -0.014199929 0.04130031
0.048258632 -0.08200618 -0.05000218 -0.04971171 0.028505418 0.0026666839 -0.017583305 0.01239877
0.0056709056 -0.07756081 0.033052266 0.019990057 0.018467868 0.050353646 0.018700268 -0.051717
0.10390449 0.04535268 0.09234719 0.016888123 0.06909177 -0.0036990505 0.0001051501 0.049436774
-0.036622774 -0.07940061 0.025769822 0.0661245 0.09470438 -0.006642411 -0.024699679 -0.054535273
0.09516717 0.0031849847 -0.043240376 -0.05949479 -0.019857848 0.08602174 0.043121386 -0.07034112
0.048516437 -0.025748376 0.09146029 -0.025010899 0.0024398097 0.031833604 -0.007962642 -0.044831764
-0.0016620809 0.098951995 -0.06671325 0.066570915 0.050896663 0.089732476 0.026692854 -0.0005351602
-0.04961868 0.10203103 0.009846726 -0.00032764155 0.029911885 -0.015115974 0.009611284 0.024593253
0.068209566 0.062304877 -0.0936601 -0.01262851 0.0020762398 0.044534642 -0.050564677 -0.01165026
-0.041704357 -0.055684615 0.01936346 0.070862085 0.031619087 -0.038843017 -0.0028046414 -0.02656465
0.09854695 0.03280966 -0.051890943 -0.07267096 -0.034092885 -0.068629056 0.029475175 -0.034359176
-0.08711852 -0.022252746 -0.036844753 -0.027768033 0.078550495 0.0011823243 -0.056286473 -0.044550817
0.091634355 -0.0054715895 -0.025645135 -0.024109865 0.04094082 0.08062905 -0.010728847 -0.0025776923
-0.027663019 -0.059235007 0.054619037 0.018852346 0.012373819 0.021055518 0.025511893 0.080536895
00000000: cf48 863d cd30 743d a544 b3bc fe2c 3e3d
00000010: f979 f2bc 45ec 2bbc 24e4 a2bd 8ff3 373d
00000020: e413 853d cbad 253c 3f2e b4bd 2280 64bb
00000030: 7a26 71bd a1bc 28bd d2a6 68bc 842a 293d
00000040: d8aa 453d dbf2 a7bd 16cf 4cbd 829e 4bbd
00000050: 3284 e93c 88c3 2e3b dd0a 90bc 3624 4b3c
00000060: 01d3 b93b 34d8 9ebd d061 073d 30c2 a33c
00000070: ed49 973c a03f 4e3d 4e31 993c 34d5 53bd
00000080: e1cb d43d bbc3 393d 8620 bd3d f658 8a3c
00000090: fc7f 8d3d c56b 72bb 0884 dc38 377e 4a3d
000000a0: c301 16bd c99c a2bd 3c1b d33c 486c 873d
000000b0: 5ff4 c13d 95a8 d9bb fb56 cabc 6160 5fbd
000000c0: 01e7 c23d 2dbb 503b d21c 31bd cfb0 73bd
000000d0: edac a2bc 2b2c b03d 0da0 303d 010f 90bd
000000e0: 2cb9 463d 42ee d2bc 884f bb3d a8e3 ccbc
000000f0: 37e5 1f3b f463 023d be75 02bc 83a1 37bd
00000100: 2eda d9ba 58a7 ca3d f5a0 88bd 5556 883d
00000110: 0579 503d a9c5 b73d f9aa da3c fe49 0cba
00000120: f53c 4bbd a5f5 d03d 2a54 213c 4ec7 abb9
00000130: c509 f53c fda8 77bc a678 1d3c ca77 c93c
00000140: 75b1 8b3d 6633 7f3d ded0 bfbd cfe7 4ebc
00000150: 8611 083b f569 363d e81c 4fbd bbe0 3ebc
00000160: 30d2 2abd 8d15 64bd 1ea0 9e3c 2420 913d
00000170: 0483 013d db19 1fbd 13ce 37bb 1c9e d9bc
00000180: fcd2 c93d 6c63 063d 998b 54bd 83d4 94bd
00000190: fba4 0bbd 648d 8cbd ec75 f13c 35bc 0cbd
000001a0: 326b b2bd 644b b6bc 86ea 16bd c979 e3bc
000001b0: 15df a03d 38f8 9a3a a58c 66bd eb7a 36bd
000001c0: cbaa bb3d 054b b3bb bf15 d2bc 0d82 c5bc
000001d0: 90b1 273d d820 a53d 0cc8 2fbc 80ee 28bb
000001e0: 8e9d e2bc 68a0 72bd 36b8 5f3d 3c70 9a3c
000001f0: 8fbb 4a3c 9f7c ac3c 51fe d03c 87f0 a43d

weight f4 [128, 128]
0.0005648034 0.041744728 0.009297206 0.03124268 -0.06854966 0.053879168 -0.061402846 0.012013133
0.08281423 -0.018987216 -0.038982242 0.04981415 -0.07596251 -0.03345531 -0.011469014 0.03556461
0.06470343 -0.035311934 0.011549585 0.11939049 0.07119217 -0.056241456 -0.038249474 -0.007573211
-0.05467761 -0.029375749 -0.0077465563 -0.0319947 -0.05254157 -0.035286833 0.029713083 -0.06800745
0.0768757 0.08673069 0.023966003 -0.040200416 0.020403955 -0.075968586 0.044080194 0.056195922
0.05545205 0.06583385 0.050320614 -0.09135076 -0.05265662 -0.014008852 0.016154764 0.05471207
-0.091800466 -0.05488449 0.044336118 0.056777366 0.000881143 0.041096684 0.07687007 0.080634035
0.020329677 -0.07739273 -0.033612438 -0.052321203 -0.056283914 0.062874965 0.004774624 -0.055329923
0.038124416 -0.032022648 -0.05062282 -0.004401025 -0.04414647 -0.0544024 -0.049417008 -0.063808054
-0.029697413 0.049872193 -0.04592677 0.095152974 0.012306801 -0.019415494 -0.0069366037 -0.0077161617
0.019681785 0.057521414 0.022938313 -0.09502003 0.008366808 0.025155926 -0.06678389 -0.065796465
0.038919654 -0.08995674 -0.070618115 0.070320696 -0.007502065 -0.012185444 0.055483278 0.030755179
-0.020153234 0.0031487762 0.055424687 0.07744741 -0.037916116 -0.0044974172 0.05498185 0.057187248
0.010372802 0.024793644 0.065142974 -0.055712257 0.00064320606 0.012738391 -0.018241476 -0.045785774
-0.012710864 -0.11065874 -0.06728949 -0.04574784 -0.027468145 -0.060248945 0.022409122 -0.090858184
-0.018937098 -0.08890001 0.017287837 -0.023608701 0.0019505444 -0.023559945 -0.07732864 0.06113846
-0.077004366 0.026092375 0.09716592 0.0730802 0.06752612 -0.06359794 0.048409656 -0.028757311
-0.006041156 -0.06363277 0.09158227 0.048463125 -0.046630792 0.075058416 -0.05528119 -0.026744632
-0.008997196 -0.034565005 0.04202953 0.06004523 -0.0066469065 0.027853422 -0.057579525 0.029415587
-0.059107307 0.07945949 -0.051529106 0.08554099 -0.039918214 0.022247521 0.008589831 -0.013903998
0.05815594 0.053071074 -0.0022379528 0.00041605858 -0.05546216 0.028667798 -0.024755739 0.057217505
-0.09055439 0.0660946 -0.0649963 -0.090380274 0.009011143 0.07571221 -0.024734944 0.06992396
0.04731709 -0.026517652 -0.04063623 -0.03777733 0.05097738 0.023648268 0.0011428714 -0.034302663
0.08187324 0.061622676 -0.08713064 -0.061202217 -0.07193288 0.020733217 -0.043365445 -0.018598001
-0.0734702 -0.07371706 -0.0017149926 -0.08544787 -0.023233067 0.0031000315 0.02876014 -0.089700855
0.009542604 0.07146915 -0.06271394 -0.03661958 0.028199246 -0.0033992385 -0.04143206 0.04653755
-0.08819844 -0.088532194 0.050739963 0.034055915 0.010419177 0.07743972 -0.07803374 0.063827
0.012506045 0.061975747 0.04059087 0.027208067 -0.082843564 0.004400017 -0.031962633 -0.013199514
0.07160934 -0.018261453 -0.045847967 -0.033582263 -0.021066522 0.053841133 0.010838636 0.010320026
-0.0534059 0.086866915 -0.022657353 0.030779557 -0.07618199 0.044333868 0.033667523 0.065027446
0.04451485 -0.12317905 -0.029473836 0.055905063 0.033450823 -0.020960148 0.0472728 0.071730964
0.009380524 0.004882059 0.079562604 0.07187464 -0.03344686 -0.0034519052 -0.013812463 0.03876006
00000000: 510f 143a 85fc 2a3d 4f53 183c a6f0 ff3c
00000010: c463 8cbd 67b0 5c3d 8d81 7bbd bbd2 443c
00000020: 829a a93d 148b 9bbc d8ab 1fbd ec09 4c3d
00000030: 3c92 9bbd 6f08 09bd 88e8 3bbc 32ac 113d
00000040: 3b83 843d 3fa3 10bd 783a 3d3c 0083 f43d
00000050: 33cd 913d 715d 66bd 7bab 1cbd b328 f8bb
00000060: a1f5 5fbd 69a5 f0bc d3d6 fdbb e00c 03bd
00000070: d435 57bd ed88 10bd da68 f33c 7d47 8bbd
00000080: 0271 9d3d dc9f b13d 5a54 c43c 31a9 24bd
00000090: 3226 a73c 6b95 9bbd 6f8d 343d b22d 663d
000000a0: b021 633d e6d3 863d fd1c 4e3d 1b16 bbbd
000000b0: 78ae 57bd 6285 65bc ff56 843c c319 603d
000000c0: e201 bcbd 8fce 60bd ca99 353d 628f 683d
000000d0: 81fc 663a ff54 283d 0e6e 9d3d 7523 a53d
000000e0: 6c8a a63c 1480 9ebd 32ad 09bd c24e 56bd
000000f0: f689 66bd 97c4 803d 7374 9c3b a1a1 62bd
00000100: 5928 1c3d 2e2a 03bd e059 4fbd 7936 90bb
00000110: eed2 34bd 0dd5 5ebd 7d69 4abd ccad 82bd
00000120: fd47 f3bc c946 4c3d b51d 3cbd 90df c23d
00000130: 77a2 493c 3e0d 9fbc 734c e3bb dbd7 fcbb
00000140: b23b a13c 939b 6b3d 21e9 bb3c dd99 c2bd
00000150: f014 093c cd13 ce3c fec5 88bd 4cc0 86bd
00000160: 376a 1f3d 3d3b b8bd 3ba0 90bd 4c04 903d
00000170: e2d3 f5bb 75a5 47bc 6f42 633d 49f2 fb3c
00000180: 6518 a5bc b35b 4e3b ff04 633d bf9c 9e3d
00000190: ee4d 1bbd 125f 93bb a634 613d 2d3d 6a3d
000001a0: aff2 293c 0a1c cb3c ae69 853d 8932 64bd
000001b0: d49c 283a afb4 503c 266f 95bc dd89 3bbd
000001c0: 3a41 50bc 0da1 e2bd 12cf 89bd 1662 3bbd
000001d0: e004 e1bc 99c7 76bd 5693 b73c db13 babd
000001e0: f921 9bbc 3511 b6bd 399f 8d3c 0967 c1bc
000001f0: 69a9 ff3a c900 c1bc 7a5e 9ebd 526c 7a3d
00000200: 77b4 9dbd adbf d53c edfe c63d 12ab 953d
00000210: 224b 8a3d a33f 82bd 3449 463d 7494 ebbc
00000220: e4f4 c5bb e651 82bd 7c8f bb3d 4581 463d
00000230: eeff 3ebd 3ab8 993d 876e 62bd 8f17 dbbc
00000240: fa68 13bc 0994 0dbd 2827 2c3d fdf1 753d
00000250: 4bce d9bb dc2c e43c 82d8 6bbd f5f8 f03c
00000260: 811a 72bd a8bb a23d 2f10 53bd 1d30 af3d
00000270: 4881 23bd 6f40 b63c 5dbc 0c3c 98cd 63bc
00000280: ec34 6e3d 0e61 593d 9eaa 12bb 7022 da39
00000290: 4a2c 63bd bbd8 ea3c 8ccc cabc e75c 6a3d
000002a0: 9474 b9bd 9b5c 873d c81c 85bd 4b19 b9bd
000002b0: 79a3 133c 010f 9b3d f0a0 cabc 4b34 8f3d
000002c0: 91cf 413d 8c3b d9bc 2d72 26bd 67bc 1abd
000002d0: a8cd 503d 03ba c13c 67cc 953a f380 0cbd
000002e0: 28ad a73d 0f68 7c3d 8d71 b2bd 2daf 7abd
000002f0: 8c51 93bd b5d8 a93c f79f 31bd d65a 98bc
00000300: 8b77 96bd f8f8 96bd 9ac9 e0ba 4bff aebd
00000310: 4653 bebc e629 4b3b 639a eb3c 15b5 b7bd
00000320: 9558 1c3c 6b5e 923d 2b70 80bd 6afe 15bd
00000330: 1b02 e73c c2c5 5ebb aab4 29bd 289e 3e3d
00000340: 62a1 b4bd 5e50 b5bd b5d4 4f3d 377e 0b3d
00000350: 32b5 2a3c b798 9e3d 27d0 9fbd bbb7 823d
00000360: 28e6 4c3c 48da 7d3d 9d42 263d 74e3 de3c
00000370: e3a9 a9bd 052e 903b 40eb 02bd c642 58bc
00000380: eba7 923d 0b99 95bc 14cb 3bbd 8e8d 09bd
00000390: b393 acbc 8588 5c3d 8994 313c 5415 293c
000003a0: 25c0 5abd 48e7 b13d ea9b b9bc 6925 fc3c
000003b0: 4e05 9cbd 6e97 353d f5e6 093d 1c2d 853d
000003c0: 3455 363d 4c45 fcbd 1d73 f1bc b5fc 643d
000003d0: bb03 093d 9eb4 abbc 20a1 413d afe7 923d
000003e0: c5b0 193c aef9 9f3b b8f1 a23d 0333 933d
000003f0: 93ff 08bd 5c39 62bb ab4d 62bc dec2 1e3d

bias f4 [128]
-0.052390482 -0.043980874 -0.02900629 -0.07539076 0.08781851 0.07109507 0.0107017085 0.0031631163
0.0708325 0.076546334 -0.029444812 -0.0410654 0.04474026 -0.06048404 0.048036873 -0.07662492
-0.043462247 -0.0075112805 -0.04863595 0.02679777 0.003937647 0.0061129304 0.07284822 0.035488185
-0.058152106 -0.056075476 0.026980842 -0.04454138 0.07098076 0.09667995 -0.01972848 -0.08211016
-0.09640977 -0.06933251 -0.080246106 0.062040024 -0.058533706 -0.074508764 0.09347455 -0.0626954
0.070698366 -0.03167866 -0.017895497 0.03831125 0.055622812 -0.020692328 0.091151804 0.034801163
0.07588707 0.07951061 -0.057680815 0.0171262 -0.06939532 -0.07031031 0.012203236 -0.030463357
-0.056490894 0.01840865 -0.034454852 -0.08155622 0.04030424 -0.005136852 0.041063186 -0.045955885
-0.023937967 0.050807793 -0.06915791 0.005291267 0.09954582 0.011785623 0.03945088 -0.07668096
0.03324138 -0.08479605 0.083593205 0.015224231 -0.061844878 0.018373596 0.10101992 -0.050561808
-0.0051874556 0.0918554 0.0052877585 0.053379618 0.06251569 -0.02169982 0.09587778 -0.0273893
0.101857 -0.018740004 0.024212612 -0.09262319 0.03887697 -0.003858578 -0.086717494 -0.04098786
0.07551565 -0.08863391 0.03091329 -0.0018962097 0.01192925 0.0005815877 0.0026794756 -0.030406294
-0.098689795 -0.02142655 0.0644599 -0.09401239 -0.043224934 -0.06279733 -0.06340005 -0.029362451
0.05915415 0.05935755 0.037821915 0.05256679 -0.10383152 -0.09250405 0.09500555 0.07816205
0.044328414 -0.087073185 -0.076762736 0.08815416 -0.068679765 -0.021797033 0.018744426 0.101134576
00000000: 6797 56bd 4a25 34bd 999e edbc 7966 9abd
00000010: 31da b33d 4b9a 913d 3856 2f3c 494c 4f3b
00000020: a110 913d 53c4 9c3d 3f36 f1bc 3134 28bd
00000030: 9041 373d 1dbe 77bd 50c2 443d 87ed 9cbd
00000040: 7805 32bd 3021 f6bb 7d36 47bd ff86 db3c
00000050: 6107 813b fa4e c83b 7331 953d 0f5c 113d
00000060: e730 6ebd 66af 65bd ed06 dd3c 0671 36bd
00000070: 5c5e 913d 2300 c63d 9f9d a1bc 5f29 a8bd
00000080: 7c72 c5bd 34fe 8dbd 1258 a4bd ae1d 7e3d
00000090: 0ac1 6fbd 0d98 98bd 966f bf3d 7266 80bd
000000a0: 4eca 903d 7cc1 01bd 9499 92bc 42ec 1c3d
000000b0: bfd4 633d f582 a9bc ccad ba3d aa8b 0e3d
000000c0: ae6a 9b3d 75d6 a23d b842 6cbd 3f4c 8c3c
000000d0: 221f 8ebd dafe 8fbd 15f0 473c 4a8e f9bc
000000e0: ff62 67bd bdcd 963c 8820 0dbd f306 a7bd
000000f0: 0f16 253d 0a53 a8bb df31 283d 3d3c 3cbd
00000100: 8e19 c4bc d51b 503d aaa2 8dbd 5d62 ad3b
00000110: aede cb3d 7c18 413c 3f97 213d e80a 9dbd
00000120: 1d28 083d 8da9 adbd ea32 ab3d 0e6f 793c
00000130: 0e51 7dbd 3984 963c 88e3 ce3d e619 4fbd
00000140: 88fb a9bb af1e bc3d ef44 ad3b 96a4 5a3d
00000150: 3a08 803d d2c3 b1bc 925b c43d 865f e0bc
00000160: 679a d03d a384 99bc 8759 c63c 3ab1 bdbd
00000170: 753d 1f3d 32e0 7cbb f198 b1bd e3e2 27bd
00000180: f3a7 9a3d b285 b5bd de3d fd3c 3d8a f8ba
00000190: e772 433c b175 183a 249a 2f3b 9f16 f9bc
000001a0: e01d cabd bb86 afbc 8d03 843d 9189 c0bd
000001b0: a10c 31bd e39b 80bd e3d7 81bd 8689 f0bc
000001c0: 9f4b 723d e720 733d 27eb 1a3d 4650 573d
000001d0: 9fa5 d4bd c372 bdbd 4592 c23d 6d13 a03d
000001e0: b691 353d 6d53 b2bd c835 9dbd 2b8a b43d
000001f0: faa7 8cbd b18f b2bc e98d 993c a51f cf3d

weight f4 [1, 128]
0.017533712 0.015849495 0.01806464 0.0012368954 -0.008567592 -0.0083243 -0.010583067 0.0044949227
-0.019001048 -0.0033773968 0.013946168 -0.014732676 0.0013795214 0.015707916 -0.002671541 0.01124163
0.01899975 0.0112094395 -0.015377237 -0.004860316 -0.0017212876 0.00056245906 -0.013036945 0.012272065
-0.014871133 0.008372114 -0.019784736 0.014699747 0.0028124882 -0.026345724 0.0166487 0.008298093
0.0093608 0.025066175 0.02616218 -0.008975422 0.016918542 0.014331038 -0.0023666187 -0.0123449275
-0.004188929 0.015987549 0.0015655708 -0.0024954139 -0.029691475 -0.007051333 -0.012780824 -0.014674036
-0.019440811 -0.0092747025 0.008812517 -0.013902688 -0.0077585257 0.004540178 0.007688359 0.017395124
-0.0008512705 -0.00027273415 -0.027421866 0.025800228 -0.022391336 0.017246878 -0.008139375 0.0057780007
0.04371012 -0.0077214087 0.011353019 -0.0060124896 -0.007859915 0.018854143 -0.015306363 0.01657601
0.014125412 0.0143114375 -0.008347926 0.005687616 -0.008901731 -0.0043818313 -0.020073818 -0.01782552
0.007073763 -0.015154599 -0.020243257 -0.0075603095 -0.0056220097 0.012754582 -0.031260006 0.012979457
-0.01586754 0.0031785837 0.007900383 0.023899581 -0.01375135 0.010693895 -0.00033386686 0.019055424
-0.026500963 0.0157121 -0.02340123 0.013236606 -0.004043275 -0.001968099 0.015161684 0.020549987
0.006982299 -0.0170405 -0.017197115 0.01852929 -0.01597335 -0.005782153 0.024092851 0.027471041
0.008732731 -0.024866132 -0.006728014 -0.0059137633 0.026883677 0.0044326894 -0.017908689 -0.022051053
0.018070728 0.01747256 0.009221255 -0.008196854 0.016345225 0.017322958 0.008747367 -0.0060970876
00000000: dca2 8f3c cdd6 813c 4cfc 933c 531f a23a
00000010: 165f 0cbc a562 08bc 9a64 2dbc 254a 933b
00000020: 16a8 9bbc 5157 5dbb 787e 643c 5261 71bc
00000030: 0fd1 b43a e3ad 803c 0515 2fbb d02e 383c
00000040: 5da5 9b3c cca7 373c cff0 7bbc 4943 9fbb
00000050: d49c e1ba fd71 133a e998 55bc c510 493c
00000060: 0da6 73bc 312b 093c 9913 a2bc 35d7 703c
00000070: b951 383b fdd2 d7bc db62 883c baf4 073c
00000080: 0a5e 193c 9457 cd3c 1152 d63c a60d 13bc
00000090: c198 8a3c bbcc 6a3c 4619 1bbb 6142 4abc
000000a0: 4943 89bb 52f8 823c d733 cd3a 198a 23bb
000000b0: 893b f3bc de0e e7bb a966 51bc 5e6b 70bc
000000c0: 5642 9fbc ecf4 17bc 6062 103c 1ac8 63bc
000000d0: 3b3b febb c6c5 943b a1ee fb3b 3880 8e3c
000000e0: cc27 5fba c2fd 8eb9 d2a3 e0bc 005b d33c
000000f0: 096e b7bc 5349 8d3c 035b 05bc 6255 bd3b
00000100: 6209 333d df03 fdbb 0302 3a3c 6b04 c5bb
00000110: dfc6 00bc 0174 9a3c 8ac7 7abc 6aca 873c
00000120: 466e 673c 857a 6a3c bdc5 08bc 2e5f ba3b
00000130: 91d8 11bc 7795 8fbb d971 a4bc d306 92bc
00000140: 06cb e73b ff4a 78bc 30d5 a5bc 79bc f7bb
00000150: d638 b8bb 98f8 503c 7e0a 00bd caa7 543c
00000160: a5fc 81bc c94f 503b 9c70 013c 0ec9 c33c
00000170: 584d 61bc 7235 2f3c da0a afb9 1f1a 9c3c
00000180: 8c18 d9bc a9b6 803c f0b3 bfbc 59de 583c
00000190: 737d 84bb 39fb 00bb b668 783c 7258 a83c
000001a0: c5cb e43b 8598 8bbc f7e0 8cbc bdca 973c
000001b0: 8bda 82bc 3778 bdbb 5f5e c53c f30a e13c
000001c0: bb13 0f3c 0fb4 cbbc ac76 dcbb 3ec8 c1bb
000001d0: 283b dc3c 1840 913b 3eb5 92bc 69a4 b4bc
000001e0: 1009 943c 9d22 8f3c bf14 173c 194c 06bc
000001f0: 6ce6 853c e0e8 8d3c 1e51 0f3c 14ca c7bb

weight f4 [3, 128]
-0.011923523 0.008331238 0.0031661293 0.0058618383 -0.008137566 0.0017155701 0.01237633 -0.0017423308
0.006434248 0.00976453 0.0061132186 0.02218441 0.009773401 -0.001268109 -0.0078914445 -0.004633241
0.0028498396 -0.002042842 -0.0011335432 -0.0018743157 0.012016674 0.005490996 0.014258068 -0.012796552
-0.013002102 0.005740621 0.00871385 0.0037859553 -0.007139703 -0.012407299 -0.0040150434 -0.0033465377
0.0061413753 -0.0070213918 0.016178505 0.015145925 -0.0025117865 0.0028038633 0.0019276869 -0.013679298
-0.003971235 -0.0008561061 0.004108109 0.0030027884 -0.002747886 0.021780554 0.012361419 -0.004658201
0.0019140923 -0.0045144865 -0.0035116682 0.014564264 0.009685981 0.0100510465 0.006650793 0.011847226
0.00044261146 -0.002401623 -0.0118533 -0.0027165913 -0.00011758598 -0.01367136 -0.011078671 -0.0013286844
-0.002503813 -0.0055921343 -0.0027852322 0.0133605795 -0.0013975445 0.0004141019 0.00044055286 -0.008612685
0.0016052629 0.00014154227 -0.012317269 0.014983568 -0.0013427761 0.0016950452 0.0024201367 -0.0061865617
0.0022923683 -0.00061109744 0.009227776 0.0015904123 0.016942233 -0.007130282 0.008910564 -0.010185702
0.008504211 -0.013504152 0.0048098466 0.006977627 -0.0026286372 -0.013835106 0.013049583 -0.009049258
-0.011772756 0.007944247 -0.0050770873 -0.005287357 -0.008095585 0.0033339101 0.012039229 0.008788392
0.0073025213 0.013040558 -0.00859811 0.0077569564 -0.0012006698 0.0038547872 -0.008845263 0.003111159
0.0025510238 0.0042711357 -0.001309147 0.0016664692 0.004286274 0.0041289525 -0.00011707264 -0.0053862873
0.0057909307 -0.0012440638 -0.0005097782 -0.0031254222 -0.013694385 -0.011655712 0.004163228 -0.0024928225
0.0030265958 -0.004190136 -0.004515239 0.013861851 0.010414596 -0.0066574225 0.012834789 -0.004115979
-0.004428256 0.008679595 -0.002347951 0.017324816 0.0021251098 -0.022205276 0.008707616 0.014791167
0.0025665124 -0.004576549 0.012330972 -0.004385577 -0.004793295 0.015398118 0.0055996133 -0.0010380365
-0.0013582761 -0.004705735 0.0066472306 -0.005928293 0.012825561 -0.0015045358 0.013066976 -0.0038273144
-0.0056198677 -0.002489405 0.012598296 -0.0045219087 -0.0027244133 0.0042477204 0.00049521204 -0.0071308278
0.0047150077 0.012541903 0.00031648722 -0.010461174 0.005278731 -0.009087756 -0.0045752823 -0.0034946986
-0.01541739 0.0066653523 -0.002557057 -0.0028464198 0.0035369634 0.013356768 0.008702204 0.008559006
-0.01191227 -0.000711206 -0.0012431917 0.0028126377 0.0026960168 0.0060195145 -0.003833828 -0.011426546
0.016272362 0.012350019 0.0069286805 -0.007612883 -0.0032001324 0.0082291495 -0.008850245 0.00049080804
-0.0037755978 -0.01792768 0.010840635 0.0011329115 0.003568077 0.0007954586 -0.003984637 -0.014507332
0.014011233 0.0004246351 -0.008711791 0.001689327 0.011456531 0.001063833 0.0073648132 1.1724217e-05
0.0027122966 -0.018080445 0.008278454 -0.0057355957 0.00381688 0.0057619032 0.0041695586 0.010744469
-0.008682295 0.01062444 0.0027057466 -0.0101620555 0.00043592486 0.003288467 -0.010610668 0.0067698467
0.003633792 -0.0010251747 0.0018984042 0.0010675283 -0.0023818624 0.009962611 0.01944181 0.0062463754
0.009357702 0.0067270896 0.0026942415 0.01319071 -0.002660307 0.0020075797 -0.011191281 0.008225445
0.005421088 -0.012868864 -0.0009756036 -0.0054782494 0.0009243816 -0.0050887805 -0.016491467 0.0019082292
00000000: e15a 43bc bf7f 083c d67e 4f3b aa14 c03b
00000010: 6d53 05bc fbdc e03a 17c6 4a3c ec5e e4ba
00000020: 62d6 d23b 68fb 1f3c 6551 c83b 14bc b53c
00000030: 9d20 203c ad36 a6ba 1e4b 01bc 71d2 97bb
00000040: 60c4 3a3b 34e1 05bb 6693 94ba 99ab f5ba
00000050: 95e1 443c d0ed b33b ac9a 693c a1a8 51bc
00000060: c506 55bc d21b bc3b 89c4 0e3c ca1d 783b
00000070: 2bf4 e9bb fc47 4bbc a090 83bb 9651 5bbb
00000080: 973d c93b b413 e6bb c988 843c 9d26 783c
00000090: c99c 24bb 05c1 373b 70aa fc3a 221f 60bc
000000a0: 2221 82bb 4f6c 60ba 519d 863b 6eca 443b
000000b0: e115 34bb 226d b23c 8d87 4a3c d2a3 98bb
000000c0: 48e2 fa3a 42ee 93bb 0424 66bb f39e 6e3c
000000d0: f3b1 1e3c 25ad 243c e5ee d93b de1a 423c
000000e0: 4e0e e839 8c64 1dbb 5834 42bc d708 32bb
000000f0: 7e98 f6b8 d7fd 5fbc 5083 35bc 4027 aeba
00000100: 0317 24bb 393e b7bb 7188 36bb 55e6 5a3c
00000110: d02d b7ba d11b d939 01fa e639 381c 0dbc
00000120: af67 d23a f76a 1439 5fce 49bc a47d 753c
00000130: 1700 b0ba 472c de3a 289b 1e3b a4b8 cabb
00000140: 8f3b 163b 0e32 20ba 1930 173c 6275 d03a
00000150: 70ca 8a3c 24a5 e9bb 9dfd 113c eee1 26bc
00000160: 3f55 0b3c 8540 5dbc eb9b 9d3b 94a4 e43b
00000170: 3745 2cbb a4ac 62bc ebcd 553c 5743 14bc
00000180: 85e2 40bc 9628 023c b25d a6bb 9141 adbb
00000190: 58a3 04bc bb7d 5a3b 3040 453c 30fd 0f3c
000001a0: fd49 ef3b 11a8 553c 16df 0cbc 112e fe3b
000001b0: cb5f 9dba 99a0 7c3b b9eb 10bc 96e4 4b3b
000001c0: 142f 273b e2f4 8b3b af97 abba 6d6d da3a
000001d0: df73 8c3b 2a4c 873b e584 f5b8 747f b0bb
000001e0: d9c1 bd3b db0f a3ba a3a2 05ba e2d3 4cbb
000001f0: 6a5e 60bc 99f7 3ebc b06b 883b 9f5e 23bb
00000200: da59 463b 694d 89bb 92f4 93bb d11c 633c
00000210: fba1 2a3c 8226 dabb 0249 523c 56df 86bb
00000220: e71a 91bb dc34 0e3c 15e0 19bb c6ec 8d3c
00000230: 6d45 0b3b d7e7 b5bc 63aa 0e3c a756 723c
00000240: ef32 283b e0f6 95bb d807 4a3c e3b4 8fbb
00000250: 1311 9dbb 6348 7c3c f67c b73b ba0e 88ba
00000260: 2f08 b2ba 9132 9abb 03d1 d93b 2042 c2bb
00000270: 4d22 523c d833 c5ba df16 563c aed3 7abb
00000280: de26 b8bb 4925 23bb 1569 4e3c 852c 94bb
00000290: 128c 32bb 7630 8b3b 1ed1 013a b8a9 e9bb
000002a0: 5a80 9a3b 8e7c 4d3c 32ee a539 5865 2bbc
000002b0: 35f9 ac3b d0e4 14bc 40ec 95bb 5007 65bb
000002c0: 3899 7cbc 0769 da3b 4c94 27bb 008b 3abb
000002d0: 66cc 673b 58d6 5a3c b093 0e3c 133b 0c3c
000002e0: af2b 43bc 3a70 3aba 97f2 a2ba 3b54 383b
000002f0: a8af 303b 593f c53b f640 7bbb 6836 3bbc
00000300: 9e4d 853c bc57 4a3c fc09 e33b 7e75 f9bb
00000310: 50b9 51bb 8ed3 063c 9e00 11bc 92a9 003a
00000320: 0570 77bb 12dd 92bc eb9c 313c 347e 943a
00000330: 66d6 693b 5386 503a 8f91 82bb 29b0 6dbc
00000340: 5f8f 653c 8fa1 de39 e6bb 0ebc 686c dd3a
00000350: 2cb4 3b3c 5070 8b3a 8854 f13b 21b3 4437
00000360: c9c0 313b 711d 94bc 5aa2 073c aaf1 bbbb
00000370: 9f24 7a3b 59ce bc3b cba0 883b 9209 303c
00000380: 2f40 0ebc 2212 2e3c e552 313b c07e 26bc
00000390: d88c e439 5283 573b 5ed8 2dbc 97d5 dd3b
000003a0: ea24 6e3b 285f 86ba e0d3 f83a 4eec 8b3a
000003b0: 0519 1cbb 383a 233c 6e44 9f3c 65ae cc3b
000003c0: 0c51 193c eb6e dc3b df91 303b d91d 583c
000003d0: 8c58 2ebb 9991 033b a25b 37bc 04c4 063c
000003e0: 62a3 b13b eed7 52bc a6bf 7fba e382 b3bb
000003f0: 3352 723a c9bf a6bb 1d19 87bc 8c1d fa3a

bias f4 [3]
0.0019078718 0.0038105028 -0.003728194
00000000: 8e11 fa3a a1b9 793b b754 74bb

weight f4 [1, 128]
0.012510779 0.025144698 0.014390631 0.016457602 -0.01372592 -0.024814077 -0.0054350323 0.017966282
-0.028093526 0.0036812215 0.0133623555 -0.021215668 0.023891829 0.0131422095 0.003080953 0.011085961
0.009938339 0.0055343644 -0.013806211 0.009802438 -0.014243895 0.01567687 -0.014942054 0.016184086
-0.0012746352 0.00847311 -0.017138707 0.023689575 -0.002798409 -0.0138460575 0.013829039 0.020157017
0.008057548 0.03305311 0.00088458345 0.0038930213 0.027321484 0.014103777 -0.020448847 -0.0207219
0.00071503205 0.007614007 0.0058804736 0.010709953 -0.026357051 -0.013162392 -0.011531841 -0.014322449
-0.012892425 -0.016574904 0.0050945412 -0.010199428 -0.016435126 0.012562446 0.019862972 0.008447614
0.0074522435 -0.014437796 -0.007983075 0.01318588 -0.021570908 -0.011312513 -0.009872422 0.012014102
0.011907695 -0.02011454 0.014107294 0.0027292767 -0.010025282 0.018610116 -0.02142692 0.013703455
0.0041742134 0.0017149354 -0.0171557 0.019437267 0.0156988 -0.011165053 -0.00806573 0.006740697
0.015187613 -0.007099787 0.003330464 -0.0044687698 -0.015492866 -0.0013740245 -0.014718604 0.013618332
-0.020809932 0.008573076 4.4597517e-05 0.02909005 -0.004020733 0.0058232197 0.010599541 0.009696799
-0.020876735 0.0041934624 -0.023673685 0.015078652 -0.01865311 -0.012410142 0.008069464 0.026087979
0.02486147 0.012062953 -0.023169775 0.010807441 -0.0028510324 -0.010322727 0.025805233 0.009349386
0.0068788016 -0.0019177668 -0.011448418 -0.017774653 0.014919294 0.02006679 -0.0073254225 -0.018617122
0.026122563 0.00081217627 0.020690802 -0.0115204565 0.007180526 0.015790893 0.015550896 -0.019243943
00000000: 03fa 4c3c 41fc cd3c aec6 6b3c 18d2 863c
00000010: aee2 60bc e446 cbbc 5b18 b2bb 062e 933c
00000020: 6524 e6bc a640 713b c8ed 5a3c 7bcc adbc
00000030: ccb8 c33c 6c52 573c d0e9 493b e4a1 353c
00000040: 6ad4 223c 9d59 b53b 7233 62bc 689a 203c
00000050: 3a5f 69bc c76c 803c 84cf 74bc 7d94 843c
00000060: a911 a7ba cdd2 0a3c 7966 8cbc a410 c23c
00000070: 8365 37bb 93da 62bc 3293 623c 5420 a53c
00000080: ce03 043c b362 073d 64e3 673a 0f22 7f3b
00000090: 4ed1 df3c 8713 673c 5784 a7bc f9c0 a9bc
000000a0: fd70 3b3a ec7e f93b fdb0 c03b cc78 2f3c
000000b0: beea d7bc 13a7 57bc 0cf0 3cbc b5a8 6abc
000000c0: c03a 53bc 18c8 87bc 1cf0 a63b 801b 27bc
000000d0: f5a2 86bc b8d2 4d3c acb7 a23c dc67 0a3c
000000e0: f331 f43b 818c 6cbc 72cb 02bc 9709 583c
000000f0: 79b5 b0bc 1e58 39bc f0bf 21bc ccd6 443c
00000100: 7e18 433c 3fc7 a4bc 4822 673c aadd 323b
00000110: 1541 24bc 3e74 983c 8287 afbc 7584 603c
00000120: d7c7 883b afc7 e03a 1c8a 8cbc e73a 9f3c
00000130: c59a 803c a0ed 36bc 2026 04bc 11e1 dc3b
00000140: 77d5 783c 54a5 e8bb ea43 5a3b c26e 92bb
00000150: cad5 7dbc 9d18 b4ba 4d26 71bc 6d1f 5f3c
00000160: 9779 aabc 1676 0c3c 380e 3b38 424e ee3c
00000170: 5ac0 83bb b5d0 be3b b2a9 2d3c 53df 1e3c
00000180: b005 abbc 5069 893b 51ef c1bc 730c 773c
00000190: 68ce 98bc e953 4bbc c935 043c 75b6 d53c
000001a0: 48aa cb3c b1a3 453c 8ace bdbc b111 313c
000001b0: 63d8 3abb a820 29bc 7f65 d33c 2b2e 193c
000001c0: 9267 e13b 935d fbba 2592 3bbc 269c 91bc
000001d0: 0e70 743c 1c63 a43c 190a f0bb ef82 98bc
000001e0: fcfe d53c 3ae8 543a c27f a93c 4cc0 3cbc
000001f0: 9e4a eb3b e75b 813c 2fc9 7e3c 79a5 9dbc

weight f4 [3, 128]
0.0077764024 -0.0025302253 -0.010235876 -0.0022848402 0.0023953083 -0.011360414 0.007613679 9.87964e-05
-0.00051761366 -0.005650424 0.0014200737 -0.010208745 0.0063485205 0.0005054185 6.877462e-05 -0.010656184
-0.010311159 -0.0039383518 -0.0033263464 -0.0030710117 0.009445275 -0.001964476 0.0037614382 0.009994104
0.003645699 0.007982277 -0.0049857576 -0.003960899 0.0017528633 0.0045426395 -0.022709176 -0.00058044784
-0.011044056 -0.007895002 -0.015907872 0.0014593997 0.017847938 0.011983855 0.00451521 0.0020201867
0.0042434693 0.007097719 -0.0057648113 -0.015672404 0.0076724235 -0.008704999 0.00034549812 -0.019528205
0.010771818 -0.0020151788 -0.000851315 0.009775357 -0.0033125204 -0.010586953 -0.0022325139 0.0039675613
-0.00042140047 0.0037087107 -0.010218338 0.0041872044 -0.010715198 0.0041326056 -0.009231735 0.00080059876
-0.0040812176 0.0048888004 0.0030626517 -0.0046359026 0.0021367434 0.022416987 -0.0019374347 -0.015021207
-0.015278608 -0.0064558983 0.009791885 0.0012332204 0.011362537 -0.014334341 -0.0057564075 0.013895954
0.0062554367 0.00013028871 -0.011599662 0.008712233 -0.0012862036 -0.007762744 0.010214262 -0.0067735193
0.010104365 -0.010755832 0.008956382 -0.004585989 0.003415707 -0.0058365925 -0.0015490461 -0.00038713578
0.0010323096 0.009453134 -0.013644748 0.0122505985 -0.00092822546 -0.0012095391 -0.0051481407 0.005275802
0.011788771 -0.010562708 0.004974634 0.0042925174 -0.012025345 -0.0071414784 -0.0021945166 -0.012047532
-0.00036950092 0.0075667095 -0.0023340997 -0.008384043 -0.00037759807 0.01458232 0.0020579465 -0.011901928
-0.0006174261 -0.0025452932 0.004882779 -0.0037055186 -0.0092188995 0.001976365 0.010907059 0.005344032
-0.0023769084 0.0073782275 -0.0024599854 0.00016840937 -0.0014848979 -0.008446773 -0.0016917405 -0.00808674
0.0038556526 -0.0017679364 -0.005777888 -0.0070528816 0.0037506968 -0.014160782 -0.000775402 -0.009277721
0.0022605231 0.012576242 -0.011208909 0.011836401 0.009635582 -0.0087593645 0.007166271 -0.000691879
0.011592616 -0.014842986 0.002123417 -0.003722258 0.0005547563 -0.006026382 0.0017878589 0.002324683
-0.014256284 0.0016036298 0.010839866 0.008920555 0.001455769 0.0041939486 -0.00033343493 -0.00221388
0.011423319 0.009564695 -0.008540262 0.014461821 0.013307667 -0.0093379 0.0073593487 -0.011865266
0.025080433 0.0056782286 0.016860764 0.008168285 -0.013841876 0.004399763 0.005317396 0.00069761917
-0.006590309 0.0065726056 0.0047216476 0.00752426 -0.0032192538 0.007855157 -0.0038073673 -0.0013247682
-0.01044134 -0.008668974 0.005473368 -0.012047885 0.013300776 0.0016403443 -0.011063567 0.0056402176
0.0007192474 -0.013974491 -0.007132367 -0.011062797 -0.0031181807 -0.007822842 -0.0034088625 -0.0034669698
0.0030856929 -0.00019099077 0.0021575645 0.001574763 0.009901281 0.009447675 0.010706482 -0.01243784
0.00040506653 -0.0037996664 -0.0062903157 0.0025357397 0.005301722 -0.008975202 0.020550305 0.00772241
-0.004174809 -0.010879002 -0.0052805925 -0.0067938305 0.0042803106 0.0016210149 0.0052584894 0.015182592
-0.00596861 -0.0068141213 0.0034670613 -0.009597966 0.008703257 0.0010346308 0.0061957836 0.015615992
0.0018438823 -0.0033770234 0.0022840486 -0.007134082 -0.008862521 -0.009401624 -0.01893369 0.005304982
-0.0025802439 0.0036109926 -0.01650465 0.0025013995 0.008356526 0.00093271176 0.010610353 0.008169206
00000000: 31d1 fe3b 23d2 25bb 60b4 27bc 42bd 15bb
00000010: 9bfa 1c3b 0821 3abc 2b7c f93b ea30 cf38
00000020: 77b0 07ba 3127 b9bb c421 ba3a 9442 27bc
00000030: 4007 d03b 107e 043a 183b 9038 4697 2ebc
00000040: 23f0 28bc 4a0d 81bb d5fe 59bb 0743 49bb
00000050: 5bc0 1a3c 70be 00bb 7682 763b 4fbe 233c
00000060: aeec 6e3b 19c8 023c 915f a3bb 6eca 81bb
00000070: 55c0 e53a 6cda 943b 9808 babc 3229 18ba
00000080: 21f2 34bc 0a5a 01bc 3a51 82bc 5449 bf3a
00000090: d735 923c ee57 443c 54f4 933b 1c65 043b
000000a0: cd0c 8b3b fb93 e83b bee6 bcbb 6a63 80bc
000000b0: f468 fb3b 6a9f 0ebc f923 b539 9df9 9fbc
000000c0: 487c 303c 1711 04bb c82a 5fba d228 203c
000000d0: df16 59bb e674 2dbc 5e4f 12bb 5102 823b
000000e0: 6aef dcb9 d70d 733b d16a 27bc d134 893b
000000f0: cc8e 2fbc cf6a 873b b440 17bc 46df 513a
00000100: bcbb 85bb 3b32 a03b c5b6 483b c5e8 97bb
00000110: 9b08 0c3b d4a3 b73c 85f1 fdba 821b 76bc
00000120: 2053 7abc 008c d3bb 246e 203c 03a4 a13a
00000130: ef29 3a3c 95da 6abc 3fa0 bcbb dbab 633c
00000140: 68fa cc3b 1c9e 0839 820c 3ebc c1bd 0e3c
00000150: d595 a8ba 9e5e febb b859 273c 66f4 ddbb
00000160: c78c 253c 3b39 30bc cabd 123c 1046 96bb
00000170: 0eda 5f3b e340 bfbb 5d09 cbba 7cf8 cab9
00000180: 904e 873a 51e1 1a3c 398e 5fbc bcb6 483c
00000190: 2854 73ba 6689 9eba bcb1 a8bb a3e0 ac3b
000001a0: b025 413c 350f 2dbc 4102 a33b 3fa8 8c3b
000001b0: f405 45bc 1003 eabb e1d1 0fbb 0363 45bc
000001c0: 93b9 c1b9 29f2 f73b b2f7 18bb 3a5d 09bc
000001d0: 5bf8 c5b9 afea 6e3c 9dde 063b 4e00 43bc
000001e0: c4da 21ba efce 26bb b8ff 9f3b 49d8 72bb
000001f0: de0a 17bc e785 013b 85b3 323c fd1c af3b
00000200: e8c5 1bbb 0fc5 f13b b537 21bb 0c97 3039
00000210: e8a0 c2ba 5564 0abc 64bd ddba 3f7e 04bc
00000220: 1eaf 7c3b 1aba e7ba 7054 bdbb dc1b e7bb
00000230: 40ce 753b a002 68bc 5944 4bba 9501 18bc
00000240: 4925 143b 950c 4e3c 92a5 37bc 77ed 413c
00000250: 8fde 1d3c 7083 0fbc 0ad3 ea3b 375f 35ba
00000260: f5ee 3d3c ff2f 73bc 0729 0b3b 20f1 73bb
00000270: 116d 113a f578 c5bb 9756 ea3a b559 183b
00000280: 3093 69bc e330 d23a b199 313c 8527 123c
00000290: 80cf be3a 646d 893b e1d0 aeb9 be16 11bb
000002a0: df28 3b3c 3db5 1c3c 74ec 0bbc 46f1 6c3c
000002b0: 6708 5a3c fefd 18bc b126 f13b 8866 42bc
000002c0: 7b75 cd3c 6f10 ba3b 961f 8a3c 45d4 053c
000002d0: 09c9 62bc e32b 903b 8d3d ae3b 6ee0 363a
000002e0: 85f3 d7bb 035f d73b 0db8 9a3b 118e f63b
000002f0: 1efa 52bb ebb2 003c 0685 79bb d8a3 adba
00000300: 2712 2bbc 5008 0ebc f059 b33b 7e64 45bc
00000310: 7feb 593c d200 d73a f743 35bc 93d1 b83b
00000320: e08b 3c3a 43f5 64bc a2b6 e9bb bc40 35bc
00000330: 645a 4cbb 612b 00bc 3967 5fbb 1a36 63bb
00000340: 5639 4a3b b244 48b9 ed65 0d3b 4768 ce3a
00000350: fc38 223c 6cca 1a3c 3e6a 2f3c 15c8 4bbc
00000360: 1c5f d439 d303 79bb fe1e cebb a72e 263b
00000370: 11ba ad3b ba0c 13bc 1d59 a83c 450c fd3b
00000380: d6cc 88bb d73d 32bc d208 adbb c89e debb
00000390: d941 8c3b 3c78 d43a 684f ac3b 68c0 783c
000003a0: 5494 c3bb fe48 dfbb a337 633b ca40 1dbc
000003b0: 1b98 0e3c 739c 873a 0006 cb3b 38da 7f3c
000003c0: 6cae f13a 0d51 5dbb faaf 153b 04c5 e9bb
000003d0: 1b34 11bc 4509 1abc d31a 9bbc 6ad5 ad3b
000003e0: 4f19 29bb 67a6 6c3b c234 87bc 85ee 233b
000003f0: cfe9 083c 3a81 743a 0cd7 2d3c 22d8 053c

bias f4 [3]
0.0022427102 0.0021516397 -0.0026939656
00000000: 6ffa 123b 8602 0d3b 3e8d 30bb
