TradeSimulator-v0_D3QN_-1/actor_00616200.pth (torch, 151866 bytes, 14 tensors)

state_avg f4 [10]
0.37315938 0.0013556978 -0.010004193 0.33013338 0.0047356477 -0.014317425 -0.11437315 0.43941092
0.00680138 -0.028342474
00000000: bf0e bf3e abb1 b13a a0e8 23bc 3e07 a93e
00000010: 7e2d 9b3b a293 6abc 783c eabd 78fa e03e
00000020: 1cde de3b 7a2e e8bc

state_std f4 [10]
0.7413924 0.52702045 0.78612584 0.8731035 0.6978237 0.63551456 0.99096173 0.71746504
0.68142676 0.6393463
00000000: e4cb 3d3f d0ea 063f 8b3f 493f b683 5f3f
00000010: 93a4 323f 15b1 223f abaf 7d3f caab 373f
00000020: fc71 2e3f 33ac 233f

weight f4 [128, 10]
0.17741518 0.15226625 -0.040169574 0.18312949 -0.29838347 0.20604706 -0.091698535 0.17713496
0.05054985 -0.035544176 0.09521196 0.4396862 0.13065696 -0.12191275 -0.050824363 -0.033198968
0.047405344 0.00021625769 0.25134203 0.11665793 -0.11295792 -0.45068005 -0.063125364 -0.13993087
-0.11305138 -0.0016976713 0.19100457 0.17923568 -0.26672933 0.17747986 0.0760843 -0.0041440157
0.22222814 -0.3017748 -0.23739517 -0.14130934 0.29323712 -0.06145652 0.1263386 -0.1019207
0.30736047 -0.44707254 0.21683861 0.019378936 -0.15130498 0.16060875 -0.18571532 0.11251416
-0.08386181 -0.04442926 -0.3308231 -0.42558187 0.17803061 -0.0987241 0.31500703 0.18859956
-0.042890966 -0.16155496 0.18574768 0.079055965 -0.19423719 -0.16310664 0.17447953 0.31385273
-0.16703491 -0.06635501 -0.010750589 0.046878293 -0.21046235 -0.18563426 0.18826169 -0.38284484
0.13843367 0.02250776 0.092403516 0.05249294 0.100942016 0.16966438 -0.26224107 0.14115994
-0.24330066 -0.28247163 0.028203607 -0.051755097 0.18664345 -0.19206183 -0.26513904 0.2359683
-0.054115757 0.19547318 0.10414189 -0.6575499 0.062364623 0.073968 -0.20773397 -0.15678011
0.10697156 0.06945163 -0.139363 -0.09603252 0.292714 -0.2967091 0.17782669 0.12208632
-0.17137748 -0.2524574 0.30669993 0.019380499 0.20604347 0.042181715 0.09547959 -0.052220926
0.28031033 -0.20726724 0.048915677 0.22048475 0.24608742 0.20904478 -0.17210835 -0.19681197
-0.19113012 -0.2589639 0.29152468 -0.20566559 0.15762758 -0.14448555 -0.2941222 -0.06420867
0.16308406 0.28268263 -0.18423861 0.24513197 0.25638276 0.2069042 0.20804213 0.23700343
0.21107906 0.10612827 -0.17040625 -0.24086607 -0.13372831 -0.10296324 -0.19135858 0.13277286
0.082638726 -0.055590387 0.12152244 0.08420371 0.187898 0.15149203 -0.11014448 -0.06499268
-0.04848059 -0.009165779 -0.2785098 -0.17481442 -0.20461375 -0.1402374 0.20950449 -0.096923806
-0.24958321 0.013255785 0.093335636 0.1857507 -0.153373 0.05823982 -0.09243864 -0.073958695
-0.2589109 -0.15406922 -0.08373065 -0.11398454 0.061666172 0.084123194 0.31484857 0.2634597
0.25266117 0.0055294638 -0.18947299 0.19304167 -0.077043176 -0.37439328 -0.24759476 -0.06588008
-0.18213029 0.22194853 -0.3048393 -0.2527788 -0.0041402075 -0.16213259 0.12363498 -0.18455504
-0.14947549 0.023179846 0.21141964 -0.19705436 0.16315083 0.20957007 0.26410246 -0.25433472
0.09838637 0.10167263 0.27777493 -0.10513822 0.1947421 -0.0037633763 -0.01570221 0.0008245214
0.053890713 0.14762065 0.055928666 -0.26350954 -0.24630183 0.24739322 0.22614999 0.20528495
0.25429803 -0.23027423 -0.113336176 0.2667981 -0.23288438 -0.005217365 -0.247906 -0.24285421
0.1474663 -0.18970574 -0.08303923 0.24229348 0.26017073 0.27471533 -0.03980361 -0.690429
0.27987054 -0.058128636 -0.109600246 0.07768062 -0.2334853 0.23772998 0.18404748 -0.25518206
-0.27312362 -0.09337105 0.10026454 0.013976116 -0.113271035 0.026224278 -0.30312327 -0.22082083
-0.22891101 0.2059148 0.2847813 -0.2951255 0.00921496 0.15016904 0.03563814 -0.1573891
00000000: 53ac 353e afeb 1b3e da88 24bd 4c86 3b3e
00000010: b8c5 98be 00fe 523e 71cc bbbd de62 353e
00000020: 5c0d 4f3d c596 11bd 7dfe c23d 8d1e e13e
00000030: f0ca 053e 64ad f9bd 352d 50bd a4fb 07bd
00000040: 1b2c 423d 3bc3 6239 e7af 803e 5aea ee3d
00000050: 7b56 e7bd 89bf e6be df47 81bd 0a4a 0fbe
00000060: 7b87 e7bd 6584 deba b496 433e 8f89 373e
00000070: bf90 88be 48bd 353e 16d2 9b3d 86ca 87bb
00000080: c68f 633e 3a82 9abe b817 73be 65b3 10be
00000090: 2d23 963e d5b9 7bbd e85e 013e cdbb d0bd
000000a0: 5a5e 9d3e b1e6 e4be f10a 5e3e 93c0 9e3c
000000b0: b1ef 1abe 9f76 243e 282c 3ebe d36d e63d
000000c0: bebf abbd 75fb 35bd a561 a9be dee5 d9be
000000d0: a84d 363e dc2f cabd 9a48 a13e 3e20 413e
000000e0: 70ae 2fbd aa6e 25be a434 3e3e 18e8 a13d
000000f0: 1de6 46be 6d05 27be c3aa 323e 4eb1 a03e
00000100: 330b 2bbe 23e5 87bd 3d23 30bc 7403 403d
00000110: 7183 57be e816 3ebe acc7 403e 3d04 c4be
00000120: 8ec1 0d3e 3262 b83c 0e3e bd3d d602 573d
00000130: b0ba ce3d 80bc 2d3e 7644 86be 3b8c 103e
00000140: cf23 79be 1fa0 90be 400b e73c 27fd 53bd
00000150: 761f 3f3e dbab 44be 4ec0 87be ada1 713e
00000160: 7ca8 5dbd 1f2a 483e 5848 d53d 3155 28bf
00000170: 0c72 7f3d 897c 973d 37b8 54be f78a 20be
00000180: e813 db3d a83c 8e3d 2db5 0ebe b3ac c4bd
00000190: 9cde 953e 41ea 97be 3318 363e 6408 fa3d
000001a0: 947d 2fbe 1942 81be c607 9d3e dac3 9e3c
000001b0: 0ffd 523e bcc6 2c3d ce8a c33d 9ce5 55bd
000001c0: d684 8f3e dd3d 54be ce5b 483d c1c6 613e
000001d0: 57fe 7b3e d60f 563e 2c3d 30be 1489 49be
000001e0: 9db7 43be eb96 84be b942 953e 009a 52be
000001f0: 2069 213e 05f4 13be 2f97 96be d67f 83bd
00000200: 82ff 263e c7bb 903e 0ca9 3cbe e003 7b3e
00000210: 9a44 833e b2de 533e ff08 553e 07b1 723e
00000220: 1c25 583e c759 d93d fa7e 2ebe 98a5 76be
00000230: 13f0 08be 64de d2bd 81f3 43be 9cf5 073e
00000240: 7e3e a93d bfb2 63bd c2e0 f83d ff72 ac3d
00000250: 5568 403e ba20 1b3e 6e93 e1bd e21a 85bd
00000260: 9593 46bd 102c 16bc d698 8ebe 8d02 33be
00000270: 4486 51be 659a 0fbe 5888 563e fd7f c6bd
00000280: be92 7fbe cb2e 593c c126 bf3d 6e35 3e3e
00000290: d00d 1dbe e18c 6e3d 7850 bdbd a877 97bd
000002a0: f88f 84be 52c4 1dbe fa7a abbd ba70 e9bd
000002b0: ab95 7c3d c848 ac3d d533 a13e 31e4 863e
000002c0: ce5c 813e 8130 b53b 3505 42be b7ac 453e
000002d0: d0c8 9dbd 7ab0 bfbe 7b89 7dbe 23ec 86bd
000002e0: 5d80 3abe 7a46 633e e613 9cbe 396c 81be
000002f0: 94aa 87bb 1606 26be 5634 fd3d fffb 3cbe
00000300: 1a10 19be a9e3 bd3c 647e 583e 9ec8 49be
00000310: 0311 273e 8999 563e 7038 873e 2938 82be
00000320: cb7e c93d bd39 d03d 8438 8e3e b552 d7bd
00000330: 796a 473e faa2 76bb eca1 80bc b224 583a
00000340: 82bc 5c3d de29 173e 7515 653d b9ea 86be
00000350: 8c36 7cbe a654 7d3e dd93 673e 3836 523e
00000360: 5a33 823e 02cd 6bbe cc1c e8bd c399 883e
00000370: 3e79 6ebe 6ef6 aabb 12db 7dbe c6ae 78be
00000380: 6801 173e 3942 42be 7910 aabd c81b 783e
00000390: 1935 853e 7da7 8c3e 1c09 23bd f4bf 30bf
000003a0: 314b 8f3e 4b18 6ebd 1876 e0bd 0417 9f3d
000003b0: c516 6fbe 7d6f 733e f176 3c3e 39a7 82be
000003c0: dcd6 8bbe 5239 bfbd 7f57 cd3d 14fc 643c
000003d0: a5fa e7bd 4cd4 d63c f932 9bbe db1e 62be
000003e0: a667 6abe 54db 523e dbce 913e b11a 97be
000003f0: 58fa 163c eac5 193e 4cf9 113d 9c2a 21be

bias f4 [128]
0.04799697 -0.00915614 0.06450961 -0.008495071 0.19177118 -0.011027078 0.23843978 0.093505956
0.0049572927 0.062092535 0.24042183 0.06529498 0.22906987 -0.010957374 0.007413882 0.27881807
-0.30989522 0.0527662 0.30201936 -0.1400641 -0.04350338 -0.0024140556 0.11441895 0.15621558
0.08709354 0.13653716 -0.12444718 0.15258405 -0.09138841 0.22621934 -0.07367362 -0.27189633
0.04468273 0.19583702 -0.007425612 -0.010975658 0.0036115104 0.18290985 0.01850799 -0.31653354
-0.24273668 0.040041164 -0.007233727 0.3356755 -0.041756466 0.24213092 -0.24150747 -0.2994861
-0.008770742 -0.23481601 -0.10118295 0.025938824 -0.2588525 0.23989327 -0.17309868 0.2618023
0.09607475 -0.043202728 -0.25734666 0.04144814 -0.16759841 0.29468337 -0.25828707 -0.08954799
-0.14400637 -0.19426413 -0.21725978 -0.015773786 0.014343336 0.07670836 0.17854355 -0.116622396
-0.22719209 -0.07107505 0.32264915 -0.04131807 -0.27997535 0.2659005 0.057914294 0.07872698
0.06988965 0.23162478 -0.13952321 0.24776493 0.3278985 -0.06928828 0.2252658 0.20041484
0.32107878 -0.06272053 -0.21602644 -0.102670185 -0.1997308 0.030423239 0.32856092 0.33160758
0.2274002 0.04622258 0.02761239 0.2002031 0.19965912 -0.030274626 -0.089725845 0.13764958
0.024809266 -0.21515585 -0.16555764 0.27737197 0.28437966 -0.108473174 -0.05465731 -0.16770844
-0.09604865 0.30486342 -0.32681292 0.15308785 -0.29834545 -0.14162715 -0.05068012 0.020429352
-0.03513427 -0.16290607 -0.13154769 -0.20431326 -0.22185111 -0.20062825 0.3286221 -0.12593678
00000000: 7998 443d a203 16bc 9d1d 843d e92e 0bbc
00000010: aa5f 443e ebaa 34bc 8f29 743e 0d80 bf3d
00000020: c970 a23b be54 7e3d 2431 763e 60b9 853d
00000030: 4b91 6a3e 8f86 33bc 26f0 f23b 3ec1 8e3e
00000040: 96aa 9ebe 5f21 583d 48a2 9a3e f76c 0fbe
00000050: 9a30 32bd 2235 1ebb 7c54 ea3d faf6 1f3e
00000060: 195e b23d 66d0 0b3e 2ade febd fe3e 1c3e
00000070: d929 bbbd 0ba6 673e 32e2 96bd ff35 8bbe
00000080: 3d05 373d 8089 483e 8c52 f3bb 3fd3 33bc
00000090: 17af 6c3b b84c 3b3e 119e 973c af10 a2be
000000a0: f78f 78be 3402 243d e608 edbb a9dd ab3e
000000b0: d408 2bbd 2bf1 773e bc4d 77be 3e56 99be
000000c0: 29b3 0fbc 9c73 70be 0239 cfbd a87d d43c
000000d0: 5188 84be 95a6 753e c840 31be f30a 863e
000000e0: d7c2 c43d 58f5 30bd f1c2 83be 86c5 293d
000000f0: eb9e 2bbe bde0 963e 343e 84be f064 b7bd
00000100: 6876 13be 2ded 46be 5979 5ebe 0738 81bc
00000110: 5000 6b3c 4619 9d3d 1fd4 363e b9d7 eebd
00000120: 0ba5 68be cc8f 91bd 4532 a53e 233d 29bd
00000130: ee58 8fbe 1c24 883e 8a37 6d3d 9c3b a13d
00000140: 4e22 8f3d 0c2f 6d3e 2cdf 0ebe 17b6 7d3e
00000150: 50e2 a73e 04e7 8dbd 14ac 663e 8c39 4d3e
00000160: 7064 a43e 9f73 80bd 0936 5dbe bf44 d2bd
00000170: 3b86 4cbe 283a f93c 2339 a83e 78c8 a93e
00000180: 99db 683e e353 3d3d 6133 e23c 0b02 4d3e
00000190: 7173 4c3e 7e02 f8bc 2fc2 b7bd 03f4 0c3e
000001a0: cd3c cb3c d151 5cbe f187 29be b303 8e3e
000001b0: 369a 913e 2f27 debd 58e0 5fbd c3bb 2bbe
000001c0: 28b5 c4bd 0f17 9c3e 0654 a7be 10c3 1c3e
000001d0: bcc0 98be b506 11be f595 4fbd 755b a73c
000001e0: f4e8 0fbd d9d0 26be 70b4 06be 7f37 51be
000001f0: f02c 63be 7e71 4dbe 2841 a83e 92f5 00be

weight f4 [128, 128]
-0.09120256 0.06989592 0.0398216 0.067872 -0.086113185 -0.07895514 -0.06550488 -0.051490817
-0.013746865 0.046825703 0.055419054 -0.06430506 0.031581033 -0.02701844 0.0069724293 0.041231483
0.026813736 0.02746624 -0.0032832928 0.06235095 0.02178104 0.07685572 0.015210819 -0.037211668
0.0425545 0.0035929885 0.096077025 -0.016705882 0.076834194 -0.055034075 0.039824218 -0.055193953
0.05450994 0.021498572 0.06296671 -0.07764612 -0.091533035 0.041270565 -0.022034394 0.03565932
-0.049144298 -0.024444977 0.018526567 0.050964493 0.03241976 0.005040687 -0.031507045 0.035026737
0.024933735 -0.06251471 -0.020073036 -0.09592184 0.011734711 -0.011148992 0.050067667 0.08420495
-0.071305946 -0.02896687 -0.061154813 -0.004603965 -0.04665211 -0.062872246 -0.033117365 -0.0077861277
0.058419406 -0.020683536 0.06191545 -0.06751333 0.007031855 -0.054303832 -0.08891813 0.012311245
-0.042505432 0.06482577 0.059554458 -0.07748029 0.004162813 -0.0071648504 -0.044529825 -0.04260066
-0.050494175 0.04730629 0.007062397 0.06696986 -0.011498022 0.04200517 0.011861868 -0.01758411
-0.02075501 -0.09034895 -0.020251779 -0.028070861 -0.04767611 -0.031380054 -0.044025093 -0.06703989
0.010257274 -0.0023201883 -0.035999656 0.08878967 0.07022441 0.041986324 -0.04897434 -0.00431636
-0.08182844 0.057451412 0.071706966 -0.012252504 0.057884816 0.073274896 -0.013705045 -0.03802885
-0.009284966 0.008693895 -0.06297635 0.00966577 -0.02153198 0.06399813 -0.038190927 0.06879357
0.057286054 -0.021883706 0.037452046 -0.014773444 -0.032637898 -0.038146105 0.0034082779 0.022645563
-0.011360231 0.0147693455 0.059979416 0.038188078 0.042790968 0.028645923 -0.061924428 -0.051690474
-0.059786003 0.063521355 -0.07538681 -0.06227504 0.05620504 0.053688653 -0.07949561 0.05550805
-0.02336472 0.016866904 -0.049542014 -0.013924836 0.017581267 0.06587314 0.055489343 -0.04150766
-0.058936827 0.0018335625 0.027438875 0.05831661 -0.08422549 0.0025364382 0.011305724 -0.043674618
0.076354794 -0.013631359 -0.07808893 -0.046858937 0.0022567469 -0.055662613 0.024202 0.075094044
0.010362658 -0.0121515915 0.09348233 0.07227191 0.06423251 0.01427641 0.010317647 -0.0606779
0.015126048 0.09565894 0.011110924 -0.07088437 0.035145346 0.083546355 0.080313295 0.012035665
0.022621728 0.01968124 -0.035515018 -0.011220041 0.06466128 0.018321602 0.084434904 -0.06529817
-0.00885311 0.0027887314 -0.044554483 0.07128341 0.063789785 -0.042737164 0.082935445 0.07391737
-0.049347047 0.0014043277 0.09021551 -0.0560036 -0.0077058407 -0.05803246 0.07141551 0.020927163
0.04210886 0.072778 -0.017233552 -0.07065138 0.012754438 -0.0033584724 0.0398771 0.048408456
-0.036304284 -0.030898703 0.057458617 0.02818555 0.020982226 0.050570037 0.044983577 -0.056990895
0.016139956 0.0052102073 -0.07912908 0.025215257 0.006384725 0.071620956 -0.087635 0.08843005
-0.040807717 0.045163967 0.0588044 -0.0036281343 -0.0411061 -0.012116522 -0.059631046 0.014053142
0.03480673 0.023734452 -0.052381076 0.06176973 0.07576833 -0.027346838 0.045776665 -0.008405131
0.03674622 -0.06701128 -0.070254646 -0.014906635 -0.06809182 0.034495078 0.0891553 -0.018756347
00000000: 68c8 babd 9825 8f3d f91b 233d 7a00 8b3d
00000010: 1c5c b0bd 3cb3 a1bd 6c27 86bd 09e8 52bd
00000020: 883a 61bc 4fcc 3f3d 17ff 623d 5fb2 83bd
00000030: 1d5b 013d c755 ddbc fa78 e43b 58e2 283d
00000040: 7ba8 db3c e100 e13c 832c 57bb b663 7f3d
00000050: 276e b23c 8866 9d3d cd36 793c 436b 18bd
00000060: a14d 2e3d 5878 6b3b 08c4 c43d c6da 88bc
00000070: 3f5b 9d3d 696b 61bd b81e 233d 0e13 62bd
00000080: d145 5f3d c61d b03c b1f4 803d ee04 9fbd
00000090: ac75 bbbd 530b 293d 7981 b4bc 820f 123d
000000a0: 884b 49bd d540 c8bc 07c5 973c 25c0 503d
000000b0: 95ca 043d 592c a53b 880d 01bd 3278 0f3d
000000c0: d541 cc3c b607 80bd 3570 a4bc ab72 c4bd
000000d0: f242 403c 43aa 36bc c113 4d3d a573 ac3d
000000e0: da08 92bd ee4b edbc 787d 7abd dcdc 96bb
000000f0: 4816 3fbd 2ac3 80bd 13a6 07bd c622 ffbb
00000100: 3049 6f3d 8570 a9bc 0e9b 7d3d 6e44 8abd
00000110: 7a6b e63b b26d 5ebd b51a b6bd 1bb5 493c
00000120: 2d1a 2ebd 60c3 843d 60ef 733d fcad 9ebd
00000130: 3568 883b 1fc7 eabb e864 36bd 087e 2ebd
00000140: fbd2 4ebd 3ec4 413d ae6b e73b 7e27 893d
00000150: 3362 3cbc 9d0d 2c3d 4858 423c 8d0c 90bc
00000160: 6906 aabc df08 b9bd 0fe7 a5bc ddf4 e5bc
00000170: 0648 43bd 5f88 00bd a853 34bd 364c 89bd
00000180: 200e 283c 4d0e 18bb 6074 13bd 5cd7 b53d
00000190: d1d1 8f3d daf9 2b3d 5199 48bd 4170 8dbb
000001a0: ab95 a7bd 2c52 6b3d 1adb 923d babe 48bc
000001b0: a118 6d3d 2611 963d 208b 60bc 24c4 1bbd
000001c0: f81f 18bc d770 0e3c bff9 80bd 2e5d 1e3c
000001d0: d663 b0bc 7411 833d 176e 1cbd a5e3 8c3d
000001e0: c8a4 6a3d 7545 b3bc 5167 193d 510c 72bc
000001f0: 51af 05bd 173f 1cbd 6a5d 5f3b 3083 b93c
00000200: 4320 3abc 20fb 713c faac 753d 1a6b 1c3d
00000210: 9545 2f3d dbaa ea3c 78a4 7dbd 64b9 53bd
00000220: 2be2 74bd 7c17 823d 6664 9abd 1d14 7fbd
00000230: 4237 663d a2e8 5b3d 98ce a2bd 695c 633d
00000240: 5f67 bfbc 762c 8a3c 91ec 4abd ff24 64bc
00000250: 9706 903c 7fe8 863d cb48 633d f003 2abd
00000260: be67 71bd 2654 f03a 7ec7 e03c 66dd 6e3d
00000270: 6a7e acbd 5f3a 263b a53b 393c 28e4 32bd
00000280: e75f 9c3d 1056 5fbc 17ed 9fbd 28ef 3fbd
00000290: eee5 133b 7bfe 63bd 4643 c63c e8ca 993d
000002a0: 23c8 293c 7817 47bc aa73 bf3d 4c03 943d
000002b0: 568c 833d 9be7 693c 590b 293c 6489 78bd
000002c0: 3ed3 773c d6e8 c33d 980a 363c d32b 91bd
000002d0: 91f4 0f3d 5a1a ab3d 4c7b a43d 3d31 453c
000002e0: 3451 b93c 8d3a a13c 3278 11bd 43d4 37bc
000002f0: 226d 843d 2f17 963c 35ec ac3d 0cbb 85bd
00000300: a20c 11bc 26c3 363b c37e 36bd 09fd 913d
00000310: 38a4 823d 2a0d 2fbd 0fda a93d fd61 973d
00000320: 2120 4abd 6b11 b83a e9c2 b83d 0864 65bd
00000330: 4781 fcbb 72b3 6dbd 4b42 923d 716f ab3c
00000340: 577a 2c3d a20c 953d 612d 8dbc acb1 90bd
00000350: fef7 503c d119 5cbb 2c56 233d f247 463d
00000360: cdb3 14bd 471f fdbc ba59 6b3d 62e5 e63c
00000370: ebe2 ab3c 8722 4f3d b340 383d 496f 69bd
00000380: f137 843c 63ba aa3b 6d0e a2bd 3a90 ce3c
00000390: f536 d13b 02ae 923d fb79 b3bd d01a b53d
000003a0: fe25 27bd dafd 383d e2dc 703d fec5 6dbb
000003b0: df5e 28bd 6084 46bc af3f 74bd 263f 663c
000003c0: 8091 0e3d c16e c23c 8a8d 56bd 4202 7d3d
000003d0: 6d2c 9b3d 7a06 e0bc 5080 3b3d adb5 09bc
000003e0: 3483 163d 363d 89bd abe1 8fbd f53a 74bc
000003f0: b973 8bbd b64a 0d3d 0e97 b63d e9a6 99bc

bias f4 [128]
0.06519238 0.06043147 -0.021912357 0.04654141 -0.029984895 -0.009464665 -0.07907658 0.044443615
0.064382926 0.0110892095 -0.08884677 -0.0036221445 -0.05907445 -0.04074866 -0.014407604 0.041209728
0.04741709 -0.08254603 -0.04996229 -0.050326567 0.027801005 0.003569825 -0.01713192 0.012470914
0.0056388685 -0.07833208 0.033927962 0.019867107 0.019217243 0.051418964 0.018017273 -0.05119386
0.10525417 0.044655956 0.093187705 0.016339729 0.07025096 -0.002750672 -0.00082454825 0.04916606
-0.03583947 -0.07952222 0.026843643 0.067105986 0.0956473 -0.0059635085 -0.023901623 -0.05404981
0.09654141 0.004319122 -0.045209877 -0.05989794 -0.019751595 0.087341495 0.043252278 -0.07001393
0.049498636 -0.025114743 0.09210441 -0.023841903 0.0027862063 0.0319353 -0.006951008 -0.043997493
-0.001752444 0.09960483 -0.065726936 0.067589164 0.049852364 0.09045778 0.027276227 0.0004103511
-0.04837309 0.10354992 0.009454225 -0.0021793419 0.03117935 -0.015702702 0.009894712 0.024280667
0.06851719 0.0620253 -0.09408429 -0.012030672 0.002758779 0.045363184 -0.049708772 -0.0109662805
-0.041802548 -0.056527063 0.020539805 0.071541816 0.032448262 -0.03958017 -0.0036388403 -0.025263244
0.09959882 0.03339457 -0.05133154 -0.0718261 -0.03254093 -0.0693519 0.03051699 -0.03376739
-0.0876807 -0.022830177 -0.035856713 -0.026391612 0.07967704 0.0022430578 -0.05535763 -0.043817427
0.09262117 -0.0058641895 -0.024718137 -0.026253777 0.04175808 0.08174707 -0.009912934 -0.0012751882
-0.028091744 -0.05903954 0.055493683 0.01930891 0.013276254 0.02193889 0.026682207 0.08008674
00000000: 9583 853d fd86 773d 8b81 b3bc 35a2 3e3d
00000010: e2a2 f5bc af11 1bbc e7f2 a1bd 820a 363d
00000020: 32db 833d 84af 353c 4cf5 b5bd 8061 6dbb
00000030: 0df8 71bd 11e8 26bd df0d 6cbc 88cb 283d
00000040: 6c38 423d e50d a9bd 42a5 4cbd 3b23 4ebd
00000050: efbe e33c baf3 693b 3e58 8cbc ce52 4c3c
00000060: 42c6 b83b 926c a0bd 0cf8 0a3d 58c0 a23c
00000070: 7b6d 9d3c b19c 523d f698 933c a7b0 51bd
00000080: 808f d73d 2ae9 363d 32d9 be3d e5da 853c
00000090: bcdf 8f3d 9e44 34bb 7f26 58ba 5a62 493d
000000a0: 68cc 12bd 8cdc a2bd 33e7 db3c dd6e 893d
000000b0: bbe2 c33d 8969 c3bb 56cd c3bc 5563 5dbd
000000c0: 81b7 c53d 6c87 8d3b fe2d 39bd 8b57 75bd
000000d0: 19ce a1bc 19e0 b23d 4d29 313d 7763 8fbd
000000e0: 15bf 4a3d 6fbd cdbc 3da1 bc3d 1850 c3bc
000000f0: c998 363b 97ce 023d 48c5 e3bb b736 34bd
00000100: 43b2 e5ba 9efd cb3d d89b 86bd 306c 8a3d
00000110: fe31 4c3d ee41 b93d 6572 df3c 6424 d739
00000120: dc22 46bd fb11 d43d e5e5 1a3c 4ad3 0ebb
00000130: d66b ff3c f4a2 80bc 6e1d 223c 40e8 c63c
00000140: be52 8c3d 3e0e 7e3d 44af c0bd 4c1c 45bc
00000150: a2cc 343b bfce 393d 6d9b 4bbd eaab 33bc
00000160: 2639 2bbd ec88 67bd 1843 a83c 8484 923d
00000170: 78e8 043d d11e 22bd 9c79 6ebb ddf4 cebc
00000180: 77fa cb3d bfc8 083d 0541 52bd 9019 93bd
00000190: a349 05bd 5e08 8ebd c4fe f93c ad4f 0abd
000001a0: f091 b3bd 5a06 bbbc 7dde 12bd 3933 d8bc
000001b0: b72d a33d 4400 133b afbe 62bd e779 33bd
000001c0: 2bb0 bd3d 6328 c0bb b17d cabc 2912 d7bc
000001d0: 850a 2b3d 026b a73d dc69 22bc 3724 a7ba
000001e0: a820 e6bc 72d3 71bd 584d 633d b82d 9e3c
000001f0: a584 593c 30b9 b33c a594 da3c 8404 a43d

weight f4 [128, 128]
0.0007224972 0.041853916 0.008854284 0.031239342 -0.06944923 0.054144796 -0.061613545 0.012447088
0.080369025 -0.018903593 -0.038676538 0.049792986 -0.08151775 -0.033942632 -0.012341388 0.03565963
0.060972244 -0.035649773 0.010425393 0.119939886 0.071318 -0.056581344 -0.03994435 -0.007802495
-0.054835383 -0.029285269 -0.0076484405 -0.031776287 -0.05229137 -0.035109937 0.029319178 -0.0678537
0.07671037 0.08625583 0.023738366 -0.039697178 0.020448685 -0.075898044 0.0441484 0.05605243
0.055685118 0.06591088 0.04986492 -0.09141717 -0.05278919 -0.014175408 0.015606934 0.054396447
-0.091737114 -0.054812036 0.047393568 0.056761697 0.0009907075 0.041062776 0.07628985 0.08160012
0.020330064 -0.077496424 -0.0331822 -0.052392803 -0.056788303 0.06256346 0.0049857004 -0.055113215
0.037953824 -0.03234505 -0.05035989 -0.004428144 -0.043826383 -0.05508694 -0.048897166 -0.06386247
-0.029104201 0.049594503 -0.045818187 0.09592259 0.012758917 -0.019422771 -0.0070038405 -0.00780747
0.01964027 0.057214115 0.023032757 -0.09475015 0.007479709 0.025323806 -0.066659 -0.06586575
0.038580604 -0.08975831 -0.070541084 0.07060768 -0.007133223 -0.011939479 0.055115484 0.03087042
-0.020339286 0.0029060128 0.055275917 0.07757895 -0.038004708 -0.0062598274 0.054809477 0.057347395
0.0105322525 0.024701145 0.0651813 -0.055633396 0.0002847866 0.013232512 -0.01783206 -0.045291815
-0.0126912845 -0.11505814 -0.06705286 -0.047239535 -0.027256034 -0.06022159 0.02272272 -0.09080984
-0.018844606 -0.08887929 0.017082503 -0.022843046 0.0019202266 -0.023868775 -0.0772078 0.060846213
-0.07665372 0.026158825 0.097350046 0.07315051 0.064828485 -0.06335152 0.047957975 -0.028427584
-0.008259401 -0.063589 0.09194621 0.048433613 -0.052442547 0.074933596 -0.05538896 -0.026548771
-0.009363775 -0.03463585 0.041526727 0.060735803 -0.0066272677 0.027615255 -0.058725987 0.0287692
-0.059219185 0.07957597 -0.05154939 0.08523986 -0.039770186 0.02243468 0.008090831 -0.01372607
0.057978246 0.0522212 -0.002452724 0.0006312166 -0.055482827 0.028720824 -0.024545426 0.0571683
-0.0902557 0.0666398 -0.06558163 -0.0906275 0.008820054 0.07501869 -0.025491284 0.069668315
0.04722286 -0.026577495 -0.03804634 -0.037694786 0.050933775 0.023599248 0.0007892801 -0.033761
0.08221632 0.061406508 -0.08675709 -0.060715206 -0.07217961 0.02032501 -0.04322374 -0.01844904
-0.07342413 -0.074269995 -0.0015317546 -0.08554478 -0.023025699 0.0023482577 0.029174626 -0.08982642
0.009891138 0.07102434 -0.062544055 -0.03663786 0.028557433 -0.0041221636 -0.041542735 0.04676665
-0.08852719 -0.08924156 0.050331842 0.034205772 0.010019838 0.07740322 -0.07785917 0.063851215
0.011970102 0.06243236 0.040659837 0.027291765 -0.082347676 0.0047672302 -0.03268938 -0.013115477
0.07137207 -0.018723272 -0.04582899 -0.0334106 -0.021222522 0.052649368 0.010613947 0.01071657
-0.05367899 0.08694502 -0.022386437 0.03094799 -0.076717325 0.04462352 0.03381952 0.06564278
0.044609103 -0.12649736 -0.029108508 0.055819087 0.03317895 -0.02092287 0.047440603 0.07184357
0.009343725 0.0043862564 0.07944338 0.07253631 -0.033640563 -0.0036480846 -0.013829123 0.038866602
00000000: f765 3d3a 036f 2b3d 8f11 113c a6e9 ff3c
00000010: 663b 8ebd efc6 5d3d 7c5e 7cbd dfee 4b3c
00000020: 8498 a43d b5db 9abc 4a6b 1ebd bbf3 4b3d
00000030: c7f2 a6bd 6e07 0bbd 8833 4abc d50f 123d
00000040: 08be 793d 7f05 12bd 44cf 2a3c 0ba3 f53d
00000050: 2c0f 923d d7c1 67bd b09c 23bd 12ac ffbb
00000060: 119b 60bd a9e7 efbc c59f fabb da27 02bd
00000070: 7a2f 56bd 70cf 0fbd c62e f03c e1f6 8abd
00000080: 541a 9d3d e6a6 b03d f676 c23c 8299 22bd
00000090: 0084 a73c 6f70 9bbd f4d4 343d 3c97 653d
000000a0: 1416 643d 49fc 863d 293f 4c3d ed38 bbbd
000000b0: 7a39 58bd f83f 68bc 3ab4 7f3c cfce 5e3d
000000c0: abe0 bbbd 9682 60bd c21f 423d f47e 683d
000000d0: a1da 813a 7131 283d da3d 9c3d f71d a73d
000000e0: 3c8b a63c 72b6 9ebd 0fea 07bd d699 56bd
000000f0: da9a 68bd 4521 803d 165f a33b 65be 61bd
00000100: 7875 1b3d 3e7c 04bd 2c46 4ebd f719 91bb
00000110: 4b83 33bd d8a2 61bd 6548 48bd 54ca 82bd
00000120: ef6b eebc 9b23 4b3d daab 3bbd 1073 c43d
00000130: c70a 513c 811c 9fbc 7980 e5bb ced5 ffbb
00000140: a2e4 a03c 5959 6a3d 31af bc3c 5e0c c2bd
00000150: 5918 f53b df73 cf3c 8484 88bd 9fe4 86bd
00000160: b206 1e3d 34d3 b7bd d877 90bd c29a 903d
00000170: d0bd e9bb ce9d 43bc c6c0 613d f7e3 fc3c
00000180: 939e a6bc ce72 3e3b 0069 623d b6e1 9e3d
00000190: d3aa 1bbd 3d1f cdbb e77f 603d 1ae5 6a3d
000001a0: 788f 2c3c 0e5a ca3c c67d 853d d8df 63bd
000001b0: 694f 9539 2ecd 583c 8a14 92bc e983 39bd
000001c0: 1bef 4fbc 9aa3 ebbd 0353 89bd 3e7e 41bd
000001d0: 0c48 dfbc eaaa 76bd ff24 ba3c 82fa b9bd
000001e0: 0160 9abc 5806 b6bd 9bf0 8b3c 5721 bbbc
000001f0: 1db0 fb3a 7388 c3bc 1f1f 9ebd e139 793d
00000200: a0fc 9cbd 084b d63c 765f c73d efcf 953d
00000210: ccc4 843d 71be 81bd 956f 443d f7e0 e8bc
00000220: 7052 07bc f33a 82bd 4b4e bc3d 5362 463d
00000230: ffcd 56bd c976 993d 89df 62bd cf7c d9bc
00000240: 856a 19bc 52de 0dbd ee17 2a3d 1bc6 783d
00000250: 8d29 d9bb 6339 e23c a98a 70bd 63ad eb3c
00000260: d18f 72bd baf8 a23d 7425 53bd 3c92 ae3d
00000270: 10e6 22bd efc8 b73c 688f 043c 4fe3 60bc
00000280: 997a 6d3d e6e5 553d e1bd 20bb 3b78 253a
00000290: f641 63bd ef47 eb3c 7d13 c9bc 4f29 6a3d
000002a0: fbd7 b8bd 737a 883d a94f 86bd e99a b9bd
000002b0: fd81 103c 66a3 993d 19d3 d0bc 43ae 8e3d
000002c0: c26c 413d 0cb9 d9bc 7bd6 1bbd d965 1abd
000002d0: ef9f 503d 3653 c13c b1e7 4e3a f948 0abd
000002e0: 0861 a83d 6485 7b3d b4ad b1bd 82b0 78bd
000002f0: e7d2 93bd a380 a63c 600b 31bd 7122 97bc
00000300: 645f 96bd de1a 98bd 28c5 c8ba 1a32 afbd
00000310: 64a0 bcbc 3ae5 193b a0ff ee3c eaf6 b7bd
00000320: 710e 223c 3675 913d 1917 80bd 9511 16bd
00000330: 47f1 e93c 3713 87bb b728 2abd 638e 3f3d
00000340: be4d b5bd 47c4 b6bd c328 4e3d 5a1b 0c3d
00000350: 3f2a 243c 9485 9e3d a174 9fbd 6dc4 823d
00000360: 3f1e 443c 13b9 7f3d ee8a 263d fb92 df3c
00000370: e6a5 a8bd 6d36 9c3b 4de5 05bd 4ce2 56bc
00000380: 852b 923d 8c61 99bc 2eb7 3bbd 8ed9 08bd
00000390: dbda adbc dda6 573d 1fe6 2d3c 8d94 2f3c
000003a0: 80de 5bbd 3b10 b23d c363 b7bc a486 fd3c
000003b0: f91d 9dbd 27c7 363d 5686 0a3d b96f 863d
000003c0: 09b8 363d 8688 01be f774 eebc 8ea2 643d
000003d0: a7e6 073d 7066 abbc 1451 423d b922 933d
000003e0: 6c16 193c 96ba 8f3b 36b3 a23d eb8d 943d
000003f0: b0ca 09bd b414 6fbb 8c93 62bc 9632 1f3d

bias f4 [128]
-0.05312242 -0.044936743 -0.029852642 -0.07629666 0.088678785 0.07199803 0.011341855 0.0022025418
0.071709566 0.076979995 -0.03038605 -0.040248808 0.0437775 -0.06119234 0.048468687 -0.07734814
-0.044301115 -0.008185761 -0.047782708 0.02621393 0.0046980637 0.0053704297 0.07354072 0.034585442
-0.05732003 -0.05679605 0.027808018 -0.04541863 0.071252175 0.097634554 -0.020576037 -0.082905546
-0.09714252 -0.070213795 -0.0811581 0.062478546 -0.059555072 -0.07540848 0.09432872 -0.061794706
0.07129101 -0.03256201 -0.01864307 0.038364116 0.05645575 -0.01984844 0.09191299 0.035732888
0.076605834 0.08032312 -0.0582824 0.017837448 -0.06844147 -0.07126718 0.011208019 -0.03136558
-0.057113457 0.019245517 -0.033616073 -0.082464494 0.041242152 -0.005635547 0.041897237 -0.046873335
-0.024806265 0.051683392 -0.07006608 0.0053921915 0.100439824 0.010959379 0.040449627 -0.07745648
0.03254517 -0.08539555 0.084376246 0.014352749 -0.062400036 0.019159924 0.10189158 -0.049801636
-0.0061872383 0.092615455 0.006023953 0.053958368 0.06327319 -0.02185781 0.0966495 -0.028118305
0.1027308 -0.01929735 0.023976544 -0.09355002 0.039771136 -0.004646304 -0.08719168 -0.04185583
0.07649558 -0.08946731 0.0318991 -0.0028125986 0.012757193 0.0015 0.0018405998 -0.031403974
-0.09962648 -0.021576548 0.06543056 -0.09490286 -0.0424581 -0.061868228 -0.064300984 -0.030201707
0.05834589 0.060307626 0.038561467 0.053507127 -0.104717456 -0.09341366 0.09586392 0.07902958
0.043384045 -0.0878234 -0.07760406 0.08901634 -0.06946129 -0.022731416 0.01789591 0.10200418
00000000: e596 59bd 970f 38bd 878d f4bc 6c41 9cbd
00000010: 399d b53d b473 933d 30d3 393c 8558 103b
00000020: 77dc 923d b0a7 9d3d 2aec f8bc efdb 24bd
00000030: 0950 333d d2a4 7abd 1a87 463d b468 9ebd
00000040: 1675 35bd 921d 06bc cdb7 43bd 99be d63c
00000050: 37f2 993b 6efa af3b 849c 963d 77a9 0d3d
00000060: 68c8 6abd faa2 68bd a4cd e33c e308 3abd
00000070: a9ec 913d a0f4 c73d 148f a8bc 62ca a9bd
00000080: a8f2 c6bd 40cc 8fbd 3836 a6bd 81e9 7f3d
00000090: 05f0 73bd c36f 9abd 6a2f c13d 721c 7dbd
000000a0: 0501 923d be5f 05bd 5ab9 98bc b123 1d3d
000000b0: 253e 673d 3299 a2bc e13c bc3d a65c 123d
000000c0: 85e3 9c3d 7380 a43d 87b9 6ebd d71f 923c
000000d0: 0b2b 8cbd 87f4 91bd d7a1 373c 3279 00bd
000000e0: cdef 69bd c6a8 9d3c 02b1 09bd 25e3 a8bd
000000f0: 88ed 283d 65aa b8bb 709c 2b3d 41fe 3fbd
00000100: 8236 cbbc f7b1 533d ce7e 8fbd fbb0 b03b
00000110: 65b3 cd3d f88e 333c 82ae 253d 81a1 9ebd
00000120: 164e 053d dde3 aebd 74cd ac3d cb27 6b3c
00000130: 2e97 7fbd 46f5 9c3c 88ac d03d cdfc 4bbd
00000140: 51be cabb 2cad bd3d 9564 c53b 7303 5d3d
00000150: 6095 813d 260f b3bc 2cf0 c53d 5c58 e6bc
00000160: 8764 d23d 7a15 9ebc 756a c43c 2797 bfbd
00000170: 0fe7 223d 0640 98bb 8d91 b2bd 0571 2bbd
00000180: b7a9 9c3d a33a b7bd a1a8 023d 9353 38bb
00000190: 8c03 513c a69b c43a 4840 f13a 74a1 00bd
000001a0: f808 ccbd 4dc1 b0bc 7500 863d 6e5c c2bd
000001b0: 8be8 2dbd 8a69 7dbd 3cb0 83bd 9269 f7bc
000001c0: 1afc 6e3d 2105 773d a1f2 1d3d 4a2a 5b3d
000001d0: 1b76 d6bd a94f bfbd 4e54 c43d 43da a13d
000001e0: 78b3 313d c1dc b3bd e1ee 9ebd 334e b63d
000001f0: b941 8ebd 3c37 babc 729a 923c 91e7 d03d

weight f4 [1, 128]
0.017542686 0.01596474 0.018023146 0.0014715232 -0.009111178 -0.00879524 -0.010476872 0.004615151
-0.019545069 -0.0037514346 0.014166098 -0.014541413 0.001197459 0.015983215 -0.003119802 0.0113267405
0.0192881 0.0113163935 -0.015263415 -0.005053964 -0.0017869538 0.00030770726 -0.013117078 0.012041419
-0.014505712 0.008611147 -0.020273566 0.014922837 0.002088811 -0.026490407 0.016761592 0.008802933
0.009648269 0.025421781 0.02789432 -0.009510783 0.017199863 0.014425722 -0.0024951883 -0.01233342
-0.005116639 0.01613272 0.0022267776 -0.0027133615 -0.030176872 -0.0071083694 -0.013354535 -0.014967577
-0.019870678 -0.009640998 0.0089099035 -0.013928225 -0.0071153617 0.005564994 0.007990421 0.017429875
8.262702e-05 -0.00020059115 -0.027171994 0.025954986 -0.022458259 0.017754251 -0.008159862 0.0060407743
0.043479066 -0.007885136 0.011833599 -0.0054942416 -0.0081101805 0.018532092 -0.015216266 0.018228438
0.013984915 0.0147072505 -0.008485315 0.0057824086 -0.008678362 -0.0046258066 -0.02029141 -0.01720742
0.006714392 -0.015321341 -0.019999031 -0.008388069 -0.0056699626 0.012797147 -0.031300098 0.013155412
-0.01644063 0.0031902075 0.008301378 0.024226766 -0.013914425 0.01058946 -0.00025532153 0.0193151
-0.026750019 0.015836688 -0.023388872 0.013181469 -0.0039771036 -0.0018814433 0.014780232 0.02044192
0.007933324 -0.016348146 -0.01727354 0.019237842 -0.015728006 -0.0052666217 0.024341702 0.02766312
0.008778736 -0.024992114 -0.006802982 -0.005958594 0.027172355 0.0054354896 -0.018118255 -0.022710802
0.017751807 0.01784736 0.009335586 -0.00864991 0.01670953 0.01716452 0.008620635 -0.0066808644
00000000: aeb5 8f3c 7dc8 823c 47a5 933c 20e0 c03a
00000010: 0d47 15bc e919 10bc 30a7 2bbc b13a 973b
00000020: fb1c a0bc a1da 75bb ec18 683c 1b3f 6ebc
00000030: 0ef4 9c3a 3bef 823c 9875 4cbb cb93 393c
00000040: 1402 9e3c 6568 393c 6713 7abc b99b a5bb
00000050: 3838 eaba c553 a139 03e9 56bc 5f49 453c
00000060: 5ea9 6dbc c515 0d3c c014 a6bc ea7e 743c
00000070: 6fe4 083b 6902 d9bc 9b4f 893c 2d3a 103c
00000080: c613 1e3c 5741 d03c a182 e43c 1dd3 1bbc
00000090: bae6 8c3c dd59 6c3c 5086 23bb 1d12 4abc
000000a0: 7ba9 a7bb c428 843c 21ef 113b a7d2 31bb
000000b0: 7d35 f7bc 53ed e8bb fbcc 5abc 913a 75bc
000000c0: d5c7 a2bc 47f5 1dbc d8fa 113c 3633 64bc
000000d0: fb27 e9bb 8e5a b63b 41ea 023c 19c9 8e3c
000000e0: 0b48 ad38 c755 52b9 cd97 debc 8d9f d43c
000000f0: 62fa b7bc 5d71 913c f1b0 05bc b0f1 c53b
00000100: 1b17 323d a830 01bc b6e1 413c 0a09 b4bb
00000110: 90e0 04bc 9dd0 973c a54d 79bc ce53 953c
00000120: fc20 653c aef6 703c fe05 0bbc 5c7a bd3b
00000130: b02f 0ebc 1494 97bb 2c3a a6bc 93f6 8cbc
00000140: 6704 dc3b 5d06 7bbc 02d5 a3bc 1d6e 09bc
00000150: 18cb b9bb 20ab 513c 8834 00bd cc89 573c
00000160: 80ae 86bc cd12 513b 8102 083c 3677 c63c
00000170: 54f9 63bc 6a7f 2d3c addc 85b9 b33a 9e3c
00000180: db22 dbbc f1bb 813c 059a bfbc 17f7 573c
00000190: 5d52 82bb c39a f6ba c928 723c d075 a73c
000001a0: c6fa 013c 8cec 85bc 3d81 8dbc ae98 9d3c
000001b0: 05d8 80bc a093 acbb 4068 c73c c49d e23c
000001c0: b0d4 0f3c 43bc ccbc 8deb debb 4f40 c3bb
000001d0: 8f98 de3c 311c b23b bc6c 94bc 010c babc
000001e0: 3d6c 913c a034 923c 49f4 183c 5ab8 0dbc
000001f0: 6de2 883c 9c9c 8c3c 903d 0d3c 27eb dabb

weight f4 [3, 128]
-0.011899962 0.008351274 0.003365518 0.005663429 -0.007911959 0.0017543928 0.012311874 -0.0017725732
0.0061394577 0.009918339 0.006206864 0.021579852 0.010087245 -0.0011859012 -0.007815505 -0.0043062503
0.002769429 -0.002043211 -0.000605088 -0.0019378269 0.011468728 0.006415513 0.0140797915 -0.012594657
-0.012860348 0.0055693137 0.009496448 0.0032845035 -0.006467014 -0.012431989 -0.0039707758 -0.003597639
0.0059478455 -0.0070547187 0.01669831 0.014611016 -0.0030853306 0.002781566 0.0019703328 -0.0132427635
-0.0041465284 -0.0007128136 0.0040591825 0.0035819185 -0.0020073408 0.021238426 0.012265789 -0.0043435264
0.0017237698 -0.0043413644 -0.0033184881 0.014163168 0.009298006 0.011933696 0.006513599 0.012183696
0.0006885184 -0.0025357043 -0.011211016 -0.002684917 -0.0002285639 -0.014216036 -0.010987902 -0.0013047181
-0.0019477257 -0.00509344 -0.0026486712 0.013168675 -0.0012045398 0.0009553655 0.0005663563 -0.00898323
0.001595034 0.00024470006 -0.012216707 0.014970228 -0.0013213267 0.0020779492 0.002362636 -0.005977414
0.0024136484 -0.00040108582 0.009013636 0.0012362777 0.017012658 -0.0069985907 0.008988032 -0.009935449
0.008676823 -0.013335419 0.0041387337 0.006307868 -0.0025043183 -0.01381469 0.012948982 -0.008746342
-0.012101965 0.007971446 -0.0052841334 -0.0053080744 -0.008398403 0.0032060328 0.011549349 0.0087379
0.0066997116 0.013478146 -0.0083280895 0.00826217 -0.0011270315 0.004445654 -0.009238066 0.0027997096
0.002469975 0.004488576 -0.0016069151 0.0015971512 0.0039654174 0.0033536574 -6.249547e-05 -0.0053552245
0.006051011 -0.001476702 -0.0003722314 -0.00253401 -0.013399354 -0.011539488 0.0043659513 -0.002297519
0.0031113594 -0.004042578 -0.004495119 0.013836908 0.010297482 -0.0063089314 0.0127247255 -0.004161422
-0.0040374002 0.0086587025 -0.0029593173 0.01719954 0.0020399916 -0.02258434 0.008165712 0.014418381
0.0025900449 -0.0049303444 0.011320527 -0.0037303274 -0.004427079 0.015546396 0.005584912 -0.0012378511
-0.0018876953 -0.0048422706 0.006297267 -0.0052242302 0.013158723 -0.0013091984 0.012587817 -0.0043195435
-0.005300094 -0.0027028094 0.01265684 -0.0034722656 -0.0017233287 0.004269149 0.00058236026 -0.006750401
0.00508203 0.012366822 -0.00011558359 -0.0103747 0.0049965656 -0.008593143 -0.0042337305 -0.0035277938
-0.015132657 0.0064562135 -0.0025894633 -0.0032931415 0.003156078 0.013392087 0.009028368 0.008757144
-0.013481975 -0.0010391892 -0.0016125707 0.0028770538 0.002713516 0.0064385175 -0.0040884884 -0.011746236
0.016600741 0.011911876 0.007765298 -0.0072035138 -0.0034047775 0.008587881 -0.009120972 0.0013588342
-0.0037807005 -0.018146472 0.010767313 0.0016502665 0.0035114866 0.00043400083 -0.0040299403 -0.014814198
0.014459153 0.00030242326 -0.008792597 0.00070060365 0.010727177 0.00070482644 0.0071243085 -0.00029048073
0.003253588 -0.017987428 0.008364263 -0.005464286 0.0034385454 0.0055839396 0.0041774116 0.01076518
-0.00863145 0.0105234645 0.002594407 -0.0098756645 0.00041712238 0.0031267921 -0.009693107 0.006841299
0.004101722 -0.00063639315 0.0017811299 0.001170947 -0.002602125 0.009310799 0.01966824 0.006664652
0.008859589 0.006342249 0.0029443556 0.013186012 -0.002583345 0.0036090864 -0.010860082 0.007832431
0.0055426 -0.012780708 -0.0011743259 -0.0056548393 0.0007624373 -0.0049514053 -0.015846154 0.002281775
00000000: 0ff8 42bc c8d3 083c 0690 5c3b 4994 b93b
00000010: 29a1 01bc a7f3 e53a beb7 493c b055 e8ba
00000020: 812d c93b 8780 223c f362 cb3b 3bc8 b03c
00000030: f944 253c 3e70 9bba 9b0c 00bc 721b 8dbb
00000040: 4f7f 353b 64e7 05bb c59e 1eba aefe fdba
00000050: 55e7 3b3c 3939 d23b edae 663c d259 4ebc
00000060: 36b4 52bc ca7e b63b fd96 1b3c d340 573b
00000070: 3fe9 d3bb 8baf 4bbc 481d 82bb 5ec6 6bbb
00000080: 25e6 c23b 452b e7bb e5ca 883c 0b63 6f3c
00000090: 4233 4abb ef4a 363b b320 013b 2df8 58bc
000000a0: 9adf 87bb 1cdc 3aba e402 853b 9fbe 6a3b
000000b0: 978d 03bb 35fc ad3c 73f6 483c 2454 8ebb
000000c0: 1ef0 e13a 0142 8ebb fe7a 59bb a20c 683c
000000d0: aa56 183c 8d85 433c 0770 d53b 209e 473c
000000e0: b07d 343a 0f2e 26bb 69ae 37bc 6ff5 2fbb
000000f0: a8aa 6fb9 60ea 68bc 9a06 34bc 1303 abba
00000100: d44a ffba dfe6 a6bb 5495 2dbb 6dc1 573c
00000110: a6e1 9dba 7e71 7a3a 8777 143a 662e 13bc
00000120: 7610 d13a 164b 8039 9528 48bc b045 753c
00000130: 5e30 adba 342e 083b 74d6 1a3b 2fde c3bb
00000140: 4d2e 1e3b d448 d2b9 eead 133c 990a a23a
00000150: 215e 8b3c 6f54 e5bb 8a42 133c 4bc8 22bc
00000160: 3c29 0e3c cd7c 5abc 379e 873b 3bb2 ce3b
00000170: 7d1f 24bb 0257 62bc f827 543c d14c 0fbc
00000180: 5247 46bc ab9a 023c 8626 adbb 5bef adbb
00000190: 7599 09bc 4e1c 523b 7b39 3d3c 6929 0f3c
000001a0: 4189 db3b 71d3 5c3c 8a72 08bc 0d5e 073c
000001b0: e7b8 93ba d9ac 913b 425b 17bc 557b 373b
000001c0: 4edf 213b e814 933b 209f d2ba 8057 d13a
000001d0: 55f0 813b 09c9 5b3b 0010 83b8 e17a afbb
000001e0: 8f47 c63b e68d c1ba 0e28 c3b9 a211 26bb
000001f0: f788 5bbc 1f10 3dbc 4110 8f3b f991 16bb
00000200: f3e7 4b3b 9a77 84bb cb4b 93bb 33b4 623c
00000210: c5b6 283c 27bb cebb 5e7b 503c 8a5c 88bb
00000220: 2b4c 84bb 3bdd 0d3c 1bf1 41bb 0de6 8c3c
00000230: 61b1 053b cb02 b9bc 7ac9 053c 133b 6c3c
00000240: bebd 293b ba8e a1bb bb79 393c 8278 74bb
00000250: 0811 91bb 50b6 7e3c a301 b73b 643f a2ba
00000260: 8b6c f7ba e9ab 9ebb 4e59 ce3b 0530 abbb
00000270: af97 573c 6999 abba 223d 4e3c f58a 8dbb
00000280: 69ac adbb 9e21 31bb a25e 4f3c f38e 63bb
00000290: 51e1 e1ba 38e4 8b3b 89a9 183a 7832 ddbb
000002a0: 2887 a63b 369e 4a3c 7865 f2b8 a5fa 29bc
000002b0: 3bba a33b 41ca 0cbc 1bbb 8abb 8f32 67bb
000002c0: f7ee 77bc a58e d33b fcb3 29bb bfd1 57bb
000002d0: 34d6 4e3b 7c6a 5b3c b8eb 133c 207a 0f3c
000002e0: 80e3 5cbc 6735 88ba e55c d3ba f48c 3c3b
000002f0: 3ed5 313b 33fa d23b baf8 85bb 4973 40bc
00000300: 47fe 873c 072a 433c 0a74 fe3b 740b ecbb
00000310: b022 5fbb 2fb4 0c3c 2170 15bc e91a b23a
00000320: a1c5 77bb e9a7 94bc 6269 303c c14d d83a
00000330: f820 663b 9b8a e339 970d 84bb 40b7 72bc
00000340: 15e6 6c3c 908e 9e39 d30e 10bc b7a8 373a
00000350: 0bc1 2f3c 1ac4 383a 0873 e93b aa4b 98b9
00000360: 263a 553b 5f5a 93bc 430a 093c c10d b3bb
00000370: 3859 613b 7bf9 b63b abe2 883b 7060 303c
00000380: ed6a 0dbc 9c6a 2c3c ed06 2a3b 8acd 21bc
00000390: 38b1 da39 deea 4c3b d6cf 1ebc fa2c e03b
000003a0: bd67 863b 9fd3 26ba cd74 e93a 767a 993a
000003b0: 6a88 2abb 528c 183c 4a1f a13c 2763 da3b
000003c0: cf27 113c a4d2 cf3b 17f6 403b 250a 583c
000003d0: 564d 29bb 6c86 6c3b 7cee 31bc 9953 003c
000003e0: b39e b53b 2d66 51bc d7eb 99ba 3b4c b9bb
000003f0: 4dde 473a 663f a2bb cbcf 81bc d589 153b

bias f4 [3]
0.0021933669 0.004122798 -0.004101978
00000000: 97be 0f3b 8918 873b e369 86bb

weight f4 [1, 128]
0.012457366 0.025611866 0.014170316 0.016753133 -0.014049679 -0.025182499 -0.00547796 0.017867789
-0.028465115 0.0031952914 0.013387627 -0.02088853 0.023517497 0.013465758 0.002194226 0.011419139
0.010017255 0.0059380406 -0.013655468 0.009086297 -0.013666412 0.015149385 -0.015145367 0.015666261
-0.0009789754 0.008682122 -0.017571306 0.0240436 -0.003225798 -0.014217227 0.013916263 0.020226259
0.008548266 0.033249512 0.002151526 0.0034374336 0.02761236 0.014241451 -0.02061489 -0.020583436
-8.9403075e-05 0.0075137853 0.0065212497 0.010355875 -0.027083253 -0.013001727 -0.012334451 -0.014680723
-0.013216579 -0.016846884 0.0050012795 -0.010292797 -0.015851613 0.012221736 0.02021685 0.008461671
0.008429568 -0.014696395 -0.008361569 0.013467923 -0.021506023 -0.01050402 -0.010030961 0.011849525
0.012031572 -0.020506773 0.014420019 0.0030434523 -0.010406738 0.018427117 -0.021007372 0.015609202
0.0039968113 0.0019681514 -0.01735118 0.019644137 0.01579777 -0.011371085 -0.008662742 0.0069197193
0.0153112775 -0.007279403 0.0033888575 -0.0049795154 -0.015828444 -0.001469167 -0.015070738 0.013514187
-0.021502612 0.008422959 0.0007254566 0.0293823 -0.0043252525 0.0057015913 0.010591253 0.010032069
-0.021136612 0.004243083 -0.023629922 0.014960118 -0.018420292 -0.012215697 0.008068965 0.026152741
0.025806507 0.012021166 -0.023457525 0.011341758 -0.0027278457 -0.009961718 0.026316023 0.009540779
0.0071192053 -0.0023692301 -0.0114668105 -0.01769645 0.01533518 0.02163744 -0.0075253663 -0.019329483
0.025550859 0.0012490096 0.020846944 -0.011816707 0.0073901783 0.015900336 0.0155238705 -0.019924786
00000000: fb19 4c3c facf d13c 9d2a 683c de3d 893c
00000010: a030 66bc 874b cebc 7680 b3bb 785f 923c
00000020: ac2f e9bc 1868 513b c757 5b3c 6c1e abbc
00000030: c4a7 c03c 7c9f 5c3c 01cd 0f3b 5717 3b3c
00000040: 6a1f 243c e593 c23b 2fbb 5fbc b1de 143c
00000050: 16e9 5fbc 2035 783c 4624 78bc 8856 803c
00000060: f750 80ba 763f 0e3c b3f1 8fbc 15f7 c43c
00000070: e967 53bb 5fef 68bc 0a01 643c 8ab1 a53c
00000080: 070e 0c3c a430 083d 9e00 0d3b 9146 613b
00000090: 5133 e23c fa54 693c 8fe0 a8bc 989e a8bc
000000a0: e97d bbb8 3336 f63b 35b0 d53b b0ab 293c
000000b0: b3dd ddbc 3205 55bc 7016 4abc 6a87 70bc
000000c0: 5a8a 58bc 7a02 8abc c6e1 a33b 1fa3 28bc
000000d0: 3edb 81bc ad3d 483c cf9d a53c d2a2 0a3c
000000e0: 2c1c 0a3c 26c9 70bc f6fe 08bc 90a8 5c3c
000000f0: 662d b0bc 0e19 2cbc e658 24bc 8324 423c
00000100: 1220 453c d2fd a7bc f241 6c3c a874 473b
00000110: 0681 2abc 77f4 963c a717 acbc bdbd 7f3c
00000120: aff7 823b 1afc 003b 1024 8ebc beec a03c
00000130: 536a 813c ca4d 3abc 2cee 0dbc d0be e23b
00000140: 27dc 7a3c 0f88 eebb 9817 5e3b 342b a3bb
00000150: a7aa 81bc 1091 c0ba 42eb 76bc 9c6a 5d3c
00000160: 3f26 b0bc 7300 0a3c 912c 3e3a 26b3 f03c
00000170: d9ba 8dbb 6ad4 ba3b ef86 2d3c 8c5d 243c
00000180: b026 adbc 8f09 8b3b 8a93 c1bc 481b 753c
00000190: 27e6 96bc 5924 48bc b133 043c 463e d63c
000001a0: 2b68 d33c 6df4 443c ff29 c0bc c8d2 393c
000001b0: a8c5 32bb 7936 23bc b394 d73c ed50 1c3c
000001c0: 3948 e93b 1645 1bbb 4adf 3bbc 25f8 90bc
000001d0: 6840 7b3c 0041 b13c 5997 f6bb dd58 9ebc
000001e0: 0950 d13c cfb5 a33a 36c7 aa3c dd9a 41bc
000001f0: 4f29 f23b 6c41 823c d557 7e3c 4e39 a3bc

weight f4 [3, 128]
0.0075338115 -0.0027607277 -0.009951577 -0.0025071956 0.002388139 -0.010857691 0.0074659325 -0.0001052434
-0.000761498 -0.005547147 0.0012886451 -0.010491362 0.0064819013 0.0006164821 -2.0761649e-05 -0.010520383
-0.010449831 -0.0036830218 -0.003237672 -0.0025864386 0.009906141 -0.0019726597 0.0035874194 0.010163475
0.0035854713 0.0077457763 -0.0043686093 -0.003956845 0.0026402439 0.0043393457 -0.022493063 -0.00076985825
-0.01105383 -0.007615431 -0.017078292 0.0012815321 0.017633252 0.012002666 0.004549633 0.0019040611
0.0040914584 0.006997979 -0.0060070343 -0.014950377 0.008334905 -0.008815779 0.00024981573 -0.019712176
0.0111424895 -0.0015913284 -0.0005740249 0.0095682135 -0.0031102856 -0.009377517 -0.0014540044 0.004157708
-0.00053609064 0.003177709 -0.010113391 0.0038843006 -0.010817018 0.0035825302 -0.009031024 0.000836057
-0.0038624504 0.005011751 0.0034248778 -0.004752546 0.0021790958 0.02286999 -0.0020134042 -0.014829247
-0.014798816 -0.0068265325 0.009378169 0.001641843 0.011379236 -0.014102711 -0.005694295 0.013627115
0.005886292 0.0002094144 -0.011631089 0.008737949 -0.0017196236 -0.007718519 0.009975383 -0.006090386
0.010047792 -0.010516512 0.008314797 -0.0049274503 0.0032779016 -0.0063355993 -0.0015645457 -2.4043984e-05
0.0009815134 0.009376708 -0.013539808 0.012278723 -0.0009919206 -0.001133634 -0.004917958 0.0057437727
0.010629549 -0.010539707 0.0048274095 0.0038961517 -0.011857093 -0.0073313937 -0.0023321954 -0.011675279
-0.0002318753 0.007499815 -0.0018464983 -0.008238285 -0.0002226596 0.014606264 0.0020687052 -0.01149524
-0.00044177307 -0.0027155292 0.0048723314 -0.0035088784 -0.009468085 0.0020418097 0.0110214995 0.005523985
-0.0020909333 0.0077262404 -0.0025363034 0.00029341545 -0.0013663335 -0.008116648 -0.0015300909 -0.007776888
0.004459805 -0.0017278144 -0.006094802 -0.0069488892 0.0036116708 -0.014265774 -0.0009944295 -0.009171289
0.0024133478 0.012624444 -0.012583828 0.012207527 0.010667708 -0.008258403 0.0072213775 -0.0011390218
0.011126181 -0.014656685 0.0016205886 -0.0031105664 0.0005620167 -0.005900167 0.0014536376 0.002021914
-0.013982087 0.0014764399 0.010806223 0.010016339 0.0027408067 0.004118251 -0.00029938348 -0.002440226
0.011506254 0.009742216 -0.008787909 0.013790896 0.013012063 -0.008943656 0.0076226136 -0.01180866
0.025242325 0.0053125615 0.016728535 0.0077656824 -0.014190925 0.004003843 0.0055528297 0.0006967069
-0.00808947 0.006664794 0.0038771504 0.0075766775 -0.0029113835 0.008364649 -0.0040978384 -0.0017495079
-0.010070588 -0.008906453 0.0051740073 -0.011894173 0.013228629 0.001701569 -0.011350115 0.0066859107
0.00034912323 -0.0141509855 -0.006695448 -0.010540502 -0.0029268574 -0.008198294 -0.0035044784 -0.003635842
0.0036000824 -0.0004704577 0.0016889906 0.00026469235 0.008923439 0.008897952 0.010525042 -0.012920051
0.0006077039 -0.0044363686 -0.0064159785 0.002704459 0.0051876707 -0.008875997 0.020630326 0.007877979
-0.0042557013 -0.011260552 -0.005334415 -0.0065401983 0.004350537 0.0014958068 0.0059771873 0.015394972
-0.005279979 -0.0068469294 0.0032088156 -0.008536308 0.008382259 0.0010095922 0.006804318 0.016142748
0.001815753 -0.0034587188 0.0025450937 -0.0067922818 -0.008928124 -0.0075909924 -0.018613512 0.0047255144
-0.0022701768 0.0033833894 -0.01625598 0.0019575232 0.00843849 0.0009803203 0.010468338 0.008503488
00000000: 31de f63b 53ed 34bb f00b 23bc c34f 24bb
00000010: 5382 1c3b 75e4 31bc c8a4 f43b 1fb6 dcb8
00000020: 449f 47ba d7c4 b5bb c1e7 a83a f6e3 2bbc
00000030: 2166 d43b 6a9b 213a 4d29 aeb7 af5d 2cbc
00000040: c535 2bbc da5e 71bb 1f2f 54bb 3d81 29bb
00000050: 5e4d 223c bd47 01bb e91a 6b3b b484 263c
00000060: 3afa 6a3b 48d0 fd3b 8d26 8fbb 6ca8 81bb
00000070: f107 2d3b 1231 8e3b 5f43 b8bc 50d0 49ba
00000080: 201b 35bc de8a f9bb c6e7 8bbc 15f9 a73a
00000090: 9c73 903c d4a6 443c 1615 953b b091 f93a
000000a0: a411 863b 4d4f e53b a8d6 c4bb 6df2 74bc
000000b0: 208f 083c 0f70 10bc b3f9 8239 6e7b a1bc
000000c0: fd8e 363c 1f94 d0ba 297a 16ba ffc3 1c3c
000000d0: efd5 4bbb 28a4 19bc 4b94 beba 623d 883b
000000e0: 6f88 0cba 1c41 503b a3b2 25bc c08f 7e3b
000000f0: dd39 31bc e2c8 6a3b dcf6 13bc d62a 5b3a
00000100: 2a21 7dbb 9d39 a43b ea73 603b 3fbb 9bbb
00000110: 29cf 0e3b d859 bb3c 51f3 03bb 5ff6 72bc
00000120: bc76 72bc 1bb1 dfbb e4a6 193c 1c33 d73a
00000130: fa6f 3a3c 0f0f 67bc 3597 babb 4344 5f3c
00000140: cce1 c03b 4096 5b39 5390 3ebc 9d29 0f3c
00000150: fe64 e1ba a1eb fcbb ca6f 233c dc91 c7bb
00000160: 7f9f 243c 734d 2cbc c93a 083c 7376 a1bb
00000170: 10d2 563b dc9a cfbb 7111 cdba 10b2 c9b7
00000180: 20a6 803a c4a0 193c 12d6 5dbc b22c 493c
00000190: 5503 82ba 7296 94ba d226 a1bb 4236 bc3b
000001a0: 8f27 2e3c bcae 2cbc 3f2f 9e3b 9456 7f3b
000001b0: 4144 42bc 303c f0bb bfd7 18bb ab49 3fbc
000001c0: 8d23 73b9 02c1 f53b 3406 f2ba dff9 06bc
000001d0: bb79 69b9 1d4f 6f3c 1d93 073b 8856 3cbc
000001e0: c79d e7b9 05f7 31bb 14a8 9f3b 36f5 65bb
000001f0: 0720 1bbc e2cf 053b 8593 343c 8b02 b53b
00000200: 0a08 09bb 672c fd3b 1c38 26bb 8ed5 9939
00000210: 8b16 b3ba b0fb 04bc 558d c8ba 44d5 febb
00000220: 8e23 923b d577 e2ba e8b6 c7bb 82b3 e3bb
00000230: c8b1 6c3b feba 69bc 8457 82ba 2d43 16bc
00000240: 4229 1e3b c2d6 4e3c 662c 4ebc 1402 483c
00000250: 9cc7 2e3c 414e 07bc 4ea1 ec3b 3b4b 95ba
00000260: 964a 363c 9822 70bc ee69 d43a a5da 4bbb
00000270: 4d54 133a 3056 c1bb fc87 be3a 1782 043b
00000280: 2015 65bc 1a85 c13a 960c 313c 921b 243c
00000290: 1b9f 333b 65f2 863b 92f6 9cb9 33ec 1fbb
000002a0: ba84 3c3c d19d 1f3c 29fb 0fbc 36f3 613c
000002b0: 8c30 553c 6a88 12bc 1ec7 f93b 1c79 41bc
000002c0: fec8 ce3c ff14 ae3b 480a 893c 4477 fe3b
000002d0: 0e81 68bc ab32 833b 83f4 b53b 35a3 363a
000002e0: b289 04bc 5864 da3b ca17 7e3b c745 f83b
000002f0: e9cc 3ebb e10b 093c 2947 86bb be4f e5ba
00000300: 1cff 24bc 5fec 11bc b88a a93b c7df 42bc
00000310: e4bc 583c 2e07 df3a d5f5 39bc 7c15 db3b
00000320: 870a b739 89d9 67bc 7d65 dbbb 12b2 2cbc
00000330: 85d0 3fbb 2352 06bc 64ab 65bb 4e47 6ebb
00000340: 5cef 6b3b c3a7 f6b9 1f61 dd3a 68c6 8a39
00000350: 9e33 123c b7c8 113c 3a71 2c3c 9fae 53bc
00000360: 524e 1f3a f55e 91bb 213d d2bb 4b3d 313b
00000370: 56fd a93b a16c 11bc ee00 a93c a412 013c
00000380: 6973 8bbb 2e7e 38bc 51cc aebb 294f d6bb
00000390: f38e 8e3b f30e c43a 48dc c33b 313b 7c3c
000003a0: ad03 adbb 355c e0bb fe4a 523b dfdb 0bbc
000003b0: be55 093c 4b54 843a c2f6 de3b cc3d 843c
000003c0: 90fe ed3a acab 62bb 96cb 263b ca91 debb
000003d0: 4447 12bc dcbd f8bb 5d7b 98bc 7dd8 9a3b
000003e0: 3fc7 14bb dbbb 5d3b 432b 85bc ca49 003b
000003f0: 9841 0a3c 177e 803a 6483 2b3c 3752 0b3c

bias f4 [3]
0.0025192145 0.0024279386 -0.0030400653
00000000: 6819 253b 0d1e 1f3b d53b 47bb
