TradeSimulator-v0_D3QN_-1/actor_00161160.pth (torch, 151866 bytes, 14 tensors)

state_avg f4 [10]
0	0x3df4c6a8	0.11951953
1	0x39d8ac10	0.00041326927
2	0xbb533670	-0.0032228492
3	0x3ddd7aca	0.10814436
4	0x3acaed8c	0.0015482171
5	0xbb99bfe3	-0.004692064
6	0xbd19919a	-0.037492372
7	0x3e13572c	0.14388722
8	0x3b120e1e	0.0022286247
9	0xbc17f124	-0.009273801

state_std f4 [10]
0	0x3f6b14bf	0.9182853
1	0x3f5857be	0.84508884
2	0x3f6e12a1	0.92997175
3	0x3f755a17	0.9584059
4	0x3f66ab7c	0.90105414
5	0x3f6173ba	0.8806721
6	0x3f7f3d5b	0.99702996
7	0x3f684fcc	0.9074676
8	0x3f654c1d	0.89569265
9	0x3f61c66e	0.88193405

weight f4 [128, 10]
0	0x3e265ea8	0.16247046
1	0xbd8a0e9e	-0.06741069
2	0xbd814167	-0.06311303
3	0x3e2740ee	0.16333362
4	0xbe917c3a	-0.2841509
5	0x3e538a34	0.20658189
6	0xbda65fd9	-0.0812375
7	0x3e3001d0	0.17188191
8	0x3d2b7e2b	0.04186837
9	0xbd4c0bc4	-0.049815908
10	0x3dc32e21	0.09530283
11	0x3e6e3989	0.23264135
12	0x3e0419b7	0.12900434
13	0xbde4f2b1	-0.11179102
14	0xbd177ddb	-0.03698526
15	0xbd22f405	-0.039783496
16	0x3d2795f0	0.040914476
17	0xb9bdd15d	-0.00036204877
18	0x3e8e8627	0.27836725
19	0x3deaf4f0	0.11472499
20	0xbded747a	-0.11594482
21	0xbec15780	-0.3776207
22	0xbd76175a	-0.060080864
23	0xbe127b46	-0.14304838
24	0xbdd07dce	-0.10180245
25	0x3b811f35	0.0039404877
26	0x3e4731ac	0.19452542
27	0x3e34272f	0.17593072
28	0xbe918226	-0.28419608
29	0x3e42c3b3	0.19019966
30	0x3dbaa617	0.091137104
31	0x3e09f1ba	0.13471118
32	0x3e5b3a9e	0.2140908
33	0xbe97e864	-0.29669487
34	0xbe8a2bdd	-0.2698659
35	0xbe1e5bd7	-0.15464722
36	0x3e9449e5	0.28962627
37	0xbd3d30f2	-0.046189256
38	0x3e0dfb4b	0.13865392
39	0xbe0a3e95	-0.13500436
40	0x3e9af929	0.3026822
41	0xbebc4bd6	-0.36776608
42	0x3e63fce8	0.22264445
43	0x3cab7677	0.020930512
44	0xbe249607	-0.16072856
45	0x3e2e81a9	0.17041649
46	0xbe3b9762	-0.18319467
47	0x3ddf5939	0.1090569
48	0xbdb6f43e	-0.08933304
49	0xbd0a965d	-0.033834804
50	0xbea3ce80	-0.31993484
51	0xbe06317d	-0.13104816
52	0x3e2826bf	0.1642103
53	0xbdaa5899	-0.0831768
54	0x3ea2f3ed	0.31826726
55	0x3e7ca658	0.2467283
56	0xbc5f7a7b	-0.013640041
57	0xbe4517bb	-0.19247334
58	0x3e4475e8	0.19185603
59	0x3dc37828	0.09544402
60	0xbe4e5068	-0.2014786
61	0xbd3375b0	-0.043813407
62	0x3e426424	0.18983513
63	0x3e93af35	0.2884461
64	0xbe332bd4	-0.17497188
65	0xbd5dbe41	-0.05413652
66	0xbc0f612b	-0.008751194
67	0x3d200525	0.039067406
68	0xbe774daa	-0.2415072
69	0xbe5b67e6	-0.21426353
70	0x3e30b9cb	0.17258374
71	0xbe82d970	-0.25556517
72	0x3e146359	0.14491023
73	0x3cb58200	0.022156715
74	0x3de03492	0.10947527
75	0x3d775d9f	0.06039202
76	0x3dd39f3c	0.10333106
77	0x3e2b9925	0.16757639
78	0xbe8a4f2b	-0.27013525
79	0x3e177b5d	0.14793153
80	0xbe7349ba	-0.23758593
81	0xbe3cbe4b	-0.18431966
82	0x3ca2b4de	0.019861635
83	0xbd6867ab	-0.05673949
84	0x3e3f5726	0.18685588
85	0xbe4f1c8b	-0.20225732
86	0xbe8adbb3	-0.27120742
87	0x3e72583a	0.23666468
88	0xbd80e538	-0.0629372
89	0x3e4069c7	0.18790351
90	0x3dbeb6ec	0.09312233
91	0xbee8f7cd	-0.45501557
92	0x3d742fd3	0.05961592
93	0x3da6cfb0	0.08145082
94	0xbe5ba7fc	-0.214508
95	0xbe14128e	-0.14460203
96	0x3dd7d5ee	0.10538851
97	0x3d8305d5	0.06397597
98	0xbe10370e	-0.14083502
99	0xbdca6a70	-0.098835826
100	0x3e943345	0.28945366
101	0xbe84c914	-0.2593466
102	0x3e36ab81	0.17838861
103	0x3e08c1ef	0.1335523
104	0xbe3bd00c	-0.18341082
105	0xbe86b2e2	-0.26308352
106	0x3e9b6852	0.30353028
107	0x3c8881ae	0.016663399
108	0x3e5eed98	0.21770322
109	0x3d5a68c6	0.053322576
110	0x3dca6020	0.09881616
111	0x3d977eb1	0.07397211
112	0x3e9616b7	0.29314205
113	0xbe53e2d2	-0.20691994
114	0x3d49b684	0.049246326
115	0x3e6c5cce	0.23082277
116	0x3e706470	0.23475814
117	0x3e52bf95	0.20580895
118	0xbe48a293	-0.19593267
119	0xbe58dcbd	-0.21177955
120	0xbe3a0b32	-0.18168333
121	0xbe2896e1	-0.16463806
122	0x3e9b3a25	0.30317798
123	0xbe547070	-0.20746017
124	0x3e2ba431	0.16761853
125	0xbe1e1a91	-0.15439822
126	0xbe999148	-0.29993653
127	0xbd86a2f7	-0.06574052
128	0x3e3751ea	0.17902341
129	0x3e945510	0.28971148
130	0xbe4172ff	-0.18891524
131	0x3cf17c0e	0.0294781
132	0x3e8b41c1	0.27198604
133	0x3e58dff1	0.21179177
134	0x3e3a7486	0.18208513
135	0x3e75c248	0.23999894
136	0x3e4d7bd3	0.20066766
137	0x3dd3114e	0.10306035
138	0xbe480700	-0.1953392
139	0xbe88c580	-0.2671318
140	0xbe19baf8	-0.15012729
141	0xbc4fbb34	-0.01267891
142	0xbe44e7d5	-0.19229062
143	0x3dea8c80	0.114525795
144	0x3daea65d	0.08527825
145	0xbd7af3e4	-0.06126775
146	0x3de3434a	0.11096819
147	0x3dc803c4	0.09766343
148	0x3e3f073e	0.18655106
149	0x3e46e572	0.19423464
150	0xbdd90d69	-0.10598261
151	0x3d7cfa68	0.061762244
152	0xbd32c163	-0.04364146
153	0xbc012ff9	-0.007884973
154	0xbe8f482a	-0.27984744
155	0xbe433c99	-0.19066085
156	0xbe4702d3	-0.19434671
157	0xbe109fe7	-0.14123498
158	0x3e63176c	0.22176903
159	0xbde34dc4	-0.11098817
160	0xbe7d2023	-0.2471929
161	0x3e0c1148	0.13678467
162	0x3dd714ca	0.10502012
163	0x3e4f68a1	0.20254757
164	0xbe2dd099	-0.16974105
165	0x3d787852	0.06066162
166	0xbdd537c6	-0.104110286
167	0xbd8f11b4	-0.069857985
168	0xbe804c8a	-0.25058395
169	0xbe0cda35	-0.13755114
170	0xbdbdab42	-0.092611805
171	0xbd01462c	-0.03156106
172	0x3d823537	0.06357806
173	0x3dac315b	0.08407851
174	0x3e9c5d22	0.30539805
175	0x3e94f87e	0.29095834
176	0x3e726214	0.23670226
177	0x3c4faceb	0.012675504
178	0xbe533c77	-0.20628534
179	0x3e742ed4	0.23845989
180	0xbd9777ff	-0.07395934
181	0xbe84b70c	-0.25920904
182	0xbe878418	-0.26467967
183	0xbd6a5c8a	-0.05721716
184	0xbe419cb6	-0.18907437
185	0x3e81f88d	0.25384942
186	0xbe968a18	-0.29402232
187	0xbe7b28c1	-0.24527265
188	0xbc1d8382	-0.009613873
189	0xbe302dbe	-0.1720495
190	0x3ddfacc6	0.10921626
191	0xbe413bef	-0.18870519
192	0xbe17fa57	-0.14841591
193	0x3c967de2	0.018370572
194	0x3e657e60	0.2241149
195	0xbe5f4b72	-0.21806124
196	0x3e1b760a	0.15181747
197	0x3e54715e	0.20746371
198	0x3e9c254a	0.304972
199	0xbe6cd657	-0.23128639
200	0x3dba8ecc	0.091092676
201	0xbd20a559	-0.039220188
202	0x3e8fbb81	0.28072742
203	0xbdd75600	-0.1051445
204	0x3e4ccc73	0.19999866
205	0xbc9873fd	-0.018609995
206	0xbcc1b04b	-0.023643633
207	0x3ac673a4	0.0015140665
208	0x3d35cc5d	0.04438435
209	0x3e1b6b46	0.1517764
210	0x3d403b4a	0.046931542
211	0xbd9d9674	-0.07694712
212	0xbe845dc2	-0.25852782
213	0x3e792601	0.24330904
214	0x3e807c0b	0.25094637
215	0x3e687f68	0.22704852
216	0x3e814245	0.25245872
217	0xbe6bda7a	-0.23032561
218	0xbdd5a6eb	-0.10432228
219	0x3e900660	0.28129864
220	0xbe6e8753	-0.2329381
221	0x3db62cd3	0.08895268
222	0xbe81234d	-0.25222245
223	0xbe694a81	-0.22782327
224	0x3e17bac7	0.14817344
225	0xbe56d663	-0.2098022
226	0xbda8ad06	-0.082361266
227	0x3e7783d5	0.24171384
228	0x3e83ea4c	0.25764692
229	0x3e91c586	0.2847101
230	0xbd730c6a	-0.05933801
231	0xbf018fed	-0.5061024
232	0x3e994747	0.29937193
233	0xbd8572b9	-0.06516022
234	0xbdfa5a3f	-0.12224244
235	0x3dad33ac	0.08457121
236	0xbe6cf10f	-0.23138832
237	0x3e6152b8	0.22004211
238	0x3e469e2b	0.19396274
239	0xbe846711	-0.25859883
240	0xbe844c1e	-0.25839323
241	0xbe028770	-0.12746978
242	0x3df84a99	0.121236034
243	0x3c0aaccd	0.0084640505
244	0xbe1b70bc	-0.15179724
245	0x3c50e635	0.012750198
246	0xbea17ea4	-0.31541932
247	0xbe605243	-0.2190638
248	0xbe5cd063	-0.21563868
249	0x3e6b850a	0.22999969
250	0x3e8d38e6	0.27582473
251	0xbe6253bc	-0.22102255
252	0x3c068df0	0.0082125515
253	0x3e1c88a4	0.152865
254	0x3d2a41ec	0.041566774
255	0xbe27fcce	-0.16405031

bias f4 [128]
0	0x3c8271d5	0.01592342
1	0xbb8bf130	-0.004270695
2	0x3d6f4334	0.0584137
3	0x3b326b2e	0.0027224529
4	0x3e3ec850	0.186311
5	0x3ceb2f2e	0.02870902
6	0x3e691bc6	0.22764501
7	0x3da97d36	0.08275835
8	0x3a9af5ac	0.0011822484
9	0x3d64d991	0.05587155
10	0x3e6ac8c4	0.22928149
11	0x3d678d4e	0.056531243
12	0x3e72af68	0.23699725
13	0xbc9aeb37	-0.018910987
14	0x3ad55734	0.0016276599
15	0x3e8ceb4b	0.27523264
16	0xbe992476	-0.2991063
17	0x3d363c46	0.044491075
18	0x3e9cf3e5	0.30654827
19	0xbe1c8724	-0.15285927
20	0xbd48135d	-0.04884659
21	0xbc061636	-0.008184006
22	0x3df31745	0.11869673
23	0x3e09d793	0.13461141
24	0x3db8e489	0.090279646
25	0x3e067331	0.1312988
26	0xbe05c840	-0.1306467
27	0x3e172d5d	0.14763398
28	0xbdceff36	-0.101072714
29	0x3e5b62e9	0.2142445
30	0xbda621a9	-0.08111889
31	0xbe8916d4	-0.2677523
32	0x3d160461	0.03662527
33	0x3e480e47	0.19536696
34	0xbb7f39ce	-0.0038944366
35	0x3a95da51	0.0011432861
36	0x3bf052ee	0.0073341047
37	0x3e38c90e	0.18045446
38	0x3cd81427	0.026376797
39	0xbe91d4e2	-0.2848273
40	0xbe5eb00e	-0.21746847
41	0x3cf63bcd	0.030057812
42	0xbc0f16fc	-0.008733507
43	0x3ea4bc7a	0.32175046
44	0xbd585b40	-0.052821398
45	0x3e7e6336	0.24842533
46	0xbe82dd2a	-0.2555936
47	0xbe9aff94	-0.30273116
48	0xbc8e1799	-0.017345237
49	0xbe4ca4ca	-0.19984737
50	0xbda64dcc	-0.08120307
51	0x3d09f454	0.033680275
52	0xbe8a7529	-0.2704251
53	0x3e748b62	0.23881295
54	0xbe399537	-0.18123327
55	0x3e865607	0.2623751
56	0x3de44340	0.111456394
57	0xbd4d91fc	-0.05018805
58	0xbe899c52	-0.26877075
59	0x3d6aa70f	0.057288226
60	0xbe2b4bf0	-0.16728187
61	0x3e93965c	0.28825653
62	0xbe8740cb	-0.2641662
63	0xbda9d60b	-0.082927786
64	0xbe262a00	-0.16226959
65	0xbe497dd0	-0.196769
66	0xbe308da2	-0.17241529
67	0xbc92a97f	-0.017903088
68	0x3cbc35a7	0.022974802
69	0x3d9693a4	0.07352379
70	0x3e307c0d	0.17234822
71	0xbdf3ada6	-0.11898355
72	0xbe58e681	-0.2118168
73	0xbd722f87	-0.059127357
74	0x3ea19687	0.31560156
75	0xbd1743c3	-0.036929857
76	0xbe8b1ad7	-0.27168915
77	0x3e883e8d	0.26610222
78	0x3d9b0393	0.07569041
79	0x3d9d4473	0.07679071
80	0x3d7ca46d	0.061680246
81	0x3e65179b	0.22372286
82	0xbe1789c3	-0.14798646
83	0x3e7ee26c	0.2489106
84	0x3ea4b5dd	0.3217
85	0xbd9cb4ce	-0.07651673
86	0x3e5eb63e	0.21749207
87	0x3e41e5fb	0.18935387
88	0x3e9f4521	0.3110743
89	0xbd88827e	-0.066655144
90	0xbe30a748	-0.17251313
91	0xbde92b02	-0.11385156
92	0xbe569bcc	-0.2095787
93	0x3cc611f0	0.024178475
94	0x3ea614ee	0.32437843
95	0x3ea4a396	0.32156056
96	0x3e7beb17	0.24601398
97	0x3d0bc8a6	0.0341269
98	0x3c9f3eff	0.019439219
99	0x3e69a0eb	0.22815292
100	0x3e5acfe3	0.21368365
101	0xbd04f0b6	-0.032456122
102	0xbd9471c0	-0.072482586
103	0x3e09f47f	0.13472174
104	0x3c28a3c3	0.01029295
105	0xbe51ba62	-0.20481256
106	0xbe126d09	-0.14299406
107	0x3e88ed63	0.26743612
108	0x3e8d41cf	0.2758927
109	0xbde75707	-0.11295896
110	0xbd68dea0	-0.056852937
111	0xbe1ebbbf	-0.15501307
112	0xbdcab95a	-0.09898634
113	0x3e952294	0.29127944
114	0xbe952f29	-0.29137543
115	0x3e182a9d	0.14860006
116	0xbe8f5763	-0.27996358
117	0xbe169d34	-0.14708406
118	0xbd394e0d	-0.04524045
119	0x3ccab576	0.02474473
120	0xbd2f10e8	-0.042740732
121	0xbe10e3f2	-0.14149454
122	0xbe09e7d8	-0.13467348
123	0xbe50e8bd	-0.20401283
124	0xbe64058d	-0.22267742
125	0xbe47c3e5	-0.19508322
126	0x3ea68157	0.32520553
127	0xbe0c9b78	-0.13731182

weight f4 [128, 128]
0	0xbda37b87	-0.07982545
1	0x3d8d6258	0.06903523
2	0x3d21324d	0.03935461
3	0x3d8f76bc	0.07005069
4	0xbdaffd50	-0.085932374
5	0xbd9a1442	-0.07523395
6	0xbd7db556	-0.061940514
7	0xbd49198f	-0.04909664
8	0xbc180cfd	-0.00928044
9	0x3d26dcc6	0.04073789
10	0x3d692388	0.05691865
11	0xbd844986	-0.06459336
12	0x3d1cb9f2	0.03826327
13	0xbd3ce71d	-0.046118844
14	0x3c860ce5	0.01636357
15	0x3d2b8a60	0.04188001
16	0x3c8f6378	0.017503485
17	0x3d1eb77f	0.038749214
18	0x3b52d3d1	0.003216971
19	0x3d4572a4	0.048205033
20	0x3ca360f4	0.019943692
21	0x3daf6c41	0.0856557
22	0x3ca24344	0.019807465
23	0xbd228faf	-0.03968781
24	0x3d5f98a8	0.054588944
25	0x3977e7eb	0.00023642152
26	0x3dbddd88	0.09270769
27	0xbc673da3	-0.014113816
28	0x3da3e8de	0.080034
29	0xbd5c8857	-0.05384096
30	0x3d2de998	0.0424591
31	0xbd8fcc67	-0.070214085
32	0x3d6f8823	0.05847944
33	0x3cc53b2b	0.024076065
34	0x3d865629	0.065594025
35	0xbd915e89	-0.07098109
36	0xbdaf502e	-0.08560215
37	0x3d3706f3	0.04468436
38	0xbccfbed9	-0.025359558
39	0x3d226c78	0.039654225
40	0xbd4683be	-0.048465483
41	0xbcbaa2f4	-0.02278278
42	0x3cb9c553	0.0226771
43	0x3d6a2f38	0.057173938
44	0x3d0d62b7	0.03451797
45	0x3b20593a	0.0024467246
46	0xbcfbd2f5	-0.03074024
47	0xbbf47738	-0.007460501
48	0x3d0329b2	0.032022186
49	0xbd89661e	-0.067089304
50	0xbc983891	-0.01858166
51	0xbda464bb	-0.08027025
52	0xbb60424f	-0.003421921
53	0xbbcd64d1	-0.006268122
54	0x3d56ce13	0.05244262
55	0x3dadce70	0.084866405
56	0xbd894053	-0.06701722
57	0xbd05cd6d	-0.032666612
58	0xbd3b8883	-0.045784485
59	0x3b51f0fb	0.0032034505
60	0xbd161d3b	-0.03664897
61	0xbd520b5f	-0.051280376
62	0xbd329456	-0.043598495
63	0xbbedeaee	-0.007260672
64	0x3d4b5565	0.049641985
65	0xbcb91e49	-0.022597449
66	0x3d83514e	0.06411992
67	0xbd8c787a	-0.068589166
68	0x3baa6ab4	0.0052007083
69	0xbd6e9824	-0.05825056
70	0xbdb7137f	-0.089392655
71	0x3c5b927e	0.013401626
72	0xbd1fb670	-0.038992345
73	0x3d8ba154	0.0681788
74	0x3d9412d0	0.07230151
75	0xbd9c8386	-0.076422736
76	0xbbbee608	-0.0058257617
77	0xbb937565	-0.0045000785
78	0xbd278b02	-0.040904053
79	0xbd2b9caf	-0.041897472
80	0xbd579063	-0.052627932
81	0x3d4c24cb	0.049839776
82	0x3bc87b6a	0.0061182277
83	0x3d8b0fa8	0.067900956
84	0xbc047e39	-0.008086734
85	0x3d39f1a4	0.045396462
86	0x3ca3ec4a	0.020010132
87	0xbca1c20e	-0.019745853
88	0xbc1f627f	-0.009728073
89	0xbdb702a1	-0.08936048
90	0xbc297bd6	-0.010344466
91	0xbc9f65b4	-0.019457676
92	0xbd51badb	-0.05120359
93	0xbcd45903	-0.02592135
94	0xbcea9697	-0.02863626
95	0xbd8363f2	-0.064155474
96	0x3c7ca37a	0.015419835
97	0xbaf5e710	-0.0018760879
98	0xbd0bdd47	-0.034146573
99	0x3db6e336	0.08930056
100	0x3d94636d	0.072455265
101	0x3d232a7d	0.03983544
102	0xbd2a1a16	-0.041528784
103	0x3b4e7a83	0.0031506128
104	0xbd76554c	-0.06013994
105	0x3d7b886e	0.061409406
106	0x3d9fd034	0.078033835
107	0xbc4bd54e	-0.0124409925
108	0x3d83d02f	0.06436192
109	0x3da15dd2	0.07879223
110	0xbbe0c750	-0.0068596974
111	0xbcfd9e63	-0.030959314
112	0xbc1a0023	-0.009399447
113	0x3c6bd71c	0.014394548
114	0xbdb4aa06	-0.08821492
115	0x3c10551b	0.008809353
116	0xbd16d0fb	-0.036820393
117	0x3d84db50	0.06487143
118	0xbc7f1860	-0.015569776
119	0x3d88acb1	0.06673563
120	0x3d773720	0.060355306
121	0xbcd959b8	-0.026532039
122	0x3cbea9a1	0.023274245
123	0xbc4c7ddf	-0.012481182
124	0xbd01e9c1	-0.031717066
125	0xbd22a8ae	-0.039711647
126	0x3c074391	0.008255855
127	0x3d0ec18b	0.034852546
128	0xbc27a4ac	-0.010232132
129	0x3c4daae9	0.012552955
130	0x3d7a3034	0.061081126
131	0x3d2e0118	0.04248151
132	0x3d2a550f	0.041585024
133	0x3cf883d7	0.030336304
134	0xbd789d0b	-0.060696643
135	0xbd529537	-0.051411834
136	0xbd7b0565	-0.06128444
137	0x3d7bc7b2	0.06146974
138	0xbd987cd2	-0.074456826
139	0xbd796e99	-0.06089649
140	0x3d7c6e77	0.061628785
141	0x3d5f5b0e	0.054530196
142	0xbda3628e	-0.07977782
143	0x3d70e0e2	0.058808215
144	0xbca1387c	-0.019680254
145	0x3cae5f31	0.021285625
146	0xbd30eabd	-0.043192614
147	0xbc6a5201	-0.014301778
148	0x3c810454	0.015749134
149	0x3d8aeca8	0.0678342
150	0x3d729063	0.05921973
151	0xbd29aa97	-0.041422453
152	0xbd60dac7	-0.054896142
153	0xb9b030b4	-0.00033605623
154	0x3cf184c8	0.02948226
155	0x3d6949e8	0.056955248
156	0xbdae525a	-0.08511801
157	0x3af8592b	0.0018947473
158	0x3c31e636	0.010858109
159	0xbd30b2d4	-0.043139294
160	0x3da11dce	0.07867013
161	0xbc7ac59e	-0.015305905
162	0xbd9a23ba	-0.075263456
163	0xbd412f36	-0.047164164
164	0x3c15a7aa	0.0091342125
165	0xbd69af26	-0.0570518
166	0x3c991ebb	0.018691411
167	0x3da69500	0.08133888
168	0x3c65d289	0.014027246
169	0xbc256b54	-0.01009639
170	0x3dc0a9e7	0.09407406
171	0x3d9784ba	0.073983625
172	0x3d78b382	0.060718067
173	0x3c7c9cae	0.015418215
174	0x3c05bc3d	0.008162555
175	0xbd79c701	-0.0609808
176	0x3c757b5f	0.014983027
177	0x3dc4f970	0.09617889
178	0x3c67ea7a	0.014155025
179	0xbd9589e5	-0.07301692
180	0x3cfe4f0d	0.031043554
181	0x3dabf59e	0.08396457
182	0x3da65288	0.0812121
183	0x3c84ea90	0.01622513
184	0x3cdf319f	0.02724534
185	0x3cb29f8a	0.02180459
186	0xbd11b0a0	-0.035568833
187	0xbc54ed6d	-0.01299606
188	0x3d8aba77	0.067738466
189	0x3c9724ad	0.018450106
190	0x3da0b871	0.078476794
191	0xbd86e289	-0.06586177
192	0xbc0874f9	-0.00832867
193	0x3baaa154	0.00520722
194	0xbd229e9f	-0.039702054
195	0x3d981796	0.07426374
196	0x3d836311	0.0641538
197	0xbd23d035	-0.039993484
198	0x3da9de90	0.082944036
199	0x3d9ee2e5	0.077581204
200	0xbd455ed4	-0.04818614
201	0x3ac34ad0	0.0014899615
202	0x3dbf2677	0.093335085
203	0xbd5fc86e	-0.054634504
204	0xbc59582e	-0.013265653
205	0xbd5b937d	-0.053607453
206	0x3d925002	0.071441665
207	0x3ca47a55	0.020077864
208	0x3d272834	0.040809825
209	0x3d947180	0.07248211
210	0xbc84ce83	-0.016211754
211	0xbd8f784d	-0.070053674
212	0x3c5f0d43	0.013614002
213	0xbad0db41	-0.0015934483
214	0x3d2a1335	0.041522224
215	0x3d3c97b6	0.04604312
216	0xbd160a72	-0.036631055
217	0xbcfcb5c9	-0.0308484
218	0x3d5bd6e9	0.05367175
219	0x3ce97c0f	0.028501539
220	0x3cb15642	0.021647576
221	0x3d4adc34	0.04952641
222	0x3d4093ba	0.047015883
223	0xbd6bc649	-0.057562146
224	0x3c93ed15	0.018057385
225	0x3beb3320	0.0071777254
226	0xbda34994	-0.07973018
227	0x3d077e9d	0.033079732
228	0x3c3582af	0.011078521
229	0x3d8fa1c6	0.07013278
230	0xbdad216a	-0.08453639
231	0x3db5b275	0.088719286
232	0xbd2b3a6e	-0.04180377
233	0x3d55a197	0.052156057
234	0x3d5c55ee	0.053792886
235	0xbb7c4665	-0.0038494107
236	0xbd202f7c	-0.039107785
237	0xbc3c99a0	-0.011511236
238	0xbd66356c	-0.05620329
239	0x3c568ee4	0.013095591
240	0x3d146145	0.036225576
241	0x3cc7683f	0.0243417
242	0xbd573840	-0.05254388
243	0x3d7d6793	0.061866354
244	0x3d95a8a9	0.0730756
245	0xbcc283ec	-0.023744546
246	0x3d35d992	0.044396944
247	0xbc0c580e	-0.008565916
248	0x3d10ca1e	0.035349004
249	0xbd87dd1e	-0.06633972
250	0xbd93708a	-0.071991995
251	0xbc2f7a3e	-0.010710297
252	0xbd8bcce9	-0.06826193
253	0x3d1ca856	0.038246475
254	0x3dbd295e	0.09236406
255	0xbc7dc2af	-0.015488311

bias f4 [128]
0	0x3d8879f3	0.06663885
1	0x3d6c03c4	0.05762078
2	0xbcb66971	-0.022267075
3	0x3d3fabfc	0.046794876
4	0xbcf6190b	-0.030041238
5	0xbc5d7a09	-0.013517865
6	0xbda5782f	-0.08079564
7	0x3d41bc0c	0.047298476
8	0x3d8be03f	0.06829881
9	0x3bdee118	0.0068017356
10	0xbdb179cf	-0.08665811
11	0xbb7ed5bb	-0.0038884718
12	0xbd6d7170	-0.05796951
13	0xbd308175	-0.04309221
14	0xbc8af393	-0.016961848
15	0x3d2f0eda	0.042738773
16	0x3d6a6a41	0.057230238
17	0xbda8124a	-0.08206613
18	0xbd4c2b07	-0.04984572
19	0xbd394281	-0.04522944
20	0x3cf122a2	0.02943546
21	0x3aa9af4e	0.0012945922
22	0xbc6bc66c	-0.014390569
23	0x3c5c0101	0.013427974
24	0x3ba79848	0.005114589
25	0xbd95fae5	-0.07323245
26	0x3cfa0f40	0.03052485
27	0x3cb84db1	0.022497984
28	0x3c883a3a	0.016629327
29	0x3d3f8e57	0.046766605
30	0x3ca6a076	0.020340186
31	0xbd58ec18	-0.05295953
32	0x3dc9937f	0.09842586
33	0x3d402d9c	0.046918496
34	0x3db92fee	0.09042345
35	0x3ca1694c	0.01970353
36	0x3d894381	0.067023285
37	0xbbdcf10e	-0.006742603
38	0x3b54a6fd	0.0032448166
39	0x3d4951a4	0.049150124
40	0xbd1ea5fe	-0.03873252
41	0xbda1c80b	-0.07899483
42	0x3cb6d19b	0.022316745
43	0x3d811fca	0.063048914
44	0x3dbda8bb	0.092606984
45	0xbc0b624a	-0.008507321
46	0xbcdce691	-0.026965411
47	0xbd68360d	-0.05669217
48	0x3dbb2337	0.09137576
49	0xb95a346c	-0.00020809629
50	0xbd07488f	-0.03302818
51	0xbd6eb5a2	-0.058278687
52	0xbca273bf	-0.019830583
53	0x3da8e57d	0.082468964
54	0x3d29c2db	0.041445594
55	0xbd93934d	-0.0720583
56	0x3d3a4078	0.04547164
57	0xbcedfaa5	-0.02905018
58	0x3db4db90	0.08830941
59	0xbce174b7	-0.027521474
60	0xb99aaed0	-0.00029503414
61	0x3cfe2027	0.03102119
62	0xbc3a4f05	-0.011371379
63	0xbd4382e1	-0.047732238
64	0x38b13396	8.449626e-05
65	0x3dc4c446	0.09607749
66	0xbd8e630a	-0.06952484
67	0x3d836a1b	0.064167224
68	0x3d5abbcb	0.05340175
69	0x3db278e0	0.08714461
70	0x3ccb41f7	0.024811728
71	0xbb61737d	-0.0034401112
72	0xbd5a0e28	-0.053236157
73	0x3dcbbd5e	0.09948228
74	0x3c08fbc4	0.008360807
75	0x3bbe0049	0.005798374
76	0x3cd652c8	0.02616252
77	0xbc43cb9a	-0.011950398
78	0x3bd63668	0.0065372474
79	0x3cdc21b3	0.026871538
80	0x3d86f3b5	0.06589452
81	0x3d7e40e3	0.0620736
82	0xbdbf127f	-0.093297
83	0xbc67cd77	-0.014148108
84	0xb96f140c	-0.00022800284
85	0x3d2d2e78	0.042280644
86	0xbd582e79	-0.052778695
87	0xbc29b917	-0.01035907
88	0xbd2849d6	-0.04108604
89	0xbd5de325	-0.0541717
90	0x3c8421b5	0.016129354
91	0x3d8b91f6	0.06814949
92	0x3ceb3b70	0.028714865
93	0xbd119bb7	-0.035548892
94	0xba4494c3	-0.0007498974
95	0xbced9fe4	-0.029006906
96	0x3dc2628b	0.09491452
97	0x3cff5b6e	0.031171527
98	0xbd5c480b	-0.053779643
99	0xbd974afc	-0.07387349
100	0xbd1f8905	-0.03894903
101	0xbd7d8a6e	-0.061899595
102	0x3cd6907d	0.026191944
103	0xbd130585	-0.035893936
104	0xbdaaabb5	-0.08333532
105	0xbcad1cda	-0.021131922
106	0xbd225808	-0.039634734
107	0xbd04eab7	-0.032450404
108	0x3d990538	0.074716985
109	0xba63c9e8	-0.0008689449
110	0xbd71838b	-0.05896334
111	0xbd4016c7	-0.046896722
112	0x3db80d8b	0.08986958
113	0xbbfeeae8	-0.007779468
114	0xbce5edb5	-0.02806745
115	0xbc762d87	-0.015025503
116	0x3d1c53e7	0.038165953
117	0x3da0449d	0.07825587
118	0xbc4fe334	-0.012688447
119	0xbbb43d81	-0.005500496
120	0xbce2a1f5	-0.027665118
121	0xbd79561f	-0.060873147
122	0x3d53c71d	0.05170356
123	0x3c8d9ef2	0.017287705
124	0x3c2a7791	0.010404483
125	0x3c8d3ab6	0.01723991
126	0x3cbde366	0.023179721
127	0x3da3693e	0.07979058

weight f4 [128, 128]
0	0xbac86a7a	-0.0015290522
1	0x3d25f402	0.040515907
2	0x3c127245	0.008938377
3	0x3d04d73e	0.032431833
4	0xbd453507	-0.048146274
5	0x3d579ea4	0.052641526
6	0xbd714985	-0.058908004
7	0x3c4a1282	0.012333514
8	0x3d90d042	0.07070972
9	0xbca1f242	-0.019768838
10	0xbd1421bf	-0.036164995
11	0x3d4b37fb	0.049613934
12	0xbcad4a3d	-0.021153564
13	0xbd049d9e	-0.032376878
14	0xbb55a14c	-0.003259736
15	0x3d0f44bb	0.034977656
16	0x3d7f2e47	0.062299993
17	0xbd101c88	-0.03518346
18	0x3c1ab37b	0.009442206
19	0x3de06803	0.10957339
20	0x3d8c8df5	0.06863014
21	0xbd6682f1	-0.05627722
22	0xbd48d0f7	-0.04902741
23	0xbc043f5c	-0.008071747
24	0xbd582b93	-0.05277593
25	0xbcea943d	-0.028635139
26	0xbc02e0ff	-0.007988214
27	0xbd1135e4	-0.035451785
28	0xbd5b3dc5	-0.053525705
29	0xbd139c89	-0.036037955
30	0x3cf4b99e	0.029873665
31	0xbd8c64ce	-0.068551645
32	0x3d9eaa7b	0.0774736
33	0x3dadd887	0.08488565
34	0x3ccd9a00	0.025097847
35	0xbd324a6f	-0.043528017
36	0x3ca9989a	0.020702649
37	0xbd9a58f5	-0.075364985
38	0x3d291405	0.041278858
39	0x3d62289c	0.05521451
40	0x3d5fc318	0.054629415
41	0x3d839788	0.06425387
42	0x3d58655b	0.052831035
43	0xbdbb3dfb	-0.09142681
44	0xbd5261ac	-0.05136268
45	0xbc4a05f6	-0.012330523
46	0x3c8af898	0.016964242
47	0x3d568396	0.052371584
48	0xbdbe17b2	-0.09281863
49	0xbd61f507	-0.055165317
50	0x3cfcd2e5	0.030862281
51	0x3d5cb6ea	0.053885378
52	0x3bb7b0ed	0.005605808
53	0x3d2a2e7e	0.041548245
54	0x3da636f2	0.08115949
55	0x3da6f81d	0.081527926
56	0x3ca17aeb	0.019711932
57	0xbd9cb26e	-0.0765122
58	0xbd12a439	-0.035801146
59	0xbd58638a	-0.052829303
60	0xbd6419d2	-0.055688687
61	0x3d81b759	0.06333799
62	0x3b8db0de	0.0043240627
63	0xbd6d8768	-0.05799046
64	0x3d325718	0.04354009
65	0xbcfb5ca2	-0.03068382
66	0xbd535493	-0.051594328
67	0xbb8b86a7	-0.004257995
68	0xbd4991be	-0.049211256
69	0xbd4acd55	-0.049512226
70	0xbd54781c	-0.051872358
71	0xbd8371c3	-0.06418183
72	0xbcfdb6f1	-0.030971022
73	0x3d4fe350	0.05075389
74	0xbd3541da	-0.044252254
75	0x3db8bd7d	0.09020517
76	0x3c222107	0.00989557
77	0xbcc859e3	-0.024456924
78	0xbc09f6b2	-0.008420633
79	0xbb8c281c	-0.0042772423
80	0x3cad2760	0.02113694
81	0x3d6b2c26	0.05741515
82	0x3cc90ac4	0.024541266
83	0xbdc867f1	-0.0978545
84	0x3c2d23b6	0.010567596
85	0x3cd508e7	0.026005222
86	0xbd894931	-0.06703413
87	0xbd85131a	-0.06497784
88	0x3d0847c9	0.033271585
89	0xbdb9eec9	-0.09078748
90	0xbd92a1bf	-0.07159757
91	0x3d8c27a3	0.068434976
92	0xbc19fc13	-0.009398478
93	0xbc425081	-0.011860014
94	0x3d630417	0.055423822
95	0x3cfa0fe7	0.030525161
96	0xbca21bf5	-0.019788722
97	0x3b4bf4e5	0.003112131
98	0x3d6e1ccb	0.058132928
99	0x3d9dcf8e	0.077056035
100	0xbd210438	-0.039310664
101	0xbc26a894	-0.010172028
102	0x3d630f0d	0.055434275
103	0x3d632573	0.055455636
104	0x3c34229c	0.01099458
105	0x3cbe9462	0.023264114
106	0x3d840d3c	0.06447837
107	0xbd64f3f9	-0.055896733
108	0x3b124bca	0.0022323006
109	0x3c348a99	0.011019372
110	0xbcaeb459	-0.02132623
111	0xbd3f8812	-0.046760626
112	0xbc5ce578	-0.013482444
113	0xbda6b0d3	-0.08139195
114	0xbd8b1048	-0.06790215
115	0xbd34fe91	-0.044188086
116	0xbcdc86e3	-0.026919788
117	0xbd75fdc8	-0.060056478
118	0x3ca63ff0	0.02029416
119	0xbdb8201b	-0.08990499
120	0xbc9de52c	-0.019274317
121	0xbdb28b45	-0.0871797
122	0x3c9bac87	0.019003166
123	0xbceafca6	-0.028684925
124	0x3a977783	0.0011556003
125	0xbcb7df19	-0.022445248
126	0xbd9fd9f3	-0.078052424
127	0x3d6d2177	0.057893243
128	0xbda26e2c	-0.0793117
129	0x3cd0d407	0.025491728
130	0x3dc03679	0.0938539
131	0x3d9953e8	0.07486707
132	0x3daa6edb	0.08321925
133	0xbd8515b1	-0.06498278
134	0x3d583858	0.05278811
135	0xbceb69d7	-0.028736992
136	0xbca3f1db	-0.020012787
137	0xbd82f63d	-0.063946225
138	0x3dbe64f3	0.09296598
139	0x3d4066c9	0.046973024
140	0x3c17d944	0.009268109
141	0x3d98e650	0.074658036
142	0xbd4f3320	-0.050585866
143	0xbced49a1	-0.028965773
144	0xbcabfb56	-0.02099387
145	0xbd14a138	-0.036286563
146	0x3d224a4b	0.039621633
147	0x3d45614f	0.048188504
148	0xbbe06afe	-0.006848692
149	0x3ce2c1af	0.027680246
150	0xbd830595	-0.06397549
151	0x3cf36ac9	0.029714005
152	0xbd645ff4	-0.05575557
153	0x3da3b805	0.07994083
154	0xbd53ecdf	-0.05173957
155	0x3da63953	0.081164025
156	0xbd24cae1	-0.040232543
157	0x3cb064bc	0.021532409
158	0x3c108adc	0.008822169
159	0xbc70405d	-0.014663783
160	0x3d727edf	0.059203025
161	0x3d4d40ec	0.050110742
162	0xbab897e5	-0.0014083354
163	0xba9e9af2	-0.0012100621
164	0xbd6272e2	-0.055285342
165	0x3cea3a20	0.02859217
166	0xbce4724b	-0.02788653
167	0x3d586377	0.052829232
168	0xbdbc6ba2	-0.09200217
169	0x3d7d6511	0.061863963
170	0xbd7ba047	-0.06143215
171	0xbdb7b21c	-0.089695185
172	0x3c2e1dee	0.010627253
173	0x3d9ef7d0	0.0776211
174	0xbcd518fb	-0.026012888
175	0x3d8c75bf	0.06858396
176	0x3d407e47	0.046995427
177	0xbcdaa7bf	-0.026691316
178	0xbd6d632b	-0.057955902
179	0xbd33ed70	-0.04392761
180	0x3d6a6114	0.057221487
181	0x3cc29c18	0.023756072
182	0x3b12d3b7	0.0022404024
183	0xbd068327	-0.03283992
184	0x3da45a7c	0.08025071
185	0x3d817ab4	0.06322232
186	0xbdb48d74	-0.088160425
187	0xbd82c110	-0.0638448
188	0xbd927828	-0.07151824
189	0x3cb3b628	0.021937445
190	0xbd2ecdf8	-0.042676896
191	0xbcb0efda	-0.021598745
192	0xbd8b9875	-0.06816188
193	0xbd933645	-0.071880855
194	0xbb10ee08	-0.0022114534
195	0xbdae2e15	-0.08504883
196	0xbcea767b	-0.028620949
197	0x3bf6ffb9	0.0075378087
198	0x3cda6dc5	0.02666367
199	0xbdb7e2a5	-0.08978776
200	0x3c1186db	0.00888225
201	0x3d962fe8	0.07333356
202	0xbd6a91ca	-0.05726794
203	0xbd18d172	-0.037309118
204	0x3cd59d7b	0.02607607
205	0xbc039200	-0.008030415
206	0xbd2d88a8	-0.042366654
207	0x3d44f35e	0.048083656
208	0xbdb0a1b4	-0.086245924
209	0xbdb407cd	-0.087905504
210	0x3d603c03	0.05474473
211	0x3d0623bf	0.032748934
212	0x3c3c5b95	0.011496444
213	0x3da21c8c	0.07915601
214	0xbda0e7ae	-0.078566894
215	0x3d82a0ce	0.06378327
216	0x3bd25a73	0.006419474
217	0x3d7661a9	0.06015173
218	0x3d2131b2	0.039354034
219	0x3cdbcdcf	0.026831536
220	0xbdaeaa80	-0.08528614
221	0x3b9d8ba5	0.0048079067
222	0xbd016409	-0.03158954
223	0xbc57454b	-0.013139079
224	0x3d937035	0.07199136
225	0xbc84325a	-0.01613729
226	0xbd2fefdd	-0.04295336
227	0xbd07deb4	-0.03317137
228	0xbcaf8777	-0.0214269
229	0x3d4ba0f8	0.04971406
230	0x3c365bf9	0.011130326
231	0x3c13c6d6	0.009019574
232	0xbd53bec1	-0.05169559
233	0x3dab35fb	0.08359905
234	0xbcc55c00	-0.02409172
235	0x3cf89838	0.030346021
236	0xbd974ca6	-0.073876664
237	0x3d2e7b38	0.04259798
238	0x3d03df10	0.03219515
239	0x3d811d9e	0.06304477
240	0x3d321d2c	0.04348485
241	0xbdbc2e2e	-0.091884956
242	0xbd008ee0	-0.031386256
243	0x3d561e62	0.05227507
244	0x3d1491d2	0.036271878
245	0xbcabdc99	-0.020979213
246	0x3d3caa96	0.04606112
247	0x3d9511e2	0.072788015
248	0x3c41689f	0.011804729
249	0x3bcc7c4e	0.006240404
250	0x3da34a34	0.079731375
251	0x3d8b7e5a	0.06811209
252	0xbd09cd35	-0.033642966
253	0xbb51cb81	-0.0032012167
254	0xbc6364ff	-0.01387906
255	0x3d171bd4	0.036891773

bias f4 [128]
0	0xbd4ee290	-0.050509036
1	0xbd292911	-0.04129893
2	0xbcdbbc0a	-0.026823062
3	0xbd952992	-0.072833195
4	0x3daf2a13	0.08552947
5	0x3d8c6830	0.0685581
6	0x3c152797	0.009103677
7	0x3bc0bb0d	0.005881673
8	0x3d8c41b9	0.06848473
9	0x3d9a928c	0.07547483
10	0xbcdc0c10	-0.02686122
11	0xbd30d9e6	-0.043176554
12	0x3d42b609	0.047536884
13	0xbd707f4b	-0.058715146
14	0x3d41472c	0.047187015
15	0xbd99278d	-0.07478247
16	0xbd293989	-0.041314635
17	0xbbb309b3	-0.0054638027
18	0xbd4fe11a	-0.050751783
19	0x3ceabc5b	0.028654268
20	0x3adefaae	0.0017011964
21	0x3c1029a2	0.008798989
22	0x3d91976e	0.07108961
23	0x3d1b49fa	0.037912346
24	0xbd768206	-0.060182594
25	0xbd5e5eb9	-0.054289553
26	0x3ccbb14b	0.024864813
27	0xbd2d0017	-0.042236414
28	0x3d928bb3	0.07155552
29	0x3dc0c066	0.09411697
30	0xbc8e60e4	-0.017380185
31	0xbda3bf54	-0.07995477
32	0xbdc1c360	-0.09461093
33	0xbd892ba9	-0.06697781
34	0xbd9ee8de	-0.0775926
35	0x3d7ac85c	0.061226234
36	0xbd63de91	-0.055632178
37	0xbd93c8e0	-0.07216048
38	0x3dbaabed	0.091148235
39	0xbd86ce73	-0.06582346
40	0x3d8e06bf	0.069348805
41	0xbcedd739	-0.02903329
42	0xbc7e4c02	-0.015521051
43	0x3d1d6b78	0.03843257
44	0x3d5aaf13	0.05338962
45	0xbcbca87b	-0.023029556
46	0x3db6be53	0.0892302
47	0x3d043d33	0.032284927
48	0x3d97a9e6	0.074054524
49	0x3d9e9a7d	0.0774431
50	0xbd646bbc	-0.055766806
51	0x3c7b37c2	0.015333118
52	0xbd9374e3	-0.07200029
53	0xbd8b08e0	-0.06788802
54	0x3c74e0b3	0.014946151
55	0xbce6d560	-0.028177917
56	0xbd66490e	-0.056222014
57	0x3c856344	0.016282685
58	0xbd15c327	-0.036563065
59	0xbda2194f	-0.079149835
60	0x3d1acd88	0.037793666
61	0xbbad0424	-0.0052800346
62	0x3d1f99d0	0.038965046
63	0xbd31a575	-0.043370683
64	0xbcb1e64d	-0.021716261
65	0x3d468a7b	0.04847191
66	0xbd88d91d	-0.06682036
67	0x3ba7cb4e	0.0051206714
68	0x3dc73c90	0.09728348
69	0x3c63b853	0.013898927
70	0x3d162ab6	0.036661826
71	0xbd991ed1	-0.07476581
72	0x3d0f5c14	0.034999922
73	0xbdaabc73	-0.08336725
74	0x3da71458	0.08158177
75	0x3c920603	0.017825132
76	0xbd77c8cf	-0.06049424
77	0x3c8602c2	0.016358737
78	0x3dca53ef	0.0987929
79	0xbd580b10	-0.052744925
80	0xbabf9018	-0.0014615087
81	0x3db8456b	0.089976154
82	0x3b5190e8	0.003197724
83	0x3d551cdd	0.05202948
84	0x3d78af05	0.060713787
85	0xbcb067d1	-0.021533879
86	0x3dc051b6	0.09390585
87	0xbcd0f7fc	-0.025508873
88	0x3dcbc7f8	0.099502504
89	0xbc8dbe4d	-0.017302657
90	0x3cc889b9	0.024479734
91	0xbdb889bc	-0.09010646
92	0x3d16484d	0.036690045
93	0xbaedc9d0	-0.001814181
94	0xbdae6353	-0.08515038
95	0xbd1e874d	-0.03870325
96	0x3d951a47	0.07280403
97	0xbdb146a9	-0.086560555
98	0x3ce6ec7e	0.02818894
99	0x3a04b14c	0.00050618197
100	0x3c1ffffb	0.00976562
101	0xbae6e2e7	-0.001761523
102	0x3b9a9f5c	0.004718704
103	0xbce1cee6	-0.027564477
104	0xbdc4c582	-0.09607984
105	0xbca76825	-0.020435402
106	0x3d7d1fde	0.06179797
107	0xbdbbe37d	-0.09174249
108	0xbd389408	-0.04506305
109	0xbd85827c	-0.065190285
110	0xbd799e2f	-0.06094187
111	0xbcdee145	-0.027207026
112	0x3d7a3dd5	0.061094124
113	0x3d68aeec	0.056807443
114	0x3d13304f	0.035934743
115	0x3d4ca9c0	0.049966574
116	0xbdcfd53b	-0.10148092
117	0xbdb86b62	-0.09004857
118	0x3dbd5ead	0.092465736
119	0x3d9b8b61	0.07594944
120	0x3d400657	0.046881046
121	0xbdaeb9be	-0.08531521
122	0xbd98b450	-0.07456267
123	0x3db00a26	0.08595686
124	0xbd888b0b	-0.06667145
125	0xbc9e6ae4	-0.019338079
126	0x3cab5e82	0.020919088
127	0x3dca5c93	0.098809384

weight f4 [1, 128]
0	0x3c8fab7a	0.017537821
1	0x3c839c62	0.01606578
2	0x3c92e015	0.017929116
3	0x3a50592a	0.0007947857
4	0xbbdd6407	-0.006756309
5	0xbbc8a609	-0.0061233086
6	0xbc30c9cd	-0.010790301
7	0x3b6a041e	0.003570802
8	0xbc92e4bd	-0.017931337
9	0xbb214623	-0.0024608455
10	0x3c5cfd87	0.01348818
11	0xbc77ec27	-0.015131987
12	0x3b0f316d	0.0021849528
13	0x3c761cc1	0.015021504
14	0xba6e98d8	-0.0009101755
15	0x3c3992ae	0.011326475
16	0x3c9c2a77	0.019063218
17	0x3c424eee	0.011859639
18	0xbc648872	-0.013948547
19	0xbb7e385e	-0.0038790922
20	0x39a0bfe1	0.0003066054
21	0x3af4e438	0.0018683737
22	0xbc4dca2b	-0.012560408
23	0x3c45604d	0.012046886
24	0xbc826e5b	-0.015921762
25	0x3c033c6f	0.008010014
26	0xbc92cfb4	-0.017921306
27	0x3c52c25a	0.01286372
28	0x3b8e7234	0.00434711
29	0xbcd7afe5	-0.02632899
30	0x3c80a6d8	0.015704557
31	0x3bd47855	0.0064840713
32	0x3c2f5e32	0.01070361
33	0x3cbac8a4	0.022800751
34	0x3ca99f02	0.020705704
35	0xbc00974c	-0.007848572
36	0x3c8a7678	0.016902193
37	0x3c6a7ef3	0.014312494
38	0xbaaf786e	-0.0013387331
39	0xbc23e57b	-0.010003443
40	0xbb324639	-0.00272025
41	0x3c7786ac	0.015107792
42	0xba164890	-0.00057328586
43	0xbb1ee8a5	-0.0024247554
44	0xbce52e33	-0.027976131
45	0xbbe74bd9	-0.0070586023
46	0xbc4f8181	-0.0126651535
47	0xbc69296a	-0.014231065
48	0xbc97f9ed	-0.018551791
49	0xbc0ea043	-0.008705202
50	0x3c0ed3b1	0.008717463
51	0xbc6bf003	-0.014400485
52	0xbc1df851	-0.009641723
53	0xbb38639a	-0.002813554
54	0x3bc2f4db	0.005949599
55	0x3c906659	0.017626928
56	0xbb701e9a	-0.0036639334
57	0x3aaa7c4a	0.0013007012
58	0xbce5471c	-0.02798801
59	0x3cd249a3	0.025669878
60	0xbcb609b7	-0.02222143
61	0x3c72d0c2	0.01482028
62	0xbc049502	-0.008092167
63	0x3b939500	0.004503846
64	0x3d30afc4	0.043136373
65	0xbbf810fc	-0.007570384
66	0x3c23a8ac	0.009988945
67	0xbbe0cde5	-0.006860482
68	0xbbec2aea	-0.007207264
69	0x3ca97adb	0.020688465
70	0xbc824676	-0.015902739
71	0x3c1b9d25	0.009497915
72	0x3c69b6d9	0.014264786
73	0x3c6936e9	0.014234283
74	0xbc0c2980	-0.008554816
75	0x3ba233e0	0.0049500316
76	0xbc236c5e	-0.009974567
77	0xbb88ee98	-0.004178833
78	0xbca9bc79	-0.020719754
79	0xbca23ce5	-0.019804427
80	0x3bf072fc	0.007337926
81	0xbc718c52	-0.014742928
82	0xbcacb0a9	-0.021080332
83	0x38c57221	9.41495e-05
84	0xbbe5b39a	-0.0070099356
85	0x3c4cf22a	0.012508908
86	0xbd007520	-0.0313617
87	0x3c475076	0.0121651795
88	0xbc543d9d	-0.012954143
89	0x3b90dba5	0.004420715
90	0x3beffc32	0.007323765
91	0x3cbe2043	0.023208743
92	0xbc568b9c	-0.013094809
93	0x3c2d8ab4	0.010592151
94	0xb9cd2d6b	-0.00039134486
95	0x3c972b3d	0.018453235
96	0xbcd0174c	-0.025401734
97	0x3c7ccb05	0.015429263
98	0xbcc1dc45	-0.023664603
99	0x3c57ffcf	0.013183548
100	0xbb96298b	-0.004582589
101	0xbb18f07d	-0.0023336702
102	0x3c8708a8	0.01648362
103	0x3cadc0c8	0.02121009
104	0x3ba55a80	0.005046189
105	0xbc993621	-0.018702568
106	0xbc8a2c7e	-0.016866919
107	0x3c7a3c0d	0.015273106
108	0xbc834281	-0.016022922
109	0xbbbbcfae	-0.0057315445
110	0x3cbeef95	0.023307601
111	0x3cdbf553	0.026850378
112	0x3bfbbc2b	0.0076823435
113	0xbccc6a6b	-0.024953088
114	0xbbd6cb97	-0.0065550315
115	0xbbaf8bd8	-0.005357247
116	0x3ccbfa36	0.024899583
117	0x3992819d	0.0002794386
118	0xbc8d998d	-0.017285133
119	0xbc94eabd	-0.018178338
120	0x3c988059	0.018615888
121	0x3c862182	0.0163734
122	0x3c100a8d	0.008791578
123	0xbbd7b9ea	-0.006583442
124	0x3c865f83	0.016402965
125	0x3c96632f	0.018357841
126	0x3c0918b0	0.008367702
127	0xbba26b21	-0.0049566184

weight f4 [3, 128]
0	0xbc3b5a55	-0.011435111
1	0x3bed86ae	0.007248721
2	0x3b310273	0.0027009516
3	0x3bc15be2	0.005900846
4	0xbc29f328	-0.010372914
5	0x3b61bc48	0.00344445
6	0x3c586779	0.013208264
7	0xbab595d1	-0.0013853853
8	0x3bbf35bf	0.0058352645
9	0x3c18a38e	0.009316338
10	0x3ba61b84	0.005069198
11	0x3cc32661	0.023822011
12	0x3c16965f	0.009191125
13	0xba8937c0	-0.0010468885
14	0xbbdee7f7	-0.0068025547
15	0xbbd75f57	-0.0065726447
16	0x3af5b810	0.0018746872
17	0xbb9bf4a8	-0.00475939
18	0xbb324637	-0.0027202496
19	0xbb2d9f56	-0.0026492677
20	0x3c2ebcf1	0.010665164
21	0x3ba5ae7f	0.005056202
22	0x3c71f5bd	0.014768061
23	0xbc506f49	-0.012721845
24	0xbc6b2d3d	-0.014354047
25	0x3bc3b7a9	0.0059728217
26	0x3c059f0a	0.008155594
27	0x3baad3a9	0.00521322
28	0xbc1fe62b	-0.009759466
29	0xbc4a4142	-0.01234466
30	0xbb798b26	-0.0038077324
31	0xbafe4903	-0.0019400421
32	0x3bb2b4ef	0.005453698
33	0xbc06abb4	-0.008219648
34	0x3c9f8f93	0.019477641
35	0x3c7b1b80	0.015326381
36	0xbabe08f3	-0.0014498517
37	0x3b6dd673	0.0036291152
38	0x3aab4aec	0.0013068593
39	0xbc8bdee4	-0.017074056
40	0xbb832a9b	-0.0040028817
41	0x3a137f31	0.0005626558
42	0x3bdcebe4	0.0067419875
43	0x3abde12a	0.001448666
44	0xbbca6e93	-0.0061777323
45	0x3cc2fa9d	0.023801142
46	0x3c83d085	0.01609064
47	0xbbcc0ffd	-0.006227492
48	0x3ae69fe5	0.001759526
49	0xbb8dd65e	-0.004328533
50	0xbb9b8ca2	-0.0047469893
51	0x3c93eeb3	0.018058157
52	0x3c3f972d	0.011693758
53	0x3baa8d01	0.0052047973
54	0x3be71fef	0.0070533673
55	0x3c2237aa	0.009900967
56	0x3a7e9fa1	0.00097131176
57	0xbb988e98	-0.0046556704
58	0xbc56fdaa	-0.013122002
59	0xbb27b30a	-0.0025588893
60	0x3a0f7c4e	0.000547354
61	0xbc3ce453	-0.011529046
62	0xbc39d450	-0.011342123
63	0xbaa4705a	-0.001254569
64	0xbba8525f	-0.0051367725
65	0xbbed0d01	-0.007234216
66	0xbb64fdd2	-0.0034941328
67	0x3c4dd05e	0.012561886
68	0xbaf2cdd5	-0.0018524477
69	0xbb0df605	-0.0021661532
70	0xb902d145	-0.00012475725
71	0xbc617d25	-0.013762747
72	0x3b38dd16	0.002820795
73	0x39d372e1	0.00040330648
74	0xbc48c568	-0.012254097
75	0x3c72491a	0.014787937
76	0xba603507	-0.00085528236
77	0x3a1eaca5	0.0006052948
78	0x3b82d102	0.003992201
79	0xbbaebf91	-0.005332895
80	0x3b49bec4	0.0030783871
81	0xba82d93b	-0.0009982953
82	0x3c3996e9	0.011327484
83	0x3b216d10	0.0024631657
84	0x3cad523e	0.02115738
85	0xbbf13125	-0.007360595
86	0x3c17ffe4	0.009277318
87	0xbc302cd1	-0.010752873
88	0x3be6fb21	0.00704898
89	0xbc79c746	-0.015245264
90	0x3b4d1435	0.0031292562
91	0x3c09fba8	0.008421816
92	0xbb59d40c	-0.0033237962
93	0xbc5c6b9d	-0.013453391
94	0x3c5d36a4	0.013501797
95	0xbbc3f200	-0.0059797764
96	0xbc3d6c7a	-0.011561507
97	0x3c0c2c0c	0.0085554235
98	0xbb956dd1	-0.0045602103
99	0xbb8f46c6	-0.0043724505
100	0xbbe4e31a	-0.0069850804
101	0x3b3b8e5e	0.0028618793
102	0x3c4f33e0	0.012646645
103	0x3c131049	0.008976051
104	0x3c0c0378	0.008545749
105	0x3c35b998	0.011091612
106	0xbc14376a	-0.009046415
107	0x3bd2704f	0.0064220796
108	0xbb235e5c	-0.0024928069
109	0x3b34a0c5	0.0027561646
110	0xbc0aae4e	-0.008464409
111	0x3b7aa9eb	0.0038248252
112	0x3b4d454a	0.0031321817
113	0x3b7d1940	0.0038619787
114	0xb9b384eb	-0.00034240572
115	0x3ae353df	0.0017343721
116	0x3b7dad6a	0.00387081
117	0x3bd755fd	0.00657153
118	0xba681b31	-0.00088541495
119	0xbbc183e6	-0.005905616
120	0x3bb656e7	0.005564559
121	0xb9e1c250	-0.00043060118
122	0xba250019	-0.0006294265
123	0xbb84695b	-0.0040408797
124	0xbc79ae37	-0.01523929
125	0xbc451b56	-0.012030443
126	0x3b5cf6d3	0.0033716455
127	0xbb1a0bcb	-0.0023505564
128	0x3b2a7f07	0.0026015656
129	0xbb5717e4	-0.0032820636
130	0xbb927a17	-0.0044701206
131	0x3c5ca357	0.013466678
132	0x3c0e0ec7	0.008670515
133	0xbbe88c4f	-0.007096804
134	0x3c4a31ba	0.012340957
135	0xbb770139	-0.0037689938
136	0xbb674cf6	-0.0035293675
137	0x3c2b1ddf	0.010444134
138	0xba841965	-0.0010078369
139	0x3c927f19	0.01788287
140	0x3b00e082	0.0019665067
141	0xbcb6bdf0	-0.022307366
142	0x3c3fe2b8	0.011711769
143	0x3c8215e7	0.015879584
144	0x3b25f33e	0.0025321986
145	0xbb656f09	-0.003500881
146	0x3c894326	0.016755652
147	0xbbb9f84a	-0.0056753503
148	0xbb9ac506	-0.004723194
149	0x3c6a69cb	0.01430745
150	0x3bd79f85	0.0065802955
151	0x37917bf9	1.7343076e-05
152	0xb95d6001	-0.00021111967
153	0xbb6a29b9	-0.0035730435
154	0x3bfcfffe	0.0077209463
155	0xbc04c400	-0.008103371
156	0x3c3fd9b1	0.0117096165
157	0xbac64dd7	-0.0015129399
158	0x3c71ceb9	0.014758759
159	0xbaafcf39	-0.0013413198
160	0xbbfa34e1	-0.007635698
161	0xba9647fc	-0.0011465545
162	0x3c32336b	0.010876517
163	0xbbd82ddc	-0.0065972637
164	0xbbb85d8c	-0.005626386
165	0x3b6633ac	0.0035126014
166	0xb9fe4672	-0.0004849914
167	0xbc16d606	-0.009206301
168	0x3c01413a	0.007889086
169	0x3c58e3d7	0.013237915
170	0x3ab98e9a	0.0014156878
171	0xbc32e259	-0.010918223
172	0x3b9410be	0.0045185974
173	0xbc1db66b	-0.009626011
174	0xbb8e3e96	-0.004340957
175	0xbb82b93c	-0.003989367
176	0xbc767bef	-0.0150441965
177	0x3c09dcc3	0.00841445
178	0xbb3dabe0	-0.0028941557
179	0xbafd3f07	-0.0019321152
180	0x3ba3219e	0.0049783727
181	0x3c1769ad	0.009241504
182	0x3b9fc357	0.0048755812
183	0x3c02d0a4	0.007984314
184	0xbbf98286	-0.0076144366
185	0x3a2cd339	0.0006592754
186	0xbaa5c87f	-0.0012648253
187	0x3b560d8f	0.003266189
188	0x3b6e5212	0.0036364836
189	0x3be0e768	0.0068635233
190	0xbb82c1c2	-0.003990383
191	0xbc1eac6f	-0.009684666
192	0x3c66e0b1	0.014091657
193	0x3c52705f	0.012844174
194	0x3b4b2078	0.0030994695
195	0xbc1fce38	-0.009753756
196	0xbb12dab5	-0.0022408192
197	0x3be42c80	0.0069633126
198	0xbc06d199	-0.008228683
199	0x3b0cbaca	0.002147364
200	0xbb8734de	-0.0041261753
201	0xbc97e3da	-0.018541265
202	0x3c576fc2	0.013149204
203	0xb91ba1a1	-0.00014842163
204	0x3b8c4667	0.0042808536
205	0x399be512	0.00029734574
206	0xbb48c082	-0.0030632322
207	0xbc5b77d6	-0.01339527
208	0x3c38b400	0.011273384
209	0x3a5e1b33	0.0008472681
210	0xbc27a163	-0.010231349
211	0x3b6b5b93	0.0035912737
212	0x3c73aa14	0.014872093
213	0x3b2168b2	0.0024629054
214	0x3c14bffb	0.009078975
215	0x39b1ffb8	0.00033950596
216	0x3a8caca3	0.0010732602
217	0xbca4396c	-0.020046912
218	0x3c0df162	0.008663507
219	0xbbc5b029	-0.006032963
220	0x3b9b1434	0.004732633
221	0x3bfe2d75	0.0077568837
222	0x3b7d711e	0.003867216
223	0x3c090f57	0.008365474
224	0xbc0bde8e	-0.008536948
225	0x3c318d19	0.010836863
226	0x3b42f244	0.0029746452
227	0xbc365268	-0.011128046
228	0x3a8b1e74	0.0010613934
229	0x3bb4e965	0.005520987
230	0xbc4cf4a9	-0.012509503
231	0x3bfeace0	0.007772073
232	0x3b1837eb	0.002322669
233	0xbae408e3	-0.0017397668
234	0x3b44a18d	0.0030003518
235	0xb99bbf62	-0.00029706495
236	0xbb173962	-0.0023074974
237	0x3c632f0b	0.013866196
238	0x3c9f90ce	0.019478228
239	0x3b96ddf3	0.004604095
240	0x3c05dc12	0.008170145
241	0x3c0ed8c2	0.008718671
242	0x3b3766b3	0.0027984797
243	0x3c57c449	0.013169357
244	0xb9e74bdd	-0.00044116276
245	0xb7a84390	-2.0058622e-05
246	0xbc4796b2	-0.012181925
247	0x3c214080	0.009842038
248	0x3bb8407b	0.005622921
249	0xbc570bb1	-0.013125346
250	0xba655df5	-0.00087496574
251	0xbb9bf3d5	-0.0047592917
252	0xba0781c3	-0.00051691773
253	0xbbebe215	-0.007198582
254	0xbc90dc4a	-0.017683167
255	0x3b03112c	0.001999925

bias f4 [3]
0	0x3a8ca701	0.0010730923
1	0x3b474f1d	0.0030412145
2	0xbb35ee73	-0.0027760535

weight f4 [1, 128]
0	0x3c47beee	0.012191517
1	0x3cc79a02	0.024365429
2	0x3c7781d6	0.015106639
3	0x3c8544a1	0.016268076
4	0xbc4e52d8	-0.012592994
5	0xbcb4142e	-0.021982279
6	0xbbc2099c	-0.0059215557
7	0x3c9272f9	0.017877089
8	0xbce10915	-0.027470151
9	0x3bbe3248	0.005804334
10	0x3c5afe34	0.013366271
11	0xbcb011d6	-0.02149288
12	0x3cd0a481	0.025469067
13	0x3c3baee2	0.0114552695
14	0x3c01d476	0.00792419
15	0x3c264a8b	0.010149608
16	0x3c31939e	0.010838417
17	0x3baf7981	0.0053550606
18	0xbc4fee41	-0.0126910815
19	0x3c5fdf07	0.013664014
20	0xbc59f2d1	-0.013302521
21	0x3c8da65c	0.01729124
22	0xbc66bd73	-0.014083254
23	0x3c8bbc30	0.017057508
24	0xbadecc4b	-0.001699814
25	0x3c121e2c	0.008918326
26	0xbc81203b	-0.015762439
27	0x3cacb048	0.021080151
28	0xbb139a39	-0.0022522344
29	0xbc57b943	-0.013166728
30	0x3c52da0c	0.012869369
31	0x3ca9c771	0.020724984
32	0x3bfaaee3	0.0076502427
33	0x3d02e8b9	0.031960223
34	0xbb69c6df	-0.0035671515
35	0x3bcbd952	0.006220975
36	0x3ce55c01	0.027997972
37	0x3c5359f0	0.012899861
38	0xbc9ced2e	-0.019156065
39	0xbc9ce230	-0.019150823
40	0x3b6e67d2	0.00363778
41	0x3bfca321	0.007709876
42	0x3b630ea1	0.003464617
43	0x3c447d4f	0.0119927665
44	0xbcb73e4c	-0.022368573
45	0xbc64c70f	-0.013963475
46	0xbc163f3e	-0.009170352
47	0xbc5e6372	-0.013573514
48	0xbc3db957	-0.011579833
49	0xbc865045	-0.016395697
50	0x3bb8bfbe	0.005638092
51	0xbc1ede5b	-0.009696568
52	0xbc93cf65	-0.01804323
53	0x3c79883d	0.015230236
54	0x3c93d56f	0.018046109
55	0x3c0621b5	0.008186747
56	0x3b120fa1	0.0022287148
57	0xbc421249	-0.01184518
58	0xbbf5b73f	-0.0074986513
59	0x3c3f2fec	0.01166914
60	0xbcb8aa0e	-0.022542026
61	0xbc741c83	-0.014899376
62	0xbc1558b1	-0.009115384
63	0x3c4c0e1d	0.012454537
64	0x3c27fbdd	0.01025292
65	0xbca193b7	-0.019723756
66	0x3c49248c	0.01227678
67	0x3b4b87b8	0.0031056236
68	0xbc191c7f	-0.009345173
69	0x3ca0cfd1	0.019630345
70	0xbcd137d1	-0.02553931
71	0x3b4d9ab1	0.003137272
72	0x3b9d943f	0.004808932
73	0x3aa23bca	0.0012377438
74	0xbc8b1e22	-0.016982142
75	0x3c960547	0.018313063
76	0x3c7eee37	0.0155597245
77	0xbc489c87	-0.01224435
78	0xbbf2fab4	-0.00741514
79	0x3be8644a	0.0070920335
80	0x3c31aa57	0.010843835
81	0xbbdaf2c7	-0.0066817733
82	0x3b2b797b	0.0026164937
83	0xbaeaf0c0	-0.0017924532
84	0xbc654d2d	-0.013995451
85	0xbafdbaca	-0.0019358036
86	0xbc616202	-0.013756277
87	0x3c719d10	0.014746919
88	0xbc905572	-0.017618868
89	0x3c259f1f	0.010108738
90	0xbada4dda	-0.0016655282
91	0x3cec3259	0.028832601
92	0xbb4ec221	-0.0031548815
93	0x3ba76605	0.005108597
94	0x3c32a054	0.010902483
95	0x3c0e45a8	0.0086835995
96	0xbc9b167a	-0.018931616
97	0x3b86b320	0.004110709
98	0xbcc3347f	-0.023828743
99	0x3c79f446	0.015255993
100	0xbca650ff	-0.020302294
101	0xbc57086e	-0.013124568
102	0x3bdd2f0e	0.006749994
103	0x3cd28b96	0.025701325
104	0x3cc52717	0.024066491
105	0x3c5369fa	0.012903685
106	0xbcb527c2	-0.022113685
107	0x3bd9cdc3	0.006646843
108	0xbb13d57c	-0.0022557667
109	0xbc36f20c	-0.011166107
110	0x3cc3fcec	0.023924313
111	0x3c2292cf	0.009922697
112	0x3b991f68	0.0046729334
113	0xb9811f11	-0.00024627944
114	0xbc2c174f	-0.010503604
115	0xbc90ce85	-0.017676601
116	0x3c596f6a	0.013271192
117	0x3c4a9ccc	0.012366485
118	0xbbd758a1	-0.0065718447
119	0xbc629b98	-0.013831042
120	0x3ce19ba9	0.027540045
121	0xba2832fc	-0.00064162887
122	0x3ca3e95c	0.020008735
123	0xbc4718f9	-0.01215195
124	0x3be572e5	0.007002222
125	0x3c7997c0	0.015233934
126	0x3c8123dd	0.015764171
127	0xbc8f016f	-0.017456738
