TradeSimulator-v0_D3QN_-1/actor_00312840.pth (torch, 151866 bytes, 14 tensors)

state_avg f4 [10]
0.21831858 0.0007779532 -0.00583598 0.19431458 0.0027837495 -0.00842152 -0.067367606 0.25858778
0.004006786 -0.016676588
00000000: e88e 5f3e 8eef 4b3a c03b bfbb 67fa 463e
00000010: 916f 363b 6afa 09bc 07f8 89bd 9e65 843e
00000020: 5b4b 833b 579d 88bc

state_std f4 [10]
0.84883773 0.721636 0.8741303 0.9252877 0.8221351 0.78548354 0.9946659 0.8337255
0.8125155 0.78778726
00000000: 6e4d 593f 23bd 383f 01c7 5f3f a8df 6c3f
00000010: 7277 523f 7315 493f 6da2 7e3f 096f 553f
00000020: 0401 503f 6dac 493f

weight f4 [128, 10]
0.16678172 -0.04154421 -0.057423204 0.17091021 -0.29125288 0.21740285 -0.081583284 0.17144948
0.0365992 -0.04152834 0.09467351 0.37940145 0.1279166 -0.11665357 -0.0398813 -0.03876789
0.042822976 -2.4378e-05 0.27177945 0.11608757 -0.11781492 -0.47745317 -0.06512581 -0.14176838
-0.105797954 0.0047638444 0.19301574 0.17601134 -0.27470687 0.18579641 0.08728209 0.027168386
0.22497776 -0.29766902 -0.250689 -0.1534139 0.2905101 -0.051985357 0.13408165 -0.12203976
0.30339396 -0.50701135 0.2185542 0.021754064 -0.15834153 0.16343676 -0.18455927 0.110231556
-0.08740494 -0.037686788 -0.32356057 -0.1949329 0.1641586 -0.09565167 0.31165347 0.22481705
-0.015240202 -0.18654108 0.19010104 0.08014986 -0.20144923 -0.18648413 0.18857762 0.29291221
-0.1748609 -0.06092928 -0.007340478 0.040156085 -0.23120098 -0.20612721 0.17875738 -0.37581357
0.14412153 0.021543844 0.10175506 0.053823035 0.10059926 0.17080635 -0.2633714 0.1378661
-0.23934843 -0.17867611 0.024195742 -0.05553222 0.1863013 -0.20599939 -0.26732892 0.23804799
-0.060483214 0.195146 0.09478111 -0.60921127 0.061943576 0.07981495 -0.21620953 -0.14673652
0.10695739 0.06330223 -0.14428447 -0.097094275 0.29191297 -0.35329127 0.17854202 0.13002054
-0.17660065 -0.2627217 0.30278522 0.016264336 0.20775674 0.046751037 0.097392805 -0.056170836
0.28939947 -0.20579526 0.048729874 0.22618246 0.23721072 0.20823833 -0.18642983 -0.20488581
-0.1821573 -0.2749406 0.2968382 -0.20642152 0.16573411 -0.14882319 -0.29798782 -0.064558595
0.1742146 0.28532007 -0.18627894 0.09743484 0.25981808 0.20675665 0.19247763 0.25137344
0.2055242 0.10662028 -0.18102635 -0.2594241 -0.14339769 -0.0012492818 -0.18973497 0.12072706
0.084594466 -0.06370038 0.10976123 0.093807906 0.19092979 0.17800003 -0.10976365 -0.08414457
-0.04451149 -0.010734023 -0.27786377 -0.18648385 -0.19526103 -0.14505996 0.21976773 -0.10830974
-0.24935284 0.1266379 0.09874829 0.19685388 -0.16004284 0.0515967 -0.09798327 -0.07989106
-0.24918143 -0.15481369 -0.09081872 -0.119772375 0.064056434 0.084638625 0.30888098 0.27975518
0.24350536 0.011774268 -0.20123173 0.23079072 -0.07587319 -0.40176475 -0.25790748 -0.059475817
-0.18325295 0.2396837 -0.2970835 -0.25118062 -0.010612531 -0.16935524 0.112785086 -0.2151106
-0.14871491 0.01538601 0.22212772 -0.20781614 0.15530838 0.20548536 0.29212892 -0.23421787
0.09135432 0.085373946 0.27939332 -0.10454608 0.20322748 -0.014792822 -0.022477692 0.0022748068
0.047330957 0.14809106 0.052129682 -0.18353775 -0.25177094 0.2481418 0.23759997 0.2175442
0.25289178 -0.22763574 -0.10492347 0.27839097 -0.2304611 -0.018954482 -0.24837555 -0.23216653
0.15147835 -0.20392136 -0.08571549 0.24311914 0.26292163 0.28040168 -0.053516228 -0.6660073
0.2940538 -0.06288656 -0.116295494 0.083749205 -0.23100732 0.22494741 0.18889177 -0.25917563
-0.26358628 -0.17451142 0.11186002 0.010212553 -0.14003713 0.020031476 -0.31602058 -0.21665995
-0.22190382 0.22154643 0.28035766 -0.34605893 0.009150731 0.1491055 0.039197505 -0.16441472
00000000: d4c8 2a3e 432a 2abd 9834 6bbd 1603 2f3e
00000010: 191f 95be da9e 5e3e 2315 a7bd 7490 2f3e
00000020: 0be9 153d 9f19 2abd 2fe4 c13d e840 c23e
00000030: 92fc 023e 11e8 eebd 935a 23bd 14cb 1ebd
00000040: 2567 2f3d 5b7f ccb7 ad26 8b3e 52bf ed3d
00000050: f348 f1bd be74 f4be ae60 85bd bb2b 11be
00000060: 99ac d8bd 061a 9c3b eba5 453e 513c 343e
00000070: 61a6 8cbe 6a41 3e3e f4c0 b23d 3c90 de3c
00000080: 9260 663e 1368 98be 4f5a 80be 8918 1dbe
00000090: bdbd 943e 99ee 54bd b34c 093e fbef f9bd
000000a0: 7456 9b3e 7fcb 01bf accc 5f3e 9435 b23c
000000b0: 4824 22be f75b 273e 1bfd 3cbe 15c1 e13d
000000c0: 5c01 b3bd 765d 1abd bba9 a5be 7d9c 47be
000000d0: 3119 283e 06e5 c3bd 0b91 9f3e 7136 663e
000000e0: 0ab2 79bc a004 3fbe d9a9 423e 9c25 a43d
000000f0: b548 4ebe b2f5 3ebe 7e1a 413e 97f8 953e
00000100: bc0e 33be fb90 79bd 6488 f0bb b57a 243d
00000110: f3bf 6cbe 0313 53be 2d0c 373e a36a c0be
00000120: 9894 133e b77c b03c f564 d03d 8b75 5c3d
00000130: fc06 ce3d dce7 2e3e 9ed8 86be c52c 0d3e
00000140: c117 75be dff6 36be 2636 c63c c175 63bd
00000150: c5c5 3e3e 81f1 52be 56df 88be dac2 733e
00000160: 3fbd 77bd 5ad4 473e 991c c23d 45f5 1bbf
00000170: 8cb8 7d3d 0576 a33d 0866 5dbe 1942 16be
00000180: 7a0c db3d 99a4 813d 4fbf 13be 5dd9 c6bd
00000190: 9e75 953e 98e2 b4be b8d3 363e 1b24 053e
000001a0: cdd6 34be 7583 86be aa06 9b3e c93c 853c
000001b0: 2fbe 543e 047e 3f3d e175 c73d 6413 66bd
000001c0: 2b2c 943e febb 52be fa98 473d 609c 673e
000001d0: 5ee7 723e 6e3c 553e 76e7 3ebe 96cd 51be
000001e0: 7187 3abe 04c5 8cbe 2dfb 973e 2a60 53be
000001f0: 34b6 293e 1b65 18be dc91 98be 4c37 84bd
00000200: 5065 323e 7915 923e e8bf 3ebe eb8b c73d
00000210: e006 853e 04b8 533e db18 453e 05b4 803e
00000220: f074 523e bc5b da3d f95e 39be 3cd3 84be
00000230: d8d6 12be f1be a3ba e249 42be c03f f73d
00000240: dd3f ad3d 5875 82bd 7fca e03d 5c1e c03d
00000250: 1983 433e a445 363e c4cb e0bd fd53 acbd
00000260: ae51 36bd c1dd 2fbc 2944 8ebe 9ff5 3ebe
00000270: 82f2 47be 998a 14be cb0a 613e 7fd1 ddbd
00000280: 5a56 7fbe 5ead 013e 8b3c ca3d 1094 493e
00000290: 45e2 23be 1057 533d 74ab c8bd ed9d a3bd
000002a0: 6b29 7fbe 7b87 1ebe 2aff b9bd 384b f5bd
000002b0: 0530 833d 0457 ad3d a625 9e3e 123c 8f3e
000002c0: 7859 793e dce8 403c b10f 4ebe 6754 6c3e
000002d0: 6763 9bbd 1cb4 cdbe 730c 84be ea9c 73bd
000002e0: a9a6 3bbe a56f 753e 541b 98be bf9a 80be
000002f0: 2ee0 2dbc 766b 2dbe defb e63d f445 5cbe
00000300: b948 18be 9a15 7c3c 7375 633e c1cd 54be
00000310: 2909 1f3e c16a 523e ec91 953e cfd6 6fbe
00000320: f917 bb3d 89d8 ae3d a40c 8f3e 411c d6bd
00000330: dd1a 503e 985d 72bc 2323 b8bc ed14 153b
00000340: 1bde 413d 2fa5 173e ef85 553d 52f1 3bbe
00000350: 1fe8 80be e218 7e3e 684d 733e e8c3 5e3e
00000360: 087b 813e 5819 69be 1ee2 d6bd 4389 8e3e
00000370: fffd 6bbe 6e46 9bbc 2956 7ebe 10bd 6dbe
00000380: 241d 1b3e c3d0 50be 9a8b afbd 39f4 783e
00000390: aa9d 863e cf90 8f3e d533 5bbd 747f 2abf
000003a0: 388e 963e abca 80bd 552c eebd b484 ab3d
000003b0: 2f8d 6cbe 9d58 663e d86c 413e abb2 84be
000003c0: c8f4 86be 1fb3 32be de16 e53d 8d52 273c
000003d0: e565 0fbe 0d19 a43c 73cd a1be 1bdc 5dbe
000003e0: c13a 63be 11dd 623e 0a8b 8f3e a32e b1be
000003f0: f3ec 153c 1daf 183e 908d 203d 555c 28be

bias f4 [128]
0.022434996 -0.0057257484 0.0597435 -9.172093e-05 0.18874946 0.012996151 0.22727065 0.08697662
0.0064025354 0.05704687 0.2329373 0.061589524 0.23703708 -0.01629619 0.0033996801 0.27264014
-0.3046351 0.046483226 0.30326998 -0.1512114 -0.047529664 -0.004597797 0.12030932 0.14039344
0.088280395 0.1313803 -0.12817596 0.14768435 -0.099916056 0.21780314 -0.07862904 -0.2686202
0.038755987 0.19602 -0.0029104787 -0.006430356 0.0074228914 0.1813149 0.022547286 -0.30041513
-0.22421986 0.031333733 -0.009831429 0.3256055 -0.04797054 0.24632989 -0.25157422 -0.3030174
-0.015495951 -0.20999077 -0.08249648 0.03268414 -0.2614871 0.23863114 -0.17667778 0.2627678
0.106405355 -0.046849 -0.26759893 0.049406216 -0.16665752 0.2873018 -0.25978577 -0.0832551
-0.15923564 -0.19363655 -0.1870647 -0.01604355 0.02465041 0.07814408 0.17221336 -0.11242193
-0.21753347 -0.059253834 0.3167496 -0.03833098 -0.27242136 0.26478562 0.069157146 0.080345035
0.062249005 0.22622956 -0.14710158 0.25069693 0.3226347 -0.07353261 0.21899983 0.1920659
0.31467932 -0.06727546 -0.18993352 -0.110504635 -0.20912169 0.02406213 0.32466838 0.3237028
0.2429245 0.038544312 0.022931183 0.21833661 0.21101631 -0.031990986 -0.077866636 0.13453151
0.014825903 -0.20215632 -0.14763075 0.26765504 0.27713388 -0.111747846 -0.059155345 -0.15036792
-0.10044881 0.29764825 -0.31127888 0.14791298 -0.28466028 -0.14341982 -0.048285324 0.023512999
-0.03911634 -0.14899725 -0.13424793 -0.20685552 -0.2230917 -0.19540937 0.32731333 -0.13396114
00000000: 99c9 b73c 0f9f bbbb 9ab5 743d 4d5a c0b8
00000010: 8a47 413e cfed 543c a3b9 683e cc20 b23d
00000020: 5ccc d13b fba9 693d 1e87 6e3e 4c45 7c3d
00000030: d9b9 723e 967f 85bc 2bcd 5e3b 7d97 8b3e
00000040: 22f9 9bbe 3265 3e3d 3446 9b3e 29d7 1abe
00000050: 77ae 42bd 1ea9 96bb bc64 f63d 4cc3 0f3e
00000060: 5acc b43d 8f88 063e 8f40 03be 913a 173e
00000070: caa0 ccbd c907 5f3e 4308 a1bd 9688 89be
00000080: 99be 1e3d 78b9 483e bbbd 3ebb bcb5 d2bb
00000090: ba3b f33b 9daa 393e 16b5 b83c 03d0 99be
000000a0: e499 65be cd57 003d 0114 21bc c4b5 a63e
000000b0: c27c 44bd e73d 7c3e 56ce 80be 1925 9bbe
000000c0: bbe2 7dbc d207 57be eaf3 a8bd cedf 053d
000000d0: a3e1 85be b95b 743e 05eb 34be 8089 863e
000000e0: 0deb d93d bde4 3fbd ba02 89be 2c5e 4a3d
000000f0: 45a8 2abe 3919 933e a402 85be a681 aabd
00000100: ab0e 23be a948 46be e48d 3fbe c36d 83bc
00000110: a8ef c93c 010a a03d b358 303e 783d e6bd
00000120: 18c1 5ebe 26b4 72bd 012d a23e f200 1dbd
00000130: d07a 8bbe fb91 873e 43a2 8d3d f08b a43d
00000140: d0f8 7e3d b9a8 673e cca1 16be 595b 803e
00000150: 6030 a53e 4498 96bd 7e41 603e ecac 443e
00000160: a61d a13e b7c7 89bd ef7d 42be 4150 e2bd
00000170: ff23 56be f21d c53c ef3a a63e 60bc a53e
00000180: 33c1 783e a4e0 1d3d 2dda bb3c a293 5f3e
00000190: a914 583e fb08 03bd 8b78 9fbd a1c2 093e
000001a0: 58e8 723c 1102 4fbe 842c 17be 150a 893e
000001b0: 7ee4 8d3e 0edc e4bd e04c 72bd 0cfa 19be
000001c0: 1bb8 cdbd 5a65 983e f25f 9fbe 8076 173e
000001d0: febe 91be a5dc 12be d5c6 45bd 559e c03c
000001e0: 7538 20bd bc92 18be 4a78 09be efd1 53be
000001f0: 2772 64be 6519 48be 9d95 a73e 1c2d 09be

weight f4 [128, 128]
-0.083101556 0.067522995 0.040301424 0.06970511 -0.085150436 -0.074844494 -0.06124849 -0.049434077
-0.01307796 0.044985484 0.056742728 -0.06385557 0.034856096 -0.04420781 0.011882186 0.0409507
0.016572084 0.033764236 0.0013624693 0.050308708 0.019653589 0.08205087 0.015904156 -0.039997824
0.050637264 0.00097354234 0.093249716 -0.012857266 0.07908475 -0.054392945 0.0412057 -0.066460475
0.056248434 0.023146627 0.06538195 -0.074609056 -0.087858066 0.04200911 -0.022490444 0.03771089
-0.049167346 -0.024164136 0.022258192 0.055052105 0.03644552 0.003486239 -0.02998099 0.0061490308
0.02855632 -0.06517227 -0.018083734 -0.08336598 0.0019642336 -0.007050223 0.052155208 0.08523895
-0.06827134 -0.031740315 -0.053259358 0.0016417203 -0.040297084 -0.056451157 -0.036556836 -0.0069759716
0.049593188 -0.024010358 0.06410025 -0.069186665 0.0057239085 -0.056405593 -0.092466496 0.011663741
-0.039917484 0.0670018 0.06707186 -0.07603702 -0.0012187312 -0.005800581 -0.042358384 -0.04178715
-0.04931074 0.04920298 0.0076701506 0.06874711 -0.009118072 0.04463434 0.017472109 -0.019560797
-0.012535188 -0.089378126 -0.014610202 -0.023313953 -0.05124496 -0.027248679 -0.03605926 -0.0652575
0.012554613 -0.0023498277 -0.02944946 0.08994987 0.07273466 0.04199498 -0.043866623 -0.0009844361
-0.07046153 0.060003173 0.07521159 -0.012462705 0.063141346 0.07598618 -0.011315491 -0.032967202
-0.009746611 0.012682286 -0.08482175 0.01004623 -0.032698743 0.064223215 -0.024932519 0.06847952
0.05701098 -0.027230646 0.027439388 -0.015172896 -0.03140245 -0.038052518 0.006564947 0.029501844
-0.010820682 0.011712201 0.06071763 0.040699597 0.042441987 0.030839885 -0.061090134 -0.051458754
-0.061337885 0.063525856 -0.074411824 -0.061122824 0.059302982 0.053224657 -0.07979229 0.05608944
-0.022570398 0.019853318 -0.04609656 -0.013517325 0.016636755 0.066711545 0.057006422 -0.041301
-0.056860857 0.00040035386 0.02911006 0.05787392 -0.08504555 0.0026136232 0.011485586 -0.04315929
0.07836523 -0.014453992 -0.07625397 -0.0471464 0.006618151 -0.056756586 0.02078258 0.077349804
0.012004653 -0.010859109 0.09294328 0.07393302 0.062046215 0.014755594 0.009373305 -0.060757663
0.015415082 0.09608254 0.012520676 -0.073244415 0.03512105 0.08329634 0.08170013 0.014592254
0.025201278 0.021468958 -0.036081366 -0.01156906 0.0663693 0.018260673 0.080734074 -0.064150654
-0.008734504 0.0034099233 -0.041087534 0.07371632 0.064565666 -0.040511396 0.082704045 0.07537355
-0.048612855 0.0011181241 0.092000626 -0.05507699 -0.00865054 -0.05525181 0.072292335 0.021293785
0.04098513 0.07278644 -0.015700651 -0.06982936 0.013723307 -0.0010317584 0.041130826 0.046965647
-0.03610959 -0.030693535 0.055137947 0.028233116 0.02177357 0.050731815 0.045320842 -0.057496365
0.017887978 0.005918066 -0.07931074 0.030576581 0.010706967 0.07128465 -0.08706236 0.088646986
-0.04148572 0.0478215 0.05630571 -0.0038219497 -0.039838303 -0.011653506 -0.057671826 0.012488317
0.035822473 0.0237787 -0.049502287 0.062033307 0.07462664 -0.024385432 0.04538877 -0.008234732
0.03520321 -0.06785474 -0.06982027 -0.013830268 -0.06740865 0.03778559 0.091731206 -0.01623767
00000000: 2631 aabd 7f49 8a3d 1b13 253d 8dc1 8e3d
00000010: 5a63 aebd 1248 99bd b2df 7abd 637b 4abd
00000020: f144 56bc b342 383d 106b 683d b6c6 82bd
00000030: 44c5 0e3d 4013 35bd 80ad 423c ecbb 273d
00000040: 2ec2 873c 5e4c 0a3d e294 b23a 8110 4e3d
00000050: 9000 a13c 490a a83d 6f49 823c c2d4 23bd
00000060: 0569 4f3d 5235 7f3a b5f9 be3d 48a7 52bc
00000070: 2ff7 a13d 23cb 5ebd 4fc7 283d 6e1c 88bd
00000080: c264 663d ff9d bd3c f9e6 853d a2cc 98bd
00000090: eeee b3bd bf11 2c3d e13d b8bc bc76 1a3d
000000a0: b363 49bd def3 c5bc d056 b63c 517e 613d
000000b0: e647 153d 6279 643b b19a f5bc cf7d c93b
000000c0: f2ee e93c 0a79 85bd 5724 94bc c8bb aabd
000000d0: 5fba 003b 8f05 e7bb b3a0 553d c291 ae3d
000000e0: d8d1 8bbd 2202 02bd 7c26 5abd fe2e d73a
000000f0: 8e0e 25bd 5439 67bd 9fbc 15bd b196 e4bb
00000100: 3a22 4b3d 5fb1 c4bc fe46 833d bdb1 8dbd
00000110: a08f bb3b 8d09 67bd 135f bdbd 4719 3f3c
00000120: 8480 23bd 3d38 893d f95c 893d 4cb9 9bbd
00000130: d5bd 9fba cd12 bebb fc7f 2dbd 0129 2bbd
00000140: 0ffa 49bd 1089 493d e355 fb3b 49cb 8c3d
00000150: f763 15bc 7fd2 363d ab21 8f3c f73d a0bc
00000160: 6460 4dbc e10b b7bd a15f 6fbc e7fc bebc
00000170: 3ce6 51bd 9f38 dfbc e0b2 13bd b9a5 85bd
00000180: ddb1 4d3c 91ff 19bb fe3f f1bc a337 b83d
00000190: e9f5 943d ee02 2c3d 7dad 33bd 3208 81ba
000001a0: 224e 90bd e3c5 753d 8908 9a3d 6030 4cbc
000001b0: 4050 813d a49e 9b3d 9c64 39bc 9e08 07bd
000001c0: 40b0 1fbc 5dc9 4f3c 07b7 adbd f198 243c
000001d0: 1eef 05bd 7687 833d 483f ccbc fe3e 8c3d
000001e0: 5884 693d ce12 dfbc 91c8 e03c bd97 78bc
000001f0: db9f 00bd f5dc 1bbd c41e d73b daad f13c
00000200: 3b49 31bc 88e4 3f3c 0db3 783d 9fb4 263d
00000210: a6d7 2d3d eda3 fc3c a639 7abd 6ac6 52bd
00000220: 6f3d 7bbd d819 823d 3a65 98bd ed5b 7abd
00000230: afe7 723d 1902 5a3d 246a a3bd 0abe 653d
00000240: 8ee5 b8bc 6da3 a23c bfcf 3cbd c577 5dbc
00000250: ce49 883c 10a0 883d 917f 693d 3d2b 29bd
00000260: eee6 68bd 96e6 d139 3878 ee3c 340d 6d3d
00000270: 5c2c aebd 5249 2b3b 0a2e 3c3c ccc7 30bd
00000280: f37d a03d 70d0 6cbc 0b2b 9cbd 951c 41bd
00000290: 13dd d83b 9879 68bd 3b40 aa3c 9369 9e3d
000002a0: 2aaf 443c 68ea 31bc 0c59 be3d 326a 973d
000002b0: 2c24 7e3d 72c1 713c 7e92 193c 07dd 78bd
000002c0: 8a8f 7c3c ecc6 c43d 8523 4d3c 2b01 96bd
000002d0: 17db 0f3d 4697 aa3d 6652 a73d 5914 6f3c
000002e0: e972 ce3c abdf af3c 0eca 13bd 288c 3dbc
000002f0: a1ec 873d 6897 953c e857 a53d 6b61 83bd
00000300: 2a1b 0fbc 0579 5f3b 674b 28bd 95f8 963d
00000310: 013b 843d 47ef 25bd bd60 a93d 735d 9a3d
00000320: 461e 47bd 058e 923a d36a bc3d 6998 61bd
00000330: ffba 0dbc b94f 62bd 010e 943d 4e70 ae3c
00000340: 06e0 273d 0f11 953d a79e 80bc b202 8fbd
00000350: b9d7 603c 113c 87ba cc78 283d 0d5f 403d
00000360: a6e7 13bd 0271 fbbc 54d8 613d 2349 e73c
00000370: 7c5e b23c 2acc 4f3d 59a2 393d 4f81 6bbd
00000380: cf89 923c 56ec c13b ab6d a2bd bd7b fa3c
00000390: 466c 2f3c b0fd 913d c04d b2bd 8d8c b53d
000003a0: eeec 29bd 7ae0 433d d1a0 663d ad79 7abb
000003b0: 7d2d 23bd 59ee 3ebc 4b39 6cbd cc9b 4c3c
000003c0: 96ba 123d 8ccb c23c e9c2 4abd a316 7e3d
000003d0: dad5 983d f5c3 c7bc 93e9 393d f8ea 06bc
000003e0: 3e31 103d 6df7 8abd eefd 8ebd 5998 62bc
000003f0: 8c0d 8abd 10c5 1a3d 92dd bb3d dd04 85bc

bias f4 [128]
0.06644303 0.057868894 -0.022404954 0.046237964 -0.029427186 -0.01284397 -0.08061469 0.046805006
0.06658316 0.007500105 -0.08645028 -0.0035768647 -0.057953887 -0.042523265 -0.01486518 0.042236507
0.052429605 -0.08161804 -0.050173063 -0.04739011 0.029507013 0.0012012778 -0.015823359 0.012896439
0.005766168 -0.07442226 0.030884143 0.020840157 0.016839385 0.047677338 0.020147478 -0.05306067
0.100172155 0.04658972 0.09058584 0.018568993 0.06734347 -0.005667111 0.0028651094 0.049436733
-0.038427155 -0.07894366 0.023246378 0.06356149 0.09275379 -0.008173451 -0.0268988 -0.056180887
0.09205709 0.00053922646 -0.03575765 -0.058438163 -0.020459227 0.08296532 0.042195342 -0.071530476
0.046058152 -0.028470678 0.08952302 -0.026983058 0.0013780871 0.03152298 -0.010633333 -0.04662011
-0.0004265158 0.09724318 -0.06892645 0.064488575 0.05298457 0.087803945 0.025207391 -0.0026254815
-0.05242366 0.09945987 0.010173357 0.003912328 0.02680299 -0.01384449 0.007397569 0.026739543
0.06708659 0.062447716 -0.09298309 -0.013554884 0.00017179312 0.041952815 -0.052430112 -0.011356936
-0.041082755 -0.054162603 0.01674869 0.068628795 0.029456625 -0.03664566 -0.0014366783 -0.029031936
0.09579708 0.031402286 -0.053189244 -0.073980615 -0.03760196 -0.064880274 0.027209973 -0.035766307
-0.08484877 -0.021103244 -0.039146077 -0.031032508 0.07576597 -0.0003359548 -0.058341518 -0.046532102
0.0900809 -0.0082919765 -0.027539905 -0.02026836 0.038827598 0.07856311 -0.012473077 -0.005263945
-0.026857574 -0.06027114 0.05247781 0.01782278 0.010447357 0.018288458 0.023933148 0.080627665
00000000: 4913 883d ef07 6d3d 988a b7bc 0564 3d3d
00000010: 4811 f1bc 846f 52bc 5119 a5bd 9bb6 3f3d
00000020: c05c 883d 71c3 f53b d80c b1bd d569 6abb
00000030: 0e61 6dbd e02c 2ebd 158d 73bc 3000 2d3d
00000040: 6dc0 563d 5c27 a7bd 4582 4dbd 221c 42bd
00000050: b1b8 f13c 3274 9d3a fd9f 81bc 964b 533c
00000060: 1ff2 bc3b b36a 98bd be00 fd3c fab8 aa3c
00000070: c0f2 893c 5049 433d 530c a53c 2556 59bd
00000080: 0f27 cd3d ddd4 3e3d 1285 b93d 001e 983c
00000090: 60eb 893d 2cb3 b9bb 8fc4 3b3b 2c7e 4a3d
000000a0: cb65 1dbd 37ad a1bd 306f be3c 872c 823d
000000b0: b3f5 bd3d f0e9 05bc df5a dcbc ee1d 66bd
000000c0: 6d88 bc3d e05a 0d3a 9d76 12bd db5c 6fbd
000000d0: 1c9a a7bc b9e9 a93d 06d5 2c3d 927e 92bd
000000e0: 79a7 3c3d 573b e9bc d857 b73d 930b ddbc
000000f0: eea0 b43a 3e1e 013d 6e37 2ebc baf4 3ebd
00000100: fb9d dfb9 6f27 c73d 5029 8dbd 9612 843d
00000110: 5906 593d 8ed2 b33d bb7f ce3c 4510 2cbb
00000120: 31ba 56bd 9eb1 cb3d 27ae 263c fc32 803b
00000130: f291 db3c 00d4 62bc 4e67 f23b e30c db3c
00000140: b264 893d 2dc9 7f3d eb6d bebd 4e15 5ebc
00000150: 5d23 3439 b7d6 2b3d f5c0 56bd 7112 3abc
00000160: 6446 28bd 9bd9 5dbd 8c34 893c 418d 8c3d
00000170: 054f f13c c219 16bd ed4e bcba 62d4 edbc
00000180: 4231 c43d af9f 003d f7dc 59bd 2683 97bd
00000190: 8304 1abd f3df 84bd 73e7 de3c b17f 12bd
000001a0: 31c5 adbd b6e0 acbc a357 20bd e337 febc
000001b0: 302b 9b3d 1723 b0b9 84f7 6ebd 7298 3ebd
000001c0: 567c b83d 12db 07bc 5e9b e1bc d509 a6bc
000001d0: b009 1f3d b2e5 a03d e05b 4cbc 2c7d acbb
000001e0: 6a04 dcbc dfde 76bd f9f2 563d 1401 923c
000001f0: 642b 2b3c add1 953c 730f c43c 1e20 a53d

weight f4 [128, 128]
-0.00014796916 0.04108438 0.01069245 0.03141103 -0.06067413 0.053025123 -0.05998932 0.011686972
0.0817662 -0.019302906 -0.038106225 0.04992971 -0.045017 -0.03267748 -0.007059731 0.035614245
0.068634436 -0.0347182 0.013649231 0.1175594 0.07015283 -0.056160077 -0.04116888 -0.0068744565
-0.05497201 -0.02974085 -0.007724126 -0.03431976 -0.053265475 -0.03595338 0.030394554 -0.06853323
0.07735842 0.08740199 0.02462006 -0.04187982 0.020340163 -0.07582579 0.043027665 0.056291487
0.054680083 0.06498389 0.05203645 -0.0910118 -0.05203595 -0.012999679 0.018102035 0.05478515
-0.092369035 -0.05519533 0.03410235 0.055983834 0.0030946657 0.041433062 0.07955674 0.07883661
0.020133365 -0.076999605 -0.035198115 -0.051578507 -0.055731073 0.06350482 0.0045344173 -0.056826852
0.040605586 -0.030792357 -0.051186502 -0.0041945223 -0.04614285 -0.05129052 -0.05093513 -0.06405892
-0.031043984 0.05052603 -0.045461517 0.092737064 0.010787421 -0.02206696 -0.0070462055 -0.005712714
0.020666985 0.058149207 0.023905797 -0.096638516 0.010463448 0.025146468 -0.0670567 -0.065064125
0.037497595 -0.09069294 -0.07108479 0.06930958 -0.0088341115 -0.012400232 0.057503343 0.030546151
-0.01979083 0.0033938233 0.056545183 0.07652542 -0.03858821 -0.0043480876 0.05516448 0.056032486
0.009864076 0.024283389 0.065029174 -0.05614839 0.001422232 0.01148927 -0.020029735 -0.046728246
-0.013016142 -0.09039275 -0.06764406 -0.04332845 -0.027358742 -0.060312763 0.021016791 -0.090682976
-0.0195098 -0.08832682 0.01777418 -0.026248438 0.0020663333 -0.022649622 -0.07782122 0.060724854
-0.07821491 0.025775854 0.09653132 0.07359177 0.07585605 -0.06448749 0.051151253 -0.029030617
-0.008272779 -0.06400907 0.09174862 0.04783864 -0.015037645 0.07512369 -0.052758887 -0.027348645
-0.011714517 -0.03484427 0.043737534 0.056566183 -0.0062989877 0.027907474 -0.05762854 0.03038006
-0.058532942 0.0792564 -0.051463306 0.08331781 -0.04022551 0.021615952 0.009402624 -0.014502957
0.058796007 0.053719666 -0.0016487542 -0.0001876299 -0.05543656 0.028301153 -0.026104072 0.056037348
-0.09155988 0.06385193 -0.06277489 -0.08954207 0.009868793 0.0772548 -0.02402674 0.07054337
0.04716678 -0.026661787 -0.05026468 -0.039967876 0.053982556 0.023851307 0.0021763905 -0.03537729
0.08076789 0.062485665 -0.08859765 -0.062035266 -0.07171186 0.021797765 -0.042813644 -0.02036059
-0.07111914 -0.07215124 -0.0020951242 -0.08512314 -0.025452232 0.0058420748 0.027571948 -0.08972333
0.008642424 0.0727256 -0.06168173 -0.037198283 0.026782554 -0.005116477 -0.041512787 0.047264565
-0.08688018 -0.08699847 0.053379107 0.033163812 0.011260621 0.07800678 -0.0784141 0.06393113
0.011310036 0.060754593 0.03992959 0.027031604 -0.08447457 0.0039198897 -0.029885823 -0.013258869
0.072008036 -0.017030658 -0.04471466 -0.033931416 -0.02130179 0.05275408 0.011153765 0.008910833
-0.052306484 0.08538456 -0.023680728 0.030224996 -0.07476171 0.043305054 0.032361005 0.06359232
0.044117473 -0.103832096 -0.030541476 0.05467722 0.034759663 -0.021077724 0.046486907 0.07191548
0.0101837125 0.0059501384 0.07950356 0.06993913 -0.033023834 -0.002970664 -0.013870662 0.038525727
00000000: 2b28 1bb9 1848 283d 632f 2f3c daa8 003d
00000010: 7085 78bd df30 593d 5cb7 75bd b77a 3f3c
00000020: 0a75 a73d 2121 9ebc 4615 1cbd 1883 4c3d
00000030: bf63 38bd d2d8 05bd 5155 e7bb 3ee0 113d
00000040: 3690 8c3d ac34 0ebd 06a1 5f3c fcc2 f03d
00000050: 49ac 8f3d 1c08 66bd b3a0 28bd 1f43 e1bb
00000060: 552a 61bd 15a3 f3bc aa1a fdbb e092 0cbd
00000070: e62c 5abd da43 13bd 00fe f83c 265b 8cbd
00000080: 176e 9e3d d1ff b23d 02b0 c93c 2d8a 2bbd
00000090: 6aa0 a63c 8d4a 9bbd c73d 303d e791 663d
000000a0: 39f8 5f3d 4616 853d 2c24 553d 6564 babd
000000b0: a623 55bd 9bfc 54bc b84a 943c 6566 603d
000000c0: fa2b bdbd 8014 62bd e8ae 0b3d 4e4f 653d
000000d0: e0cf 4a3b b7b5 293d a5ee a23d 1775 a13d
000000e0: baee a43c f8b1 9dbd e62b 10bd fc43 53bd
000000f0: 4446 64bd d10e 823d 7395 943b 46c3 68bd
00000100: 0b52 263d 4140 fcbc f0a8 51bd 3472 89bb
00000110: 4900 3dbd 0216 52bd 5ba1 50bd 5331 83bd
00000120: f44f febc 62f4 4e3d db35 3abd eeec bd3d
00000130: b9bd 303c c5c5 b4bc dbe3 e6bb b831 bbbb
00000140: cf4d a93c dd2d 6e3d 17d6 c33c 6aea c5bd
00000150: e26e 2b3c f7ff cd3c 0655 89bd 5740 85bd
00000160: 1497 193d 38bd b9bd e794 91bd 2ef2 8d3d
00000170: f3bc 10bc 582a 4bbc a088 6b3d ec3b fa3c
00000180: 6120 a2bc e86a 5e3b ec9b 673d 5cb9 9c3d
00000190: ac0e 1ebd 677a 8ebb 26f4 613d 5282 653d
000001a0: ef9c 213c f5ed c63c 042e 853d dbfb 65bd
000001b0: 306a ba3a 7e3d 3c3c 6615 a4bc 1e66 3fbd
000001c0: a841 55bc d61f b9bd f888 8abd 2c79 31bd
000001d0: 711f e0bc 840a 77bd 682b ac3c ffb7 b9bd
000001e0: 04d3 9fbc b1e4 b4bd 289b 913c f706 d7bc
000001f0: 526b 073b b38b b9bc bb60 9fbd a0ba 783d
00000200: 242f a0bd e227 d33c 36b2 c53d 48b7 963d
00000210: 6b5a 9b3d 0412 84bd fa83 513d 9ed1 edbc
00000220: 8d8a 07bc 3017 83bd b3e6 bb3d 73f2 433d
00000230: 7460 76bc 73da 993d b419 58bd 440a e0bc
00000240: 3fee 3fbc deb8 0ebd 2126 333d f1b1 673d
00000250: bd67 cebb 379e e43c e70b 6cbd 9bdf f83c
00000260: 3dc0 6fbd 2e51 a23d 30cb 52bd 87a2 aa3d
00000270: 81c3 24bd f013 b13c 770d 1a3c d09d 6dbc
00000280: 15d4 703d 2709 5c3d 031b d8ba 85be 44b9
00000290: 7211 63bd d2d7 e73c 35d8 d5bc 6b87 653d
000002a0: bf83 bbbd cdc4 823d 1f90 80bd d561 b7bd
000002b0: b8b0 213c c437 9e3d bad3 c4bc 0b79 903d
000002c0: f431 413d d269 dabc 56e2 4dbd 5bb5 23bd
000002d0: d01c 5d3d d163 c33c c6a1 0e3b c7e7 10bd
000002e0: a369 a53d f8f0 7f3d af72 b5bd b118 7ebd
000002f0: abdd 92bd 3a91 b23c 5c5d 2fbd 41cb a6bc
00000300: e9a6 91bd 08c4 93bd 5a4e 09bb 0a55 aebd
00000310: 3381 d0bc e06e bf3b 91de e13c dec0 b7bd
00000320: f498 0d3c 29f1 943d fba5 7cbd 3a5d 18bd
00000330: 1667 db3c 1fa8 a7bb 5009 2abd 7d98 413d
00000340: 3cee b1bd 412c b2bd 0da4 5a3d c7d6 073d
00000350: 787e 383c 05c2 9f3d 9297 a0bd 53ee 823d
00000360: bb4d 393c cfd9 783d 368d 233d 6271 dd3c
00000370: 0101 adbd 6b72 803b 1dd3 f4bc ba3b 59bc
00000380: f378 933d e183 8bbc b826 37bd abfb 0abd
00000390: 1781 aebc aa14 583d 48be 363c befe 113c
000003a0: 533f 56bd 1ade ae3d 16fe c1bc 699a f73c
000003b0: ab1c 99bd a460 313d f98c 043d b13c 823d
000003c0: 86b4 343d eca5 d4bd 1e32 fabc 38f5 5f3d
000003d0: 2660 0e3d 31ab acbc 0e69 3e3d 6c48 933d
000003e0: 96d9 263c 61f9 c23b c3d2 a23d 3f3c 8f3d
000003f0: 0044 07bd 79af 42bb c641 63bc 27cd 1d3d

bias f4 [128]
-0.050739963 -0.041831587 -0.027154258 -0.073354185 0.085926145 0.06903327 0.009241984 0.005296184
0.068869255 0.07547378 -0.02736837 -0.042875268 0.046930373 -0.05890167 0.04707167 -0.07499586
-0.041629296 -0.006096971 -0.05047038 0.028405705 0.0021001531 0.00806851 0.07127664 0.037478723
-0.059895087 -0.05449669 0.025160009 -0.04260925 0.07073902 0.094598375 -0.017824417 -0.08029521
-0.09480842 -0.067377254 -0.07819113 0.061069667 -0.056254108 -0.072548434 0.09154824 -0.06481601
0.06941972 -0.029730098 -0.016052037 0.038090374 0.05375255 -0.022596516 0.08945678 0.032760166
0.07426785 0.077725574 -0.05637759 0.015530693 -0.07150808 -0.06825541 0.014415465 -0.028531661
-0.055390775 0.01660408 -0.03626085 -0.07956868 0.038243502 -0.004459231 0.03927186 -0.043933146
-0.022052476 0.04886682 -0.06718794 0.004993385 0.097641 0.013600511 0.03721986 -0.07497229
0.034802694 -0.08344731 0.0818488 0.017209454 -0.06054487 0.016626174 0.09912679 -0.05236847
-0.0026974913 0.090194285 0.0037168986 0.052068654 0.06088641 -0.021741064 0.094159946 -0.025739832
0.099907145 -0.01740644 0.024139954 -0.09056901 0.037022315 -0.0021109404 -0.08577709 -0.03907415
0.07335723 -0.08685063 0.028741114 9.0629495e-05 0.010091117 -0.0013886754 0.0044549694 -0.028182581
-0.0965896 -0.020621426 0.062321957 -0.09208373 -0.044863656 -0.06479637 -0.061386254 -0.027531879
0.060892057 0.05732493 0.036159538 0.050483838 -0.10188259 -0.09051538 0.093152024 0.07627736
0.04640464 -0.085477516 -0.074900806 0.08628092 -0.066949464 -0.019759238 0.020590859 0.09919078
00000000: b5d4 4fbd 9957 2bbd 9b72 debc b83a 96bd
00000010: 0cfa af3d 5161 8d3d b16b 173c 9d8b ad3b
00000020: 530b 8d3d ff91 9a3d a233 e0bc fa9d 2fbd
00000030: 103a 403d e142 71bd 39ce 403d 6e97 99bd
00000040: 7b83 2abd 1ac9 c7bb 07ba 4ebd 15b3 e83c
00000050: b9a2 093b c931 043c 7df9 913d 4a83 193d
00000060: 8d54 75bd ec37 5fbd 5d1c ce3c 0987 2ebd
00000070: 9fdf 903d cbbc c13d 8304 92bc d171 a4bd
00000080: eb2a c2bd 16fd 89bd ac22 a0bd 3024 7a3d
00000090: b56a 66bd 4694 94bd a57d bb3d 42be 84bd
000000a0: ed2b 8e3d 898c f3bc 907f 83bc a704 1c3d
000000b0: a22b 5c3d 541c b9bc 1e35 b73d 862f 063d
000000c0: be19 983d 962e 9f3d 30ec 66bd 7374 7e3c
000000d0: d472 92bd 7ec9 8bbd d82e 6c3c 3bbb e9bc
000000e0: 70e1 62bd 4805 883c 4286 14bd e7f4 a2bd
000000f0: 38a5 1c3d be1e 92bb 88db 203d 3ef3 33bd
00000100: 65a7 b4bc 9328 483d d599 89bd 8d9f a33b
00000110: 01f8 c73d add4 5e3c da73 183d 128b 99bd
00000120: 458d 0e3d 6ce6 aabd 58a0 a73d d7fa 8c3c
00000130: e6fd 77bd 9d33 883c fd02 cb3d 5280 56bd
00000140: 65c8 30bb c8b7 b83d 3697 733b f145 553d
00000150: 0764 793d 511a b2bc eed6 c03d 57dc d2bc
00000160: 1e9c cc3d f397 8ebc 27c1 c53c 3f7c b9bd
00000170: b6a4 173d b457 0abb e6ab afbd 370c 20bd
00000180: 513c 963d bede b1bd 7c72 eb3c 5710 be38
00000190: 3655 253c 3704 b6ba fefa 913b 28df e6bc
000001a0: c5d0 c5bd 44ee a8bc 4f45 7f3d 6596 bcbd
000001b0: f4c2 37bd f6b3 84bd 2770 7bbd 898a e1bc
000001c0: f369 793d 8ccd 6a3d 061c 143d 24c8 4e3d
000001d0: d2a7 d0bd 2160 b9bd 7dc6 be3d 4e37 9c3d
000001e0: cb12 3e3d d60e afbd 9865 99bd 0db4 b03d
000001f0: cd1c 89bd 20de a1bc 29ae a83c 8924 cb3d

weight f4 [1, 128]
0.01764509 0.015719222 0.018203918 0.0006351983 -0.007271728 -0.0066844225 -0.010808833 0.0038812007
-0.018347438 -0.0024135283 0.013405175 -0.015182253 0.0020359594 0.015269634 -0.001665409 0.011195029
0.018739037 0.01122789 -0.015277791 -0.004088971 -0.0016267492 0.00148885 -0.012925506 0.012715972
-0.015605296 0.007952007 -0.018537046 0.013878694 0.00400311 -0.026160885 0.016093504 0.006813771
0.009679058 0.023800628 0.0216801 -0.008056305 0.01669983 0.014350219 -0.0018722587 -0.011317183
-0.002672782 0.01553641 -0.00035737522 -0.0023749596 -0.028279344 -0.0069842874 -0.012199469 -0.014219883
-0.018609874 -0.008509912 0.008686757 -0.013968398 -0.009181455 0.00085600605 0.0065207346 0.017500822
-0.0032266953 9.058929e-05 -0.02772289 0.025639888 -0.022341127 0.0153663 -0.008109212 0.0050853924
0.04402237 -0.007425091 0.01035673 -0.0070431703 -0.0074523985 0.019901909 -0.015564856 0.01237142
0.014295186 0.013932454 -0.008338584 0.0052471114 -0.009644827 -0.003804531 -0.019886842 -0.019505348
0.0073098764 -0.014856926 -0.020903017 -0.0035586895 -0.0065143867 0.012679151 -0.031285275 0.012411321
-0.014145176 0.003900361 0.007176434 0.023377104 -0.013275812 0.010779051 -0.00033946714 0.018652245
-0.025660263 0.0154228695 -0.023552194 0.013360327 -0.004443984 -0.002218743 0.016203327 0.021220066
0.005049389 -0.018231776 -0.017112203 0.016489822 -0.01606269 -0.0066774264 0.023503663 0.026962481
0.00795167 -0.024956375 -0.0065424703 -0.0056621176 0.025503302 0.0010017165 -0.017398873 -0.019533534
0.018807314 0.016655914 0.008943963 -0.0069129723 0.016055845 0.018020466 0.008939149 -0.005165871
00000000: 708c 903c 99c5 803c 6220 953c 7083 263a
00000010: ad47 eebb 0009 dbbb 8817 31bc be5b 7e3b
00000020: 5e4d 96bc 492c 1ebb 61a1 5b3c fcbe 78bc
00000030: bb6d 053b 7d2d 7a3c da49 daba 5b6b 373c
00000040: 9c82 993c 2ff5 373c b34f 7abc c6fc 85bb
00000050: a538 d5ba 8425 c33a 80c5 53bc a756 503c
00000060: 5bad 7fbc 2349 023c 01db 97bc 7663 633c
00000070: 852c 833b 5a4f d6bc 86d6 833c 0e46 df3b
00000080: e994 1e3c 89f9 c23c 779a b13c 98fe 03bc
00000090: 15ce 883c 2e1d 6b3c 9466 f5ba b56b 39bc
000000a0: d729 2fbb 6d8c 7e3c 175e bbb9 36a5 1bbb
000000b0: 15aa e7bc 73dc e4bb 48e0 47bc 83fa 68bc
000000c0: bc73 98bc 286d 0bbc e652 0e3c b5db 64bc
000000d0: d06d 16bc 9865 603a e3ab d53b e25d 8f3c
000000e0: f776 53bb c1fa bd38 1d1b e3bc be0a d23c
000000f0: bd04 b7bc efc2 7b3c 80dc 04bc 5da3 a63b
00000100: cd50 343d 2e4e f3bb 46af 293c 65ca e6bb
00000110: 4033 f4bb 5409 a33c bd03 7fbc 7fb1 4a3c
00000120: 5b36 6a3c f344 643c 8e9e 08bc f6ef ab3b
00000130: 5605 1ebc 7055 79bb bbe9 a2bc aec9 9fbc
00000140: b087 ef3b 776a 73bc ce3c abbc e738 69bb
00000150: a376 d5bb 37bc 4f3c fd24 00bd da58 4b3c
00000160: 2bc1 67bc 339d 7f3b 4b28 eb3b 5781 bf3c
00000170: cb82 59bc 9e9a 303c 82fa b1b9 98cc 983c
00000180: 7935 d2bc 34b0 7c3c 88f0 c0bc 46e5 5a3c
00000190: d79e 91bb 5568 11bb d7bc 843c b4d5 ad3c
000001a0: 5875 a53b ce5a 95bc e42e 8cbc aa15 873c
000001b0: e795 83bc 50ce dabb c18a c03c 6ce0 dc3c
000001c0: b947 023c 5071 ccbc 3862 d6bb 4989 b9bb
000001d0: 4dec d03c 074c 833a 1588 8ebc ca04 a0bc
000001e0: cc11 9a3c fc71 883c b389 123c 3786 e2bb
000001f0: 8c87 833c a89f 933c 8275 123c 7846 a9bb

weight f4 [3, 128]
-0.011766528 0.007770664 0.0024417413 0.006163293 -0.009654886 0.0016586132 0.012828424 -0.0013060264
0.006295377 0.008982933 0.005735583 0.023509013 0.009362396 -0.0011364813 -0.0074107973 -0.0056297714
0.0024058118 -0.0035993531 -0.0022259164 -0.0022352394 0.01289354 0.005141072 0.01468206 -0.013273244
-0.014037862 0.006095371 0.007976594 0.0049196864 -0.008191641 -0.0123401 -0.0041830684 -0.002473908
0.006109357 -0.008103991 0.018027076 0.015688512 -0.0013659081 0.0028525735 0.0014611298 -0.014989169
-0.004123867 -0.00010797263 0.006199676 0.0019001791 -0.0054392144 0.02312338 0.013834036 -0.0055232323
0.0018183277 -0.004813896 -0.004359425 0.01650414 0.011327876 0.0065020393 0.0068725566 0.010602848
9.306171e-05 -0.0032224886 -0.012801103 -0.0024819884 0.00044324718 -0.011899089 -0.011046287 -0.001467558
-0.004371498 -0.006986585 -0.0032586136 0.013039768 -0.0017215544 -0.0012642245 -0.00035559587 -0.01029013
0.0020940513 0.0003888482 -0.012837698 0.014910285 -0.0010036989 0.0004891641 0.0028219975 -0.006124598
0.0029893725 -0.00088976655 0.010457317 0.0025807163 0.019168248 -0.007420115 0.008939578 -0.010666556
0.007377215 -0.01470295 0.004490554 0.008000806 -0.002917826 -0.013522827 0.013282438 -0.00721567
-0.011770783 0.008298276 -0.004565028 -0.004854706 -0.0073005706 0.0034524521 0.012925982 0.009022305
0.008583407 0.011993547 -0.008875935 0.007097309 -0.0018993545 0.0031849234 -0.008344504 0.0036466767
0.0031021135 0.0038239877 -0.0006699274 0.0017867651 0.004270608 0.005886189 -0.00053977326 -0.00628571
0.0054045073 -0.0006699597 -0.00062765804 -0.004318803 -0.0145613365 -0.012247916 0.0034701312 -0.0029107837
0.002714194 -0.003171318 -0.0046284576 0.013878423 0.009613608 -0.007953504 0.012902483 -0.003616776
-0.0041319733 0.0091733895 -0.0009121055 0.017636018 0.0022735598 -0.022132033 0.010343247 0.01571355
0.0026255865 -0.00368457 0.014893009 -0.00575976 -0.0055370377 0.014460778 0.00638263 -0.00073274266
-0.0006211107 -0.0040815147 0.0073799966 -0.007756348 0.011672383 -0.001709693 0.01419196 -0.0020244636
-0.006436164 -0.0016225819 0.0126896305 -0.0064864093 -0.0047556045 0.003909102 0.00013403958 -0.0069281515
0.006150869 0.012930044 0.0008700092 -0.010772997 0.0043910025 -0.009699388 -0.005571679 -0.0038513076
-0.015104728 0.007911882 -0.0027922613 -0.0026174716 0.0043856488 0.012010016 0.0066158865 0.008190012
-0.009859156 0.0003483021 -0.0009465075 0.003000984 0.0029025662 0.005734314 -0.003680787 -0.010961477
0.015148181 0.012885716 0.0043184436 -0.008641822 -0.0024066132 0.007562469 -0.00875059 0.00048015272
-0.004060478 -0.018185394 0.011930185 0.00019162538 0.0038707484 -5.384204e-05 -0.0039861915 -0.014506504
0.012537535 0.0006816418 -0.009853438 0.0041302866 0.013831224 0.0019193614 0.008138603 0.00034909227
0.0017926526 -0.019267833 0.008676843 -0.005773485 0.0044535324 0.0061033946 0.0040223612 0.009656078
-0.0086312005 0.010595735 0.0028515516 -0.01103108 0.00093191763 0.0046564033 -0.012370093 0.007422103
0.003326474 -0.0011891465 0.0022575604 0.0015417731 -0.0017573129 0.013113377 0.019400688 0.0048945355
0.008929686 0.007934355 0.0022238418 0.013190074 -0.0009647659 -0.0002764272 -0.01194255 0.008928553
0.0052409633 -0.013018954 -0.00047719193 -0.005469823 0.00014237713 -0.0063232156 -0.01776817 0.001438298
00000000: 65c8 40bc 0ea1 fe3b 9f05 203b 73f5 c93b
00000010: 872f 1ebc d365 d93a 4f2e 523c f92e abba
00000020: 7349 ce3b 272d 133c 8ff1 bb3b f995 c03c
00000030: bc64 193c fcf5 94ba 46d6 f2bb f279 b8bb
00000040: d3aa 1d3b 20e3 6bbb aee0 11bb 187d 12bb
00000050: 6d3f 533c 7076 a83b 068d 703c 0578 59bc
00000060: 10ff 65bc aebb c73b 43b0 023c 5235 a13b
00000070: 3c36 06bc 212e 4abc 1f12 89bb 4a21 22bb
00000080: 0031 c83b 9ac6 04bc 85ad 933c 3285 803c
00000090: 4508 b3ba 3ef2 3a3b 6183 bf3a 2295 75bc
000000a0: 8121 87bb 5d6f e2b8 a726 cb3b 6e0f f93a
000000b0: 703b b2bb 3e6d bd3c 27a8 623c 3bfc b4bb
000000c0: f454 ee3a e3bd 9dbb 82d9 8ebb b133 873c
000000d0: 8e98 393c 0f0f d53b 2f33 e13b 91b7 2d3c
000000e0: 202a c338 6330 53bb b8bb 51bc dba8 22bb
000000f0: a163 e839 66f4 42bc 7cfb 34bc 135b c0ba
00000100: c83e 8fbb b9ef e4bb 778e 55bb c0a4 553c
00000110: c8a5 e1ba 56b4 a5ba 456f bab9 ef97 28bc
00000120: 5a3c 093b 52de cb39 3555 52bc 454a 743c
00000130: 8c8e 83ba 3f3b 003a 43f1 383b dab0 c8bb
00000140: 59e9 433b 393f 69ba 2b55 2b3c 3c21 293b
00000150: bb06 9d3c 7024 f3bb 4f77 123c c7c2 2ebc
00000160: 91bc f13b a4e4 70bc 7f25 933b d015 033c
00000170: ff38 3fbb d98e 5dbc 959e 593c 6d71 ecbb
00000180: 3eda 40bc 7ef5 073c 3b96 95bb 3a14 9fbb
00000190: a039 efbb 8942 623b 7fc7 533c 4ad2 133c
000001a0: 6ba1 0c3c 9580 443c 5f6c 11bc 8b90 e83b
000001b0: c3f3 f8ba 26ba 503b 63b7 08bc 15fd 6e3b
000001c0: d44c 4b3b de9b 7a3b 119e 2fba e331 ea3a
000001d0: 75f0 8b3b efe0 c03b 927f 0dba 5bf8 cdbb
000001e0: 4b18 b13b 3ca0 2fba 6b89 24ba bf84 8dbb
000001f0: ac92 6ebc 7cab 48bc 246b 633b d9c2 3ebb
00000200: 9ee0 313b e3d5 4fbb 51aa 97bb 5362 633c
00000210: 6582 1d3c 6a4f 02bc f064 533c 6f07 6dbb
00000220: 8165 87bb fc4b 163c 5d1a 6fba 6979 903c
00000230: 0100 153b 3d4e b5bc b976 293c b4b9 803c
00000240: 0812 2c3b d478 71bb cf01 743c 5ebc bcbb
00000250: 0a70 b5bb e6ec 6c3c 6225 d13b 8715 40ba
00000260: 09d2 22ba 3abe 85bb e6d3 f13b f628 febb
00000270: 863d 3f3c c717 e0ba 6585 683c ddac 04bb
00000280: 75e6 d2bb d0ac d4ba 2be8 4f3c f28b d4bb
00000290: e7d4 9bbb ed17 803b fa8c 0c39 8c05 e3bb
000002a0: 3b8d c93b 89d8 533c 5411 643a 3981 30bc
000002b0: 66e2 8f3b 2fea 1ebc a292 b6bb 3866 7cbb
000002c0: d279 77bc d7a0 013c 5ffe 36bb e389 2bbb
000002d0: 7db5 8f3b a8c5 443c 14ca d83b 662f 063c
000002e0: 4c88 21bc 519c b639 0b1f 78ba 28ac 443b
000002f0: fb38 3e3b eae6 bb3b 5c39 71bb c497 33bc
00000300: 1330 783c 9c1e 533c bb81 8d3b 6e96 0dbc
00000310: 45b8 1dbb 97ce f73b a25e 0fbc 02bd fb39
00000320: c20d 85bb 89f9 94bc d376 433c 0cef 4839
00000330: 62ac 7d3b 73d4 61b8 999e 82bb b0ac 6dbc
00000340: 3c6a 4d3c 35b0 323a 5070 21bc 5b57 873b
00000350: 5c9c 623c 1593 fb3a c657 053c 5f06 b739
00000360: 71f7 ea3a 93d7 9dbc 5129 0e3c 812f bdbb
00000370: f0ee 913b fcfe c73b 03ce 833b 8734 1e3c
00000380: e169 0dbc bc99 2d3c 19e1 3a3b b4bb 34bc
00000390: ef4b 743a be94 983b eeab 4abc 1d35 f33b
000003a0: f900 5a3b 23dd 9bba 94f3 133b 5215 ca3a
000003b0: a355 e6ba 7dd9 563c 31ee 9e3c 5762 a03b
000003c0: d14d 123c 19ff 013c e0bd 113b 2e1b 583c
000003d0: 58e8 7cba 6eed 90b9 afaa 43bc 1149 123c
000003e0: 63bc ab3b 734d 55bc 9e2f fab9 333c b3bb
000003f0: 124b 1539 fa32 cfbb 8e8e 91bc 4685 bc3a

bias f4 [3]
0.0010555532 0.0029842749 -0.002735075
00000000: 7d5a 8a3a d393 433b f23e 33bb

weight f4 [1, 128]
0.012572942 0.024194611 0.0149977375 0.015908582 -0.012815325 -0.023074534 -0.0055093737 0.01803742
-0.027318764 0.005272335 0.013275434 -0.02170945 0.024972826 0.012055538 0.0058507477 0.010319709
0.010253675 0.004957029 -0.014008772 0.012281917 -0.015075869 0.016926125 -0.01448507 0.017285824
-0.0019458741 0.008398248 -0.016303176 0.022470627 -0.0025675094 -0.013115059 0.013385391 0.02023907
0.0075319805 0.032525025 -0.0028067618 0.0053149476 0.02742778 0.013485065 -0.01976318 -0.020414751
0.002895565 0.0077113574 0.0037658135 0.011533108 -0.02377553 -0.013545979 -0.00982961 -0.013741306
-0.011958589 -0.01615682 0.0055144485 -0.0099954475 -0.017816836 0.014311338 0.018817812 0.008363829
0.0041215355 -0.01318314 -0.00718366 0.012210586 -0.022070242 -0.013788509 -0.00949558 0.012582564
0.011383942 -0.019440357 0.013265842 0.0023909337 -0.009467623 0.019107142 -0.02347216 0.0075829686
0.004619545 0.0013164734 -0.016843576 0.018802656 0.015529367 -0.0110964915 -0.0070229075 0.00650491
0.01330663 -0.0067548393 0.0027568056 -0.0030743734 -0.014756933 -0.0014437236 -0.013962613 0.014289472
-0.018796796 0.009483631 -0.0014066638 0.028774014 -0.003356262 0.005412765 0.010760425 0.00891563
-0.019707507 0.0040809102 -0.023821821 0.015331297 -0.019750834 -0.012886524 0.0076746126 0.02599116
0.023186408 0.012280722 -0.022598924 0.008811328 -0.002644596 -0.0114305485 0.024482382 0.009539817
0.005621462 -0.0008555187 -0.010865358 -0.017791344 0.013592469 0.015167343 -0.006752579 -0.01570013
0.02741336 -0.00028538547 0.020259311 -0.011523009 0.0068809655 0.015624116 0.015722916 -0.017929558
00000000: befe 4d3c c733 c63c 12b9 753c b752 823c
00000010: 5ef7 51bc ce06 bdbc fa87 b4bb 36c3 933c
00000020: 9acb dfbc 8dc3 ac3b 3581 593c 04d8 b1bc
00000030: d093 cc3c 9784 453c a1b7 bf3b ff13 293c
00000040: 08ff 273c 936e a23b 0c85 65bc 183a 493c
00000050: c700 77bc a8a8 8a3c c952 6dbc 009b 8d3c
00000060: b30c ffba ce98 093c 3d8e 85bc 5214 b83c
00000070: a943 28bb 8be0 56bc 664e 5b3c 68cc a53c
00000080: d5ce f63b f638 053d a6f1 37bb 0329 ae3b
00000090: 39b0 e03c 76f0 5c3c 64e6 a1bc d63c a7bc
000000a0: 85c3 3d3b 8eaf fc3b decb 763b 5cf5 3c3c
000000b0: e6c4 c2bc f4ef 5dbc 5f0c 21bc 3723 61bc
000000c0: f5ed 43bc 4f5b 84bc 8cb2 b43b f2c3 23bc
000000d0: 9df4 91bc 1a7a 6a3c d027 9a3c 7108 093c
000000e0: f20d 873b 19fe 57bc e864 ebbb e90e 483c
000000f0: a7cc b4bc 33e9 61bc 5993 1bbc 1927 4e3c
00000100: b783 3a3c 6241 9fbc f958 593c 36b1 1c3b
00000110: 171e 1bbc 9586 9c3c b048 c0bc 8d7a f83b
00000120: 8d5f 973b 848d ac3a 8afb 89bc 0708 9a3c
00000130: e36e 7e3c 0fce 35bc 6b20 e6bb 2427 d53b
00000140: 0d04 5a3c b357 ddbb 86ab 343b 6d7b 49bb
00000150: 10c7 71bc 533b bdba 72c3 64bc 641e 6a3c
00000160: bdfb 99bc 3b61 1b3c ce5f b8ba 7bb7 eb3c
00000170: bcf4 5bbb 905d b13b 7e4c 303c dd12 123c
00000180: a371 a1bc 28b9 853b fb25 c3bc 1f30 7b3c
00000190: 80cc a1bc 0022 53bc 517b fb3b 6aeb d43c
000001a0: 6cf1 bd3c 1535 493c 6121 b9bc 635d 103c
000001b0: f550 2dbb 3247 3bbc 478f c83c e54c 1c3c
000001c0: 3e34 b83b e344 60ba 9d04 32bc 27bf 91bc
000001d0: f2b2 5e3c 7380 783c bd44 ddbb 8f9d 80bc
000001e0: fc91 e03c ca9f 95b9 dbf6 a53c 01cb 3cbc
000001f0: b979 e13b 4bfc 7f3c 58cd 803c 02e1 92bc

weight f4 [3, 128]
0.00843909 -0.0007605413 -0.011652914 -0.0019039378 0.0020679678 -0.013939726 0.0082564885 0.0009960504
0.00012572593 -0.0064185634 0.0016818142 -0.009827285 0.0060701836 0.00044900822 0.0002966032 -0.010520491
-0.01042255 -0.0051550725 -0.0024261726 -0.005655582 0.008252053 -0.00050032645 0.004117696 0.009291662
0.002687333 0.008493274 -0.005125427 -0.0037168618 0.00062577904 0.0052349693 -0.02330635 -0.0006314126
-0.011138088 -0.009870594 -0.008518367 0.0011423943 0.017573169 0.011486611 0.004136987 0.00278976
0.0058393865 0.007900088 -0.00307003 -0.017158402 0.005124268 -0.008365627 0.00048567925 -0.018888524
0.010030851 -0.0034396497 -0.0015584499 0.009908904 -0.0033585874 -0.010058047 -0.005004379 0.0027606438
0.00031156285 0.0040804287 -0.010456876 0.005133471 -0.009944077 0.0056450437 -0.009614503 3.2094016e-05
-0.004032068 0.004768395 0.0023047517 -0.005110518 0.002350788 0.021052102 -0.0023320962 -0.017756257
-0.01694234 -0.005552066 0.010060659 0.00055450236 0.011612572 -0.015635705 -0.0065635242 0.01461941
0.0075067254 0.00059963897 -0.011581312 0.007744825 0.0018008283 -0.0074534095 0.01099013 -0.007910128
0.010155208 -0.011764758 0.008768056 -0.0046075005 0.0038553276 -0.0041900477 -0.0011019049 -0.00021608667
0.000560129 0.009615771 -0.013678053 0.0122894645 -0.0004989271 -0.0005743027 -0.0050173244 0.0042142253
0.013805108 -0.011650871 0.005290835 0.0071584913 -0.012181963 -0.00645248 -0.002317446 -0.014190424
0.0016027727 0.007586449 -0.004235563 -0.0086314 6.725573e-05 0.015962923 0.0016782309 -0.014430916
-0.0008436847 -0.0025721213 0.0049182614 -0.0037760483 -0.008600957 0.0015341453 0.011009574 0.00476716
-0.0028964235 0.006444579 -0.0021806671 3.4566176e-05 -0.0024283312 -0.0095929215 -0.002637667 -0.008618908
0.0036223559 -0.0020342527 -0.0057365145 -0.0067056753 0.0037228805 -0.014735213 -0.00069525896 -0.009561957
0.0019510323 0.011860125 -0.0068541695 0.011325258 0.008476453 -0.010629931 0.0077750594 0.00072571135
0.012634528 -0.0152108995 0.003687812 -0.004747992 -0.0018616089 -0.006205705 0.0027990197 0.0034417436
-0.014072747 0.001802314 0.010009166 0.006530748 -0.0008690013 0.004430905 -0.00044141605 0.0009768757
0.011664519 0.008373677 -0.008936914 0.01643786 0.012541193 -0.009781304 0.006202631 -0.012433535
0.025044419 0.0075736707 0.017242076 0.00864281 -0.012811654 0.00248827 0.0042678546 0.0013505698
-0.0040113637 0.006108573 0.006725393 0.0076994225 -0.0036066277 0.0077945846 -0.0038551318 -0.00031538113
-0.011424278 -0.008662409 0.0067376057 -0.013073683 0.01353301 0.0017077943 -0.00922855 0.003588146
0.0017924834 -0.014191471 -0.006841965 -0.012273648 -0.003945685 -0.0071261567 -0.0029025003 -0.004076849
0.002049926 0.00026957 0.0024780454 0.0051590484 0.013851252 0.01063898 0.0113554625 -0.012042257
0.00071536424 -0.0025776415 -0.005363777 0.0022275874 0.0050723753 -0.009106756 0.01983974 0.0061761597
-0.0039243284 -0.010018288 -0.0052681267 -0.0073924665 0.0042591873 0.001960764 0.0021401134 0.015301973
-0.006075237 -0.005438981 0.0042648856 -0.011442601 0.009152776 0.0031302762 0.0050157746 0.014591486
-0.0006296463 -0.00351784 0.0018893124 -0.008077841 -0.0080529 -0.012039454 -0.019777006 0.00775613
-0.0033497016 0.0042550373 -0.01699822 0.003914892 0.007886801 0.00036815647 0.010918418 0.007611381
00000000: 1c44 0a3c 105f 47ba ddeb 3ebc 8d8d f9ba
00000010: be86 073b 7363 64bc 3946 073c e88d 823a
00000020: 4cd5 0339 d052 d2bb 5270 dc3a 9f02 21bc
00000030: 64e8 c63b dd68 eb39 6881 9b39 235e 2cbc
00000040: 58c3 2abc e2eb a8bb 6c00 1fbb 7652 b9bb
00000050: 9e33 073c 5728 03ba bded 863b 0e3c 183c
00000060: f71d 303b 6027 0b3c 33f3 a7bb 9896 73bb
00000070: 520b 243a 1b8a ab3b f5ec bebc 6285 25ba
00000080: 877c 36bc 46b8 21bc 9f90 0bbc 64bc 953a
00000090: 9bf5 8f3c 5732 3c3c 908f 873b 68d4 363b
000000a0: 5358 bf3b 5f6f 013c 8e32 49bb c78f 8cbc
000000b0: 7ae9 a73b fc0f 09bc c4a2 fe39 1bbc 9abc
000000c0: 7058 243c bf6b 61bb e744 ccba f558 223c
000000d0: bf1b 5cbb 82ca 24bc c6fb a3bb ebeb 343b
000000e0: 4259 a339 1eb5 853b 5153 2bbc ad36 a83b
000000f0: 7bec 22bc 0ffa b83b 2686 1dbc b09c 0638
00000100: 701f 84bb 3240 9c3b 510b 173b 2276 a7bb
00000110: ae0f 1a3b 7575 ac3c 15d6 18bb 9275 91bc
00000120: aaca 8abc 1bee b5bb 76d5 243c 065c 113a
00000130: a842 3e3c 7316 80bc d512 d7bb 4086 6f3c
00000140: fafa f53b 1731 1d3a 8bbf 3dbc 4dc8 fd3b
00000150: c509 ec3a bb3b f4bb f20f 343c 7b99 01bc
00000160: 0862 263c f9c0 40bc e4a7 0f3c 84fa 96bb
00000170: aaa9 7c3b ab4c 89bb cb6d 90ba 5395 62b9
00000180: 9fd5 123a 778b 1d3c ea19 60bc c059 493c
00000190: 6eca 02ba cd8c 16ba 5e68 a4bb 7c17 8a3b
000001a0: d22e 623c 4be3 3ebc be5e ad3b c791 ea3b
000001b0: db96 47bc 536f d3bb 4be0 17bb f47e 68bc
000001c0: 2114 d23a bf97 f83b 7aca 8abb b76a 0dbc
000001d0: a50b 8d38 adc4 823c 16f8 db3a a66f 6cbc
000001e0: b92a 5dba 0991 28bb 5e29 a13b 9477 77bb
000001f0: 07eb 0cbc 6015 c93a 8061 343c d635 9c3b
00000200: ecd1 3dbb 0c2d d33b 86e9 0ebb 26fb 1038
00000210: a324 1fbb a12b 1dbc b6dc 2cbb 5236 0dbc
00000220: 0c65 6d3b 1951 05bb 5ff9 bbbb 48bb dbbb
00000230: 92fb 733b f66b 71bc 0a42 36ba c1a9 1cbc
00000240: c8b9 ff3a f850 423c f198 e0bb 938d 393c
00000250: d2e0 0a3c 2a29 2ebc edc5 fe3b aa3d 3e3a
00000260: 0d01 4f3c 2337 79bc 38af 713b 0b95 9bbb
00000270: 3b01 f4ba 3a59 cbbb c26f 373b e08e 613b
00000280: 6191 66bc 9f3b ec3a 7cfd 233c e3ff d53b
00000290: b1cd 63ba 2031 913b dc6d e7b9 820a 803a
000002a0: 8a1c 3f3c bf31 093c 226c 12bc b1a8 863c
000002b0: 9379 4d3c c341 20bc 713f cb3b 07b6 4bbc
000002c0: f429 cd3c 8e2c f83b 413f 8d3c 939a 0d3c
000002d0: f9e7 51bc 3e12 233b 5cd9 8b3b 9a05 b13a
000002e0: c271 83bb 6d2a c83b af60 dc3b 704b fc3b
000002f0: 2c5d 6cbb b769 ff3b 61a6 7cbb bd59 a5b9
00000300: e52c 3bbc c7ec 0dbc 22c7 dc3b 0033 56bc
00000310: 8fb9 5d3c 11d8 df3a 5833 17bc 1a27 6b3b
00000320: c3f1 ea3a 5883 68bc 9032 e0bb 6917 49bc
00000330: ce4a 81bb 8982 e9bb e037 3ebb 1797 85bb
00000340: 0d58 063b 1355 8d39 b466 223b 3c0d a93b
00000350: 5df0 623c 1e4f 2e3c 430c 3a3c e34c 45bc
00000360: 4887 3b3a a6ed 28bb 9fc2 afbb b7fc 113b
00000370: 2b36 a63b 8134 15bc f386 a23c 6261 ca3b
00000380: a797 80bb bf23 24bc 40a0 acbb 813c f2bb
00000390: a790 8b3b 2980 003b 2541 0c3b 20b5 7a3c
000003a0: c812 c7bb 7b39 b2bb 74c0 8b3b bf79 3bbc
000003b0: 86f5 153c 5225 4d3b 5e5b a43b 2111 6f3c
000003c0: d90e 25ba 908b 66bb cea2 f73a ec58 04bc
000003d0: 50f0 03bc 2141 45bc 6303 a2bc 2227 fe3b
000003e0: ab86 5bbb d76d 8b3b da3f 8bbc 7f48 803b
000003f0: a437 013c 2005 c139 2ae3 323c e468 f93b

bias f4 [3]
0.0014016739 0.0013857126 -0.001743612
00000000: 5fb8 b73a cda0 b53a e989 e4ba
