TradeSimulator-v0_D3QN_-1/actor_00113760_344.238.pth (torch, 152106 bytes, 14 tensors)

state_avg f4 [10]
000000 4a a5 af 3d dc 7b 99 39 11 46 19 bb 68 79 a0 3d
       0.08576448 0.00029274717 -0.002338771 0.078356564
000010 f8 64 93 3a d3 04 5e bb fd c0 de bc c9 3c d5 3d
       0.0011245301 -0.0033877387 -0.027191633 0.104119845
000020 0c 11 d3 3a 70 d2 db bb
       0.0016103103 -0.0067084357

state_std f4 [10]
000000 5a 15 71 3f 41 4f 63 3f 78 08 73 3f 52 44 78 3f
       0.94173205 0.88792807 0.949348 0.9697925
000010 b6 ac 6d 3f c9 e5 69 3f 14 72 7f 3f 6f d8 6e 3f
       0.9284166 0.9136625 0.99783444 0.93299
000020 c5 ad 6c 3f dd 1f 6a 3f
       0.9245265 0.9145487

weight f4 [128, 10]
000000 a0 fa 27 3e b0 5b 89 bd 44 53 85 bd cf 2d 25 3e
       0.164042 -0.06706941 -0.06510022 0.16130756
000010 27 b9 91 be fe c5 4a 3e d7 c2 9c bd 4c 27 30 3e
       -0.28461573 0.1980209 -0.0765435 0.1720249
000020 fe 7f 37 3d 5c 6b 4a bd a5 96 c4 3d ce 62 2a 3e
       0.044799797 -0.049418792 0.09599046 0.16639253
000030 86 fb 04 3e ba 88 e1 bd 30 15 0a bd 20 a6 18 bd
       0.12986574 -0.11012407 -0.033711612 -0.037267804
000040 35 05 23 3d f0 1f 6b b9 09 50 8f 3e cc a1 e6 3d
       0.039799888 -0.00022423244 0.2799075 0.11261329
000050 59 20 ee bd 2e 4d a6 be f3 98 6f bd de f4 12 be
       -0.116272636 -0.32480758 -0.058495473 -0.14351222
000060 68 14 d1 bd 5b df 5e 3b e9 91 47 3e 96 c0 32 3e
       -0.1020897 0.0034007642 0.19489254 0.17456278
000070 5b 22 93 be a2 d0 44 3e fe f5 b9 3d 46 5d 40 3e
       -0.2873715 0.19220212 0.090801224 0.18785581
000080 e4 e6 56 3e 54 d1 97 be 43 37 8f be d2 a4 20 be
       0.20986515 -0.29651892 -0.2797185 -0.15687874
000090 a8 d6 93 3e 63 9c 36 bd ef a4 0f 3e 19 d5 0e be
       0.28874707 -0.044582736 0.14027761 -0.13948478
0000a0 81 32 9b 3e 96 e4 96 be 30 d3 64 3e a3 98 a8 3c
       0.3031197 -0.29471272 0.22346187 0.020580595
0000b0 38 2b 27 be e3 d1 2f 3e 33 ac 3a be 32 82 df 3d
       -0.1632508 0.17169909 -0.18229751 0.10913505
0000c0 6d fb b9 bd 40 a6 13 bd 7c 41 a4 be 66 6d fd bd
       -0.09081159 -0.03604722 -0.3208121 -0.12374382
0000d0 7d 96 28 3e bd 27 9f bd a1 1c a3 3e 5b f6 81 3e
       0.16463657 -0.07771251 0.3185778 0.25383267
0000e0 4b 9e 5d bc 84 95 41 be e2 d2 43 3e 47 9e c5 3d
       -0.0135265095 -0.18904692 0.19123414 0.0964933
0000f0 d2 85 4d be a0 f9 ec 3c 52 9d 42 3e 5e 71 93 3e
       -0.2007058 0.028927624 0.19005325 0.2879743
000100 98 c5 32 be ec 22 50 bd 13 18 1b bc 1d 84 20 3d
       -0.17458189 -0.050814554 -0.009466189 0.039188493
000110 c5 cc 79 be aa 13 5f be 9f 01 2f 3e 04 5b 43 be
       -0.2439452 -0.21784845 0.17090462 -0.19077688
000120 7d cb 15 3e b6 e3 ae 3c 2b 08 e0 3d 95 1e 83 3d
       0.14628406 0.021348815 0.10939058 0.064023174
000130 17 fa d4 3d 00 7c 2a 3e 9b b6 8b be 2f ed 1a 3e
       0.10399263 0.16648865 -0.27287754 0.15129541
000140 e8 f2 70 be 4c 26 4b be 81 b3 9a 3c cc 51 61 bd
       -0.23530161 -0.19838828 0.018884422 -0.05500965
000150 cb 03 3e 3e 41 bf 49 be eb 1f 8b be 57 31 73 3e
       0.18556134 -0.19701864 -0.2717279 0.2374929
000160 79 46 78 bd 05 26 3c 3e 4a 8d c1 3d 50 5a ca be
       -0.060614083 0.18373878 0.09450777 -0.39522028
000170 8e f1 71 3d 7a 49 a5 3d 00 11 5a be ac 2e 13 be
       0.059068255 0.08070655 -0.21295547 -0.14373273
000180 b8 55 d8 3d dd a4 83 3d 7a 50 0b be 3c 74 cc bd
       0.105632246 0.064279296 -0.13604918 -0.099831074
000190 f6 34 94 3e 0f 0c 4d be 55 f5 34 3e b0 25 09 3e
       0.28946656 -0.20024131 0.17671712 0.13393283
0001a0 29 a4 40 be f7 80 88 be 00 7e 9b 3e 29 aa 95 3c
       -0.18812622 -0.26660892 0.30369568 0.018269615
0001b0 c5 0a 60 3e d9 17 5e 3d 14 38 cd 3d 67 1c 0c 3e
       0.21879108 0.05422196 0.10020462 0.1368271
0001c0 5f 60 96 3e 11 5e 55 be dc c0 4a 3d ed 09 6b 3e
       0.293704 -0.20836665 0.04950033 0.22953005
0001d0 41 e6 6f 3e 0b ec 50 3e f7 94 4d be f3 ba 5b be
       0.23427679 0.20402543 -0.20076357 -0.21458034
0001e0 c8 54 3a be f4 74 d7 bd 50 5b 9c 3e 9a 3a 54 be
       -0.18196404 -0.10520354 0.30538416 -0.2072548
0001f0 cd d6 2c 3e 9b 99 20 be 0f c9 99 be 89 f9 87 bd
       0.16878815 -0.15683596 -0.30036208 -0.06639392
000200 23 a3 38 3e 70 9e 94 3e 83 31 42 be e7 5a 38 3d
       0.18030982 0.29027128 -0.189642 0.045008566
000210 f8 d1 8d 3e 3f 0b 5b 3e 4b ff 3a 3e cc 34 6f 3e
       0.27699256 0.21391009 0.18261449 0.23359984
000220 5a ea 4b 3e cb ff d1 3d e0 10 4f be 83 3b 89 be
       0.19913617 0.10253867 -0.20221281 -0.26803216
000230 c8 14 1b be 6f fe 97 bc ef 91 48 be 5f 03 eb 3d
       -0.15144646 -0.01855394 -0.19586919 0.11475252
000240 b4 f2 b6 3d 2b a8 6b bd 3d b1 e5 3d 45 95 ca 3d
       0.08933011 -0.057533424 0.11215446 0.09891752
000250 65 60 3e 3e 06 38 4c 3e 8a e4 d5 bd c1 b9 0b 3e
       0.18591459 0.19943246 -0.10443981 0.13645078
000260 f0 01 2f bd 7e 4f de bb b9 5a 91 be e4 b3 44 be
       -0.042726457 -0.0067843786 -0.28389528 -0.19209248
000270 3d 80 45 be 9d f9 0d be 58 9e 63 3e f4 fa e2 bd
       -0.192872 -0.13864751 0.22228372 -0.11083022
000280 46 cd 7b be bb 67 13 3e 60 d5 d6 3d ee 18 54 3e
       -0.24590024 0.14395039 0.10489917 0.20712635
000290 20 42 31 be e1 92 82 3d c2 16 e0 bd dc 0f 84 bd
       -0.17310381 0.06375671 -0.10941841 -0.064483374
0002a0 30 f2 80 be 1c 27 0b be 83 c3 c1 bd 0a 5c 87 3c
       -0.25184774 -0.13589138 -0.09461119 0.01652338
0002b0 37 9a 7f 3d 77 3a ab 3d fa 82 9c 3e 80 34 96 3e
       0.06240293 0.08360761 0.30568677 0.2933693
0002c0 93 dc 6f 3e 83 62 45 3c e1 74 54 be d8 50 75 3e
       0.23423986 0.012047413 -0.20747711 0.2395662
0002d0 bf 07 97 bd d7 cc 3f be 3e f2 88 be ff bf 67 bd
       -0.07374524 -0.18730484 -0.26747316 -0.056579586
0002e0 5c 22 45 be 22 8e 86 3e 34 9e 95 be ed 6d 79 be
       -0.19251388 0.26280314 -0.29222262 -0.2435834
0002f0 b2 d9 06 bc 4c 13 32 be 91 d4 e1 3d b9 42 46 be
       -0.008230614 -0.17390174 0.11026872 -0.1936139
000300 49 ef 16 be 8d e4 a3 3c dd a0 66 3e fd 52 63 be
       -0.14739718 0.020006442 0.22522302 -0.22199626
000310 a8 4b 1b 3e 22 36 56 3e bb a6 9d 3e cc 6f 69 be
       0.1516558 0.20919088 0.30791268 -0.22796553
000320 df 49 ba 3d 83 33 cc bd 7b 03 90 3e 42 bc d8 bd
       0.09096121 -0.099707626 0.28127655 -0.10582782
000330 6a 01 4a 3e 73 d8 83 bc e2 97 c0 bc 76 39 c5 39
       0.19727102 -0.016094422 -0.023509923 0.0003761758
000340 a8 63 3b 3d 21 68 1b 3e 85 b4 39 3d 65 67 d5 bc
       0.045749336 0.15176441 0.045338172 -0.026050279
000350 ae d5 86 be 07 12 77 3e 9b 04 84 3e 0b 1a 6d 3e
       -0.263349 0.2412797 0.25784764 0.23154466
000360 8e a3 80 3e f0 b4 6d be 9e 64 d6 bd 50 b5 8d 3e
       0.25124782 -0.23213553 -0.1046841 0.27677393
000370 53 7e 6f be b2 d6 16 3e bc a4 81 be 35 dc 66 be
       -0.23388033 0.14730337 -0.25320995 -0.2254494
000380 d9 d8 15 3e dd 81 57 be b8 18 a7 bd d6 90 77 3e
       0.14633502 -0.21045633 -0.081590116 0.24176344
000390 bf 92 82 3e 40 22 93 3e 9e 80 76 bd bc 07 db be
       0.25502583 0.28737068 -0.060181253 -0.42779338
0003a0 be aa 99 3e fb 20 87 bd 24 8f fd bd b4 51 ad 3d
       0.30013078 -0.065980874 -0.123808175 0.08462849
0003b0 9e 6d 6d be 69 31 60 3e 77 d2 48 3e 1e 21 84 be
       -0.23186347 0.21893848 0.19611536 -0.25806516
0003c0 e8 13 85 be f9 16 cb bd fc 83 fe 3d 5a ff f6 3b
       -0.2599175 -0.09916491 0.12427518 0.0075377645
0003d0 b9 51 1a be 12 70 30 3c 70 53 a0 be b0 13 61 be
       -0.15070237 0.010768907 -0.31313658 -0.21980166
0003e0 bd 80 57 be ff 2b 6f 3e da 80 8d 3e 0b 61 27 be
       -0.21045204 0.23356627 0.27637368 -0.16345613
0003f0 58 6e fc 3b 96 02 1d 3e a7 59 36 3d 1b a6 26 be
       0.0077035837 0.15333018 0.044519093 -0.16274302

bias f4 [128]
000000 e5 61 81 3c 14 35 6c bb 84 9c 6c 3d b3 19 4b 3b
       0.01579375 -0.003604238 0.057766452 0.003099066
000010 49 fa 3e 3e 8b 71 0c 3d 67 6c 6a 3e 0c 1c a7 3d
       0.18650164 0.03428797 0.22892915 0.081596464
000020 51 6b 46 b8 d4 db 66 3d 19 88 6a 3e 81 d6 63 3d
       -4.7306825e-05 0.05636199 0.2290348 0.05562449
000030 25 ab 71 3e df 05 a4 bc d0 f4 06 3b d0 ea 8d 3e
       0.23600443 -0.02002233 0.0020592697 0.2771821
000040 29 34 97 be 4b 36 31 3d aa 3c 9d 3e 53 7d 1b be
       -0.29531983 0.04326467 0.30710346 -0.15184526
000050 a2 de 4c bd d4 07 16 bc 17 c8 f1 3d b0 a8 08 3e
       -0.050017007 -0.00915714 0.11805742 0.13345599
000060 1e f6 b5 3d 48 ba 06 3e af 3f 07 be 4e 0b 17 3e
       0.08884834 0.13156998 -0.13207887 0.14750406
000070 88 aa d1 bd e9 69 5a 3e 38 5f a7 bd 0a c6 88 be
       -0.102376044 0.21329464 -0.081724584 -0.26713592
000080 69 e3 13 3d 7a 1a 47 3e 85 2b 82 bb b5 6c 2c 3b
       0.036105547 0.19443694 -0.003972473 0.0026309912
000090 1b dc e7 3b c9 d3 39 3e 67 63 eb 3c 89 6d 90 be
       0.007075799 0.18147196 0.028733922 -0.2820857
0000a0 dd 16 5d be 32 ec f6 3c c2 bc 06 bc 52 26 a4 3e
       -0.21590753 0.030141924 -0.008223714 0.32060486
0000b0 ca fe 67 bd 21 9d 7f 3e bd 66 83 be bb b9 9b be
       -0.05663947 0.24962284 -0.2566432 -0.3041514
0000c0 b3 16 92 bc a3 57 4c be a5 fd a7 bd 1a ea 06 3d
       -0.01783309 -0.19955306 -0.08202676 0.0329381
0000d0 c8 6f 8b be ab a9 74 3e 8b 60 3a be 10 38 86 3e
       -0.2723372 0.23892848 -0.1820089 0.26214647
0000e0 03 3d e6 3d 9e af 4f bd 7c f6 88 be 9d 75 73 3d
       0.11242106 -0.05070459 -0.26750553 0.059438337
0000f0 fc 0c 2b be 23 c2 93 3e ca 46 88 be b7 04 a9 bd
       -0.16704172 0.28859052 -0.26616508 -0.082528524
000100 16 25 27 be 18 05 4a be 09 43 2a be fd f7 a2 bc
       -0.16322741 -0.19728506 -0.16627134 -0.01989364
000110 98 a0 ae 3c 2e 2e 95 3d 6a fb 30 3e 63 84 f6 bd
       0.021316811 0.07284199 0.17283407 -0.120369695
000120 ff 2c 56 be 49 46 70 bd f7 59 a1 3e 36 c4 11 bd
       -0.20915602 -0.05866078 0.3151395 -0.035587512
000130 0b aa 89 be 28 9a 88 3e 68 b6 9e 3d c8 20 97 3d
       -0.26887545 0.26680112 0.07749635 0.073792994
000140 07 a5 7c 3d d8 58 64 3e 15 0a 17 be 09 97 7b 3e
       0.06168082 0.22299516 -0.1474994 0.24569334
000150 93 89 a4 3e 84 2c 9b bd a3 15 5e 3e 13 a5 41 3e
       0.3213621 -0.0757685 0.21687941 0.18910627
000160 41 c0 9e 3e 6b 02 88 bd 1d fa 2c be 4b 2c eb bd
       0.31006053 -0.06641086 -0.16892286 -0.114830576
000170 88 97 55 be d3 cd c3 3c 7f b1 a5 3e cd 5b a4 3e
       -0.20858586 0.023901856 0.3236198 0.32101288
000180 59 e3 7a 3e aa db 0b 3d 42 8b 90 3c 97 ad 6a 3e
       0.24500789 0.034145035 0.017644528 0.22917782
000190 d4 40 59 3e 1b b0 07 bd 7d 6c 97 bd 84 20 0a 3e
       0.21216136 -0.03312693 -0.07393739 0.13488966
0001a0 41 9a fe 3b ab b2 52 be 07 7f 14 be 72 ff 88 3e
       0.0077698533 -0.20575969 -0.14501582 0.2675739
0001b0 51 60 8d 3e b8 8c e7 bd 05 89 64 bd 65 9a 1e be
       0.27612546 -0.11306137 -0.055794735 -0.15488584
0001c0 28 8d c6 bd c0 6e 94 3e ff dc 91 be a4 5b 1a 3e
       -0.09694892 0.28990746 -0.2848892 0.1507402
0001d0 7e 6c 90 be 89 24 19 be a3 e5 39 bd 31 c4 c9 3c
       -0.28207773 -0.14955343 -0.045385014 0.024629684
0001e0 e1 95 33 bd e4 0b 10 be 94 0f 09 be 8e 62 4e be
       -0.043844108 -0.14067036 -0.13384849 -0.20154783
0001f0 4b fe 62 be 3e fd 49 be 1e 2c a6 3e 74 8f 0c be
       -0.22167318 -0.1972551 0.32455534 -0.13726598

weight f4 [128, 128]
000000 dd 29 a1 bd 6f e6 8e 3d b6 58 20 3d ad 42 90 3d
       -0.07869313 0.069775455 0.0391471 0.070439674
000010 4c d2 b1 bd d1 8e 9d bd 2a be 7c bd ad a4 4a bd
       -0.08682689 -0.07693256 -0.061704792 -0.049473453
000020 d1 d3 07 bc 64 89 24 3d 59 0c 6b 3d 2b 17 87 bd
       -0.008290247 0.04017009 0.057384823 -0.06596216
000030 c5 a5 1f 3d 56 9f 36 bd e9 51 93 3c 04 55 2c 3d
       0.03897645 -0.04458555 0.017983394 0.042073265
000040 64 e9 98 3c 16 f5 20 3d 2d e6 58 3b e7 e8 48 3d
       0.018665977 0.039296232 0.003309618 0.049050238
000050 65 6f 9f 3c a8 dd b0 3d 70 2a b2 3c d4 b4 22 bd
       0.019462297 0.086360276 0.021748751 -0.039723232
000060 23 80 61 3d 7e c3 20 39 e1 f6 be 3d 65 84 78 bc
       0.05505384 0.00015331616 0.09324432 -0.015168284
000070 8d 19 a3 3d 30 2b 5d bd 8a 07 2f 3d 75 da 8e bd
       0.07963858 -0.053996265 0.0427318 -0.06975261
000080 9c 0d 6f 3d ed e0 c3 3c 18 69 83 3d 8a f3 8f bd
       0.05836259 0.023910964 0.064165294 -0.07028873
000090 e7 74 ad bd 11 18 39 3d 69 8b de bc 65 5e 20 3d
       -0.08469563 0.045188967 -0.027166085 0.03915252
0000a0 40 a3 49 bd 80 b0 bc bc 9f 84 bb 3c 35 5c 6f 3d
       -0.049227953 -0.02303338 0.022890387 0.058437545
0000b0 e3 f5 07 3d b6 3d 05 3b 38 74 f4 bc 55 a9 1d bc
       0.03319348 0.0020330972 -0.029840574 -0.009622891
0000c0 54 f8 09 3d da 7d 8b bd 28 b7 a2 bc 00 f4 a6 bd
       0.03368409 -0.06811114 -0.019862726 -0.08152008
0000d0 89 f4 68 bb 17 d7 b8 bb ff af 55 3d 35 0e ad 3d
       -0.0035546145 -0.005640875 0.052169796 0.084499754
0000e0 37 fe 89 bd 2d ea 05 bd ad 6c 28 bd 62 35 65 3b
       -0.06737941 -0.03269403 -0.041119266 0.0034974446
0000f0 85 76 0f bd 69 2d 4c bd ba 26 3c bd 45 4c f9 bb
       -0.03502514 -0.049847994 -0.04593537 -0.007607969
000100 a1 5c 4b 3d 8a b9 aa bc 8c df 82 3d b9 a2 8c bd
       0.049648885 -0.020840425 0.063902944 -0.068669744
000110 9a c2 a1 3b 35 5d 6e bd 3b 5d b1 bd c7 0f 63 3c
       0.0049365284 -0.058194358 -0.086603604 0.013858742
000120 ac ec 21 bd ef ef 8a 3d 07 40 99 3d 62 3a 9e bd
       -0.03953235 0.06784045 0.07482915 -0.077259794
000130 b8 b6 f0 bb 08 e8 ab bb 9e 42 26 bd c1 93 30 bd
       -0.0073460005 -0.005246166 -0.040590875 -0.04310966
000140 2e 72 56 bd c3 79 4b 3d 32 2f bc 3b 93 38 89 3d
       -0.052354984 0.049676668 0.005742931 0.06700244
000150 3c c7 06 bc 10 3f 38 3d 73 db a5 3c ab c8 ac bc
       -0.008226212 0.044982016 0.020246243 -0.02109178
000160 ed d8 0a bc 2c 16 b7 bd 89 61 21 bc 7e 13 8d bc
       -0.008474571 -0.08939776 -0.009849914 -0.017221209
000170 f6 89 4b bd 2b eb d3 bc 91 b2 dc bc 0e ad 81 bd
       -0.049692117 -0.025868973 -0.026940616 -0.06331836
000180 30 94 82 3c 5c b4 b8 ba 57 2f 14 bd 22 ca b5 3d
       0.015939802 -0.0014091837 -0.03617796 0.088764444
000190 f8 d6 93 3d ab 50 22 3d 7a 04 26 bd 0c 56 6a 3b
       0.072187364 0.039627712 -0.040531613 0.0035756854
0001a0 60 9f 6e bd f1 5b 84 3d 5b e9 a1 3d 5a ca 48 bc
       -0.05825746 0.06462849 0.07905837 -0.012255276
0001b0 9f ae 83 3d de 40 a3 3d a8 f9 9a bb f1 f3 fc bc
       0.06429791 0.07971357 -0.0047294684 -0.03087804
0001c0 e3 07 18 bc 23 28 80 3c ed 90 b1 bd 41 05 0a 3c
       -0.009279224 0.015644139 -0.086702205 0.008424104
0001d0 99 6d 1d bd bc 2c 84 3d 92 49 55 bc a6 8f 85 3d
       -0.0384346 0.06453845 -0.013018029 0.065215394
0001e0 e2 57 7d 3d 6d 00 d3 bc 35 25 af 3c c9 61 45 bc
       0.06185139 -0.025757039 0.021380046 -0.01204724
0001f0 c6 6f 05 bd 35 0d 2a bd d9 88 07 3c 0b 4d 1b 3d
       -0.0325773 -0.0415165 0.008272373 0.03791527
000200 72 99 25 bc 20 80 5e 3c bf b7 7b 3d 27 b2 33 3d
       -0.010107385 0.013580352 0.06145453 0.04387107
000210 f1 87 28 3d 23 35 e8 3c 11 3d 77 bd 1b 8b 52 bd
       0.04114527 0.02834565 -0.06036097 -0.051402193
000220 89 d9 7a bd 6b ca 79 3d 48 bc 98 bd a4 fc 7a bd
       -0.061242614 0.060984056 -0.07457787 -0.061276093
000230 89 18 80 3d 31 dc 62 3d 94 27 a4 bd d7 85 76 3d
       0.0625468 0.055385772 -0.080153614 0.060186233
000240 7e 3c aa bc b3 98 b2 3c 0e f3 2a bd 2a 0d 74 bc
       -0.020780798 0.021801328 -0.0417357 -0.014895717
000250 61 a6 80 3c ce d3 8c 3d 9b 9e 74 3d a8 c5 29 bd
       0.015704336 0.06876336 0.05972157 -0.041448265
000260 43 e5 5d bd 14 e6 28 ba ed 63 f0 3c 96 cf 67 3d
       -0.05417372 -0.0006442976 0.029344523 0.056594454
000270 09 20 ae bd 51 ec d4 3a 99 73 2f 3c ea 0e 32 bd
       -0.08502204 0.0016244744 0.010708713 -0.043471254
000280 1b 27 a1 3d 32 2e 7c bc 61 a8 99 bd 17 a8 42 bd
       0.07868787 -0.015391873 -0.07502819 -0.047523584
000290 4d 66 1f 3c 3c 17 69 bd f8 a4 93 3c 10 95 ab 3d
       0.00972898 -0.056906924 0.018023 0.08378041
0002a0 de 80 6b 3c eb 7d 21 bc 1f 3d c0 3d 99 6d 97 3d
       0.014373986 -0.009856681 0.09386658 0.07393951
0002b0 0a 56 79 3d 73 01 82 3c 21 7d 01 3c a3 e1 7a bd
       0.06087307 0.015869832 0.007903368 -0.06125034
0002c0 74 e3 74 3c 4c 57 c4 3d 75 ac 71 3c ed a3 95 bd
       0.014946807 0.09586963 0.01475059 -0.07306657
0002d0 7e 3e f8 3c df 89 ac 3d 0b 3f a6 3d 53 a9 89 3c
       0.030303236 0.08424734 0.08117493 0.016804373
0002e0 3b ab e6 3c b3 4c b2 3c a6 78 10 bd 2d 37 63 bc
       0.02815782 0.021765089 -0.03527131 -0.013868135
0002f0 a5 08 8c 3d 08 ce 96 3c e6 fa 9f 3d 2e dd 88 bd
       0.06837586 0.01840879 0.07811527 -0.06682812
000300 8e 55 02 bc 3f 6f d1 3b 91 49 24 bd 57 a8 97 3d
       -0.007954968 0.0063914354 -0.04010922 0.07405155
000310 8f c2 81 3d ed 63 24 bd c4 b2 aa 3d f2 e9 a0 3d
       0.06335937 -0.04013436 0.08334878 0.078571215
000320 47 5b 46 bd 83 4f df 3a d1 58 c0 3d 66 38 60 bd
       -0.048426893 0.0017037246 0.093919404 -0.054741286
000330 63 ff 65 bc 83 8b 59 bd d5 30 91 3d 2e 97 9f 3c
       -0.01403794 -0.053111564 0.07089392 0.019481268
000340 e3 24 28 3d 7d ea 93 3d 1e 57 8d bc fb 22 90 bd
       0.041050803 0.072224595 -0.017253455 -0.07037922
000350 01 16 5c 3c 42 07 f5 ba d4 55 29 3d 7f ad 3c 3d
       0.0134329805 -0.001869418 0.041341618 0.046063896
000360 69 66 16 bd e0 0e fd bc 4d 20 5b 3d dd e5 eb 3c
       -0.03671876 -0.030890882 0.0534976 0.02879613
000370 00 c6 af 3c d7 f9 47 3d 71 17 44 3d cc 18 6c bd
       0.021456718 0.04882225 0.047873918 -0.057640836
000380 9e cd 96 3c 27 f2 e8 3b 79 48 a3 bd f4 8c 0a 3d
       0.018408593 0.007108945 -0.079728074 0.03382583
000390 97 0c 37 3c d6 99 8e 3d f2 80 aa bd b8 39 b6 3d
       0.011172435 0.069629356 -0.083253756 0.08897728
0003a0 b5 16 29 bd 0a 81 63 3d 39 64 5c 3d 4e 13 72 bb
       -0.04128142 0.055542983 0.053806517 -0.0036937776
0003b0 a4 be 1f bd a2 63 36 bc bf 81 63 bd e1 09 62 3c
       -0.03900017 -0.011132153 -0.055543657 0.013796301
0003c0 a9 0b 14 3d 98 b7 c9 3c 7d 81 5e bd bb e1 7c 3d
       0.036143932 0.024623677 -0.05432271 0.06173871
0003d0 a8 95 94 3d 1c 36 c0 bc dc 7d 31 3d 83 bc 14 bc
       0.07255107 -0.023463301 0.04333292 -0.009078148
0003e0 14 06 11 3d ae d1 85 bd 57 48 94 bd bb bc 15 bc
       0.035406187 -0.06534134 -0.0724036 -0.009139235
0003f0 ac 88 8d bd c3 a4 18 3d a2 05 bd 3d 74 be 76 bc
       -0.06910834 0.037266504 0.0922959 -0.015060056

bias f4 [128]
000000 7b 81 87 3d 62 79 6b 3d 9d 38 b6 bc 37 d1 42 3d
       0.06616493 0.057488807 -0.022243792 0.047562804
000010 65 26 f8 bc 35 a1 61 bc 9f 8e a5 bd 1f 21 43 3d
       -0.030291745 -0.013771345 -0.080838434 0.04763901
000020 a6 10 8d 3d 3c b2 d8 3b 1d 38 b1 bd 5d 4f 77 bb
       0.06887941 0.006613044 -0.08653281 -0.0037736513
000030 02 90 6e bd c5 bd 31 bd f5 12 98 bc 98 f7 36 3d
       -0.058242805 -0.04339387 -0.018563727 0.044669718
000040 57 71 70 3d e3 4d a7 bd d5 e0 4b bd 07 8c 35 bd
       0.05870184 -0.081691526 -0.049774963 -0.044322994
000050 16 e7 f0 3c 8c a4 95 3a 62 9c 69 bc 3f 7b 55 3c
       0.029407065 0.0011416837 -0.014258476 0.013029872
000060 e2 a6 9c 3b c0 b9 95 bd 74 2e f8 3c 47 49 bc 3c
       0.004780636 -0.073108196 0.030295588 0.02298416
000070 aa 53 87 3c d8 16 3e 3d d1 1e a7 3c d3 6f 59 bd
       0.016519386 0.046408504 0.020400437 -0.05308516
000080 66 9a c8 3d 77 95 41 3d 8f fc b8 3d 5d 06 a3 3c
       0.09795074 0.04726168 0.09032547 0.019900495
000090 8b f8 88 3d 4a 87 d5 bb 67 26 72 3b 73 1a 49 3d
       0.06688031 -0.006516372 0.003694916 0.04909749
0000a0 15 48 1f bd e8 b5 a1 bd b1 55 b3 3c 6b 01 81 3d
       -0.038887102 -0.07896024 0.021891447 0.062990986
0000b0 fa 63 bd 3d de 9b 0f bc f6 7b de bc 67 0d 6a bd
       0.09247585 -0.008765189 -0.027158719 -0.057141688
0000c0 94 68 ba 3d 17 0a 77 b9 52 cd 06 bd 72 71 6e bd
       0.09101978 -0.00023559514 -0.032910652 -0.05821366
0000d0 14 42 a2 bc f5 3a a8 3d 08 03 2a 3d 1d 79 95 bd
       -0.0198069 0.0821437 0.041506797 -0.07298491
0000e0 59 66 39 3d 98 cc e7 bc ff 3f b3 3d 79 7c e3 bc
       0.045263622 -0.0282958 0.08752441 -0.027769314
0000f0 f4 11 14 ba 7a 27 fa 3c a1 6d 3e bc 9c c0 45 bd
       -0.0005648427 0.030536402 -0.011622817 -0.04827939
000100 0f ae d8 b9 3a e3 c3 3d 40 e1 8e bd e4 4e 83 3d
       -0.00041328414 0.095648244 -0.06976557 0.064115316
000110 73 79 60 3d 4f d3 b1 3d 7b db ca 3c a1 3a 84 bb
       0.054803323 0.08682882 0.02476286 -0.0040353094
000120 53 9c 5b bd c6 f3 cb 3d 90 0c ec 3b 3c 7b cb 3b
       -0.05361588 0.099586055 0.007203646 0.006209759
000130 1c 18 d4 3c 3c 3b 43 bc 38 f3 be 3b 81 33 db 3c
       0.025890402 -0.011915978 0.005827334 0.026757957
000140 b0 39 85 3d 8d ec 7c 3d d0 a3 bf bd 9b 77 6c bc
       0.06505144 0.06174903 -0.09357417 -0.014432813
000150 d3 fd 0b b9 59 ce 2d 3d 81 e9 58 bd 40 93 29 bc
       -0.0001335063 0.042433117 -0.05295706 -0.010350049
000160 76 92 26 bd 6e 43 5e bd b5 87 83 3c 0c 3a 8b 3d
       -0.04066702 -0.054263525 0.016055921 0.06798181
000170 3a 43 e9 3c a3 17 10 bd 34 33 73 ba b6 07 ef bc
       0.028474439 -0.03517879 -0.0009277344 -0.029178482
000180 61 3b c2 3d 04 c9 fb 3c 2b d4 59 bd 73 ab 97 bd
       0.09483982 0.0307355 -0.053180855 -0.07405748
000190 a7 91 20 bd 0c 1c 7b bd 9a 60 d3 3c cc f6 12 bd
       -0.039201405 -0.061306044 0.0258029 -0.035879895
0001a0 87 7a a9 bd cb b0 ad bc 97 6b 22 bd 84 26 06 bd
       -0.08275323 -0.021202466 -0.039653387 -0.032751575
0001b0 71 38 98 3d 94 40 77 ba 03 50 71 bd 43 2b 41 bd
       0.0743264 -0.0009431925 -0.058914196 -0.0471604
0001c0 b8 a3 b7 3d 86 61 f5 bb 87 da e8 bc 1a a1 3f bc
       0.08966774 -0.0074884323 -0.028424514 -0.011696124
0001d0 0f 22 1c 3d 95 eb 9f 3d 7e cb 51 bc bb 59 be bb
       0.03811842 0.078086056 -0.012804864 -0.0058090365
0001e0 e0 48 e8 bc e3 e2 7a bd 93 6e 52 3d 35 8d 8a 3c
       -0.028355062 -0.061251532 0.051374983 0.016913036
0001f0 33 36 27 3c 5c d0 8a 3c fc 86 ba 3c 29 bb a2 3d
       0.010205793 0.016945057 0.022769444 0.07945854

weight f4 [128, 128]
000000 07 c9 fb ba e9 3b 24 3d f7 72 d6 3b 9c 7a 09 3d
       -0.0019209691 0.040096197 0.0065444666 0.033564195
000010 7e a0 2d bd ff 98 56 3d d1 17 72 bd d6 98 4d 3c
       -0.042389385 0.052392002 -0.059104744 0.012548646
000020 89 33 80 3d 72 2e a3 bc f5 2a 13 bd 82 09 4b 3d
       0.062598296 -0.019919608 -0.03592964 0.049569614
000030 92 dd 77 bc 8d ce 03 bd 95 61 5d bb 78 1b 0d 3d
       -0.01512851 -0.032179404 -0.0033780087 0.034450024
000040 aa 3f 7b 3d 7e a0 11 bd d4 51 cb 3b 28 a3 d3 3d
       0.06134001 -0.035553448 0.006204823 0.10333854
000050 8b 2f 8b 3d 2d c7 65 bd 58 57 5e bd ad ac de bb
       0.067961775 -0.056098152 -0.054282516 -0.006795487
000060 a9 0f 51 bd d7 46 e3 bc 46 87 04 bc 89 f9 12 bd
       -0.051040325 -0.02774374 -0.008088892 -0.035882507
000070 47 3d 5b bd 27 1a 14 bd 56 31 f3 3c a9 35 8c bd
       -0.053525236 -0.036157753 0.029686611 -0.06846172
000080 ca a2 9e 3d 05 9c aa 3d 16 f9 ce 3c 69 4f 35 bd
       0.07745893 0.083305396 0.025265258 -0.044265185
000090 11 a6 ab 3c 26 b1 99 bd ea e7 28 3d 25 6d 64 3d
       0.02095321 -0.075044915 0.041236795 0.05576815
0000a0 58 ad 5f 3d d3 1f 84 3d b6 e2 59 3d 03 26 bc bd
       0.054608673 0.064513825 0.053194724 -0.09186938
0000b0 d0 72 51 bd f5 95 41 bc e2 c8 89 3c 33 b1 54 3d
       -0.051134884 -0.011815538 0.016819421 0.051926803
0000c0 e7 6e be bd 39 bd 61 bd af 81 06 3d ca 3e 54 3d
       -0.09298497 -0.055112097 0.03283852 0.051817693
0000d0 63 81 e0 3b e4 51 2a 3d 88 d0 a7 3d d8 cf aa 3d
       0.0068513616 0.041582003 0.08194071 0.08340424
0000e0 29 b1 a0 3c 66 2a 9c bd d8 1f 11 bd 09 77 5b bd
       0.019615727 -0.07625274 -0.03543076 -0.053580318
0000f0 b3 3c 67 bd 31 6b 82 3d 56 ea 85 3b 20 f6 6e bd
       -0.05645437 0.063681014 0.004086773 -0.05834019
000100 95 94 35 3d 7f 31 fc bc 4e d8 55 bd 77 f5 81 bb
       0.044331152 -0.03078532 -0.052208237 -0.0039660293
000110 df 74 4e bd 6e 28 4b bd 88 bf 56 bd 02 9d 83 bd
       -0.050404426 -0.049599104 -0.052428752 -0.06426431
000120 cd 62 ff bc e9 86 50 3d 47 f3 2b bd 66 a9 b6 3d
       -0.031175042 0.05090991 -0.041980054 0.08919029
000130 2d 8e 1d 3c e0 7d c7 bc dc 6c 18 bc 84 38 88 bb
       0.009616417 -0.024352014 -0.009303298 -0.004157128
000140 04 7a af 3c 56 c1 69 3d 95 d1 cc 3c 38 05 c9 bd
       0.021420486 0.057069145 0.02500228 -0.098154485
000150 cc 6a 21 3c 91 51 d7 3c 07 3f 89 bd ba 19 85 bd
       0.0098521225 0.026284011 -0.06701475 -0.064990476
000160 de 0c 01 3d 1d 90 b9 bd 02 56 93 bd a3 19 8b 3d
       0.03150641 -0.090606906 -0.07194139 0.06791999
000170 65 e3 1d bc 8f 6a 3a bc f3 a4 4d 3d cc 76 f9 3c
       -0.009636735 -0.011377945 0.050206136 0.030452155
000180 af ef a2 bc 16 61 5a 3b 0f 96 70 3d 56 e3 9e 3d
       -0.01988968 0.0033322028 0.058736857 0.07758205
000190 7a 93 20 bd 7f 70 5b bc 5b 02 64 3d 6e 23 60 3d
       -0.039203145 -0.01339352 0.05566631 0.05472129
0001a0 e6 9e 0f 3c 08 35 c6 3c 90 ef 82 3d aa bd 63 bd
       0.008765912 0.02419521 0.06393349 -0.0556008
0001b0 bf ba 28 3b f2 cf 2f 3c f8 bb b3 bc 96 48 40 bd
       0.0025746075 0.01073073 -0.021940216 -0.046944223
0001c0 a1 37 5f bc 5e b2 a8 bd a1 44 8b bd e6 2e 2f bd
       -0.013624103 -0.08237146 -0.06800199 -0.042769335
0001d0 b3 35 dc bc 70 b7 75 bd 24 f2 a3 3c e8 cd b7 bd
       -0.026881075 -0.059989393 0.020012923 -0.089748204
0001e0 9c be 97 bc fd 65 af bd 9b 5f a1 3c b6 5c ef bc
       -0.018523507 -0.085643746 0.019698909 -0.029219013
0001f0 b3 56 88 3a 7c 3a b8 bc 54 fd 9f bd 71 75 68 3d
       0.0010401815 -0.022488825 -0.078119904 0.056752626
000200 41 79 a3 bd 22 7d cd 3c f2 d4 bb 3d ac 21 9b 3d
       -0.07982112 0.025084082 0.091714755 0.07574782
000210 76 4c b1 3d a8 9a 85 bd 96 17 57 3d 7b 16 ea bc
       0.08657162 -0.06523639 0.052512728 -0.028575173
000220 45 ec ef bc a4 08 83 bd 9c be be 3d 86 ef 3e 3d
       -0.029287467 -0.063981324 0.093136996 0.046615146
000230 8c 54 7b 3c 9f 5d 99 3d 1f 26 50 bd a5 8c f5 bc
       0.015339982 0.0748856 -0.050817605 -0.029974291
000240 8d 61 c0 bc f0 3b 17 bd b2 e1 14 3d f8 27 2c 3d
       -0.023484016 -0.036922395 0.036348052 0.042030305
000250 1a 57 ec bb ec ec e2 3c 81 6f 8f bd 8f bb fd 3c
       -0.0072125318 0.027700864 -0.070036896 0.030973224
000260 62 10 5e bd 59 78 a4 3d a4 6e 54 bd 17 e5 a3 3d
       -0.054214843 0.08030767 -0.051863328 0.0800268
000270 c0 d1 24 bd 6e 0d b0 3c 60 c9 09 3c e2 2c 70 bc
       -0.040239096 0.021490779 0.008409828 -0.014659138
000280 b7 fb 72 3d f4 5a 43 3d 7d e5 ad ba fe af de ba
       0.059322085 0.04769416 -0.0013267245 -0.0016989706
000290 26 1e 62 bd ba d1 e9 3c 75 29 e7 bc 08 0e 58 3d
       -0.055204533 0.028542388 -0.02821801 0.052747756
0002a0 5f b4 bc bd 7c 00 7c 3d ab 3b 78 bd 07 43 b8 bd
       -0.092140906 0.0615239 -0.06060378 -0.089971595
0002b0 eb 8f 32 3c 93 3b 9f 3d 0a 4f d8 bc df a3 8b 3d
       0.0108985705 0.07775035 -0.026404876 0.06818365
0002c0 cc 4c 40 3d d8 b1 d9 bc f0 ea 6a bd 5e bd 3e bd
       0.04694824 -0.02657406 -0.05735296 -0.046567313
0002d0 88 a0 70 3d fa 5f c2 3c c8 25 2d 3b 94 85 00 bd
       0.058746845 0.023727406 0.0026420224 -0.03137739
0002e0 8a b1 a3 3d 5b d0 81 3d 28 c9 b2 bd 0a b0 84 bd
       0.07992847 0.06338569 -0.08729774 -0.06478889
0002f0 fb 66 93 bd b2 a1 b6 3c 1d 80 2f bd b6 1f b4 bc
       -0.07197376 0.0222939 -0.042846788 -0.021987777
000300 63 e2 89 bd f9 21 93 bd 4c 75 2a bb 91 aa ad bd
       -0.06732633 -0.07184214 -0.0026009856 -0.084797986
000310 0b 7d f3 bc bd 81 f8 3b 45 1a d6 3c 72 16 b8 bd
       -0.029722711 0.0075838254 0.026135573 -0.08988656
000320 bf b0 0f 3c 03 c9 96 3d 71 bc 61 bd 33 03 19 bd
       0.008770167 0.07362559 -0.055111352 -0.037356567
000330 e6 e7 d3 3c d5 b8 01 bc 06 43 30 bd db 20 44 3d
       0.025867414 -0.007917603 -0.04303267 0.047882896
000340 75 2e b0 bd 4c 06 b6 bd 35 49 60 3d 65 c5 06 3d
       -0.08602611 -0.0888792 0.054757316 0.032903094
000350 eb 90 34 3c 64 a3 a2 3d 8a f0 a0 bd d8 61 82 3d
       0.011020879 0.079413205 -0.07858379 0.063663185
000360 96 53 73 3b 91 f7 75 3d f4 7e 1f 3d 7a 95 d9 3c
       0.0037128679 0.06005055 0.03893943 0.026560534
000370 4e 49 af bd 0a 2c b9 3b d4 76 16 bd 61 58 57 bc
       -0.08558904 0.005651002 -0.036734417 -0.01314363
000380 bb 55 93 3d 94 a3 80 bc af 13 2e bd fa 54 06 bd
       0.07194086 -0.015703 -0.04249924 -0.032795884
000390 a6 07 af bc 9a 20 3d 3d e2 d4 34 3c 5c 0f 0d 3c
       -0.021365952 0.04617367 0.011037083 0.008609619
0003a0 2d b0 5f bd b2 bb ab 3d 13 30 c8 bc e2 e5 f9 3c
       -0.054611374 0.083854094 -0.024436986 0.030505124
0003b0 63 ac 96 bd dc 35 2d 3d 70 9a 04 3d 0e 6c 80 3d
       -0.07357099 0.042287692 0.032373846 0.0627061
0003c0 09 73 31 3d 53 05 be bd 15 ec 01 bd ae 82 59 3d
       0.043322597 -0.09278359 -0.031719286 0.05310314
0003d0 1c 51 16 3d 9a 7c ab bc fd 1b 3c 3d 27 56 95 3d
       0.036698446 -0.020933438 0.04592513 0.07291823
0003e0 2d 4b 4f 3c 5c e3 e8 3b 87 99 a3 3d 9c 0f 8a 3d
       0.012652201 0.0071071815 0.079882674 0.067412585
0003f0 e3 f9 09 bd c4 44 6d bb d8 15 65 bc ae bc 12 3d
       -0.033685576 -0.0036204318 -0.013982259 0.03582447

bias f4 [128]
000000 bb 6a 4e bd 46 3e 28 bd c5 71 da bc f7 b2 94 bd
       -0.050394755 -0.041075014 -0.026665578 -0.07260697
000010 b4 b7 ae 3d 08 05 8c 3d 6a 00 14 3c c5 3d ca 3b
       0.08531132 0.06836897 0.009033302 0.0061719143
000020 4a e9 8b 3d 08 9c 9a 3d a2 03 da bc 49 66 31 bd
       0.06831606 0.07549292 -0.02661306 -0.043310437
000030 98 d7 43 3d c9 08 70 bd 3f 91 41 3d 10 fa 98 bd
       0.047813028 -0.05860213 0.047257658 -0.07469571
000040 10 a8 28 bd 19 4a aa bb 7f 6b 50 bd 92 7f eb 3c
       -0.041175902 -0.0051968214 -0.050883766 0.028747354
000050 b7 d8 cc 3a 77 01 16 3c aa 68 91 3d fb 1e 1c 3d
       0.0015628551 0.009155623 0.07100041 0.038115483
000060 9d 50 77 bd 66 b7 5d bd a1 83 ca 3c f4 3d 2c bd
       -0.060379613 -0.05412998 0.024720969 -0.04205127
000070 24 fb 92 3d 2b 4c c0 3d f3 03 8d bc ca 6b a3 bd
       0.071768075 0.09389528 -0.017213797 -0.079795435
000080 63 83 c1 bd 3c d1 88 bd c1 76 9e bd 7e 1a 7b 3d
       -0.09448888 -0.06680533 -0.07737494 0.06130456
000090 3d b2 62 bd 7d 62 93 bd 96 4b ba 3d 1e c7 87 bd
       -0.055345763 -0.071965195 0.09096448 -0.066297755
0000a0 46 f4 8d 3d a5 3a eb bc a1 41 7a bc 6b e7 1d 3d
       0.06931357 -0.028714487 -0.015274436 0.038550775
0000b0 e3 f8 59 3d 38 e7 bd bc 9b 8c b6 3d a4 3b 03 3d
       0.053215872 -0.023181543 0.08913537 0.0320393
0000c0 bd 71 97 3d 72 47 9e 3d b5 79 63 bd 8c d8 79 3c
       0.07394741 0.07728471 -0.05553599 0.015249383
0000d0 bd db 93 bd b3 ce 8a bd be 74 78 3c 11 62 e5 bc
       -0.07219646 -0.06777706 0.015164552 -0.028000863
0000e0 ee e0 66 bd 36 df 83 3c fa 74 16 bd 09 b5 a1 bd
       -0.056366853 0.016097646 -0.03673265 -0.07895858
0000f0 63 f4 19 3d eb 86 bf bb 84 d2 1e 3d 89 4d 30 bd
       0.03758658 -0.005844941 0.038774982 -0.043042693
000100 22 a6 b0 bc 27 c0 45 3d 39 84 88 bd 72 36 ad 3b
       -0.021563593 0.048278954 -0.066658445 0.0052860314
000110 d0 d1 c6 3d 59 1b 66 3c c5 49 15 3d 51 0a 99 bd
       0.09707987 0.014044606 0.036447305 -0.07472671
000120 ec c1 0f 3d 6b 94 aa bd 0a d2 a6 3d 00 d6 94 3c
       0.035097048 -0.0832909 0.081455305 0.01816845
000130 3d 85 77 bd 2e dd 84 3c 3e 02 ca 3d 1e 80 58 bd
       -0.0604298 0.016218748 0.09863709 -0.052856557
000140 8c 8c 77 ba 4e 09 b8 3d f9 bb 40 3b 17 21 55 3d
       -0.00094432454 0.0898615 0.0029408915 0.05203351
000150 42 59 78 3d 24 f9 af bc f5 10 c0 3d 9d 11 d0 bc
       0.060631998 -0.021481104 0.09378234 -0.025399024
000160 62 6c cb 3d a9 48 8d bc 78 37 ca 3c 30 1a b8 bd
       0.09932782 -0.017246561 0.024684653 -0.0898937
000170 59 70 15 3d 16 2d db ba 12 c9 ad bd b5 f3 1d bd
       0.036484096 -0.0016721811 -0.08485617 -0.038562495
000180 bb 96 94 3d f9 e2 b0 bd 99 ca e4 3c 8c 3f 3f 3a
       0.07255312 -0.086370416 0.027928637 0.0007295541
000190 cf 50 1d 3c fe 3d ff ba 7c 86 9f 3b 31 9b df bc
       0.009601786 -0.0019473431 0.0048683267 -0.02729568
0001a0 fd 45 c4 bd 5a 3f a7 bc f5 1e 7c 3d b5 85 bb bd
       -0.09583662 -0.02041595 0.06155296 -0.09156362
0001b0 8b 2f 39 bd 81 ee 85 bd 40 df 78 bd f8 be dd bc
       -0.045211356 -0.06539632 -0.060759783 -0.0270686
0001c0 06 9e 7a 3d 97 a6 67 3d 9c ad 12 3d 01 9e 4b 3d
       0.06118586 0.056555357 0.035810098 0.04971123
0001d0 f9 6c cf bd 02 e1 b7 bd 8a ce bc 3d 9b 2f 9b 3d
       -0.10128207 -0.08978464 0.09219082 0.075774394
0001e0 c0 ec 40 3d 16 84 ae bd d7 58 98 bd 87 b6 af 3d
       0.047100782 -0.08521287 -0.0743882 0.08579736
0001f0 26 51 88 bd 50 d0 9c bc 0a d5 ac 3c 81 fd c9 3d
       -0.06656103 -0.0191423 0.021097679 0.09862805

weight f4 [1, 128]
000000 ee 3a 8f 3c 26 5f 86 3c 6b 3f 92 3c 06 60 5b 3a
       0.017484155 0.016402792 0.017852506 0.00083684956
000010 9c a9 d9 bb 12 b6 c1 bb 80 e4 34 bc 3f ca 72 3b
       -0.0066425335 -0.005911597 -0.011040807 0.0037046818
000020 ac 6d 92 bc 91 7c 24 bb b0 f7 5d 3c 66 67 77 bc
       -0.017874561 -0.0025098661 0.013547823 -0.015100336
000030 86 fd 19 3b 56 08 73 3c d5 76 37 ba 77 6e 38 3c
       0.002349706 0.01483353 -0.00069986033 0.011256806
000040 17 24 9d 3c d0 3e 45 3c 0e 2c 5f bc 5c 3a 77 bb
       0.019182248 0.012038901 -0.013621343 -0.0037723994
000050 b7 a9 f9 3a aa 84 bf 3a 4e e8 49 bc 72 0f 42 3c
       0.0019047771 0.001461168 -0.012323452 0.011844503
000060 f6 18 85 bc 56 3a 03 3c 75 bd 8f bc cc 7b 4a 3c
       -0.016247254 0.008009514 -0.017546395 0.012358617
000070 53 43 9a 3b 92 39 d7 bc 76 41 80 3c d1 da d4 3b
       0.0047077327 -0.026272569 0.015656214 0.0064958115
000080 83 4e 38 3c f2 e2 b7 3c 9f 13 a9 3c e5 6f fb bb
       0.011249187 0.022447083 0.020639239 -0.007673251
000090 ef f0 89 3c c5 44 66 3c b4 ec 99 ba d5 da 26 bc
       0.016838519 0.014054482 -0.0011743517 -0.01018401
0000a0 f2 5c 22 bb f5 6a 74 3c fe fb da b9 7e e5 13 bb
       -0.0024774638 0.014918079 -0.0004176795 -0.0022567208
0000b0 ff 52 e5 bc 0c a8 e6 bb 3b 0d 4f bc a5 83 6a bc
       -0.027993677 -0.0070390757 -0.012637432 -0.014313613
0000c0 96 db 97 bc 47 80 10 bc 3b f8 10 3c 7f f4 75 bc
       -0.018537324 -0.008819646 0.008848245 -0.015011906
0000d0 cb f5 21 bc 32 8e 64 bb 68 37 bf 3b 47 32 8f 3c
       -0.009885262 -0.0034874794 0.0058354624 0.017480029
0000e0 94 46 6c bb c5 75 f8 3a 31 8d e7 bc e7 87 d2 3c
       -0.003605281 0.0018955996 -0.028265567 0.025699569
0000f0 c0 98 b5 bc bf 0b 72 3c 23 6a 04 bc 79 12 8b 3b
       -0.022167563 0.014773308 -0.008081946 0.0042441455
000100 f1 52 2f 3d a8 07 f3 bb bc 40 1f 3c 03 d9 e0 bb
       0.04280371 -0.007416684 0.009720024 -0.0068618073
000110 58 9f e8 bb fb a5 aa 3c 96 79 84 bc a5 b3 ed 3b
       -0.0070990734 0.020831099 -0.016171258 0.0072540813
000120 a5 54 6c 3c a5 ed 69 3c dd 21 0c bc 6a 0b 9e 3b
       0.014424478 0.01427785 -0.0085529955 0.004823138
000130 ee dd 23 bc 47 42 90 bb 86 ef ab bc 1b a7 a0 bc
       -0.010001643 -0.004402432 -0.020988237 -0.019610932
000140 22 df 07 3c 4b 9c 6f bc 79 b7 ac bc 27 e7 90 3a
       0.008292945 -0.0146246655 -0.02108358 0.0011055217
000150 1c 2a e3 bb 15 b0 4c 3c 60 e4 00 bd 0e dc 4a 3c
       -0.00693251 0.012493153 -0.031467795 0.012381567
000160 5d b1 4c bc 40 f2 90 3b a7 92 f6 3b d8 e4 bc 3c
       -0.012493459 0.0044234097 0.0075248065 0.02305834
000170 93 80 55 bc 37 b7 2a 3c 26 0a de b9 76 9f 97 3c
       -0.013031143 0.010419658 -0.000423507 0.018508654
000180 95 e5 cf bc f4 46 7b 3c 4b 29 c2 bc 3f b0 56 3c
       -0.025378028 0.015336741 -0.02370133 0.013103544
000190 b4 aa 96 bb c8 b1 21 bb c6 08 84 3c 28 82 ad 3c
       -0.004597986 -0.0024672616 0.016117465 0.021180227
0001a0 ef e8 a1 3b ab 7f 9a bc 37 c3 89 bc c7 50 73 3c
       0.004941098 -0.018859705 -0.016816719 0.014850802
0001b0 17 8c 84 bc c7 b7 b3 bb 1d c4 bd 3c cd 4c dc 3c
       -0.016180081 -0.0054845545 0.023164803 0.02689209
0001c0 8a 0f f7 3b 23 89 cd bc 66 8f e0 bb 3b 99 af bb
       0.007539694 -0.025089806 -0.006853032 -0.0053588427
0001d0 47 91 cb 3c 3f 7d 4c 3a ae 8f 8d bc 9f be 91 bc
       0.024849547 0.00078006455 -0.017280426 -0.01779109
0001e0 71 8b 98 3c 9e 8a 84 3c 54 60 0f 3c 62 f5 d8 bb
       0.018621178 0.01617938 0.008750994 -0.006621049
0001f0 c5 1d 86 3c 56 39 96 3c d6 c6 06 3c da c7 9b bb
       0.016371617 0.018337887 0.008226117 -0.004754049

weight f4 [3, 128]
000000 95 e9 3a bc 5e 50 c3 3b 17 f1 41 3b b5 13 bd 3b
       -0.011408229 0.0059605082 0.0029593164 0.0057701715
000010 7e 97 2c bc 57 75 8a 3b 4b 09 53 3c 88 44 bb ba
       -0.010534165 0.004225414 0.012880634 -0.0014287392
000020 0c 5b b9 3b 2e 9a 21 3c e8 b2 a2 3b 6a bd c4 3c
       0.0056566056 0.009863419 0.004965175 0.0240161
000030 95 11 15 3c 71 2f d1 ba ca 1c d1 bb a6 5a e0 bb
       0.00909843 -0.0015959573 -0.0063816058 -0.0068467436
000040 77 45 e7 3a 2e f6 9c bb 06 ca 0c bb 89 e7 1a bb
       0.0017644604 -0.004790089 -0.002148272 -0.002363654
000050 a9 3c 2d 3c df ae a8 3b fb 69 73 3c 3e 82 4e bc
       0.010573545 0.0051477994 0.014856811 -0.012604294
000060 92 dd 65 bc c2 4b c4 3b 35 41 06 3c 49 2c a4 3b
       -0.014029877 0.0059904763 0.0081942575 0.005010162
000070 73 56 29 bc 53 82 48 bc 42 81 73 bb 51 ad de ba
       -0.0103355525 -0.012238103 -0.00371559 -0.0016988908
000080 67 47 b1 3b d6 91 07 bc ae 11 90 3c 10 9f 7c 3c
       0.005410123 -0.008274516 0.017586555 0.015418783
000090 40 4b 02 bb 6f b0 7b 3b 24 e5 a0 3a 25 b8 8d bc
       -0.0019881278 0.0038404723 0.001227532 -0.017299721
0000a0 89 67 76 bb d9 77 e5 39 7e eb cf 3b 41 92 b6 3a
       -0.0037598333 0.00043767577 0.0063452115 0.0013929085
0000b0 96 13 a6 bb c7 3c c4 3c c4 d3 8a 3c 0c 43 d7 bb
       -0.005068253 0.023954762 0.01694668 -0.006569272
0000c0 5d aa df 3a 88 cf 89 bb c8 08 97 bb 60 c4 98 3c
       0.0017064322 -0.004205648 -0.004609201 0.018648326
0000d0 69 02 40 3c b0 9d 7b 3b 57 37 da 3b fb c0 24 3c
       0.011719325 0.003839355 0.006659429 0.010055776
0000e0 09 32 1e 3b 60 da 8a bb 28 32 54 bc de a1 26 bb
       0.002413871 -0.004237458 -0.012951411 -0.002542607
0000f0 a8 dc 37 3a ce df 31 bc 6a 82 3e bc 44 ee 2e ba
       0.00070137763 -0.010856582 -0.011627773 -0.00066730776
000100 42 0b b9 bb 1d b2 ef bb 64 23 42 bb 47 11 4b 3c
       -0.005647094 -0.007314934 -0.0029623145 0.012394256
000110 ee 22 f4 ba df ab 05 bb 4e d5 1a 3a 0b 02 63 bc
       -0.0018626133 -0.0020396633 0.00059064187 -0.013855468
000120 ae 42 3f 3b 20 97 f3 39 61 bd 40 bc 52 49 6f 3c
       0.0029184031 0.0004646117 -0.011763901 0.014604883
000130 d8 e4 66 ba 29 e8 44 3a 7a f2 93 3b 62 d6 9d bb
       -0.0008807904 0.0007511401 0.0045149894 -0.004816816
000140 20 26 19 3b b4 31 77 ba 13 8c 3e 3c a1 bd 01 3b
       0.0023368672 -0.00094297086 0.011630076 0.0019796866
000150 4c 0f ad 3c 59 97 ed bb a0 41 1b 3c 9d 8e 34 bc
       0.021125458 -0.007250708 0.009476095 -0.01102033
000160 03 5b ec 3b 14 e5 7a bc 9a fb 11 3b 7f 54 0a 3c
       0.007212998 -0.015313406 0.002227521 0.008442997
000170 a9 3e 60 bb 89 24 56 bc fb c0 5a 3c 32 04 e7 bb
       -0.0034217036 -0.013070234 0.013351674 -0.0070500607
000180 a0 39 38 bc 7e a3 0f 3c c6 e8 96 bb f9 84 8e bb
       -0.011244208 0.008767007 -0.0046053855 -0.0043493477
000190 07 38 e4 bb 91 08 2d 3b a1 2b 4f 3c b9 ed 0b 3c
       -0.006964687 0.002640281 0.012644679 0.008540564
0001a0 b5 5d 09 3c b9 6d 2f 3c ea e3 0f bc 88 9a a5 3b
       0.008384158 0.010707312 -0.008782366 0.005053822
0001b0 06 8a 43 bb 85 8a 6c 3b de 6b 0e bc 54 9a 77 3b
       -0.0029836907 0.0036093306 -0.00869271 0.0037781196
0001c0 10 a5 24 3b 82 45 87 3b 68 b5 6a b8 32 51 da 3a
       0.00251228 0.004128159 -5.5958895e-05 0.0016656278
0001d0 68 07 6b 3b 62 96 c1 3b 8e 73 8e ba 7d 3e 9c bb
       0.0035862569 0.0059078196 -0.0010868178 -0.0047681914
0001e0 4b 78 b4 3b 0a 53 bc b9 b5 0a 62 ba e0 8a 62 bb
       0.005507504 -0.00035920023 -0.00086228113 -0.003456764
0001f0 6f 41 7d bc bb 4b 43 bc 45 2b 65 3b b5 22 0d bb
       -0.015457495 -0.011919911 0.0034968418 -0.002153558
000200 b7 68 2d 3b a5 94 6c bb 27 fa 90 bb 95 a7 59 3c
       0.002646012 -0.0036099341 -0.0044243517 0.013284584
000210 18 e7 09 3c 0b 72 d8 bb 31 5d 46 3c 31 8f 77 bb
       0.008416913 -0.006605392 0.0121071795 -0.0037774558
000220 f0 c4 65 bb 83 ed 32 3c b7 04 97 ba 63 b8 93 3c
       -0.003506001 0.010920885 -0.0011521791 0.018032258
000230 d9 de e5 3a 39 2b b5 bc ac e3 48 3c 13 8e 82 3c
       0.0017537727 -0.022115337 0.012261312 0.015936887
000240 90 70 1e 3b 5e 25 63 bb 6d 52 8e 3c 74 72 b1 bb
       0.002417598 -0.0034659724 0.017373288 -0.005415255
000250 e3 b6 9d bb f1 42 75 3c f4 ab d2 3b 83 19 2e 39
       -0.0048130616 0.014969573 0.00642919 0.00016603437
000260 9d eb 0e b8 5f cb 54 bb a6 17 f5 3b a1 40 fe bb
       -3.407487e-05 -0.0032469851 0.0074796258 -0.007759169
000270 7e 91 3d 3c fb f9 c9 ba 5d 1e 70 3c 06 7b 8c ba
       0.011570333 -0.0015409583 0.014655677 -0.0010717816
000280 c4 3b 08 bc a3 9c bd ba f7 52 29 3c e3 9e d3 bb
       -0.0083150305 -0.0014466237 0.010334722 -0.0064581498
000290 11 e0 af bb a2 f7 63 3b e7 b3 3f ba d9 14 25 bc
       -0.005367287 0.0034785052 -0.00073128793 -0.010075771
0002a0 20 a2 05 3c a6 1a 5a 3c b4 49 c5 3a 80 e7 2e bc
       0.008156329 0.013312018 0.0015051872 -0.010675311
0002b0 8f 51 ab 3b 99 83 1f bc 54 70 7e bb 4a b0 86 bb
       0.0052282284 -0.009735965 -0.0038824277 -0.0041103708
0002c0 28 0b 78 bc fb 3a 0a 3c cd 7c 43 bb a6 cd ad ba
       -0.015139379 0.008436914 -0.0029829026 -0.001326014
0002d0 cc 70 b3 3b a0 e3 03 3c 96 e9 a5 3b 0e 28 02 3c
       0.005476093 0.0080498755 0.005063246 0.00794412
0002e0 e3 9e ec bb 00 f4 d4 39 4f 90 9c ba b1 6a 5f 3b
       -0.007221089 0.00040617585 -0.0011944863 0.0034090693
0002f0 34 ed 81 3b 68 30 03 3c 06 d9 87 bb 8f 63 15 bc
       0.0039650444 0.008007146 -0.0041457443 -0.009117975
000300 03 66 62 3c 4e 53 4e 3c ed 18 52 3b 33 dd 23 bc
       0.013818267 0.012593104 0.0032058314 -0.0100014685
000310 b5 33 1a bb 9a 3a e0 3b 49 67 f4 bb 7a 60 95 3b
       -0.0023529355 0.0068429234 -0.0074586016 0.00455862
000320 7d 9c 89 bb 4f 47 98 bc b2 94 60 3c b2 ef e5 38
       -0.004199563 -0.01858869 0.013707327 0.00010964218
000330 40 c8 90 3b 41 50 72 3a 50 da 33 bb 04 32 52 bc
       0.004418403 0.0009243526 -0.0027443357 -0.0128293075
000340 e5 68 23 3c fe 29 5f 3a f4 a9 26 bc 77 31 02 3b
       0.009973739 0.0008513032 -0.010172356 0.001986591
000350 a7 2e 7c 3c a5 6a 34 3b c2 32 1d 3c 83 dd 0a 3a
       0.015391982 0.0027529385 0.009594621 0.000529729
000360 22 91 6b 3a 52 ff a3 bc b0 6c 02 3c 83 50 d0 bb
       0.0008986165 -0.020019207 0.007960483 -0.006357254
000370 ee 70 9a 3b c0 2a 0e 3c 34 27 76 3b ba 42 02 3c
       0.0047131693 0.008677185 0.0037559988 0.007950479
000380 6b 19 0b bc 24 ec 35 3c 57 8b 48 3b 97 28 35 bc
       -0.008489947 0.011103664 0.003060063 -0.011057041
000390 95 9b 8b 3a 7f c3 bf 3b a0 2b 4a bc 4e 2f 03 3c
       0.0010651225 0.0058521624 -0.012339503 0.008006884
0003a0 e1 f2 d9 3a 98 ad fe ba 38 96 55 3b a1 c8 55 ba
       0.001662817 -0.0019430397 0.0032590758 -0.0008155201
0003b0 bd 49 1e bb 5b e8 68 3c a0 4e a0 3c b2 da 99 3b
       -0.0024152838 0.014215554 0.019568741 0.00469526
0003c0 84 13 fe 3b 07 8a 0f 3c f7 a8 6c 3b e9 a7 59 3c
       0.0077537913 0.008760936 0.0036111453 0.013284662
0003d0 e0 0a 04 ba 25 d8 4d 38 e1 36 48 bc e5 54 23 3c
       -0.0005037021 4.907711e-05 -0.012220115 0.009968971
0003e0 d5 d9 bc 3b 9c f7 55 bc 71 d8 94 ba 7c 71 88 bb
       0.0057632723 -0.013059523 -0.0011356008 -0.004163919
0003f0 66 82 ef b9 91 6d e3 bb 51 0d 90 bc 3b 09 13 3b
       -0.00045682787 -0.0069405516 -0.017584475 0.0022435922

bias f4 [3]
000000 a5 68 98 3a f1 e4 43 3b a1 79 37 bb
       0.0011627866 0.0029891098 -0.002799608

weight f4 [1, 128]
000000 77 d3 45 3c 1f 26 ca 3c b6 d7 77 3c db ec 85 3c
       0.012074343 0.02467638 0.015127113 0.016348293
000010 95 7f 4e bc 12 59 b0 bc 2a 70 cb bb 3d ae 93 3c
       -0.01260366 -0.021526847 -0.0062084394 0.01802742
000020 2e 2d e3 bc cd ff c1 3b 11 21 5d 3c 9b c1 af bc
       -0.027731504 0.0059203864 0.013496653 -0.021454623
000030 04 6d d3 3c 30 24 3a 3c eb be 0b 3c 51 80 26 3c
       0.025808819 0.011361167 0.008529405 0.010162429
000040 23 b1 35 3c d8 2f b2 3b 4e 99 4a bc 24 1c 67 3c
       0.011089596 0.0054378323 -0.012365652 0.01410583
000050 7c 1e 45 bc e6 0c 8d 3c 0a 91 62 bc 61 cf 8b 3c
       -0.012031194 0.017218065 -0.013828525 0.01706666
000060 45 3b d8 ba 78 9d 13 3c 21 f4 79 bc 41 79 a6 3c
       -0.0016497156 0.009009711 -0.015255959 0.02032149
000070 85 d0 ef ba d0 e0 57 bc fd bc 51 3c ca 08 ab 3c
       -0.0018296397 -0.013176158 0.012801406 0.020878214
000080 4c ed 00 3c 49 54 02 3d f1 86 6f bb 52 44 d3 3b
       0.007869076 0.03181866 -0.0036548937 0.0064473534
000090 d9 b9 e2 3c c0 98 4e 3c c8 23 9b bc c0 49 99 bc
       0.02767651 0.012609661 -0.01893796 -0.018711925
0000a0 ea b4 86 3b 08 eb fa 3b 69 5f 63 3b dc 06 49 3c
       0.004110922 0.0076574124 0.003469432 0.012269702
0000b0 8b 56 b3 bc e4 7c 66 bc 89 cd 13 bc 4c 58 5e bc
       -0.021891853 -0.014067862 -0.009021171 -0.013570856
0000c0 e9 d6 3a bc 92 8e 86 bc 47 76 bb 3b 27 44 23 bc
       -0.011403778 -0.016425405 0.005720887 -0.009964979
0000d0 88 bc 94 bc 72 d4 84 3c 33 48 91 3c ae fd 01 3c
       -0.018156305 0.016214583 0.017734623 0.007934017
0000e0 5d 95 d2 3a 20 55 3a bc 73 a9 01 bc e2 3a 3c 3c
       0.0016066242 -0.011372834 -0.007913935 0.011488648
0000f0 b6 1f ba bc 56 e6 7c bc 33 f4 12 bc 4e 0b 49 3c
       -0.0227202 -0.015435776 -0.008969354 0.012270762
000100 e9 e9 22 3c 52 73 a1 bc 24 ad 3d 3c 2c 33 5a 3b
       0.009943464 -0.01970831 0.0115769245 0.003329466
000110 cc 67 18 bc c5 ff a1 3c a7 f3 d9 bc f0 b9 f1 39
       -0.009302091 0.01977528 -0.02660544 0.00046105636
000120 38 2b 9f 3b 34 9c 96 3a 04 9e 8c bc 7e 16 95 3c
       0.004857447 0.0011490644 -0.017165191 0.018199202
000130 2b 52 80 3c 4a d3 50 bc 83 7e f7 bb 65 ff e4 3b
       0.01566418 -0.012745688 -0.007552923 0.006988453
000140 e5 cd 2d 3c ec 30 d9 bb f1 35 20 3b 43 e9 57 ba
       0.010608171 -0.0066281464 0.0024446214 -0.0008236358
000150 52 33 5d bc 64 81 07 bb c8 51 62 bc 79 c3 78 3c
       -0.013501005 -0.0020676488 -0.0138134435 0.015183323
000160 ae 0a 8d bc d7 ce 27 3c da 1d d9 ba 86 d1 eb 3c
       -0.017217007 0.010242186 -0.0016564683 0.028786432
000170 e6 f6 45 bb b8 b0 9f 3b 2a 83 34 3c 11 e2 0c 3c
       -0.0030206977 0.0048733614 0.0110176 0.00859882
000180 cc 34 99 bc bb d0 84 3b 2f 82 c3 bc cc b5 78 3c
       -0.018701933 0.004053203 -0.023865787 0.0151800625
000190 66 83 a7 bc 90 59 59 bc 2a 97 ca 3b 91 15 d2 3c
       -0.020448398 -0.013265982 0.006182571 0.02564505
0001a0 69 f7 c6 3c 3d 32 59 3c a3 49 b4 bc 39 93 be 3b
       0.024287896 0.013256607 -0.022007769 0.00581589
0001b0 39 01 12 bb d7 4f 34 bc c5 7d c2 3c e4 55 23 3c
       -0.002227856 -0.011005363 0.023741612 0.009969208
0001c0 5a 93 8f 3b 56 26 87 b9 3c 39 2f bc 07 1d 91 bc
       0.0043815793 -0.0002577777 -0.010694798 -0.017714037
0001d0 94 57 5a 3c 1d cc 42 3c fc 77 d6 bb 8e 9a 57 bc
       0.013326544 0.011889485 -0.006545065 -0.013159407
0001e0 9d 69 e2 3c a9 33 64 ba 69 ad a3 3c df b8 4a bc
       0.027638251 -0.0008705208 0.01998015 -0.012373178
0001f0 a1 61 e5 3b 06 b3 76 3c d6 fe 80 3c 1c 89 8c bc
       0.0070001637 0.015057331 0.015746515 -0.017155223
