TradeSimulator-v0_D3QN_-1/actor_00208560_447.056.pth (torch, 152106 bytes, 14 tensors)

state_avg f4 [10]
0	0x3e1b9787	0.15194522
1	0x3a0b5674	0.0005315312
2	0xbb852e2f	-0.0040643434
3	0x3e0bf2b5	0.13666804
4	0x3b002d7d	0.0019558363
5	0xbbc22b52	-0.0059255743
6	0xbd421409	-0.04738239
7	0x3e3a1d09	0.18175139
8	0x3b387b1d	0.0028149553
9	0xbc3fec2c	-0.011714023

state_std f4 [10]
0	0x3f65452c	0.8955867
1	0x3f4dea27	0.80435413
2	0x3f695b81	0.9115525
3	0x3f72881e	0.9473895
4	0x3f60015d	0.8750208
5	0x3f596837	0.84924644
6	0x3f7f09b4	0.9962418
7	0x3f621248	0.88309145
8	0x3f5e44f8	0.8682399
9	0x3f59d140	0.85084915

weight f4 [128, 10]
0	0x3e27c4fe	0.1638374
1	0xbd8e2110	-0.069399
2	0xbd7637d6	-0.060111843
3	0x3e28e377	0.16493021
4	0xbe91eb49	-0.2849982
5	0x3e59a8f5	0.21255858
6	0xbdaa908c	-0.083283514
7	0x3e30b3ec	0.17256135
8	0x3d202fb3	0.03910799
9	0xbd46444c	-0.048404977
10	0x3dc24f02	0.09487726
11	0x3e956411	0.29177907
12	0x3e032c39	0.12809838
13	0xbde833a4	-0.11337975
14	0xbd1c69d4	-0.038186863
15	0xbd25871b	-0.04041205
16	0x3d2ad4d0	0.04170686
17	0xba148bea	-0.0005666601
18	0x3e8dd458	0.27701068
19	0x3deca939	0.11555714
20	0xbdeee32c	-0.11664423
21	0xbed80df7	-0.42198154
22	0xbd7e9ff7	-0.062164273
23	0xbe122891	-0.14273287
24	0xbdd178c4	-0.10228112
25	0x3b91cdc1	0.0044495766
26	0x3e467ce2	0.19383577
27	0x3e34474f	0.17605327
28	0xbe8feb83	-0.2810937
29	0x3e40c9e1	0.1882701
30	0x3db8a4fc	0.09015843
31	0x3db90859	0.09034795
32	0x3e5f2794	0.21792442
33	0xbe97fefe	-0.2968673
34	0xbe8614bc	-0.26187694
35	0xbe1d20e4	-0.15344578
36	0x3e94b8c6	0.2904722
37	0xbd461877	-0.048363175
38	0x3e0bd4b7	0.13655363
39	0xbe06ccf4	-0.13164121
40	0x3e9b12ad	0.30287686
41	0xbedc4b69	-0.43026283
42	0x3e629347	0.22126494
43	0x3cad646b	0.021166047
44	0xbe233440	-0.159379
45	0x3e2becf2	0.16789606
46	0xbe3c3a4c	-0.18381613
47	0x3de06973	0.10957613
48	0xbdb52051	-0.088440545
49	0xbd0c81ac	-0.034303352
50	0xbea3fca6	-0.32028693
51	0xbe1604f5	-0.14650328
52	0x3e2992a2	0.16559842
53	0xbdb575db	-0.0886037
54	0x3ea1aa8d	0.31575432
55	0x3e75a3b1	0.23988225
56	0xbc4b4346	-0.012406176
57	0xbe4582a2	-0.19288114
58	0x3e45328e	0.19257566
59	0x3db8f3ab	0.09030851
60	0xbe4ebd6f	-0.2018945
61	0xbdd81aae	-0.10551964
62	0x3e42c166	0.19019088
63	0x3e93fab9	0.28902224
64	0xbe33bf1c	-0.17553371
65	0xbd6735ef	-0.05644792
66	0xbc0795d8	-0.008275472
67	0x3d1f048d	0.0388227
68	0xbe747a0e	-0.23874685
69	0xbe58397e	-0.21115682
70	0x3e325b74	0.17417699
71	0xbe9d82f0	-0.3076396
72	0x3e140fec	0.14459199
73	0x3cb6476e	0.022250857
74	0x3ddeb81f	0.10874962
75	0x3d6d5c43	0.057949316
76	0x3dd1a276	0.10236065
77	0x3e2c917e	0.16852376
78	0xbe88feb1	-0.26756814
79	0x3e13b977	0.14426218
80	0xbe73086d	-0.23733683
81	0xbe337aaf	-0.17527269
82	0x3cad2261	0.021134557
83	0xbd6a3080	-0.05717516
84	0x3e3fcefb	0.187313
85	0xbe5321a3	-0.206183
86	0xbe8a56b3	-0.2701927
87	0x3e72bdd1	0.23705222
88	0xbd83ca5a	-0.0643508
89	0x3e4321b6	0.19055828
90	0x3dbe6d4f	0.09298193
91	0xbf031dfb	-0.5121762
92	0x3d79b666	0.060964964
93	0x3da81350	0.082068086
94	0xbe5d5981	-0.21616174
95	0xbe147bdc	-0.14500374
96	0x3dd8b54a	0.10581453
97	0x3d8143dd	0.06311772
98	0xbe1356fa	-0.14388648
99	0xbdc9db0b	-0.09856232
100	0x3e9438e1	0.28949645
101	0xbe9c8d9e	-0.30576795
102	0x3e38070e	0.17971441
103	0x3e07dbe2	0.13267472
104	0xbe38f90d	-0.18063755
105	0xbe866559	-0.26249197
106	0x3e9b7753	0.30364475
107	0x3c8259c6	0.015911948
108	0x3e5c2fe1	0.2150264
109	0x3d52af8f	0.051436957
110	0x3dc8a67d	0.0979738
111	0x3c906754	0.017627396
112	0x3e95e882	0.29278952
113	0xbe53b88d	-0.2067587
114	0x3d4a61ac	0.049409553
115	0x3e6ac426	0.22926387
116	0x3e711020	0.23541307
117	0x3e5373b9	0.20649613
118	0xbe4448e1	-0.19168426
119	0xbe55f071	-0.20892502
120	0xbe39a6be	-0.18130013
121	0xbe5b12cf	-0.21393894
122	0x3e99df4b	0.30053172
123	0xbe546b63	-0.2074409
124	0x3e2b1ebe	0.16710946
125	0xbe1bf5d8	-0.152305
126	0xbe99709b	-0.29968724
127	0xbd859e99	-0.06524391
128	0x3e3572bc	0.17719549
129	0x3e93dc11	0.28878835
130	0xbe408754	-0.18801624
131	0x3d1ae0ec	0.03781216
132	0x3e8962e3	0.26833257
133	0x3e55e44c	0.2088787
134	0x3e3ca2a5	0.18421419
135	0x3e791e3c	0.2432794
136	0x3e4f69f9	0.20255269
137	0x3dd58a6f	0.10426795
138	0xbe42e140	-0.19031239
139	0xbe87a89c	-0.26495826
140	0xbe17cf54	-0.14825183
141	0xbb7ef531	-0.003890347
142	0xbe431a61	-0.19053032
143	0x3deb0002	0.11474611
144	0x3dae05b6	0.08497183
145	0xbd820125	-0.063478746
146	0x3de2150a	0.11039169
147	0x3dc5d208	0.09659201
148	0x3e405c95	0.18785317
149	0x3e422846	0.18960676
150	0xbddc8796	-0.107680485
151	0xbac8e38a	-0.0015326601
152	0xbd32bc6f	-0.043636736
153	0xbc131868	-0.008977987
154	0xbe8e6626	-0.27812308
155	0xbe41c646	-0.18923292
156	0xbe476721	-0.19472934
157	0xbe12b50c	-0.14326876
158	0x3e624569	0.2209679
159	0xbde3c4fd	-0.11121557
160	0xbe7e045c	-0.2480635
161	0x3e075b7d	0.13218494
162	0x3dd47448	0.103737414
163	0x3e4ba6f8	0.19887912
164	0xbe28093d	-0.16409774
165	0x3d63c36e	0.0556063
166	0xbdcf02ca	-0.10107954
167	0xbd998b83	-0.07497313
168	0xbe7def53	-0.24798326
169	0xbe148e40	-0.14507389
170	0xbdbb959c	-0.09159395
171	0xbd9202b3	-0.07129421
172	0x3d839cc8	0.06426388
173	0x3dace467	0.08442002
174	0x3e9cebc7	0.30648634
175	0x3e935bee	0.28781074
176	0x3e747057	0.23870979
177	0x3c51504b	0.012775491
178	0xbe518f16	-0.20464739
179	0x3e72c4f9	0.23707952
180	0xbd984e94	-0.074368626
181	0xbea44df3	-0.3209072
182	0xbe867039	-0.26257494
183	0xbd6e38f8	-0.0581598
184	0xbe3f322e	-0.18671486
185	0x3e7df29d	0.24799581
186	0xbe971192	-0.29505593
187	0xbe7d24e2	-0.24721101
188	0xbc3afd20	-0.011412889
189	0xbe2fa4a4	-0.17152649
190	0x3de0f0e8	0.10983449
191	0xbe46aa45	-0.1940089
192	0xbe1805be	-0.1484594
193	0x3c932766	0.017963123
194	0x3e660c84	0.22465712
195	0xbe5a9299	-0.21344985
196	0x3e1c1ffc	0.15246576
197	0x3e533b17	0.2062801
198	0x3e9a5a20	0.30146885
199	0xbe6e4f4e	-0.2327244
200	0x3dba7a57	0.09105366
201	0x3c5c506e	0.01344691
202	0x3e8f85a3	0.28031644
203	0xbdd7a975	-0.10530368
204	0x3e4e3e01	0.2014084
205	0xbc9749cb	-0.018467804
206	0xbcc11cbd	-0.023573274
207	0x3b035761	0.0020041096
208	0x3d323794	0.043510035
209	0x3e19aa2c	0.15006322
210	0x3d4a5b93	0.04940374
211	0xbdf49080	-0.11941624
212	0xbe829048	-0.25500703
213	0x3e7afdb3	0.24510841
214	0x3e7b779e	0.24557349
215	0x3e64b633	0.22335128
216	0x3e81ca18	0.25349498
217	0xbe6a65d6	-0.2289041
218	0xbdd6527f	-0.10464954
219	0x3e904463	0.28177175
220	0xbe6d91b8	-0.23200119
221	0x3d264b41	0.04059911
222	0xbe8084ec	-0.2510141
223	0xbe6ae668	-0.22939456
224	0x3e197f98	0.1499008
225	0xbe54f9c0	-0.20798397
226	0xbdab14b0	-0.08353555
227	0x3e77b4d2	0.24190071
228	0x3e853ac4	0.26021397
229	0x3e905698	0.28191066
230	0xbd6df829	-0.058097992
231	0xbf12cfc9	-0.57348305
232	0x3e98ac1b	0.29818806
233	0xbd83e9b3	-0.06441059
234	0xbdf6ba43	-0.12047245
235	0x3dad20e0	0.08453536
236	0xbe6c6f61	-0.23089363
237	0x3e628911	0.22122599
238	0x3e447f0c	0.1918909
239	0xbe848ed0	-0.25890207
240	0xbe846fb9	-0.25866488
241	0xbe1bbf43	-0.1520968
242	0x3df2a2c3	0.118474506
243	0x3c17071e	0.009218005
244	0xbe19744b	-0.14985768
245	0x3c6a6b60	0.014307827
246	0xbea223ec	-0.3166803
247	0xbe5f65d4	-0.21816188
248	0xbe5f79ef	-0.21823858
249	0x3e67f516	0.22652087
250	0x3e8d7e3a	0.27635366
251	0xbe8d1b38	-0.2755983
252	0x3c101ec0	0.008796394
253	0x3e1b8f17	0.15191303
254	0x3d2807f3	0.041023206
255	0xbe28bc33	-0.16478042

bias f4 [128]
0	0x3c92fb60	0.01794213
1	0xbb9a77d5	-0.004713992
2	0x3d70d954	0.05880101
3	0x3ab3bb74	0.0013712482
4	0x3e3fa26d	0.18714304
5	0x3cc487eb	0.023990592
6	0x3e6825c5	0.22670658
7	0x3dab96bd	0.083783604
8	0x3b5ffe79	0.0034178777
9	0x3d66ccd7	0.056347694
10	0x3e6b29d0	0.22965169
11	0x3d6d4b23	0.057932984
12	0x3e734cc0	0.23759747
13	0xbc91e570	-0.0178096
14	0x3afb3b66	0.0019167482
15	0x3e8c054f	0.273478
16	0xbe9b0e7d	-0.3028449
17	0x3d39c9e3	0.04535855
18	0x3e9c6994	0.305493
19	0xbe1c40ad	-0.15259047
20	0xbd4488dd	-0.047982085
21	0xbbcf4cc0	-0.006326288
22	0x3df448cb	0.11927947
23	0x3e0b2307	0.1358758
24	0x3db95daa	0.09051068
25	0x3e063a82	0.13108256
26	0xbe04cad0	-0.12967992
27	0x3e172ba0	0.14762735
28	0xbdcee856	-0.10102908
29	0x3e5c4d7b	0.21513931
30	0xbda43261	-0.080174215
31	0xbe8953b4	-0.26821673
32	0x3d17c314	0.037051275
33	0x3e48c1ad	0.19605131
34	0xbb388d4d	-0.0028160394
35	0xba02c1f1	-0.0004988006
36	0x3be96c54	0.0071235094
37	0x3e387e35	0.18016894
38	0x3ccbd145	0.02488006
39	0xbe94c183	-0.29053888
40	0xbe5f5ad4	-0.21811992
41	0x3cf609d7	0.030033989
42	0xbc22c85c	-0.009935465
43	0x3ea54523	0.3227931
44	0xbd4cee37	-0.050031867
45	0x3e7dd1ae	0.24787018
46	0xbe82820f	-0.25489852
47	0xbe9ad3d4	-0.30239737
48	0xbc89e7dd	-0.016834194
49	0xbe4f5975	-0.20248969
50	0xbda55ee5	-0.0807474
51	0x3d073e7c	0.033018574
52	0xbe892cac	-0.26791894
53	0x3e743afb	0.23850624
54	0xbe381fef	-0.17980932
55	0x3e866a36	0.26252908
56	0x3de22d14	0.11043754
57	0xbd45d80c	-0.04830174
58	0xbe89bebb	-0.26903328
59	0x3d61becc	0.0551136
60	0xbe2b35b3	-0.16719703
61	0x3e9349c6	0.28767222
62	0xbe861931	-0.26191095
63	0xbda8ada8	-0.08236247
64	0xbe24ff9d	-0.16113134
65	0xbe492ffb	-0.1964721
66	0xbe3605be	-0.17775628
67	0xbc883970	-0.01662895
68	0x3cc9ca18	0.024632499
69	0x3d984eb2	0.07436885
70	0x3e304222	0.17212728
71	0xbdee2f46	-0.116301104
72	0xbe5b19f4	-0.21396619
73	0xbd736400	-0.05942154
74	0x3ea1a8e1	0.31574157
75	0xbd1ae0c0	-0.037811995
76	0xbe8beb39	-0.27327898
77	0x3e87b5b5	0.2650582
78	0x3d95701f	0.07296776
79	0x3da1254e	0.078684434
80	0x3d7be5c0	0.061498404
81	0x3e65fd45	0.22459896
82	0xbe1842e1	-0.14869262
83	0x3e804a64	0.25056756
84	0x3ea4eca6	0.32211798
85	0xbd9ab258	-0.075535476
86	0x3e5f2c28	0.21794188
87	0x3e4286d9	0.18996753
88	0x3e9fc955	0.31208292
89	0xbd895eb8	-0.06707519
90	0xbe35f106	-0.17767724
91	0xbde77f63	-0.11303594
92	0xbe56e43b	-0.209855
93	0x3cc40441	0.02392781
94	0x3ea6245d	0.32449618
95	0x3ea4d892	0.3219648
96	0x3e7b1fe8	0.2452389
97	0x3d0f285d	0.034950603
98	0x3cae2410	0.02125743
99	0x3e66a9ba	0.22525683
100	0x3e5aef55	0.2138036
101	0xbd02b901	-0.031914715
102	0xbd93bb12	-0.07213415
103	0x3e09abe7	0.13444482
104	0x3c4517b3	0.012029576
105	0xbe4fc5ad	-0.20290251
106	0xbe132fde	-0.14373729
107	0x3e88d914	0.26728117
108	0x3e8d7077	0.27624866
109	0xbde6303c	-0.11239669
110	0xbd6c486c	-0.057686254
111	0xbe1d6bf9	-0.1537322
112	0xbdcf4a31	-0.10121573
113	0x3e961a54	0.29316962
114	0xbe98b2e6	-0.2982399
115	0x3e166249	0.1468593
116	0xbe8ff27d	-0.2811469
117	0xbe159a30	-0.14609599
118	0xbd3c0e06	-0.04591181
119	0x3cc8622e	0.024460878
120	0xbd29bd4b	-0.04144029
121	0xbe133a09	-0.14377607
122	0xbe0a744b	-0.13520925
123	0xbe525ef1	-0.2054403
124	0xbe644d5a	-0.22295132
125	0xbe46a565	-0.1939903
126	0x3ea6e551	0.3259683
127	0xbe0c5c2b	-0.13707034

weight f4 [128, 128]
0	0xbda5b681	-0.080914505
1	0x3d8b748e	0.068093404
2	0x3d222771	0.039588396
3	0x3d8eec44	0.06978658
4	0xbdaf3a47	-0.085560374
5	0xbd98378a	-0.07432468
6	0xbd7ed729	-0.06221691
7	0xbd49b782	-0.049247272
8	0xbc2a61bb	-0.010399277
9	0x3d2ca01b	0.042144876
10	0x3d680f4a	0.056655206
11	0xbd8347d4	-0.064101845
12	0x3d18aa85	0.037271995
13	0xbd3cdaa2	-0.046106942
14	0x3c7c28aa	0.015390554
15	0x3d29896e	0.04139083
16	0x3c84ec35	0.016225914
17	0x3d1aa8ca	0.037758626
18	0x3b4b245a	0.003099701
19	0x3d466a57	0.048441257
20	0x3ca4d91c	0.020123057
21	0x3dad80ab	0.08471807
22	0x3c960578	0.018313155
23	0xbd240eb8	-0.0400531
24	0x3d5c5747	0.05379417
25	0x39e54535	0.00043729847
26	0x3dbd932f	0.09256589
27	0xbc5beb1a	-0.013422752
28	0x3da3d3a1	0.079993494
29	0xbd5ce505	-0.053929348
30	0x3d2c7fa5	0.04211392
31	0xbd8da27d	-0.06915758
32	0x3d6dbe92	0.05804307
33	0x3cc2e3cd	0.023790265
34	0x3d87d250	0.06631911
35	0xbd938d47	-0.07204681
36	0xbdb0f2ac	-0.08640036
37	0x3d3380cf	0.043824013
38	0xbcc6d4b1	-0.024271341
39	0x3d22030d	0.03955369
40	0xbd46620f	-0.04843336
41	0xbcbdcf7f	-0.02317023
42	0x3cb5f102	0.022209648
43	0x3d672295	0.056429464
44	0x3d14b4c8	0.03630522
45	0x3b2e16bc	0.0026563844
46	0xbcf813b4	-0.030282833
47	0xbb319816	-0.0027098707
48	0x3cfc8a4b	0.030827662
49	0xbd8720b6	-0.06598036
50	0xbc94de8b	-0.018172523
51	0xbda44857	-0.0802161
52	0xbb0d1c7e	-0.0021531875
53	0xbbdd5f4b	-0.0067557446
54	0x3d56fbdf	0.052486297
55	0x3dae625a	0.08514853
56	0xbd899049	-0.06716973
57	0xbd047687	-0.0323396
58	0xbd466f5a	-0.048446037
59	0x3b2dc995	0.0026517857
60	0xbd1b60e0	-0.037934184
61	0xbd58679a	-0.052833177
62	0xbd2595c4	-0.04042603
63	0xbbd69640	-0.006548673
64	0x3d4b69d4	0.049661472
65	0xbcbe1975	-0.023205498
66	0x3d8383d0	0.064216256
67	0xbd8cc9fe	-0.068744645
68	0x3bba24b3	0.0056806444
69	0xbd6c5a32	-0.057703204
70	0xbdba4c3b	-0.09096571
71	0x3c4a2824	0.012338672
72	0xbd1f9c02	-0.03896714
73	0x3d8b57d5	0.06803862
74	0x3d8e8d55	0.06960551
75	0xbd9c0fd9	-0.0762021
76	0xbb918329	-0.0044406843
77	0xbb8c36f5	-0.0042790123
78	0xbd2ab4a8	-0.041676193
79	0xbd283726	-0.04106822
80	0xbd5341f1	-0.05157656
81	0x3d4b4116	0.049622618
82	0x3bded087	0.0067997607
83	0x3d8c43ab	0.06848844
84	0xbc049219	-0.008091473
85	0x3d3a9f73	0.04556222
86	0x3c9f0c9e	0.019415196
87	0xbc9da5fa	-0.019244183
88	0xbc29ff0b	-0.010375748
89	0xbdb70c74	-0.08937922
90	0xbc390754	-0.011293251
91	0xbcabda92	-0.020978246
92	0xbd51b4fe	-0.051198
93	0xbcd8bfdc	-0.026458673
94	0xbcfae9c4	-0.030629046
95	0xbd84610f	-0.06463825
96	0x3c711ed5	0.014716824
97	0xbb1024ad	-0.0021994517
98	0xbd0422ee	-0.032259874
99	0x3db7aa9b	0.08968087
100	0x3d95bbe9	0.07311232
101	0x3d25ae62	0.040449508
102	0xbd2c609c	-0.04208432
103	0x3b064eeb	0.0020493816
104	0xbd7e33a9	-0.062060986
105	0x3d745652	0.059652634
106	0x3d9fd29f	0.07803845
107	0xbc4d4713	-0.012529152
108	0x3d839dac	0.06426558
109	0x3d9f3735	0.07774202
110	0xbc09fef8	-0.008422606
111	0xbcfd76e5	-0.030940482
112	0xbc1dda96	-0.0096346345
113	0x3c614f3e	0.013751803
114	0xbdb7024a	-0.089359835
115	0x3c1bd1f0	0.009510502
116	0xbd11b0f0	-0.03556913
117	0x3d84343c	0.064552754
118	0xbc969429	-0.018381195
119	0x3d8aef1b	0.06783887
120	0x3d727b82	0.059199817
121	0xbcdb7363	-0.02678842
122	0x3ccd0691	0.025027545
123	0xbc59ef45	-0.013301675
124	0xbd00c279	-0.031435464
125	0xbd1f626d	-0.038912226
126	0x3c020468	0.007935621
127	0x3d03d9f9	0.032190297
128	0xbc2b17ee	-0.010442717
129	0x3c42cf89	0.011890301
130	0x3d795b86	0.0608783
131	0x3d2adde2	0.04171551
132	0x3d2be1a3	0.04196323
133	0x3cfefa95	0.031125346
134	0xbd797ffe	-0.06091308
135	0xbd530e33	-0.051527213
136	0xbd7b510e	-0.061356597
137	0x3d7f0065	0.062256236
138	0xbd983a26	-0.07432966
139	0xbd79cfe4	-0.060989276
140	0x3d78b577	0.060719933
141	0x3d5c3565	0.05376186
142	0xbda3b983	-0.07994368
143	0x3d6c0c42	0.057628877
144	0xbc9faf29	-0.019492703
145	0x3caaab2d	0.020833576
146	0xbd34c593	-0.044133734
147	0xbc6439c4	-0.013929788
148	0x3c83966b	0.016062936
149	0x3d897816	0.06712358
150	0x3d6f0b4f	0.058360394
151	0xbd29918e	-0.041398577
152	0xbd63afa6	-0.055587433
153	0xb8981c92	-7.2532464e-05
154	0x3cf0d0cd	0.029396439
155	0x3d6ac811	0.057319704
156	0xbdae7917	-0.0851919
157	0x3b116baf	0.0022189429
158	0x3c352719	0.011056685
159	0xbd301957	-0.042992916
160	0x3da14823	0.07875087
161	0xbc77709e	-0.015102534
162	0xbd9a774a	-0.07542284
163	0xbd411625	-0.04714026
164	0x3c03c98a	0.008043656
165	0xbd6a633b	-0.05722354
166	0x3c9ce24e	0.01915088
167	0x3da36bd5	0.07979552
168	0x3c5c8a58	0.013460718
169	0xbc29e432	-0.010369347
170	0x3dbf886b	0.093521915
171	0x3d97a5a3	0.074046396
172	0x3d79a64f	0.06094962
173	0x3c768f63	0.0150488345
174	0x3c0e59f7	0.0086884415
175	0xbd7921e6	-0.060823344
176	0x3c781eb2	0.015144037
177	0x3dc5c039	0.09655804
178	0x3c5a5ac4	0.013327304
179	0xbd95def3	-0.07317915
180	0x3d07d52a	0.033162273
181	0x3dab5313	0.083654545
182	0x3da6d44e	0.08145963
183	0x3c810f1f	0.01575428
184	0x3cd88633	0.026431179
185	0x3cb2ee3c	0.021842115
186	0xbd127111	-0.03575236
187	0xbc4f221c	-0.01264241
188	0x3d89e4ad	0.067330696
189	0x3c9654d1	0.01835099
190	0x3da22b5a	0.07918425
191	0xbd8475b5	-0.06467763
192	0xbc0ccef3	-0.008594262
193	0x3b8f3474	0.0043702666
194	0xbd23093e	-0.039803736
195	0x3d980f0e	0.074247465
196	0x3d848042	0.06469776
197	0xbd241cf5	-0.040066678
198	0x3da96d40	0.08272791
199	0x3d9cd4a6	0.07657747
200	0xbd4545af	-0.04816216
201	0x3aa43113	0.0012526832
202	0x3dbde1c2	0.092715755
203	0xbd6098d7	-0.05483326
204	0xbc412bfd	-0.011790273
205	0xbd5d9ae0	-0.05410278
206	0x3d930860	0.07179332
207	0x3ca97092	0.02068356
208	0x3d271086	0.040787242
209	0x3d94a8e0	0.07258773
210	0xbc807971	-0.015682908
211	0xbd8efaa7	-0.06981402
212	0x3c614fed	0.013751966
213	0xba8abf98	-0.0010585664
214	0x3d29def1	0.04147238
215	0x3d3dd800	0.04634857
216	0xbd155e23	-0.03646673
217	0xbcfbb2fd	-0.030724997
218	0x3d5caa16	0.053873144
219	0x3ce796e5	0.028270194
220	0x3cb1dfa7	0.021713091
221	0x3d4c9473	0.04994626
222	0x3d3d9298	0.04628238
223	0xbd6bacaf	-0.05753773
224	0x3c928c97	0.017889304
225	0x3bdf2769	0.006810118
226	0xbda32169	-0.07965357
227	0x3d04acb9	0.032391284
228	0x3c3a2a11	0.0113625685
229	0x3d90af96	0.0706474
230	0xbdaf05f3	-0.085460566
231	0x3db554a1	0.08854032
232	0xbd2b5f77	-0.04183909
233	0x3d4b8e69	0.04969636
234	0x3d618d6f	0.055066522
235	0xbb7e12ee	-0.0038768607
236	0xbd20ebe2	-0.039287455
237	0xbc3d6fb8	-0.01156228
238	0xbd68895a	-0.056771614
239	0x3c55dd9e	0.013053326
240	0x3d140f0b	0.03614716
241	0x3cc5279a	0.024066735
242	0xbd52a6d5	-0.051428635
243	0x3d7eacc7	0.062176492
244	0x3d970da7	0.07375651
245	0xbcc4faec	-0.02404543
246	0x3d37b145	0.04484679
247	0xbc06d64b	-0.008229802
248	0x3d1082af	0.03528088
249	0xbd897aa3	-0.06712844
250	0xbd91cfde	-0.07119726
251	0xbc447bb6	-0.011992386
252	0xbd8af9ce	-0.06785928
253	0x3d1d4258	0.03839335
254	0x3dbcf734	0.09226838
255	0xbc82040d	-0.015871072

bias f4 [128]
0	0x3d88b362	0.066748396
1	0x3d6c2a01	0.057657246
2	0xbcb75ca9	-0.022383051
3	0x3d3e96f5	0.046530683
4	0xbcf5436a	-0.029939372
5	0xbc5a8b3e	-0.013338862
6	0xbda55a80	-0.08073902
7	0x3d401eb8	0.046904296
8	0x3d8a8257	0.067631416
9	0x3be35ffb	0.006938932
10	0xbdb0d002	-0.08633424
11	0xbb7a0781	-0.0038151445
12	0xbd6c5386	-0.05769684
13	0xbd2fa357	-0.042880382
14	0xbc84335e	-0.016137775
15	0x3d2e16b6	0.042502128
16	0x3d64c76d	0.05585425
17	0xbda76c29	-0.08174927
18	0xbd4cb531	-0.049977485
19	0xbd3c360f	-0.04594999
20	0x3cf0fd80	0.029417753
21	0x3a99b87c	0.0011727954
22	0xbc714f51	-0.014728383
23	0x3c569638	0.013097338
24	0x3bb2e8e4	0.0054598916
25	0xbd960026	-0.07324247
26	0x3cfa8c0b	0.030584356
27	0x3cb37b42	0.02190936
28	0x3c886dde	0.016653951
29	0x3d40806f	0.046997484
30	0x3ca70e05	0.020392427
31	0xbd592b36	-0.053019725
32	0x3dca601c	0.09881613
33	0x3d3f89ce	0.04676228
34	0x3db940ee	0.090455875
35	0x3c9e5f32	0.019332502
36	0x3d8975fe	0.06711958
37	0xbbcd2500	-0.0062605143
38	0x3b4d0f38	0.0031289589
39	0x3d49468d	0.049139548
40	0xbd1e6b9d	-0.038676847
41	0xbda19d6e	-0.078913555
42	0x3cb893d7	0.022531433
43	0x3d812ff7	0.06307977
44	0x3dbdb2d2	0.09262623
45	0xbc0a0169	-0.008423188
46	0xbcdd4f98	-0.027015492
47	0xbd66fe30	-0.056394756
48	0x3dbb752d	0.09153209
49	0xb8a4186c	-7.824678e-05
50	0xbd0a6491	-0.033787314
51	0xbd6ed3f2	-0.058307596
52	0xbca404ac	-0.020021759
53	0x3da8dffe	0.08245848
54	0x3d2a88f6	0.041634522
55	0xbd92d5d4	-0.07169691
56	0x3d3ac406	0.0455971
57	0xbcee5aab	-0.029095968
58	0x3db626af	0.08894097
59	0xbcdffafc	-0.027341358
60	0x39e1e305	0.00043084487
61	0x3cff8601	0.031191828
62	0xbc38373c	-0.011243638
63	0xbd41bd2a	-0.04729954
64	0xb83f0ac4	-4.5547975e-05
65	0x3dc5c639	0.096569486
66	0xbd8e2ff2	-0.069427386
67	0x3d8384bb	0.06421801
68	0x3d5ac15c	0.053407058
69	0x3db30ae2	0.0874231
70	0x3ccc9672	0.024974082
71	0xbb47355c	-0.0030396795
72	0xbd590daf	-0.052991565
73	0x3dcb627b	0.09930893
74	0x3c17e645	0.009271209
75	0x3ba0e803	0.0049104705
76	0x3cd79f93	0.026321208
77	0xbc4e80e6	-0.012603974
78	0x3be0c134	0.006858969
79	0x3cdc1e42	0.026869897
80	0x3d883663	0.066509984
81	0x3d7f383c	0.06230949
82	0xbdbec2cf	-0.093145005
83	0xbc654c24	-0.013995204
84	0xb8ea4aa0	-0.000111718895
85	0x3d2bfe8a	0.041990794
86	0xbd57dad4	-0.052698925
87	0xbc2cd48f	-0.010548725
88	0xbd28ce92	-0.041212626
89	0xbd5d8d01	-0.05408955
90	0x3c84a04a	0.016189713
91	0x3d8bc433	0.068245314
92	0x3cecf138	0.028923616
93	0xbd1379df	-0.036004897
94	0xba8b7866	-0.001064074
95	0xbcee1d57	-0.029066725
96	0x3dc2a8b0	0.09504831
97	0x3d00758b	0.031362098
98	0xbd5d1003	-0.053970348
99	0xbd975662	-0.07389523
100	0xbd1e899a	-0.038705446
101	0xbd813fe3	-0.063110135
102	0x3cd9c1f7	0.026581747
103	0xbd12f86d	-0.03588145
104	0xbdabde00	-0.083919525
105	0xbcaa62a0	-0.020798981
106	0xbd22319a	-0.039598085
107	0xbd03b348	-0.032153398
108	0x3d99cd9e	0.075099215
109	0xba4e0844	-0.0007859508
110	0xbd712423	-0.058872353
111	0xbd3fa346	-0.04678657
112	0x3db84697	0.08997839
113	0xbbf9edb2	-0.0076272124
114	0xbce44992	-0.027867112
115	0xbc8d7359	-0.017266916
116	0x3d1c47c1	0.038154367
117	0x3da063fb	0.0783157
118	0xbc4f84be	-0.012665926
119	0xbbb54d01	-0.005532861
120	0xbce02487	-0.027361168
121	0xbd7802ef	-0.060549673
122	0x3d54a2bd	0.05191301
123	0x3c8e5714	0.017375506
124	0x3c2d07b0	0.010560915
125	0x3c90b43a	0.017664064
126	0x3cc04460	0.023470104
127	0x3da42ff4	0.08016959

weight f4 [128, 128]
0	0xba8090c8	-0.0009808773
1	0x3d26f5c9	0.040761743
2	0x3c1e7260	0.009670824
3	0x3d029ef9	0.03188989
4	0xbd5b4282	-0.053530224
5	0x3d580243	0.052736532
6	0xbd706083	-0.05868579
7	0x3c455cb8	0.012046032
8	0x3d9aefc1	0.07565261
9	0xbca05873	-0.019573426
10	0xbd16d9c4	-0.03682877
11	0x3d4c1016	0.04982003
12	0xbce58e1c	-0.028021865
13	0xbd04f6de	-0.032461993
14	0xbb8076c4	-0.003920408
15	0x3d0f5df5	0.035001714
16	0x3d83251b	0.06403562
17	0xbd0f0eb3	-0.034926128
18	0x3c3ef473	0.011654961
19	0x3de71cbb	0.11284777
20	0x3d8e0119	0.06933803
21	0xbd669d61	-0.056302432
22	0xbd39a961	-0.045327548
23	0xbbef49c3	-0.0073024943
24	0xbd5ca9e1	-0.053872947
25	0xbceff4c9	-0.029291527
26	0xbbff88a2	-0.0077982703
27	0xbd125495	-0.035725195
28	0xbd5b040d	-0.05347066
29	0xbd13b429	-0.036060486
30	0x3cf77706	0.030208122
31	0xbd8c7190	-0.06857598
32	0x3d9ea6a4	0.07746628
33	0x3db0aa9f	0.086262934
34	0x3ccbeafb	0.02489232
35	0xbd3010f7	-0.04298493
36	0x3ca85e18	0.02055268
37	0xbd9ad449	-0.075600214
38	0x3d2af832	0.041740604
39	0x3d649090	0.055801928
40	0x3d5fc209	0.054628406
41	0x3d83c99b	0.064349376
42	0x3d5735ac	0.05254142
43	0xbdba9bb0	-0.09111726
44	0xbd53368b	-0.051565688
45	0xbc4ed3df	-0.012623756
46	0x3c8cb720	0.017177165
47	0x3d592909	0.05301765
48	0xbdbdcb5e	-0.09267305
49	0xbd621086	-0.05519154
50	0x3d01c872	0.0316853
51	0x3d60e3d5	0.054904778
52	0x3b9df3e4	0.004820334
53	0x3d29e305	0.04147627
54	0x3da46554	0.08027139
55	0x3da3f3f6	0.08005516
56	0x3ca2def2	0.0198817
57	0xbd9d048a	-0.076668814
58	0xbd13187a	-0.035912015
59	0xbd556d88	-0.05210641
60	0xbd62b882	-0.05535174
61	0x3d81b5e1	0.06333519
62	0x3b92fe2a	0.004485865
63	0xbd6bbfa7	-0.05755582
64	0x3d2f19d9	0.04274926
65	0xbcfaf526	-0.030634474
66	0xbd519ed0	-0.051176846
67	0xbb8e5fae	-0.004344902
68	0xbd4473b7	-0.047961917
69	0xbd4c36c1	-0.049856905
70	0xbd5308ea	-0.051522173
71	0xbd836a60	-0.06416774
72	0xbcfe2caf	-0.031027166
73	0x3d4f9c67	0.050686266
74	0xbd385118	-0.044999212
75	0x3dbac3ea	0.09119399
76	0x3c27dc72	0.010245429
77	0xbcc2a80b	-0.02376177
78	0xbbfb620a	-0.0076715993
79	0xbb962ba4	-0.004582839
80	0x3cabe160	0.02098149
81	0x3d6ce2b5	0.057833392
82	0x3cc7133a	0.02430116
83	0xbdc7dc4a	-0.09758814
84	0x3c2f8339	0.010712438
85	0x3cd1962a	0.0255843
86	0xbd895425	-0.067055024
87	0xbd8517d5	-0.06498686
88	0x3d0dea4e	0.03464728
89	0xbdb9e925	-0.09077672
90	0xbd923174	-0.07138339
91	0x3d8ceb84	0.068808585
92	0xbc171fbe	-0.0092238765
93	0xbc467a1e	-0.012114076
94	0x3d6b66f0	0.057471216
95	0x3cfa27e0	0.030536592
96	0xbca1c8f1	-0.019749137
97	0x3b4f086c	0.0031590713
98	0x3d6bf868	0.057609946
99	0x3d9d629d	0.076848246
100	0xbd206f7d	-0.039168824
101	0xbbfaf6bd	-0.007658808
102	0x3d629fe6	0.055328272
103	0x3d640cab	0.055676144
104	0x3c399323	0.011326584
105	0x3cc15ddd	0.023604328
106	0x3d84c7dd	0.064834334
107	0xbd65c085	-0.056091804
108	0x3afdff68	0.0019378485
109	0x3c36e655	0.011163314
110	0xbcaa5334	-0.020791627
111	0xbd3f9fc9	-0.046783242
112	0xbc5935db	-0.013257469
113	0xbdaca1a9	-0.08429272
114	0xbd8ad9f0	-0.067798495
115	0xbd34e2c6	-0.04416158
116	0xbcdba4a7	-0.02681191
117	0xbd7682c2	-0.060183294
118	0x3ca80acf	0.020512966
119	0xbdb8a1d6	-0.09015243
120	0xbc9f1bdc	-0.019422464
121	0xbdb36ade	-0.08760618
122	0x3c96532f	0.018350212
123	0xbce40982	-0.027836565
124	0x3abe4fe3	0.0014519658
125	0xbcb881f1	-0.022522898
126	0xbd9fa82e	-0.077957496
127	0x3d724ae8	0.059153467
128	0xbda1a657	-0.07893055
129	0x3cd2106b	0.025642594
130	0x3dc1a3c5	0.09455065
131	0x3d9873c9	0.07443959
132	0x3da44c2f	0.08022343
133	0xbd84bf09	-0.064817496
134	0x3d5947dc	0.053047046
135	0xbcecc5af	-0.028902857
136	0xbc6eae03	-0.014567855
137	0xbd82fa9c	-0.06395456
138	0x3dbd529f	0.09244274
139	0x3d4272f7	0.04747292
140	0x3b1604e1	0.0022891092
141	0x3d98f623	0.07468822
142	0xbd506680	-0.050879
143	0xbceaa1d0	-0.028641611
144	0xbc9196b6	-0.01777206
145	0xbd1227ae	-0.035682373
146	0x3d2bfe98	0.041990846
147	0x3d530dee	0.051526956
148	0xbbd2c5de	-0.006432279
149	0x3ce31527	0.027720047
150	0xbd77e55f	-0.06052148
151	0x3cf6bfad	0.030120695
152	0xbd695033	-0.05696125
153	0x3da2ffb8	0.07958931
154	0xbd531582	-0.051534183
155	0x3da6c2ef	0.081426494
156	0xbd24d6d0	-0.040243924
157	0x3cb02aaf	0.021504728
158	0x3c17def4	0.009269465
159	0xbc6fc121	-0.014633448
160	0x3d71fb1c	0.059077367
161	0x3d550a2e	0.05201166
162	0xbac4e633	-0.0015022218
163	0xba87e6ed	-0.0010368504
164	0xbd6282a0	-0.055300355
165	0x3ce8bca6	0.028410267
166	0xbce0385b	-0.027370622
167	0x3d5da1d3	0.054109406
168	0xbdbc1db8	-0.09185356
169	0x3d8000a1	0.0625012
170	0xbd7df4a0	-0.06200087
171	0xbdb7691d	-0.08955596
172	0x3c2a3fc8	0.010391183
173	0x3d9eda2d	0.077564575
174	0xbcd23803	-0.025661474
175	0x3d8dc437	0.06922191
176	0x3d40a21a	0.047029592
177	0xbcda4c2e	-0.026647653
178	0xbd6331b8	-0.055467337
179	0xbd2d7d0f	-0.042355593
180	0x3d664be8	0.056224734
181	0x3cc3036a	0.023805339
182	0x3ae954bd	0.0017801743
183	0xbd0c113e	-0.03419613
184	0x3da4c23d	0.080448605
185	0x3d8126d7	0.06306236
186	0xbdb5c982	-0.08876325
187	0xbd8120c0	-0.06305075
188	0xbd92383a	-0.071396306
189	0x3cb2e058	0.021835491
190	0xbd2e510d	-0.042557765
191	0xbcad8b76	-0.021184664
192	0xbd8d5ee1	-0.06902862
193	0xbd9323b4	-0.07184544
194	0xbb02998e	-0.0019927952
195	0xbdae49d9	-0.08510179
196	0xbce02a3a	-0.027363885
197	0x3bea1198	0.0071432106
198	0x3cddb5fe	0.02706432
199	0xbdb7d0ae	-0.08975349
200	0x3c0f6cd3	0.008753973
201	0x3d95befb	0.07311817
202	0xbd727e67	-0.059202578
203	0xbd18bb9d	-0.037288297
204	0x3cd79371	0.026315423
205	0xbbebac4d	-0.0071921707
206	0xbd2b8909	-0.041878734
207	0x3d444b64	0.04792346
208	0xbdb127c9	-0.086501665
209	0xbdb2f253	-0.08737626
210	0x3d5fde58	0.054655403
211	0x3d05d750	0.03267604
212	0x3c3be83b	0.011468942
213	0x3da12f9c	0.07870409
214	0xbda0d44f	-0.07852995
215	0x3d82d03e	0.06387375
216	0x3c08af90	0.008342639
217	0x3d774cdf	0.060376044
218	0x3d2217ee	0.039573602
219	0x3cdcc454	0.026949085
220	0xbdae25b3	-0.08503284
221	0x3b8bcc03	0.0042662635
222	0xbcf40d9e	-0.02979165
223	0xbc579a3e	-0.013159333
224	0x3d937dfe	0.072017655
225	0xbc8704d9	-0.016481804
226	0xbd31d2b8	-0.043413848
227	0xbd089063	-0.033340823
228	0xbcafaf08	-0.021445766
229	0x3d536520	0.051610112
230	0x3c36c471	0.011155234
231	0x3c117278	0.008877389
232	0xbd50b5df	-0.050954696
233	0x3dac5b9a	0.08415909
234	0xbcc3e29b	-0.023911765
235	0x3cf78659	0.03021543
236	0xbd97dc50	-0.07415068
237	0x3d2f6636	0.042822085
238	0x3d0414e0	0.03224647
239	0x3d818579	0.06324286
240	0x3d33077e	0.043708317
241	0xbdc346ca	-0.09534986
242	0xbcfe8dfe	-0.031073567
243	0x3d56c19d	0.052430738
244	0x3d12e20c	0.035860106
245	0xbcac7c67	-0.021055413
246	0x3d3cfbca	0.046138562
247	0x3d948ac1	0.07253028
248	0x3c36dd69	0.011161187
249	0x3bc938a7	0.0061407867
250	0x3da2d267	0.07950287
251	0x3d8cd752	0.068770066
252	0xbd08c450	-0.033390343
253	0xbb44c524	-0.0030024732
254	0xbc629858	-0.013830267
255	0x3d1aa1fa	0.03775213

bias f4 [128]
0	0xbd4efb82	-0.050532825
1	0xbd29b311	-0.041430537
2	0xbcdc3eb8	-0.026885375
3	0xbd957464	-0.072975904
4	0x3daf5fb2	0.08563174
5	0x3d8ca2c7	0.06866985
6	0x3c14fa43	0.00909287
7	0x3bbadba5	0.005702453
8	0x3d8c6a2a	0.06856187
9	0x3d9a6c3a	0.07540174
10	0xbcdd2ec6	-0.026999842
11	0xbd30a829	-0.04312912
12	0x3d41fee3	0.04736222
13	0xbd708b58	-0.05872664
14	0x3d40ca89	0.047068153
15	0xbd992f61	-0.0747974
16	0xbd2972b9	-0.041369174
17	0xbbba6299	-0.0056880233
18	0xbd4fb825	-0.050712723
19	0x3cea7fcd	0.028625393
20	0x3ae8d065	0.0017762302
21	0x3c0c21be	0.008552967
22	0x3d919a5f	0.07109522
23	0x3d1ad980	0.03780508
24	0xbd763a3c	-0.06011413
25	0xbd5e80d3	-0.054322075
26	0x3ccc14aa	0.024912197
27	0xbd2d53d5	-0.042316277
28	0x3d91d1bd	0.071200825
29	0x3dc1007e	0.09423922
30	0xbc8f4303	-0.017488008
31	0xbda3e20e	-0.08002101
32	0xbdc1cc77	-0.09462827
33	0xbd8957e1	-0.06706215
34	0xbd9f41c1	-0.077762134
35	0x3d7a495a	0.06110511
36	0xbd649786	-0.055808567
37	0xbd93f6fd	-0.07224844
38	0x3dbadb50	0.09123862
39	0xbd860aa4	-0.06544998
40	0x3d8df14e	0.06930791
41	0xbcefd93d	-0.029278392
42	0xbc8040c9	-0.015655892
43	0x3d1cafeb	0.038253706
44	0x3d5afd25	0.053464074
45	0xbcbbd06a	-0.022926528
46	0x3db6c82d	0.08924899
47	0x3d04c44c	0.032413766
48	0x3d97b293	0.07407107
49	0x3d9eb470	0.077492595
50	0xbd6559ff	-0.05599403
51	0x3c7b53f0	0.0153398365
52	0xbd93344f	-0.071877114
53	0xbd8b2894	-0.06794849
54	0x3c72b414	0.014813442
55	0xbce76f32	-0.028251264
56	0xbd65237d	-0.055942047
57	0x3c85fe3d	0.016356582
58	0xbd158777	-0.036506142
59	0xbda24bd4	-0.07924619
60	0x3d1b3ebc	0.037901625
61	0xbba02209	-0.00488687
62	0x3d1fe02c	0.039032146
63	0xbd3266b0	-0.04355496
64	0xbcb26736	-0.02177773
65	0x3d46e852	0.0485614
66	0xbd88ffa7	-0.06689387
67	0x3ba637b3	0.005072558
68	0x3dc76a68	0.09737092
69	0x3c62eada	0.013849938
70	0x3d16bcb1	0.036801044
71	0xbd991ceb	-0.07476219
72	0x3d0f4fac	0.03498809
73	0xbdaaaf61	-0.08334232
74	0x3da72755	0.08161799
75	0x3c9057a7	0.01761992
76	0xbd77a610	-0.060461104
77	0x3c8657d9	0.01639931
78	0x3dca751c	0.09885618
79	0xbd57cedd	-0.052687515
80	0xbafa9182	-0.0019116851
81	0x3db85129	0.08999855
82	0x3b5dbdf7	0.0033835152
83	0x3d54e085	0.05197193
84	0x3d78ac7a	0.06071136
85	0xbcb16919	-0.02165656
86	0x3dc06250	0.093937516
87	0xbcd1269b	-0.025531104
88	0x3dcbf697	0.09959143
89	0xbc8d8d27	-0.01727922
90	0x3cc6e90a	0.024281044
91	0xbdb8c4e0	-0.09021926
92	0x3d169dd8	0.036771625
93	0xbaf5760f	-0.0018727201
94	0xbdaef02d	-0.08541904
95	0xbd1ed010	-0.038772643
96	0x3d9569a6	0.072955415
97	0xbdb16898	-0.08662528
98	0x3ce82cc1	0.028341653
99	0x39d1e276	0.00040032313
100	0x3c210523	0.009827885
101	0xbadb750d	-0.0016743258
102	0x3b9948e9	0.004677881
103	0xbce3410f	-0.027740983
104	0xbdc50c6e	-0.096215114
105	0xbca75303	-0.020425325
106	0x3d7db2ff	0.061938282
107	0xbdbc0857	-0.09181278
108	0xbd3878c0	-0.04503703
109	0xbd854f04	-0.06509212
110	0xbd7a0951	-0.06104404
111	0xbcdf58f4	-0.027264096
112	0x3d7a2fe4	0.06108083
113	0x3d694c6f	0.05695766
114	0x3d134b27	0.035960343
115	0x3d4d4332	0.05011291
116	0xbdd00621	-0.10157419
117	0xbdb8ae09	-0.090175696
118	0x3dbddceb	0.092706524
119	0x3d9bad73	0.07601442
120	0x3d3f88e6	0.046761416
121	0xbdaebbcd	-0.08531914
122	0xbd98d840	-0.074631214
123	0x3db02b60	0.08602023
124	0xbd88a074	-0.06671229
125	0xbc9f3534	-0.019434549
126	0x3caad228	0.020852163
127	0x3dca888f	0.09889328

weight f4 [1, 128]
0	0x3c90193d	0.01759016
1	0x3c813eeb	0.015777072
2	0x3c939794	0.018016614
3	0x3a34bcad	0.000689457
4	0xbbe15a04	-0.006877186
5	0xbbce6d37	-0.0062996405
6	0xbc2efaaa	-0.01067988
7	0x3b69c545	0.003567056
8	0xbc93fb34	-0.018064119
9	0xbb1fd4c6	-0.0024388297
10	0x3c5bf66f	0.013425454
11	0xbc78fdcf	-0.015197231
12	0x3b0bc3bd	0.0021326386
13	0x3c7832dd	0.0151488455
14	0xba9b28e5	-0.0011837749
15	0x3c39362a	0.011304418
16	0x3c9aff7f	0.018920658
17	0x3c3e1f18	0.011604093
18	0xbc6cfe18	-0.014464878
19	0xbb7ee3b1	-0.003889304
20	0xba35c8f2	-0.0006934545
21	0x3b00197c	0.001954644
22	0xbc505b2f	-0.012717052
23	0x3c495ca5	0.012290155
24	0xbc80fb9a	-0.015744973
25	0x3c02be53	0.007979947
26	0xbc945cc9	-0.01811065
27	0x3c594a0a	0.013262281
28	0x3b85b005	0.004079821
29	0xbcd72f41	-0.02626765
30	0x3c815553	0.015787756
31	0x3bd4a885	0.0064898157
32	0x3c297ebb	0.010345156
33	0x3cbd78a3	0.023128813
34	0x3ca9a591	0.020708831
35	0xbc01a4e9	-0.007912853
36	0x3c8a21c5	0.016861806
37	0x3c6c1c56	0.014411053
38	0xbac376aa	-0.0014912684
39	0xbc29aca0	-0.010356098
40	0xbb306d04	-0.0026920447
41	0x3c79c36b	0.015244345
42	0xba29a831	-0.0006471901
43	0xbb20f062	-0.0024557342
44	0xbce62667	-0.028094484
45	0xbbe6f90b	-0.007048731
46	0xbc4e2be2	-0.012583705
47	0xbc68d1a6	-0.01421014
48	0xbc97e622	-0.018542353
49	0xbc0be81e	-0.008539228
50	0x3c0e4f0a	0.008685837
51	0xbc68c60f	-0.014207377
52	0xbc1bc9dc	-0.009508576
53	0xbac7e57e	-0.0015250889
54	0x3bc6429f	0.0060504223
55	0x3c90c867	0.017673684
56	0xbb68d49d	-0.0035527118
57	0x3a3782b9	0.0007000375
58	0xbce3c138	-0.027802095
59	0x3cd1d823	0.025615757
60	0xbcb6cf49	-0.022315638
61	0x3c720359	0.014771306
62	0xbc051098	-0.008121632
63	0x3b98bfc7	0.0046615335
64	0x3d322341	0.043490652
65	0xbbf5e3ef	-0.0075039784
66	0x3c277d3b	0.010222728
67	0xbbe5777e	-0.00700277
68	0xbbee1f79	-0.0072669354
69	0x3ca77415	0.020441094
70	0xbc8124d0	-0.015764624
71	0x3c2a4480	0.010392308
72	0x3c68e0f6	0.014213791
73	0x3c681ee1	0.014167518
74	0xbc0aff55	-0.008483727
75	0x3ba3ef08	0.00500286
76	0xbc22a0cc	-0.009926032
77	0xbb825210	-0.003977068
78	0xbca6a717	-0.020343347
79	0xbca33425	-0.019922325
80	0x3be8d8f1	0.0071059396
81	0xbc728dce	-0.014804317
82	0xbcacd0cd	-0.021095658
83	0xba82f65a	-0.0009991631
84	0xbbde1e1e	-0.0067784926
85	0x3c4d6284	0.012535695
86	0xbd004673	-0.031317186
87	0x3c477a04	0.012175087
88	0xbc5b5d02	-0.013388874
89	0x3b8cfc07	0.004302505
90	0x3bf00524	0.0073248316
91	0x3cbe9c40	0.023267865
92	0xbc575ce6	-0.013144707
93	0x3c2e6034	0.010643054
94	0xb9ae249c	-0.00033215142
95	0x3c97f6a6	0.018550228
96	0xbcd06644	-0.025439389
97	0x3c7d1e12	0.015449064
98	0xbcc1b746	-0.023646962
99	0x3c59883d	0.013277111
100	0xbb957759	-0.0045613465
101	0xbb14126a	-0.0022593983
102	0x3c8785b5	0.016543249
103	0x3cae19c5	0.021252522
104	0x3ba3a1d5	0.004993657
105	0xbc97f68f	-0.018550185
106	0xbc8ac2b7	-0.01693855
107	0x3c810676	0.015750151
108	0xbc82ccf9	-0.01596688
109	0xbbc91617	-0.0061366665
110	0x3cbf34e3	0.023340648
111	0x3cdb5434	0.02677355
112	0x3bffdb52	0.0078081274
113	0xbccc44df	-0.024935184
114	0xbbd430ca	-0.0064755427
115	0xbbb2c91c	-0.005456103
116	0x3ccccdd5	0.025000492
117	0x38e27e0f	0.000108
118	0xbc8dbbaf	-0.017301409
119	0xbc974df4	-0.018469788
120	0x3c98fc5e	0.018675026
121	0x3c86c84a	0.016452927
122	0x3c11129f	0.008854537
123	0xbbd8c8cc	-0.0066157337
124	0x3c85c4a4	0.016329117
125	0x3c9622db	0.018327167
126	0x3c0c5f37	0.008567623
127	0xbba62b8f	-0.0050711106

weight f4 [3, 128]
0	0xbc3d4d33	-0.01155405
1	0x3bfdb323	0.007742302
2	0x3b22ff9b	0.002487159
3	0x3bc5350a	0.0060182856
4	0xbc28b51b	-0.010297085
5	0x3b13d11a	0.0022555054
6	0x3c56ecd8	0.013117991
7	0xbaad8327	-0.0013237939
8	0x3bcf6bfd	0.006330012
9	0x3c14a245	0.009071891
10	0x3bb02e0f	0.0053765844
11	0x3cc25652	0.023722801
12	0x3c1981c9	0.009369322
13	0xba6a3cae	-0.00089354336
14	0xbbdfb222	-0.006826655
15	0xbbc91aa7	-0.0061372104
16	0x3b088695	0.002083217
17	0xbb927386	-0.004469338
18	0xbb3196cc	-0.0027097939
19	0xbb3256cb	-0.0027212377
20	0x3c441caa	0.011969725
21	0x3bae9218	0.0053274743
22	0x3c707728	0.014676847
23	0xbc52e5b7	-0.012872151
24	0xbc6e5d83	-0.014548662
25	0x3bc4c23d	0.0060046003
26	0x3c062f5a	0.00819
27	0x3baeff88	0.0053405203
28	0xbc13655b	-0.008996333
29	0xbc4ccdca	-0.012500236
30	0xbb7cd8a1	-0.003858127
31	0xbb07dd60	-0.0020731315
32	0x3bbc3520	0.0057436377
33	0xbc040943	-0.008058849
34	0x3c9f3030	0.019432157
35	0x3c7b5bc2	0.015341701
36	0xba9aac57	-0.0011800629
37	0x3b4e7ae2	0.003150635
38	0x3aaae07f	0.0013036876
39	0xbc87a987	-0.01656033
40	0xbb81e666	-0.003964233
41	0x39d5a727	0.00040751064
42	0x3bdbd93a	0.006709245
43	0x3acbf97e	0.0015562025
44	0xbbd6987d	-0.0065489397
45	0x3cc207bb	0.023685327
46	0x3c77d921	0.015127451
47	0xbbc24e94	-0.0059297774
48	0x3aec1a5d	0.0018013228
49	0xbb99d83b	-0.004694966
50	0xbb99ae14	-0.004689941
51	0x3c8ffa77	0.017575486
52	0x3c3c9707	0.011510617
53	0x3bb7daa1	0.0056107794
54	0x3bdfb50f	0.006827004
55	0x3c2417fc	0.010015484
56	0xb8c56a96	-9.413545e-05
57	0xbb9010a9	-0.0043965173
58	0xbc57ab1e	-0.013163356
59	0xbb20677f	-0.002447575
60	0x39f68b22	0.00047024438
61	0xbc40ea0e	-0.011774553
62	0xbc366de2	-0.011134597
63	0xbab820a2	-0.0014047811
64	0xbb983856	-0.0046453876
65	0xbbec4751	-0.00721065
66	0xbb67e3d9	-0.003538361
67	0x3c50fb30	0.0127552
68	0xbaf46ba1	-0.0018647799
69	0xbb0607e1	-0.0020451474
70	0xba344dc3	-0.00068780425
71	0xbc524edf	-0.012836187
72	0x3b2e31ac	0.00265799
73	0x39e97a2f	0.00044532257
74	0xbc5070f3	-0.012722242
75	0x3c718b27	0.014742649
76	0xba60effb	-0.0008580682
77	0x3a486c20	0.00076455064
78	0x3b5b78fe	0.0033488865
79	0xbbb8bad9	-0.0056375084
80	0x3b524aa0	0.0032087937
81	0xba825e06	-0.0009946234
82	0x3c304802	0.0107593555
83	0x3b2339ac	0.0024906201
84	0x3ca5f6a7	0.020259215
85	0xbbf17ba5	-0.007369476
86	0x3c145073	0.009052384
87	0xbc2f55e0	-0.010701627
88	0x3be883da	0.007095796
89	0xbc79d20b	-0.015247832
90	0x3b8b4b36	0.004250909
91	0x3c08f0a7	0.008358157
92	0xbb4d05ec	-0.0031284047
93	0xbc5a9904	-0.013342146
94	0x3c5cc383	0.013474348
95	0xbbc293fb	-0.005938051
96	0xbc3f73d9	-0.011685335
97	0x3c092745	0.008371179
98	0xbb9451e5	-0.004526364
99	0xbb95cbab	-0.0045713983
100	0xbbe5d068	-0.0070133694
101	0x3b4f036d	0.0031587735
102	0x3c530b18	0.012881063
103	0x3c16a4c4	0.009194557
104	0x3c105dbc	0.0088114105
105	0x3c3b84c0	0.011445224
106	0xbc15d7b3	-0.009145665
107	0x3be1e54b	0.006893789
108	0xbb111fdd	-0.0022144236
109	0x3b2446cd	0.0025066615
110	0xbc0883f5	-0.008332242
111	0x3b831d5c	0.0040013026
112	0x3b546a6c	0.0032412065
113	0x3b783389	0.0037872514
114	0xb9f17ded	-0.00046060924
115	0x3ae3a57f	0.0017368047
116	0x3b85c86c	0.00408273
117	0x3bdb9e33	0.0067022084
118	0xba358f4b	-0.00069259544
119	0xbbd1f468	-0.0064073093
120	0x3bb665c3	0.00556633
121	0xba1684fd	-0.00057418627
122	0xba0b7e50	-0.0005321251
123	0xbb93bae1	-0.0045083617
124	0xbc74a44f	-0.014931752
125	0xbc4bacd4	-0.012431342
126	0x3b578a99	0.0032889007
127	0xbb32c903	-0.0027280457
128	0x3b2fe6de	0.0026840488
129	0xbb41b4da	-0.0029557259
130	0xbb9236f3	-0.004462117
131	0x3c600dac	0.013675135
132	0x3c1215be	0.008916317
133	0xbbede907	-0.007260445
134	0x3c4bee62	0.012446972
135	0xbb7054cd	-0.003667164
136	0xbb7f8bdb	-0.0038993272
137	0x3c239bbf	0.009985863
138	0xba74d152	-0.00093390525
139	0x3c91a4bd	0.017778749
140	0x3b0c4c18	0.002140766
141	0xbcb6be96	-0.022307675
142	0x3c37a5d4	0.01120897
143	0x3c818031	0.015808197
144	0x3b2ad10f	0.002606455
145	0xbb63ab98	-0.003473973
146	0x3c82e3d0	0.01597777
147	0xbbbdf27f	-0.00579673
148	0xbba7c61f	-0.0051200534
149	0x3c6616c2	0.014043512
150	0x3bd8bc6b	0.006614258
151	0xb96b68e9	-0.00022450429
152	0xb9f43de8	-0.0004658543
153	0xbb73992b	-0.0037170153
154	0x3bfacda0	0.007653907
155	0xbc06deb1	-0.008231805
156	0x3c3fe94b	0.011713336
157	0xbacdf774	-0.0015714006
158	0x3c7056dc	0.014669146
159	0xbacaac0f	-0.0015462654
160	0xbbebc7cd	-0.007195449
161	0xbaa030e3	-0.0012221601
162	0x3c46b91b	0.0121290935
163	0xbbd96703	-0.0066345944
164	0xbbb3593d	-0.0054732845
165	0x3b7572e6	0.0037452518
166	0xb9a6d067	-0.0003181726
167	0xbc0a869a	-0.008454943
168	0x3bf4aeff	0.00746715
169	0x3c58e92c	0.013239186
170	0x3aae66ed	0.0013305821
171	0xbc340b30	-0.010988995
172	0x3b90d3e4	0.0044197906
173	0xbc1d7f17	-0.00961282
174	0xbb9ae7b4	-0.004727328
175	0xbb81f042	-0.0039654085
176	0xbc779508	-0.015111215
177	0x3c091920	0.008367807
178	0xbb38c4ff	-0.002819359
179	0xbb15678e	-0.002279732
180	0x3b9a6a74	0.004712397
181	0x3c253e93	0.01008572
182	0x3bb21c7e	0.0054355254
183	0x3c02a0c2	0.007972898
184	0xbc041b06	-0.0080630835
185	0x3a3c7ae5	0.00071899436
186	0xbaa2cbe2	-0.0012420381
187	0x3b52938e	0.0032131406
188	0x3b5e057b	0.0033877778
189	0x3bd2c88c	0.0064325985
190	0xbb7de7a8	-0.0038742814
191	0xbc26dd3b	-0.010184581
192	0x3c6c4f3e	0.01442319
193	0x3c53c9ff	0.012926578
194	0x3b573ef7	0.0032843926
195	0xbc1aa59d	-0.009438899
196	0xbb15200f	-0.0022754704
197	0x3bea76fd	0.007155298
198	0xbc0b5c1d	-0.008505848
199	0x3aa5566d	0.0012614258
200	0xbb8603eb	-0.0040898225
201	0xbc977482	-0.018488172
202	0x3c506510	0.012719408
203	0xb8b11a20	-8.444884e-05
204	0x3b8999e2	0.0041992525
205	0xb96a409f	-0.00022340052
206	0xbb61a7da	-0.0034432323
207	0xbc639753	-0.013891059
208	0x3c43b576	0.011945119
209	0x3a550e05	0.0008127394
210	0xbc255133	-0.01009016
211	0x3b93bd2e	0.004508636
212	0x3c6df64a	0.014524052
213	0x3b150f53	0.002274473
214	0x3c0ea330	0.008705899
215	0x39abf208	0.0003279599
216	0x3aa6a904	0.0012715166
217	0xbca2da53	-0.019879496
218	0x3c0bcd7a	0.008532876
219	0xbbbef572	-0.005827599
220	0x3b97f774	0.004637653
221	0x3be6ec40	0.007047206
222	0x3b8126c0	0.003941387
223	0x3c10edbf	0.008845746
224	0xbc0ce81a	-0.008600259
225	0x3c2f65e3	0.010705444
226	0x3b3f6209	0.002920272
227	0xbc35f67a	-0.011106128
228	0x3a870800	0.0010302067
229	0x3ba8d477	0.005152281
230	0xbc4fdbab	-0.01268665
231	0x3bf9d172	0.007623845
232	0x3b366337	0.0027830133
233	0xbadd5260	-0.0016885512
234	0x3b2e01d3	0.002655138
235	0x398e1001	0.00027096274
236	0xbb0c54ab	-0.002141277
237	0x3c626fd6	0.013820609
238	0x3c9f5ab3	0.019452428
239	0x3b96af21	0.0045985137
240	0x3c0b07d6	0.008485755
241	0x3c0c605e	0.008567898
242	0x3b1a2f7b	0.0023526836
243	0x3c577563	0.013150546
244	0xba019455	-0.00049430627
245	0xb91cdd6e	-0.00014959808
246	0xbc47732d	-0.012173456
247	0x3c1b375b	0.009473647
248	0x3bb47aa7	0.0055077854
249	0xbc562bcc	-0.013071965
250	0xba3034ec	-0.0006721753
251	0xbba6d4da	-0.005091292
252	0xba05e0da	-0.0005107053
253	0xbbe4df9f	-0.0069846655
254	0xbc916bb8	-0.01775156
255	0x3af01675	0.001831724

bias f4 [3]
0	0x3a8270dc	0.0009951848
1	0x3b4314ad	0.0029766962
2	0xbb309ab4	-0.002694768

weight f4 [1, 128]
0	0x3c49fe66	0.01232872
1	0x3cc5afef	0.024131743
2	0x3c770c7d	0.015078661
3	0x3c84053a	0.016115773
4	0xbc4eaf86	-0.01261509
5	0xbcb78a81	-0.022404911
6	0xbbba887f	-0.005692541
7	0x3c923c34	0.017850973
8	0xbcdfc442	-0.027315263
9	0x3bba3c16	0.0056834323
10	0x3c5a0458	0.0133067
11	0xbcb11388	-0.021615759
12	0x3ccf1add	0.025281364
13	0x3c3e7d84	0.011626605
14	0x3beb9a84	0.0071900506
15	0x3c26e089	0.010185369
16	0x3c2dc80a	0.010606775
17	0x3ba98a8e	0.0051739877
18	0xbc585739	-0.013204389
19	0x3c5a6700	0.013330221
20	0xbc697172	-0.014248239
21	0x3c8d5582	0.017252687
22	0xbc699274	-0.014256109
23	0x3c8c5ffd	0.017135615
24	0xbae92038	-0.0017786091
25	0x3c0f2748	0.008737393
26	0xbc832394	-0.016008176
27	0x3cb12a91	0.021626743
28	0xbb28f96e	-0.0025783437
29	0xbc56c308	-0.0131080225
30	0x3c551801	0.013006211
31	0x3ca8393b	0.020535102
32	0x3bf90ae0	0.0076001734
33	0x3d03b94a	0.032159127
34	0xbb6bc5c1	-0.0035976025
35	0x3bc4247d	0.005985795
36	0x3ce524e2	0.027971689
37	0x3c572a5a	0.013132656
38	0xbc9e6032	-0.019332979
39	0xbca0cd2a	-0.01962908
40	0x3b5fedb6	0.0034168786
41	0x3bfcc308	0.007713679
42	0x3b60d88b	0.0034308757
43	0x3c41ac30	0.011820838
44	0xbcbb21e1	-0.022843303
45	0xbc62f66f	-0.0138527
46	0xbc1a53fb	-0.009419437
47	0xbc5f2a95	-0.013620992
48	0xbc3f7808	-0.0116863325
49	0xbc853e79	-0.01626514
50	0x3bb78fc1	0.0056018536
51	0xbc20547c	-0.009785768
52	0xbc937534	-0.018000223
53	0x3c75dcb3	0.015006232
54	0x3c959e2e	0.018263903
55	0x3c08a0af	0.008339091
56	0x3b3e3609	0.0029023907
57	0xbc4bb927	-0.0124342805
58	0xbbed5e31	-0.0072438945
59	0x3c418791	0.011812107
60	0xbcb7b28d	-0.022424007
61	0xbc701022	-0.014652284
62	0xbc181526	-0.009282386
63	0x3c4d28c6	0.012521928
64	0x3c2e1f2d	0.01062755
65	0xbca08436	-0.019594293
66	0x3c517011	0.012783066
67	0x3b355f69	0.0027675277
68	0xbc1975a0	-0.009366423
69	0x3c9f51dd	0.019448215
70	0xbccaab94	-0.024740018
71	0x3b963fb4	0.0045852307
72	0x3b9b240a	0.004734521
73	0x3aa9e0b1	0.001296064
74	0xbc8a3835	-0.016872505
75	0x3c96fcc9	0.018431084
76	0x3c7e1f55	0.0155104
77	0xbc40dda9	-0.011771598
78	0xbbead3b4	-0.0071663503
79	0x3be1199b	0.0068695075
80	0x3c3d5d33	0.011557865
81	0xbbdc4a4b	-0.0067227236
82	0x3b2c78f8	0.002631722
83	0xbb18a162	-0.002328955
84	0xbc68eb40	-0.014216244
85	0xbaebbc73	-0.0017985239
86	0xbc61cc0b	-0.013781558
87	0x3c6e7b41	0.014555753
88	0xbc93b776	-0.018031817
89	0x3c22c0f5	0.0099337
90	0xbac8a990	-0.0015309323
91	0x3cec10c2	0.028816584
92	0xbb5479d3	-0.0032421246
93	0x3ba9cfb5	0.0051822313
94	0x3c31e5d2	0.010858016
95	0x3c0ea723	0.008706841
96	0xbc9d0e10	-0.019171745
97	0x3b86ddd9	0.004115802
98	0xbcc34ec5	-0.023841271
99	0x3c7b389b	0.01533332
100	0xbca5519f	-0.020180522
101	0xbc54d28e	-0.012989653
102	0x3be9a555	0.007130305
103	0x3cd34cdf	0.025793491
104	0x3cc1fba5	0.023679564
105	0x3c4edef2	0.0126263965
106	0xbcb65613	-0.02225784
107	0x3bf62a9e	0.0075124046
108	0xbb19fd60	-0.002349697
109	0xbc3a0482	-0.011353614
110	0x3cc4eff9	0.02404021
111	0x3c20208f	0.009773388
112	0x3ba40ee2	0.005006657
113	0xb9c12661	-0.00036840423
114	0xbc2c7c89	-0.010527738
115	0xbc913021	-0.017723145
116	0x3c591192	0.013248818
117	0x3c556eeb	0.013026933
118	0xbbd8c033	-0.006614709
119	0xbc6aad01	-0.014323474
120	0x3ce14cad	0.027502382
121	0xba055226	-0.00050857884
122	0x3ca49f33	0.020095443
123	0xbc43723a	-0.011929089
124	0x3be3efcd	0.0069560767
125	0x3c7c9c27	0.015418089
126	0x3c81262b	0.01576527
127	0xbc90a73a	-0.017657865
