TradeSimulator-v0_D3QN_-1/actor_00293880_491.904.pth (torch, 152106 bytes, 14 tensors)

state_avg f4 [10]
0	0x3e53bbfb	0.20677178
1	0x3a40be88	0.000735261
2	0xbbb56da0	-0.00553675
3	0x3e3ca73a	0.18423167
4	0x3b2d13fc	0.0026409617
5	0xbc02d244	-0.007984702
6	0xbd82d143	-0.0638757
7	0x3e7b1d5f	0.24522923
8	0x3b790665	0.0037998196
9	0xbc818e89	-0.015815036

state_std f4 [10]
0	0x3f5b63d1	0.8569918
1	0x3f3c6abd	0.7360037
2	0x3f6170da	0.8806282
3	0x3f6ddf9c	0.92919326
4	0x3f54d23b	0.83133286
5	0x3f4beb79	0.7965618
6	0x3f7eb4b2	0.9949447
7	0x3f57a2db	0.8423287
8	0x3f527b72	0.8221961
9	0x3f4c7a62	0.7987424

weight f4 [128, 10]
0	0x3e2a2aed	0.16617937
1	0xbd4f1027	-0.050552513
2	0xbd6c2c66	-0.05765953
3	0x3e2d087d	0.1689777
4	0xbe944f61	-0.2896681
5	0x3e5efb83	0.21775632
6	0xbda88b67	-0.08229714
7	0x3e303804	0.17208868
8	0x3d162ab2	0.03666181
9	0xbd305ebb	-0.043059092
10	0x3dc1ce23	0.094631456
11	0x3ebc4329	0.3676999
12	0x3e02a72e	0.12759086
13	0xbdede6d8	-0.116162956
14	0xbd211a37	-0.03933164
15	0xbd1f9350	-0.038958848
16	0x3d2e7eb6	0.04260131
17	0xb87c4721	-6.0147726e-05
18	0x3e8bb7a7	0.27288553
19	0x3dee0ea0	0.11623883
20	0xbdf1051f	-0.11768555
21	0xbef1664b	-0.47148356
22	0xbd84df91	-0.064879544
23	0xbe114c55	-0.14189275
24	0xbdd791dd	-0.10525868
25	0x3b9fe17c	0.0048791748
26	0x3e45ae47	0.19304763
27	0x3e347a31	0.17624737
28	0xbe8d3974	-0.27582896
29	0x3e3e7e8d	0.18602963
30	0x3db303b8	0.08740944
31	0x3d116253	0.03549416
32	0x3e654212	0.22388485
33	0xbe985133	-0.2974945
34	0xbe811cc0	-0.25217247
35	0xbe1d2808	-0.15347302
36	0x3e94ec04	0.29086316
37	0xbd53011e	-0.051514737
38	0x3e09a4f3	0.1344183
39	0xbdfcfcb9	-0.123528905
40	0x3e9b31f6	0.30311555
41	0xbeffec8e	-0.49985164
42	0x3e600a8a	0.2187902
43	0x3cb35851	0.021892698
44	0xbe226eb8	-0.15862548
45	0x3e280410	0.164078
46	0xbe3cdea2	-0.18444303
47	0x3de1de6f	0.11028754
48	0xbdb2ee37	-0.08736842
49	0xbd18ebbb	-0.037334185
50	0xbea54200	-0.32276917
51	0xbe3d7ee5	-0.18505438
52	0x3e2883f4	0.16456586
53	0xbdc107a1	-0.09425283
54	0x3e9f70f7	0.31140873
55	0x3e68af64	0.22723156
56	0xbc63cbf1	-0.013903604
57	0xbe40cf95	-0.18829186
58	0x3e43b7b2	0.19113043
59	0x3da6ee0d	0.08150873
60	0xbe4eacc5	-0.20183094
61	0xbe35f40e	-0.1776888
62	0x3e4192c5	0.18903644
63	0x3e958938	0.29206252
64	0xbe338ac4	-0.17533404
65	0xbd78225a	-0.060579635
66	0xbbf405ab	-0.0074469647
67	0x3d21da50	0.03951484
68	0xbe6e697e	-0.2328243
69	0xbe538d83	-0.20659451
70	0x3e360d58	0.17778528
71	0xbebc91e9	-0.3683007
72	0x3e13cf61	0.14434578
73	0x3cb170eb	0.021660289
74	0x3dd3a9a5	0.103350915
75	0x3d5eec3d	0.054424513
76	0x3dceaf1d	0.10091994
77	0x3e2e5545	0.17024715
78	0xbe870f54	-0.26378882
79	0x3e0de3e5	0.13856466
80	0xbe74e00d	-0.23913594
81	0xbe34806e	-0.17627117
82	0x3cc37e23	0.023863858
83	0xbd65ad6b	-0.056073587
84	0x3e3ed986	0.18637666
85	0xbe53b62a	-0.20674959
86	0xbe89064e	-0.26762623
87	0x3e7394b2	0.23787192
88	0xbd78b49b	-0.060719114
89	0x3e473459	0.19453563
90	0x3dc1f16a	0.09469874
91	0xbf18a729	-0.59630066
92	0x3d7d838e	0.06189304
93	0x3da45903	0.0802479
94	0xbe5de8ce	-0.21670839
95	0xbe15c1d4	-0.14624721
96	0x3dda7eeb	0.10668739
97	0x3d817a37	0.06322139
98	0xbe13909a	-0.1441063
99	0xbdc6c1ee	-0.09704958
100	0x3e953996	0.29145497
101	0xbeb33040	-0.3499775
102	0x3e37243e	0.17884919
103	0x3e05abc2	0.13053802
104	0xbe35ffb2	-0.17773321
105	0xbe86c348	-0.26320863
106	0x3e9aeceb	0.3025888
107	0x3c84b99e	0.01620179
108	0x3e56281b	0.20913737
109	0x3d41ac00	0.047283173
110	0x3dc7d4fd	0.09757421
111	0xbd44612d	-0.047944237
112	0x3e94a550	0.29032373
113	0xbe528b64	-0.20560986
114	0x3d480110	0.04882914
115	0x3e6867fa	0.22695914
116	0x3e723680	0.23653603
117	0x3e555b1b	0.20835535
118	0xbe403e48	-0.18773758
119	0xbe5297fe	-0.20565793
120	0xbe39fd23	-0.1816297
121	0xbe89a76f	-0.26885554
122	0x3e983441	0.29727367
123	0xbe53809d	-0.20654531
124	0x3e2a2e9b	0.16619341
125	0xbe17f525	-0.14839609
126	0xbe98de0d	-0.2985691
127	0xbd844dd8	-0.0646016
128	0x3e32ec3b	0.17472927
129	0x3e92671a	0.28594285
130	0xbe3edf3c	-0.18639845
131	0x3db0249b	0.08600732
132	0x3e860055	0.26172128
133	0x3e53856b	0.20656364
134	0x3e42fe19	0.19042243
135	0x3e809231	0.25111535
136	0x3e522021	0.20520069
137	0x3dda13ee	0.106483325
138	0xbe3b59de	-0.18296
139	0xbe858698	-0.2607925
140	0xbe1351f6	-0.14386734
141	0x39e99dd2	0.00044558808
142	0xbe4263eb	-0.18983428
143	0x3df56dea	0.11983855
144	0x3dae13d9	0.084998794
145	0xbd843906	-0.06456189
146	0x3de12505	0.10993389
147	0x3dc18885	0.09449867
148	0x3e436d3a	0.19084635
149	0x3e3877a1	0.18014385
150	0xbde01a08	-0.10942465
151	0xbd9aa1c8	-0.075503886
152	0xbd358da8	-0.044324547
153	0xbc2d29d2	-0.010569053
154	0xbe8e2b33	-0.27767333
155	0xbe3f877c	-0.18704027
156	0xbe4787ef	-0.19485448
157	0xbe14a147	-0.14514647
158	0x3e61bb5f	0.22044133
159	0xbddf2b2b	-0.108969055
160	0xbe7f6395	-0.24940331
161	0x3e0351d4	0.12824184
162	0x3dcb9447	0.09940391
163	0x3e49c740	0.19704914
164	0xbe244c8f	-0.1604483
165	0x3d55699a	0.052102663
166	0xbdc947d2	-0.09828152
167	0xbda302a6	-0.079594895
168	0xbe7ddc60	-0.24791098
169	0xbe1e6b81	-0.15470697
170	0xbdba1b0e	-0.090871915
171	0xbdeafb77	-0.11473744
172	0x3d831c06	0.064018294
173	0x3dad3fe0	0.08459449
174	0x3e9dbee1	0.30809692
175	0x3e90430f	0.28176162
176	0x3e7880dc	0.24267906
177	0x3c45c224	0.0120702125
178	0xbe4ed6ea	-0.2019917
179	0x3e6d93bd	0.23200889
180	0xbd9ab932	-0.075548545
181	0xbec94dda	-0.3931721
182	0xbe8490a0	-0.2589159
183	0xbd723a4d	-0.05913763
184	0xbe3bd896	-0.1834434
185	0x3e76e8e0	0.24112272
186	0xbe97f297	-0.2967727
187	0xbe803ba0	-0.2504549
188	0xbc3568dd	-0.011072365
189	0xbe2de9c5	-0.16983707
190	0x3de5e934	0.112261206
191	0xbe5a472e	-0.21316215
192	0xbe1842a9	-0.14869179
193	0x3c808300	0.015687466
194	0x3e64112b	0.22272174
195	0xbe54cb10	-0.20780587
196	0x3e1e63e4	0.15467793
197	0x3e52854a	0.20558658
198	0x3e96af39	0.2943056
199	0xbe6f6404	-0.23377997
200	0x3dbaf90c	0.09129533
201	0x3d9cfbc9	0.07665212
202	0x3e8f1a5d	0.279498
203	0xbdd6adfe	-0.10482405
204	0x3e501aa0	0.20322657
205	0xbc80d64b	-0.015727183
206	0xbcb831ba	-0.022484649
207	0x3b220a12	0.002472524
208	0x3d3e5fbe	0.046478026
209	0x3e177e49	0.14794268
210	0x3d541542	0.051778086
211	0xbe32d671	-0.17464615
212	0xbe8111f6	-0.25209016
213	0x3e7d4c1c	0.24736065
214	0x3e74eff8	0.23919666
215	0x3e5f5372	0.21809176
216	0x3e816e5d	0.25279513
217	0xbe694924	-0.22781807
218	0xbdd66639	-0.10468716
219	0x3e8f0455	0.27932993
220	0xbe6be3df	-0.23036145
221	0xbc4d54a9	-0.012532392
222	0xbe7e8fe1	-0.24859573
223	0xbe6d476c	-0.23171777
224	0x3e1a7b90	0.15086198
225	0xbe51858b	-0.20461099
226	0xbdaf70d9	-0.08566446
227	0x3e7903d6	0.2431787
228	0x3e869bd7	0.2629077
229	0x3e8f616f	0.28004023
230	0xbd5ec01d	-0.054382432
231	0xbf27b8b5	-0.65516216
232	0x3e96fdfa	0.29490644
233	0xbd81121f	-0.063022844
234	0xbdefa47b	-0.11701294
235	0x3daba5c6	0.08381228
236	0xbe6c6f1b	-0.23089258
237	0x3e65a7d1	0.22427298
238	0x3e422050	0.18957639
239	0xbe84a787	-0.25909063
240	0xbe86ad39	-0.26304033
241	0xbe32a6d5	-0.17446454
242	0x3de817f5	0.113326944
243	0x3c1fe89a	0.009760046
244	0xbe110909	-0.14163603
245	0x3c9a2e3d	0.018820876
246	0xbea1a320	-0.31569767
247	0xbe5e7fad	-0.21728392
248	0xbe623bf9	-0.2209319
249	0x3e641e3a	0.22277156
250	0x3e8f3e7a	0.27977353
251	0xbead98b4	-0.33905566
252	0x3c146ec9	0.009059616
253	0x3e192576	0.14955696
254	0x3d213175	0.039353807
255	0xbe288994	-0.16458732

bias f4 [128]
0	0x3cb224cb	0.02174606
1	0xbbb458f5	-0.0055037686
2	0x3d748a51	0.05970222
3	0xb9ad89da	-0.0003309984
4	0x3e410d49	0.18852724
5	0x3c72a55a	0.014809931
6	0x3e684d78	0.22685802
7	0x3db08b2f	0.08620297
8	0x3bbd02e4	0.005768167
9	0x3d699a00	0.05703163
10	0x3e6daecb	0.2321121
11	0x3d7a5c4d	0.06112318
12	0x3e733e7a	0.23754302
13	0xbc8496fa	-0.016185272
14	0x3b51a31c	0.003198809
15	0x3e8b830f	0.27248427
16	0xbe9bf7ee	-0.30462593
17	0x3d3d7a15	0.046259005
18	0x3e9b7621	0.30363563
19	0xbe1b1b7c	-0.15147203
20	0xbd425853	-0.047447514
21	0xbba21a4f	-0.004946984
22	0x3df6c093	0.12048449
23	0x3e0ee9d8	0.13956392
24	0x3db4e25c	0.08832237
25	0x3e0685ce	0.1313698
26	0xbe0387b6	-0.12844738
27	0x3e1712d2	0.14753273
28	0xbdcd49a9	-0.10023815
29	0x3e5e581a	0.21713296
30	0xbda19846	-0.07890372
31	0xbe896a7f	-0.26839063
32	0x3d1cab5e	0.038249366
33	0x3e48a7af	0.19595216
34	0xbb31f5ed	-0.002715464
35	0xbbbe71f6	-0.005811925
36	0x3bf714ef	0.0075403373
37	0x3e395e53	0.18102388
38	0x3cbd0334	0.023072816
39	0xbe991294	-0.29896986
40	0xbe642b6b	-0.22282188
41	0x3cfe579c	0.031047635
42	0xbc27ca35	-0.010241081
43	0x3ea66be6	0.32504195
44	0xbd453dc1	-0.048154596
45	0x3e7c5ff4	0.24645978
46	0xbe814e01	-0.25254825
47	0xbe9ad5bd	-0.30241194
48	0xbc81e686	-0.015856992
49	0xbe55c500	-0.20875931
50	0xbda87553	-0.08225503
51	0x3d072cf4	0.033001855
52	0xbe866846	-0.2625143
53	0x3e7472f2	0.23871973
54	0xbe354598	-0.17702329
55	0x3e8673b6	0.26260155
56	0x3ddbedf9	0.10738749
57	0xbd4063cb	-0.04697017
58	0xbe8924fa	-0.26786023
59	0x3d4ec6b5	0.05048247
60	0xbe2b15d3	-0.16707544
61	0x3e931454	0.28726447
62	0xbe853cd7	-0.2602298
63	0xbda963a5	-0.08270959
64	0xbe236305	-0.15955742
65	0xbe46d40c	-0.19416827
66	0xbe3e4d5e	-0.185842
67	0xbc832068	-0.016006663
68	0x3ccc9350	0.024972588
69	0x3d9e9693	0.077435635
70	0x3e301d98	0.17198789
71	0xbde7d25c	-0.1131942
72	0xbe5e4aa1	-0.21708156
73	0xbd714194	-0.05890043
74	0x3ea208d1	0.3164735
75	0xbd1d2a4d	-0.03837042
76	0xbe8b7582	-0.2723809
77	0x3e87a2d8	0.26491427
78	0x3d8e52ed	0.069494106
79	0x3da429fe	0.08015822
80	0x3d7dffaa	0.0620114
81	0x3e676982	0.22598842
82	0xbe172776	-0.14761147
83	0x3e80800b	0.2509769
84	0x3ea53465	0.32266536
85	0xbd983245	-0.07431463
86	0x3e5feb42	0.21867087
87	0x3e441bfb	0.19151299
88	0x3ea0d227	0.31410334
89	0xbd897631	-0.06711996
90	0xbe40613c	-0.18787092
91	0xbde33d1d	-0.11095641
92	0xbe56ad95	-0.20964654
93	0x3cc4d51f	0.024027405
94	0x3ea62e29	0.32457092
95	0x3ea583a8	0.32327008
96	0x3e792611	0.24330927
97	0x3d1b680e	0.03794103
98	0x3cb9ab2c	0.022664629
99	0x3e60da1c	0.21958202
100	0x3e58ce25	0.21172388
101	0xbd033ec0	-0.032042265
102	0xbd9d801a	-0.07690449
103	0x3e0980a8	0.13427985
104	0x3c6a55e3	0.014302704
105	0xbe4e715d	-0.20160432
106	0xbe166606	-0.14687356
107	0x3e88e9c8	0.2674086
108	0x3e8dba3e	0.27681154
109	0xbde48fda	-0.1116025
110	0xbd705d05	-0.05868246
111	0xbe19c1c1	-0.15015317
112	0xbdce06d9	-0.100599
113	0x3e98089f	0.29694077
114	0xbe9e6d9a	-0.30942994
115	0x3e16c755	0.14724477
116	0xbe912087	-0.2834513
117	0xbe1383a2	-0.14405683
118	0xbd441400	-0.047870636
119	0x3cc153d9	0.023599552
120	0xbd213d06	-0.039364837
121	0xbe176d46	-0.14787778
122	0xbe099b64	-0.13438183
123	0xbe53d3d9	-0.20686282
124	0xbe646bd4	-0.22306758
125	0xbe480956	-0.19534811
126	0x3ea76740	0.3269596
127	0xbe09cd1a	-0.13457146

weight f4 [128, 128]
0	0xbda8ebaf	-0.08248078
1	0x3d8ac838	0.0677647
2	0x3d247cef	0.04015821
3	0x3d8efd44	0.069819
4	0xbdae39f8	-0.085071504
5	0xbd98f71e	-0.07469009
6	0xbd7bed85	-0.061505813
7	0xbd49a6b8	-0.04923126
8	0xbc507e67	-0.012725449
9	0x3d375215	0.044756014
10	0x3d695146	0.056962274
11	0xbd82afc9	-0.063811846
12	0x3d107a06	0.03527262
13	0xbd39cf68	-0.045363814
14	0x3c4bc8fd	0.012438056
15	0x3d27edcb	0.04099826
16	0x3c860da0	0.016363919
17	0x3d0de421	0.03464139
18	0x3ae86682	0.0017730745
19	0x3d4c246b	0.04983942
20	0x3ca2b25b	0.019860437
21	0x3da8e470	0.08246696
22	0x3c84cafe	0.016210075
23	0xbd23d5b5	-0.03999873
24	0x3d5247fe	0.05133819
25	0x3a7a733e	0.00095539156
26	0x3dbeb865	0.09312514
27	0xbc518130	-0.012787148
28	0x3da26edf	0.07931303
29	0xbd5de55c	-0.054173812
30	0x3d298cd3	0.041394066
31	0xbd89bae3	-0.06725099
32	0x3d67eee3	0.056624305
33	0x3cbf0af3	0.02332065
34	0x3d866bb3	0.06563511
35	0xbd97e276	-0.07416241
36	0xbdb338b8	-0.087510526
37	0x3d2d67aa	0.04233519
38	0xbcba854c	-0.022768639
39	0x3d1c98fb	0.03823183
40	0xbd491ea9	-0.049101505
41	0xbcc443b5	-0.023958066
42	0x3cb5c71e	0.022189673
43	0x3d6295df	0.05531871
44	0x3d17786a	0.03698007
45	0x3b606002	0.0034236913
46	0xbcf3b234	-0.02974806
47	0x3b9253ca	0.004465555
48	0x3ced6ddb	0.028983047
49	0xbd85b173	-0.065279864
50	0xbc93f25f	-0.018059907
51	0xbda94880	-0.082657814
52	0x3a9f0652	0.0012132621
53	0xbbdff308	-0.0068343915
54	0x3d5635bc	0.05229734
55	0x3daea7e9	0.0852812
56	0xbd8b5f95	-0.0680534
57	0xbd02d9ff	-0.03194618
58	0xbd562a68	-0.052286536
59	0x3ae6569e	0.0017573421
60	0xbd222007	-0.039581325
61	0xbd649a08	-0.05581096
62	0xbd16642e	-0.036716633
63	0xbbdc992b	-0.006732126
64	0x3d4bd79b	0.049766164
65	0xbcc4d2f8	-0.024026379
66	0x3d83b741	0.06431437
67	0xbd8dcbed	-0.069236614
68	0x3bb8b6fd	0.0056370483
69	0xbd682257	-0.056673374
70	0xbdbd1e8d	-0.09234343
71	0x3c412a02	0.011789801
72	0xbd229d7d	-0.039700974
73	0x3d8978de	0.06712507
74	0x3d89d776	0.06730549
75	0xbd9ba56e	-0.075999126
76	0xbad9cb31	-0.0016616342
77	0xbbb57291	-0.005537339
78	0xbd2d1a5a	-0.04226146
79	0xbd2ae905	-0.04172613
80	0xbd4adecc	-0.049528882
81	0x3d4a32fa	0.04936502
82	0x3bf905ff	0.0075995917
83	0x3d8cc872	0.068741694
84	0xbc125755	-0.008931954
85	0x3d38370e	0.04497438
86	0x3c921c79	0.017835842
87	0xbc9ede0c	-0.01939299
88	0xbc42e032	-0.011894273
89	0xbdb6de4a	-0.08929117
90	0xbc63f314	-0.013912935
91	0xbcbd1963	-0.023083394
92	0xbd51f422	-0.051258214
93	0xbcde63f5	-0.027147273
94	0xbd0f66a5	-0.03501
95	0xbd852456	-0.06501071
96	0x3c52e1e5	0.01287124
97	0xbb1dc5dd	-0.0024074235
98	0xbcf45cd9	-0.02982943
99	0x3db84b29	0.08998711
100	0x3d952119	0.072817035
101	0x3d2b4431	0.04181308
102	0xbd31766f	-0.043325838
103	0xb9aa319f	-0.00032461897
104	0xbd8d5e2a	-0.06902726
105	0x3d7608aa	0.060066856
106	0x3d9b5155	0.07583872
107	0xbc4c1e6e	-0.012458427
108	0x3d82188a	0.06352337
109	0x3d9c0d65	0.07619742
110	0xbc3197cb	-0.010839413
111	0xbd04d49f	-0.032429334
112	0xbc1b3ecc	-0.009475421
113	0x3c5201b2	0.012817787
114	0xbdb05ae6	-0.086110875
115	0x3c243751	0.010022954
116	0xbd07b8d3	-0.033135246
117	0x3d83a3ec	0.0642775
118	0xbcc4aa84	-0.02400709
119	0x3d8c2e34	0.0684475
120	0x3d6ad385	0.057330627
121	0xbce003f1	-0.02734563
122	0x3cdcb4f1	0.026941748
123	0xbc746d21	-0.0149185965
124	0xbd0057ab	-0.031333607
125	0xbd1bd184	-0.038041607
126	0x3be0c5c3	0.0068595125
127	0x3cf58e8b	0.029975196
128	0xbc2f2aae	-0.010691328
129	0x3c421da2	0.011847885
130	0x3d78cb85	0.060740966
131	0x3d2785fd	0.040899266
132	0x3d2da7df	0.042396422
133	0x3cfe56df	0.031047283
134	0xbd7a24bc	-0.06107019
135	0xbd52f080	-0.05149889
136	0xbd7b53bb	-0.06135915
137	0x3d81d181	0.06338788
138	0xbd983cef	-0.07433497
139	0xbd7a74e1	-0.06114662
140	0x3d7430cf	0.05961686
141	0x3d595e2d	0.05306833
142	0xbda35f00	-0.07977104
143	0x3d66745e	0.05626332
144	0xbcb2ff5e	-0.021850284
145	0x3ca3af8e	0.019981172
146	0xbd3b7089	-0.04576162
147	0xbc5d1154	-0.013492901
148	0x3c87e7b8	0.016589984
149	0x3d885d61	0.066584356
150	0x3d6abaca	0.057307042
151	0xbd29439b	-0.04132424
152	0xbd67fd0e	-0.056637816
153	0x39a14eec	0.00030767114
154	0x3cefb8bb	0.029262891
155	0x3d6cc01d	0.0578004
156	0xbdae3e68	-0.08507997
157	0x3b28e52b	0.002577136
158	0x3c3b7b3d	0.0114429565
159	0xbd304e45	-0.043043394
160	0x3da0f1c0	0.0785861
161	0xbc6e04a8	-0.014527477
162	0xbd9bccf4	-0.07607451
163	0xbd4180d7	-0.047242012
164	0x3bdf7849	0.006819759
165	0xbd68c126	-0.056824826
166	0x3ca779b1	0.02044377
167	0x3d9ef874	0.077622324
168	0x3c4814c5	0.012211983
169	0xbc30383f	-0.010755598
170	0x3dbe55b9	0.09293694
171	0x3d9773e6	0.07395153
172	0x3d7da7aa	0.061927475
173	0x3c713695	0.014722486
174	0x3c184e87	0.009296066
175	0xbd791b66	-0.060817145
176	0x3c7bd369	0.015370228
177	0x3dc4f84c	0.09617671
178	0x3c4db299	0.012554788
179	0xbd95fb67	-0.07323342
180	0x3d105162	0.035233863
181	0x3daa9111	0.083284505
182	0x3da77a2d	0.081776
183	0x3c72b079	0.014812582
184	0x3ccfeede	0.025382455
185	0x3cb0e522	0.021593634
186	0xbd138782	-0.036017902
187	0xbc3dec24	-0.011591945
188	0x3d883410	0.06650555
189	0x3c95b8e9	0.018276649
190	0x3da4e8b5	0.08052198
191	0xbd83293a	-0.06404348
192	0xbc0ed928	-0.008718766
193	0x3b63c11d	0.0034752556
194	0xbd264483	-0.04059268
195	0x3d974a31	0.07387198
196	0x3d844b48	0.06459671
197	0xbd257fc2	-0.040405042
198	0x3da96d51	0.082728036
199	0x3d9aeeb3	0.075650595
200	0xbd472680	-0.0486207
201	0x3a75b083	0.00093723106
202	0x3dbc8931	0.09205855
203	0xbd61a63c	-0.055090174
204	0xbc12b687	-0.008954651
205	0xbd617594	-0.055043772
206	0x3d93f6b4	0.07224789
207	0x3cad0a7f	0.021123169
208	0x3d27888a	0.0409017
209	0x3d950087	0.07275491
210	0xbc805b75	-0.01566861
211	0xbd8f219d	-0.06988833
212	0x3c61a7b4	0.013772894
213	0xba773fd4	-0.00094318134
214	0x3d28e26a	0.04123155
215	0x3d401dc2	0.04690338
216	0xbd142b55	-0.036174137
217	0xbcfb7029	-0.03069313
218	0x3d607e38	0.05480787
219	0x3ce6e1aa	0.028183777
220	0x3cb1f674	0.021723963
221	0x3d4f7bee	0.050655298
222	0x3d3a214b	0.045441907
223	0xbd6b793c	-0.057488665
224	0x3c9201ce	0.017823126
225	0x3bc52eb3	0.00601753
226	0xbda29192	-0.079379216
227	0x3cfd3eda	0.030913759
228	0x3c3117c0	0.010808885
229	0x3d91ab03	0.07112696
230	0xbdb194ef	-0.08670985
231	0x3db58f48	0.08865219
232	0xbd2a6573	-0.041600656
233	0x3d4679b1	0.048455898
234	0x3d66284e	0.05619078
235	0xbb79ead8	-0.0038134363
236	0xbd22c96f	-0.039742883
237	0xbc3db573	-0.011578905
238	0xbd6b6f45	-0.05747916
239	0x3c4dc236	0.0125585105
240	0x3d132301	0.035922054
241	0x3cc2d8c7	0.023785008
242	0xbd4ad998	-0.04952392
243	0x3d7e09da	0.062021114
244	0x3d9896c0	0.07450628
245	0xbcc7e5ca	-0.024401564
246	0x3d3975b4	0.045278266
247	0xbc07d4aa	-0.008290449
248	0x3d0ffc54	0.03515275
249	0xbd8aff4a	-0.06786974
250	0xbd8ece97	-0.06972998
251	0xbc606155	-0.013695081
252	0xbd8a17ed	-0.06742845
253	0x3d1bc864	0.038032904
254	0x3dbc17fc	0.09184262
255	0xbc8335c9	-0.016016858

bias f4 [128]
0	0x3d8847fe	0.066543564
1	0x3d6cb6ab	0.057791393
2	0xbcb78fdc	-0.022407465
3	0x3d3db70a	0.046317138
4	0xbcf2b907	-0.029629244
5	0xbc548edf	-0.012973516
6	0xbda52e9f	-0.08065533
7	0x3d3fa4d2	0.046788044
8	0x3d88d7bb	0.06681772
9	0x3bf2985b	0.007403416
10	0xbdb0fcc6	-0.08641963
11	0xbb672be0	-0.0035273954
12	0xbd6da8ad	-0.05802219
13	0xbd2e8c54	-0.042614296
14	0xbc74b29a	-0.01493516
15	0x3d2db74b	0.04241113
16	0x3d5956c3	0.053061258
17	0xbda71262	-0.08157803
18	0xbd4d3293	-0.05009706
19	0xbd4139ef	-0.04717439
20	0x3cf1ca62	0.029515449
21	0x3a9fadb0	0.00121825
22	0xbc7ef748	-0.015561886
23	0x3c52d92c	0.012869161
24	0x3bbdb2b1	0.005789124
25	0xbd97cb93	-0.074118756
26	0x3cfc17cb	0.030773064
27	0x3cab8cec	0.02094122
28	0x3c8954ed	0.016764129
29	0x3d42ca13	0.047555994
30	0x3ca59d72	0.020216677
31	0xbd596d92	-0.05308301
32	0x3dcca05c	0.099915236
33	0x3d3eca9b	0.04657994
34	0x3db95b75	0.09050647
35	0x3c98b955	0.01864306
36	0x3d89dc73	0.067315005
37	0xbbbee7b1	-0.0058259596
38	0x3b40f98b	0.0029445614
39	0x3d4a6b3e	0.04941868
40	0xbd1dc18d	-0.038514663
41	0xbda1805c	-0.07885811
42	0x3cbd2986	0.023091089
43	0x3d81f3c2	0.06345321
44	0x3dbdd56e	0.09269224
45	0xbc057fe1	-0.0081481645
46	0xbcdb1ebf	-0.02674806
47	0xbd66649d	-0.056248296
48	0x3dbc32c0	0.09189367
49	0x39c1b2d5	0.0003694507
50	0xbd1084d5	-0.03528293
51	0xbd6f92b2	-0.05848951
52	0xbca62fb7	-0.020286424
53	0x3da986ed	0.08277688
54	0x3d2bb9d7	0.041925278
55	0xbd92b689	-0.07163722
56	0x3d3c0c49	0.045910154
57	0xbceae589	-0.028673904
58	0x3db6f9b4	0.08934346
59	0xbcdced6d	-0.026968682
60	0x3a944045	0.0011310658
61	0x3d007aaa	0.03136698
62	0xbc314c99	-0.010821485
63	0xbd3fa728	-0.046790272
64	0xb9621219	-0.00021559781
65	0x3dc6d99e	0.09709476
66	0xbd8d6cd6	-0.069055244
67	0x3d83d2c7	0.06436687
68	0x3d597a8d	0.05309539
69	0x3db3bb84	0.08776
70	0x3cce19ad	0.025158728
71	0xbb316541	-0.0027068409
72	0xbd575b5d	-0.052577365
73	0x3dcb7ffd	0.09936521
74	0x3c1ec15c	0.009689655
75	0x3b8220f2	0.0039712125
76	0x3cda5a5d	0.026654417
77	0xbc5c4583	-0.013444307
78	0x3bee4359	0.007271212
79	0x3cdc2c8c	0.02687671
80	0x3d88fd66	0.06688957
81	0x3d7f855e	0.06238305
82	0xbdbe61e0	-0.09296012
83	0xbc5f746f	-0.0136386
84	0x38abbd66	8.1891936e-05
85	0x3d2b993a	0.041894175
86	0xbd571fa7	-0.05252042
87	0xbc383fb0	-0.011245653
88	0xbd283c60	-0.041073203
89	0xbd5de070	-0.05416912
90	0x3c87f1a8	0.016594723
91	0x3d8c4645	0.0684934
92	0x3cf051f5	0.029335955
93	0xbd1575a2	-0.036489137
94	0xbabe5e72	-0.0014523997
95	0xbcee9002	-0.029121403
96	0x3dc3d8d3	0.0956284
97	0x3d0062b6	0.031344138
98	0xbd5acde0	-0.053418994
99	0xbd97854d	-0.07398472
100	0xbd1aca3e	-0.03779053
101	0xbd845bc2	-0.06462814
102	0x3cdd6993	0.02702788
103	0xbd12bd59	-0.035825107
104	0xbdad2362	-0.08454014
105	0xbcab4014	-0.020904578
106	0xbd211ad9	-0.039332245
107	0xbd0024ed	-0.031285215
108	0x3d9acc6e	0.07558523
109	0xb9f27faf	-0.0004625297
110	0xbd6fc1f8	-0.058534592
111	0xbd3f0928	-0.04663959
112	0x3db855b6	0.09000723
113	0xbc04929b	-0.008091594
114	0xbce25a3f	-0.027630923
115	0xbca3964c	-0.019969128
116	0x3d1e1738	0.038596362
117	0x3da0b438	0.07846874
118	0xbc4d9281	-0.012547136
119	0xbbad969c	-0.005297495
120	0xbcdcd4b7	-0.0269569
121	0xbd771315	-0.060320932
122	0x3d56009d	0.05224668
123	0x3c90f476	0.017694693
124	0x3c2cb0b2	0.010540174
125	0x3c9426ea	0.018084962
126	0x3cc32c67	0.023824884
127	0x3da4e66d	0.08051763

weight f4 [128, 128]
0	0xb9a62ef0	-0.00031696958
1	0x3d2813ea	0.041034617
2	0x3c2fa647	0.010720796
3	0x3d00faf2	0.03148932
4	0xbd76644b	-0.06015424
5	0x3d590086	0.052979015
6	0xbd747c1a	-0.059688665
7	0x3c405771	0.011739598
8	0x3da5e726	0.08100729
9	0xbc9eefcf	-0.019401459
10	0xbd1b844a	-0.037967958
11	0x3d4c440d	0.049869586
12	0xbd2b3546	-0.041798852
13	0xbd05ec01	-0.032695774
14	0xbbd5e645	-0.0065276944
15	0x3d1149bd	0.035470713
16	0x3d8a01f4	0.06738654
17	0xbd0e0e4a	-0.034681596
18	0x3c5ba563	0.0134061305
19	0x3def0db3	0.11672535
20	0x3d8f83a9	0.07007534
21	0xbd6646f0	-0.056219995
22	0xbd2a6da5	-0.04160847
23	0xbbdcfb32	-0.006743812
24	0xbd610289	-0.05493406
25	0xbcf388e2	-0.029728357
26	0xbbfc6fee	-0.0077037727
27	0xbd0ede51	-0.034879986
28	0xbd5a29f6	-0.053262673
29	0xbd1351c6	-0.035966657
30	0x3cfa1bb6	0.030530792
31	0xbd8c6e3f	-0.06856965
32	0x3d9e7587	0.0773726
33	0x3db2c907	0.08729749
34	0x3cc9e253	0.024644053
35	0xbd2c5610	-0.042074263
36	0x3ca70f44	0.020393021
37	0xbd9b2caf	-0.07576882
38	0x3d2f956e	0.042867117
39	0x3d65cb0c	0.056101844
40	0x3d5fcc92	0.054638453
41	0x3d84c75e	0.06483339
42	0x3d55af59	0.052169178
43	0xbdba6211	-0.09100736
44	0xbd54bb1b	-0.05193625
45	0xbc52c952	-0.012865381
46	0x3c931c5f	0.017957864
47	0x3d5f8709	0.05457214
48	0xbdbd40c7	-0.09240871
49	0xbd62411d	-0.055237878
50	0x3d0a4f40	0.033766985
51	0x3d644330	0.055728137
52	0x3b4235f4	0.002963421
53	0x3d29a224	0.041414395
54	0x3da33e0c	0.07970819
55	0x3da208ab	0.079118095
56	0x3ca47b32	0.020078275
57	0xbd9d8123	-0.076906465
58	0xbd1115fd	-0.03542136
59	0xbd53b9fd	-0.051691044
60	0xbd63c3a7	-0.05560651
61	0x3d823946	0.0635858
62	0x3b93c301	0.0045093303
63	0xbd693cb7	-0.056942668
64	0x3d27de12	0.040983267
65	0xbcfbd042	-0.030738954
66	0xbd51631e	-0.051119916
67	0xbb8919dc	-0.004183991
68	0xbd3e3d7e	-0.046445362
69	0xbd510aa1	-0.051035527
70	0xbd5109ee	-0.05103486
71	0xbd83675a	-0.06416197
72	0xbcfe42fd	-0.031037802
73	0x3d4f1744	0.050559297
74	0xbd392b98	-0.04520759
75	0x3dbdc521	0.09266115
76	0x3c2f1e42	0.010688366
77	0xbcb6b624	-0.022303648
78	0xbbe8319d	-0.0070859925
79	0xbbb31f9e	-0.0054664155
80	0x3caa2442	0.020769242
81	0x3d6dfd10	0.058102667
82	0x3cc5358e	0.024073388
83	0xbdc662e1	-0.096868284
84	0x3c2cbaab	0.010542552
85	0x3cce1ecc	0.02516117
86	0xbd896c09	-0.06710059
87	0xbd852804	-0.06501773
88	0x3d177537	0.03697702
89	0xbdb9cca6	-0.09072237
90	0xbd91a0f8	-0.071107805
91	0x3d8dd9f8	0.0692634
92	0xbc11da7f	-0.008902191
93	0xbc4aa6e7	-0.012368894
94	0x3d6c3097	0.057663526
95	0x3cfa7b96	0.030576508
96	0xbca20917	-0.019779725
97	0x3b58d535	0.0033086066
98	0x3d688342	0.056765802
99	0x3d9cb357	0.07651394
100	0xbd1e23e9	-0.038608465
101	0xbb9d8828	-0.004807491
102	0x3d622082	0.055206783
103	0x3d659124	0.05604662
104	0x3c25b61c	0.010114219
105	0x3cc67437	0.024225337
106	0x3d850740	0.064955235
107	0xbd65fa5c	-0.056146964
108	0x3ac4846b	0.0014993077
109	0x3c3b2977	0.01142346
110	0xbca5837c	-0.020204298
111	0xbd3fa0a5	-0.046784062
112	0xbc5559f5	-0.013021936
113	0xbdb8d8e7	-0.09025746
114	0xbd8aa402	-0.06769563
115	0xbd32185a	-0.043480255
116	0xbcdf9e65	-0.027297208
117	0xbd7703c0	-0.06030631
118	0x3cab2e23	0.020896023
119	0xbdb98f1d	-0.090605
120	0xbc9e610b	-0.019333383
121	0xbdb4ec62	-0.08834149
122	0x3c929623	0.017893856
123	0xbcd8a1ea	-0.026444394
124	0x3b066385	0.0020506096
125	0xbcb909a3	-0.022587603
126	0xbd9f6e72	-0.07784738
127	0x3d7884f0	0.060673654
128	0xbda07ea6	-0.07836656
129	0x3cd32f6a	0.025779445
130	0x3dc528b7	0.09626906
131	0x3d971407	0.07376867
132	0x3d9b44f2	0.0758151
133	0xbd843313	-0.06455054
134	0x3d53660a	0.051610984
135	0xbced94ca	-0.029001612
136	0xbc154799	-0.0091113085
137	0xbd833665	-0.06406859
138	0x3dbbfd1f	0.091791384
139	0x3d4399d8	0.04775414
140	0xbc422c73	-0.011851418
141	0x3d999ea2	0.0750096
142	0xbd56fe49	-0.0524886
143	0xbce347c3	-0.02774418
144	0xbc55ed1c	-0.01305702
145	0xbd0f15da	-0.03493295
146	0x3d324e75	0.043531854
147	0x3d63fc6e	0.055660658
148	0xbbccdf42	-0.0062522003
149	0x3ce40177	0.02783273
150	0xbd6d62ca	-0.05795554
151	0x3cfa4a08	0.030552879
152	0xbd6f2097	-0.05838069
153	0x3da24c5a	0.07924719
154	0xbd52b78b	-0.05144457
155	0x3da98655	0.08277575
156	0xbd24948a	-0.04018072
157	0x3cb128ac	0.02162584
158	0x3c1c9d2c	0.009558957
159	0xbc6e741e	-0.014554052
160	0x3d71026a	0.058840193
161	0x3d5b4cb1	0.053539935
162	0xbad6ea52	-0.0016396737
163	0xb9aa6186	-0.00032497587
164	0xbd62e162	-0.055390723
165	0x3ce815bf	0.028330682
166	0xbcd6f97d	-0.026242012
167	0x3d63b294	0.055590227
168	0xbdbba6ad	-0.0916265
169	0x3d82297d	0.063555695
170	0xbd8044dc	-0.06263134
171	0xbdb75780	-0.08952236
172	0x3c238e45	0.00998265
173	0x3d9e735b	0.07736846
174	0xbcc72be6	-0.024312925
175	0x3d904d12	0.0704595
176	0x3d4133bb	0.047168475
177	0xbcdac254	-0.026703991
178	0xbd509b95	-0.050929625
179	0xbd25c958	-0.04047522
180	0x3d5d241d	0.05398952
181	0x3cc345a2	0.023836914
182	0x3b0cbecc	0.0021476028
183	0xbd0fe397	-0.035129156
184	0x3da53a59	0.080677696
185	0x3d803946	0.06260924
186	0xbdb5da78	-0.0887956
187	0xbd7ef45f	-0.06224477
188	0xbd92b28a	-0.0716296
189	0x3cb38e0b	0.021918317
190	0xbd2f18a0	-0.042748094
191	0xbca7e1b0	-0.020493358
192	0xbd90c623	-0.070690416
193	0xbd939cb2	-0.07207622
194	0xbb06aab9	-0.0020548536
195	0xbdae3c7d	-0.08507631
196	0xbcd34228	-0.025788382
197	0x3bc8bf22	0.0061263004
198	0x3ce1952b	0.02753695
199	0xbdb80012	-0.089843884
200	0x3c0d8e90	0.008639947
201	0x3d95158e	0.07279502
202	0xbd7b1188	-0.061296016
203	0xbd184109	-0.037171397
204	0x3cdaa827	0.02669151
205	0xbbae089f	-0.0053110863
206	0xbd2a10fd	-0.041520108
207	0x3d41b6f7	0.04729363
208	0xbdb191b9	-0.086703725
209	0xbdb23483	-0.08701422
210	0x3d5c1088	0.053726703
211	0x3d07540f	0.03303915
212	0x3c3934e4	0.011304114
213	0x3d9fd52d	0.07804332
214	0xbda0c12a	-0.07849343
215	0x3d82f1d6	0.06393783
216	0x3c30cc0e	0.010790838
217	0x3d787649	0.06065968
218	0x3d2385a1	0.03992236
219	0x3cddc52c	0.027071558
220	0xbdad3620	-0.08457589
221	0x3b809c2f	0.0039248685
222	0xbcf432c1	-0.029809358
223	0xbc586d4e	-0.013209654
224	0x3d937a64	0.072010785
225	0xbc8ac26c	-0.01693841
226	0xbd36067d	-0.04443978
227	0xbd0acb06	-0.033885024
228	0xbcaeb65c	-0.02132719
229	0x3d575c18	0.05257806
230	0x3c37803e	0.011200009
231	0x3c11e98e	0.008905781
232	0xbd552ef7	-0.052046742
233	0x3dae9719	0.08524913
234	0xbcc2bc1d	-0.02377134
235	0x3cf769a6	0.030201744
236	0xbd98e60c	-0.07465753
237	0x3d30fae3	0.043208014
238	0x3d047630	0.032339275
239	0x3d821cd1	0.063531525
240	0x3d34735a	0.04405532
241	0xbdd2fd8e	-0.10302268
242	0xbcfb1236	-0.030648332
243	0x3d5e594b	0.054284375
244	0x3d0f0e96	0.03492602
245	0xbcacab93	-0.021077907
246	0x3d3e1209	0.04640392
247	0x3d937974	0.072009
248	0x3c2baeff	0.010478734
249	0x3bc3ef6e	0.00597947
250	0x3da2fa19	0.079578586
251	0x3d8f034f	0.06983053
252	0xbd07250f	-0.032994326
253	0xbb41f281	-0.0029594006
254	0xbc6347b3	-0.013872075
255	0x3d1dcc96	0.038525186

bias f4 [128]
0	0xbd4f88c3	-0.050667536
1	0xbd2ae00e	-0.04171758
2	0xbcddbb48	-0.027066842
3	0xbd95fb64	-0.073233396
4	0x3dafcbc3	0.08583786
5	0x3d8d274e	0.068922624
6	0x3c166a75	0.009180655
7	0x3bb14b01	0.0054105525
8	0x3d8cd86c	0.06877217
9	0x3d9a8376	0.075446054
10	0xbcdf539a	-0.027261544
11	0xbd2ff56c	-0.042958662
12	0x3d40b97f	0.047051903
13	0xbd7104e7	-0.058842566
14	0x3d40c61b	0.047063928
15	0xbd996f99	-0.07491989
16	0xbd2a266e	-0.041540556
17	0xbbc3937f	-0.0059685106
18	0xbd4f0cea	-0.050549425
19	0x3ce96b6a	0.028493602
20	0x3b031caa	0.0020006099
21	0x3c06685e	0.008203594
22	0x3d91d67d	0.071209885
23	0x3d19edaf	0.03758019
24	0xbd759bc4	-0.059963003
25	0xbd5efebc	-0.054442152
26	0x3ccd71b7	0.025078638
27	0xbd2e2895	-0.04251917
28	0x3d910999	0.07081909
29	0x3dc18391	0.094489224
30	0xbc9117f6	-0.01771162
31	0xbda44336	-0.08020632
32	0xbdc20a66	-0.094746396
33	0xbd89c95b	-0.06727859
34	0xbd9fdef5	-0.078061976
35	0x3d7a0b1c	0.06104575
36	0xbd65eac6	-0.0561321
37	0xbd946324	-0.07245472
38	0x3dbb4a1a	0.09144993
39	0xbd850fc8	-0.06497151
40	0x3d8e1b92	0.06938852
41	0xbcf27222	-0.029595438
42	0xbc82c9c2	-0.015965346
43	0x3d1c31fc	0.038133606
44	0x3d5bcf1f	0.053664323
45	0xbcba1017	-0.02271275
46	0x3db70ccc	0.08937988
47	0x3d05c3c9	0.03265742
48	0x3d97f526	0.07419805
49	0x3d9f0802	0.07765199
50	0xbd666854	-0.05625184
51	0x3c7d47df	0.01545903
52	0xbd92b013	-0.0716249
53	0xbd8b8ecf	-0.06814348
54	0x3c6e343d	0.014538822
55	0xbce8fdb5	-0.02844129
56	0xbd631812	-0.055442877
57	0x3c8759a3	0.016522234
58	0xbd14d6a9	-0.03633753
59	0xbda2bf78	-0.07946676
60	0x3d1c3936	0.038140498
61	0xbb929c51	-0.004474201
62	0x3d208a2e	0.03919428
63	0xbd33829f	-0.04382574
64	0xbcb3ebbf	-0.021962998
65	0x3d47c5db	0.048772674
66	0xbd896679	-0.06708998
67	0x3ba21792	0.0049466575
68	0x3dc7cae4	0.09755495
69	0x3c602886	0.013681537
70	0x3d17f1d3	0.037095856
71	0xbd9962cf	-0.07489549
72	0x3d0ed72b	0.03487317
73	0xbdaad021	-0.08340479
74	0x3da777de	0.0817716
75	0x3c8dd9a8	0.0173157
76	0xbd77d40e	-0.060504965
77	0x3c8794ad	0.016550386
78	0x3dcad3d1	0.09903682
79	0xbd56ed3b	-0.052472334
80	0xbb248c8f	-0.0025108194
81	0x3db8928a	0.09012325
82	0x3b6c825f	0.003608845
83	0x3d551805	0.05202486
84	0x3d79215a	0.060822822
85	0xbcb1d002	-0.021705631
86	0x3dc0af23	0.09408405
87	0xbcd241f9	-0.025666224
88	0x3dcc675c	0.09980652
89	0xbc8e285e	-0.017353233
90	0x3cc5d140	0.02414763
91	0xbdb944f4	-0.09046355
92	0x3d174ce3	0.03693856
93	0xbb048496	-0.002022063
94	0xbdaf7277	-0.08566754
95	0xbd1fa29f	-0.038973447
96	0x3d95fe9a	0.07323952
97	0xbdb1b829	-0.08677704
98	0x3cea8298	0.028626725
99	0x393e024f	0.00018120672
100	0x3c23fa0a	0.010008344
101	0xbac23fa8	-0.0014819996
102	0x3b9460c2	0.004528136
103	0xbce5d396	-0.028054994
104	0xbdc59a61	-0.09648586
105	0xbca8ac3d	-0.020589942
106	0x3d7ed09d	0.062210668
107	0xbdbc6afc	-0.09200093
108	0xbd380267	-0.044924166
109	0xbd84e1f3	-0.06488409
110	0xbd7afde6	-0.061277293
111	0xbce0ca1a	-0.02744012
112	0x3d79b8b4	0.060967162
113	0x3d6a5409	0.05720905
114	0x3d13d2cb	0.0360897
115	0x3d4e57cf	0.05037671
116	0xbdd076bc	-0.10178897
117	0xbdb93419	-0.0904314
118	0x3dbe7d4f	0.093012445
119	0x3d9c0d59	0.07619733
120	0x3d3e8281	0.046511177
121	0xbdaeedca	-0.085414484
122	0xbd993a0c	-0.07481775
123	0x3db08746	0.08619551
124	0xbd88ee12	-0.06686033
125	0xbca107ca	-0.019657034
126	0x3ca95755	0.020671526
127	0x3dcaf351	0.0990969

weight f4 [1, 128]
0	0x3c909534	0.01764927
1	0x3c80db53	0.015729582
2	0x3c94c34b	0.01815953
3	0x3a23cbae	0.0006248307
4	0xbbeb930d	-0.0071891607
5	0xbbd9f9f7	-0.0066521126
6	0xbc2ff9c0	-0.010740697
7	0x3b781462	0.0037853946
8	0xbc9622e0	-0.018327177
9	0xbb1dcaa9	-0.0024077094
10	0x3c5bbb0f	0.013411297
11	0xbc78e3d1	-0.015191034
12	0x3b06ede2	0.0020588567
13	0x3c7a03cb	0.015259693
14	0xbace5fa6	-0.0015745058
15	0x3c378273	0.011200535
16	0x3c998dd2	0.018744383
17	0x3c38e5f2	0.011285292
18	0xbc7817e5	-0.015142416
19	0xbb84bc25	-0.004050749
20	0xbac4066d	-0.0014955528
21	0x3aca797a	0.001544758
22	0xbc5370f8	-0.012905352
23	0x3c4f4d9a	0.012652779
24	0xbc8019c5	-0.015637288
25	0x3c022f32	0.007945823
26	0xbc96e5b1	-0.018420072
27	0x3c611179	0.013737076
28	0x3b8349ab	0.0040065846
29	0xbcd64650	-0.026156574
30	0x3c833d87	0.01602055
31	0x3bdc601b	0.006725324
32	0x3c201266	0.0097700115
33	0x3cc227f0	0.023700684
34	0x3cb065af	0.021532862
35	0xbc02e477	-0.007989041
36	0x3c896dcc	0.016775988
37	0x3c6b67ea	0.014368037
38	0xbaea2d08	-0.0017866204
39	0xbc366a86	-0.011133796
40	0xbb2af8c2	-0.0026088213
41	0x3c7e2b0a	0.015513191
42	0xb9df335b	-0.00042572137
43	0xbb1cdfd5	-0.0023937125
44	0xbce72eaa	-0.028220493
45	0xbbe4ce50	-0.006982602
46	0xbc48947f	-0.0122424355
47	0xbc696c8c	-0.014247071
48	0xbc98137a	-0.018563975
49	0xbc0abb2f	-0.00846748
50	0x3c0df797	0.008664987
51	0xbc659e28	-0.014014758
52	0xbc17cbcb	-0.009264897
53	0x39914aea	0.0002771237
54	0x3bcf0d4f	0.006318725
55	0x3c8f85b6	0.017519813
56	0xbb57c4b7	-0.0032923648
57	0x38e4d2ce	0.00010911153
58	0xbce313dc	-0.02771943
59	0x3cd1fe55	0.02563397
60	0xbcb71546	-0.022349011
61	0x3c79b3c8	0.015240617
62	0xbc04b59b	-0.008099939
63	0x3ba4557a	0.0050150724
64	0x3d340a12	0.043954916
65	0xbbf377ca	-0.0074300515
66	0x3c28b256	0.010296425
67	0xbbe8a500	-0.0070997477
68	0xbbf2f687	-0.0074146423
69	0x3ca3a529	0.019976215
70	0xbc8066b0	-0.015673965
71	0x3c440b4c	0.011965584
72	0x3c692708	0.014230497
73	0x3c64b7a3	0.013959798
74	0xbc08ed02	-0.008357288
75	0x3ba99d60	0.0051762313
76	0xbc1f0e44	-0.009707991
77	0xbb796382	-0.0038053696
78	0xbca31ac0	-0.019910216
79	0xbca04722	-0.019565169
80	0x3beb4420	0.007179752
81	0xbc730449	-0.014832565
82	0xbcabb0fc	-0.020958416
83	0xbb4d4e76	-0.0031327284
84	0xbbd3e4ab	-0.0064664683
85	0x3c4f5d00	0.01265645
86	0xbd000569	-0.03125516
87	0x3c4a2b7f	0.012339472
88	0xbc655194	-0.0139965005
89	0x3b82fd04	0.003997447
90	0x3be9f5df	0.007139906
91	0x3cbf54a5	0.023355791
92	0xbc58f62c	-0.013242286
93	0x3c305f1b	0.010764862
94	0xb9ab1ee1	-0.00032638668
95	0x3c9875cd	0.01861086
96	0xbcd1bb45	-0.025601992
97	0x3c7c5f81	0.015403629
98	0xbcc101b9	-0.023560392
99	0x3c5a93bc	0.013340887
100	0xbb923739	-0.0044621495
101	0xbb11baae	-0.0022236514
102	0x3c856490	0.016283303
103	0x3cadc527	0.021212174
104	0x3ba4e971	0.005032711
105	0xbc95fb9d	-0.018308455
106	0xbc8bd537	-0.017069442
107	0x3c865550	0.016398102
108	0xbc83353c	-0.016016595
109	0xbbd9e654	-0.0066497717
110	0x3cc04f03	0.023475176
111	0x3cdc6f00	0.026908398
112	0x3c01dd13	0.007926243
113	0xbccc454f	-0.024935393
114	0xbbd6d9f3	-0.0065567433
115	0xbbb85f52	-0.0056265974
116	0x3cd054cb	0.025431057
117	0x3a59861b	0.00082978763
118	0xbc8e542c	-0.01737412
119	0xbc9e04c6	-0.019289386
120	0x3c9a0a78	0.01880382
121	0x3c881afe	0.016614433
122	0x3c12262a	0.008920232
123	0xbbdf894f	-0.0068217884
124	0x3c83d2f4	0.016091801
125	0x3c941faa	0.018081505
126	0x3c11a53b	0.008889492
127	0xbba87911	-0.0051413854

weight f4 [3, 128]
0	0xbc401544	-0.01172382
1	0x3bfef43a	0.007780579
2	0x3b20d4c9	0.0024540892
3	0x3bc8ca2a	0.0061276155
4	0xbc20f9fd	-0.009825227
5	0x3acc2b02	0.0015576782
6	0x3c52b438	0.01286035
7	0xbaa29017	-0.0012402561
8	0x3bcfc4ab	0.0063405833
9	0x3c12f3f8	0.0089692995
10	0x3bbdee3d	0.0057962225
11	0x3cc1296a	0.023579318
12	0x3c19fffe	0.009399412
13	0xba89ee82	-0.0010523351
14	0xbbef12b0	-0.007295929
15	0xbbb97416	-0.0056595905
16	0x3b1d8992	0.0024038297
17	0xbb7784d5	-0.0037768383
18	0xbb172008	-0.0023059864
19	0xbb17dd1f	-0.002317257
20	0x3c52a96c	0.012857776
21	0x3bac7857	0.005263369
22	0x3c711956	0.014715513
23	0xbc5867d8	-0.013208352
24	0xbc685857	-0.014181218
25	0x3bc86990	0.0061160997
26	0x3c0480d9	0.00808736
27	0x3ba29657	0.0049617696
28	0xbc064796	-0.008195778
29	0xbc4afaca	-0.012388894
30	0xbb8679d6	-0.0041038794
31	0xbb1a129f	-0.0023509634
32	0x3bc93814	0.0061407182
33	0xbc04a776	-0.008096566
34	0x3c944c07	0.018102659
35	0x3c80505b	0.015663316
36	0xbab18980	-0.0013545007
37	0x3b380ffd	0.0028085702
38	0x3ab3d4f8	0.0013720086
39	0xbc790a12	-0.015200155
40	0xbb83fc7e	-0.004027902
41	0xb858d21a	-5.1694085e-05
42	0x3bc95da4	0.006145196
43	0x3af0f239	0.0018382735
44	0xbbb52237	-0.0055277604
45	0x3cbea368	0.023271278
46	0x3c63d792	0.013906376
47	0xbbb8c714	-0.0056389663
48	0x3aef1244	0.0018239697
49	0xbb9fe519	-0.0048796055
50	0xbb8fe3d3	-0.0043911724
51	0x3c87ac83	0.016561752
52	0x3c398b9d	0.01132479
53	0x3bccec2c	0.00625374
54	0x3be04578	0.006844219
55	0x3c2a8454	0.010407526
56	0xb88d0e52	-6.726071e-05
57	0xbb5c39ec	-0.003360386
58	0xbc53f76a	-0.012937406
59	0xbb1ed35b	-0.0024234864
60	0x39e9f33f	0.00044622456
61	0xbc426d17	-0.011866829
62	0xbc355578	-0.011067741
63	0xbac3ff6e	-0.0014953443
64	0xbb8e4f4d	-0.0043429495
65	0xbbe7dabc	-0.0070756357
66	0xbb5587e0	-0.0032582209
67	0x3c549efc	0.012977358
68	0xbae65718	-0.0017573563
69	0xbac5fbef	-0.0015104989
70	0xb9e8f492	-0.00044432707
71	0xbc2e3618	-0.010633014
72	0x3b1200d6	0.002227833
73	0x3a00acde	0.0004908572
74	0xbc51d916	-0.012808105
75	0x3c73c82e	0.0148792695
76	0xba72f255	-0.00092676777
77	0x39c2fc7b	0.00037190676
78	0x3b3a605c	0.0028438782
79	0xbbcb655a	-0.0062071504
80	0x3b44a593	0.0030005916
81	0xba6de298	-0.00090745976
82	0x3c2b29aa	0.010446945
83	0x3b2f7968	0.0026775245
84	0x3c9d9bc9	0.019239323
85	0xbbf1c7b0	-0.007378541
86	0x3c11a08e	0.008888377
87	0xbc2f4514	-0.010697622
88	0x3bef0db1	0.0072953333
89	0xbc735708	-0.014852293
90	0x3b8f9b7f	0.0043825503
91	0x3c047233	0.008083868
92	0xbb3e7c22	-0.0029065688
93	0xbc5b5baa	-0.013388554
94	0x3c5ab801	0.013349534
95	0xbbde9103	-0.006792189
96	0xbc41500f	-0.011798873
97	0x3c07fb2c	0.00829963
98	0xbb96701b	-0.0045910007
99	0xbb9cacf8	-0.0047813617
100	0xbbeee0ec	-0.0072899964
101	0x3b64710f	0.0034857427
102	0x3c56237d	0.0130699845
103	0x3c1449d8	0.009050809
104	0x3c0d7932	0.008634852
105	0x3c459bd1	0.012061075
106	0xbc12829f	-0.008942275
107	0x3be503de	0.0069889864
108	0xbb018ce0	-0.0019767806
109	0x3b48bec5	0.0030631286
110	0xbc086670	-0.008325204
111	0x3b6ff951	0.003661711
112	0x3b4b86f6	0.0031055785
113	0x3b79628c	0.0038053123
114	0xba22fa61	-0.0006217119
115	0x3ae76000	0.0017652512
116	0x3b8ba75c	0.004261894
117	0x3bc48468	0.0059972294
118	0xba17c5e5	-0.00057896815
119	0xbbceb3a8	-0.006308038
120	0x3bb2d82a	0.0054578977
121	0xba346abc	-0.000688236
122	0xba20bc0a	-0.00061315356
123	0xbb9121fd	-0.0044291005
124	0xbc6fcc2f	-0.0146360835
125	0xbc498bfd	-0.012301442
126	0x3b6304d0	0.003464032
127	0xbb3da53a	-0.0028937594
128	0x3b2ecaaa	0.002667109
129	0xbb4d6768	-0.0031342153
130	0xbb9749a6	-0.004616934
131	0x3c63254e	0.013863875
132	0x3c1c9c6f	0.009558781
133	0xbbfbd787	-0.007685605
134	0x3c5220a5	0.012825166
135	0xbb6f4e8d	-0.0036515326
136	0xbb85fd92	-0.004089066
137	0x3c184ba0	0.009295374
138	0xba7bdfe9	-0.00096082554
139	0x3c90da09	0.017682092
140	0x3b110498	0.0022127982
141	0xbcb61095	-0.022224704
142	0x3c2a5a24	0.010397468
143	0x3c80ca8f	0.015721587
144	0x3b2b5555	0.002614339
145	0xbb6d031a	-0.0036165179
146	0x3c778470	0.015107259
147	0xbbbe1220	-0.0058005005
148	0xbbb316cf	-0.0054653655
149	0x3c6a9972	0.014318811
150	0x3bd5721c	0.006513847
151	0xba32186f	-0.0006793802
152	0xba064dc8	-0.00051232846
153	0xbb859cde	-0.004077538
154	0x3bf4673d	0.007458596
155	0xbc009f32	-0.007850455
156	0x3c3dc37d	0.011582253
157	0xbada3a55	-0.0016649464
158	0x3c698f60	0.014255375
159	0xbaff0211	-0.0019455572
160	0xbbd8329c	-0.00659783
161	0xbacc24c0	-0.0015574917
162	0x3c506d29	0.012721338
163	0xbbd8d2b6	-0.0066169156
164	0xbba520d7	-0.005039315
165	0x3b80a26b	0.0039256117
166	0x38f3ab5d	0.00011619062
167	0xbbe7d744	-0.007075222
168	0x3bd0c0d9	0.0063706455
169	0x3c53bcda	0.012923444
170	0x3a87ecec	0.0010370291
171	0xbc32a7de	-0.0109042805
172	0x3b8c87e6	0.0042886613
173	0xbc1f17e3	-0.009710285
174	0xbbb01e29	-0.005374689
175	0xbb791d3f	-0.0038011817
176	0xbc775016	-0.015094778
177	0x3c035336	0.0080154445
178	0xbb382563	-0.0028098456
179	0xbb238da6	-0.0024956255
180	0x3b93aa9f	0.0045064236
181	0x3c4359b7	0.011923245
182	0x3bd45d96	0.006480883
183	0x3c04caaf	0.008104964
184	0xbc1d9a53	-0.009619313
185	0x39c23cc2	0.00037047832
186	0xba84a517	-0.0010120001
187	0x3b442b27	0.0029932947
188	0x3b45e1ef	0.0030194481
189	0x3bbed4f1	0.0058237244
190	0xbb73761e	-0.003714926
191	0xbc319524	-0.010838781
192	0x3c743d21	0.014907152
193	0x3c547b22	0.01296881
194	0x3b831b55	0.004001061
195	0xbc0ed92d	-0.008718771
196	0xbb1c38ff	-0.0023837683
197	0x3bf68884	0.007523598
198	0xbc0bce30	-0.008533046
199	0x3a0212cf	0.0004961909
200	0xbb86ba9a	-0.0041116
201	0xbc95fcd4	-0.018309034
202	0x3c45cdf4	0.012073029
203	0x39307d9c	0.00016831461
204	0x3b7e4e3a	0.003880395
205	0xb86e8a8c	-5.6872654e-05
206	0xbb7df0e1	-0.0038748311
207	0xbc6dfd4d	-0.014525724
208	0x3c4c7a82	0.01248038
209	0x3a3be7ec	0.0007168043
210	0xbc20d1cd	-0.009815645
211	0x3b8c0048	0.0042724945
212	0x3c625c08	0.013815887
213	0x3afdab1b	0.0019353362
214	0x3c075d74	0.008262027
215	0x3997286f	0.0002883109
216	0x3adddcc2	0.0016926753
217	0xbc9f5cf9	-0.019453513
218	0x3c10ea0b	0.008844863
219	0xbbbe0492	-0.0057988847
220	0x3b93ffd4	0.004516581
221	0x3bcab348	0.006185923
222	0x3b815161	0.0039464687
223	0x3c19d4a0	0.009389073
224	0xbc0cfe3c	-0.008605536
225	0x3c2dbaa4	0.010603581
226	0x3b3d556a	0.0028890022
227	0xbc355fa3	-0.011070165
228	0x3a80703d	0.0009799075
229	0x3b9b8bd9	0.0047468957
230	0xbc4cdc16	-0.012503644
231	0x3bf321a4	0.0074197818
232	0x3b5c41bf	0.0033608524
233	0xbab221d2	-0.0013590402
234	0x3b17acf3	0.0023143857
235	0x3aa235f5	0.00123757
236	0xbaec1cae	-0.0018013918
237	0x3c5b01bf	0.0133671155
238	0x3c9e55e2	0.019328061
239	0x3b9d587c	0.004801808
240	0x3c111eee	0.008857472
241	0x3c04a540	0.008096039
242	0x3b1649c5	0.0022932154
243	0x3c58bc31	0.013228462
244	0xba77405f	-0.0009431894
245	0xb979a705	-0.0002380871
246	0xbc4487fc	-0.011995312
247	0x3c143196	0.009045025
248	0x3bad60bf	0.005291074
249	0xbc555b30	-0.013022229
250	0xba080f80	-0.0005190298
251	0xbbb0cd52	-0.00539557
252	0xb82c63f0	-4.110107e-05
253	0xbbd521c1	-0.006504268
254	0xbc918d65	-0.017767617
255	0x3acc466b	0.0015584951

bias f4 [3]
0	0x3a83e32f	0.0010062213
1	0x3b43a0b5	0.0029850428
2	0xbb316820	-0.002707012

weight f4 [1, 128]
0	0x3c4da119	0.012550616
1	0x3cc621e3	0.02418608
2	0x3c75bd79	0.014998787
3	0x3c8266cd	0.01591816
4	0xbc512978	-0.012766235
5	0xbcbc320b	-0.022973081
6	0xbbb3b55b	-0.0054842657
7	0x3c934034	0.01797495
8	0xbcdfc825	-0.027317116
9	0x3bafb1a2	0.0053617517
10	0x3c59a55f	0.013284056
11	0xbcb1cc44	-0.021703847
12	0x3cccfd9e	0.025023278
13	0x3c44458f	0.011979475
14	0x3bc79a26	0.006091374
15	0x3c28322a	0.010265866
16	0x3c289766	0.010290002
17	0x3ba333db	0.004980547
18	0xbc63815b	-0.013885821
19	0x3c4c9fdd	0.012489286
20	0xbc756d50	-0.014979675
21	0x3c8ac559	0.016939806
22	0xbc6cc941	-0.01445228
23	0x3c8d7410	0.017267257
24	0xbafe0b99	-0.0019382118
25	0x3c0a37a9	0.008436122
26	0xbc84e5f6	-0.016222935
27	0x3cb6989f	0.022289572
28	0xbb2b7c3f	-0.0026166586
29	0xbc563404	-0.013073925
30	0x3c59fa74	0.013304342
31	0x3ca616e6	0.02027459
32	0x3bf67257	0.0075209546
33	0x3d050d08	0.03248313
34	0xbb3d1f69	-0.0028857833
35	0x3bb36d89	0.005475704
36	0x3ce20174	0.027588584
37	0x3c5c2130	0.013435647
38	0xbca11776	-0.019664507
39	0xbca62c97	-0.020284934
40	0x3b4880ea	0.0030594417
41	0x3bfd9215	0.0077383616
42	0x3b72bb03	0.0037037737
43	0x3c3de385	0.011589889
44	0xbcc13a9a	-0.023587514
45	0xbc5eae57	-0.013591371
46	0xbc1f64c5	-0.009728615
47	0xbc6144fa	-0.013749355
48	0xbc42bd1a	-0.011885906
49	0xbc8431f6	-0.016137104
50	0x3bb4cb19	0.005517375
51	0xbc23786f	-0.009977444
52	0xbc9263f3	-0.017869925
53	0x3c699cb9	0.014258557
54	0x3c989708	0.018626705
55	0x3c08bf56	0.008346399
56	0x3b80e517	0.0039335596
57	0xbc56f1a3	-0.013119134
58	0xbbea18cd	-0.0071440698
59	0x3c46c4c5	0.012131874
60	0xbcb5503b	-0.022132983
61	0xbc644807	-0.013933188
62	0xbc1ae475	-0.009453882
63	0x3c4e6c94	0.012599129
64	0x3c385c43	0.011252466
65	0xbc9f4cb4	-0.019445755
66	0x3c578afe	0.013155697
67	0x3b1cb4db	0.002391151
68	0xbc1abac0	-0.009443939
69	0x3c9cce6c	0.019141398
70	0xbcc29799	-0.023753928
71	0x3be59384	0.0070061106
72	0x3b9649ba	0.0045864256
73	0x3aaa1f8a	0.001297937
74	0xbc89e1ff	-0.016831396
75	0x3c99688b	0.018726608
76	0x3c7e48e0	0.015520304
77	0xbc371996	-0.011175534
78	0xbbe4c7f9	-0.0069818464
79	0x3bd839a0	0.0065986663
80	0x3c53b196	0.012920758
81	0xbbdc823c	-0.0067293923
82	0x3b32c04c	0.0027275262
83	0xbb42ba13	-0.002971296
84	0xbc6eb368	-0.014569141
85	0xbac48785	-0.0014994001
86	0xbc63563b	-0.013875539
87	0x3c6aaf0e	0.014323963
88	0xbc98c228	-0.018647268
89	0x3c1d2a35	0.0095925825
90	0xbac60aca	-0.0015109417
91	0x3cebbf3a	0.028777707
92	0xbb5a4861	-0.0033307301
93	0x3baf7283	0.005354227
94	0x3c309da7	0.010779775
95	0x3c10524b	0.008808683
96	0xbca09c29	-0.019605713
97	0x3b855553	0.0040690093
98	0xbcc31684	-0.023814447
99	0x3c7b2c1d	0.015330342
100	0xbca27710	-0.019832164
101	0xbc536150	-0.012901619
102	0x3bf8b9a1	0.007590488
103	0x3cd47013	0.025932347
104	0x3cbe46ae	0.023227062
105	0x3c497039	0.012294822
106	0xbcb88122	-0.022522513
107	0x3c0d9852	0.008642273
108	0xbb289ecb	-0.0025729414
109	0xbc3bbc7b	-0.011458511
110	0x3cc7c902	0.02438784
111	0x3c1cba82	0.009565951
112	0x3bb5037d	0.0055240975
113	0xba3ef7b9	-0.00072848384
114	0xbc31399d	-0.010816959
115	0xbc9199c9	-0.017773526
116	0x3c5de0ea	0.013542393
117	0x3c72f372	0.01482855
118	0xbbdc51dd	-0.006723626
119	0xbc7c93e0	-0.0154161155
120	0x3ce0d856	0.027446907
121	0xb9ab5c04	-0.0003268422
122	0x3ca59cdc	0.020216398
123	0xbc3d5099	-0.0115548605
124	0x3be111f9	0.0068685976
125	0x3c7fa39e	0.015602974
126	0x3c80d99d	0.015728766
127	0xbc92580f	-0.017864255
