TradeSimulator-v0_D3QN_-1/actor_00255960_483.792.pth (torch, 152106 bytes, 14 tensors)

state_avg f4 [10]
0.18298768 0.00064667454 -0.004898729 0.16365446 0.0023425864 -0.007089446 -0.056742277 0.21773484
0.0033746175 -0.014036024
00000000: 1f61 3b3e 9885 293a 8485 a0bb 0995 273e
00000010: 1486 193b 954e e8bb 976a 68bd e2f5 5e3e
00000020: b028 5d3b 5af7 65bc

state_std f4 [10]
0.8737583 0.76561904 0.89402723 0.93704754 0.8502606 0.8193827 0.99550354 0.8599671
0.84214085 0.8213165
00000000: a0ae 5f3f 9cff 433f f8de 643f 59e2 6f3f
00000010: aeaa 593f 11c3 513f 52d9 7e3f ce26 5c3f
00000020: 8b96 573f cc41 523f

weight f4 [128, 10]
0.16504577 -0.06382512 -0.059016533 0.16655096 -0.28725395 0.21633814 -0.083603784 0.17318662
0.03641205 -0.045986768 0.0944661 0.33953124 0.12752917 -0.11525367 -0.03887243 -0.040255494
0.0421017 -0.0004075647 0.27519545 0.11580063 -0.11720295 -0.45448828 -0.064042315 -0.14204773
-0.1038885 0.004843158 0.19328392 0.1764694 -0.27820665 0.18672153 0.088667855 0.055273272
0.22118942 -0.29748622 -0.25582248 -0.15327954 0.29082805 -0.04999319 0.13506038 -0.12774026
0.30286112 -0.476262 0.21987294 0.021563338 -0.15858221 0.1658874 -0.1845051 0.11014649
-0.08780051 -0.036270384 -0.32212332 -0.16692442 0.16527207 -0.09213775 0.31188965 0.23307613
-0.012564255 -0.19075797 0.19212168 0.08527552 -0.20184715 -0.15229744 0.18991615 0.2904554
-0.17550914 -0.058711607 -0.00784617 0.038871568 -0.23576532 -0.20876594 0.17639203 -0.34651038
0.14458685 0.022123368 0.105912454 0.055999774 0.10137776 0.16991578 -0.2649829 0.14080441
-0.23834477 -0.17426215 0.022182245 -0.056691498 0.18690145 -0.2077578 -0.26860088 0.23703149
-0.06259245 0.1928299 0.094048865 -0.56427586 0.061734892 0.08095315 -0.21679837 -0.1455218
0.106340036 0.062983796 -0.14411795 -0.098063834 0.29052347 -0.33713293 0.17929694 0.13146569
-0.17930652 -0.26314107 0.30286556 0.01616039 0.21169701 0.049045745 0.097665355 -0.024995314
0.29172856 -0.20638749 0.049127605 0.2279519 0.23587881 0.20748463 -0.18923706 -0.20735087
-0.18125442 -0.2507604 0.29859293 -0.20712197 0.16668119 -0.14966679 -0.29897562 -0.065038696
0.17598712 0.28790575 -0.18750845 0.06297981 0.2646138 0.20704468 0.18751097 0.24884933
0.20384443 0.10529274 -0.1853879 -0.26190647 -0.14543796 0.0013164254 -0.19046398 0.117802165
0.08507745 -0.064333744 0.11036125 0.09588924 0.19031173 0.1848138 -0.108760215 -0.04999259
-0.043778248 -0.010180794 -0.2777936 -0.18780525 -0.19438776 -0.14488454 0.22097626 -0.11039287
-0.24901274 0.13121468 0.101023346 0.19793163 -0.16176476 0.05369047 -0.09929622 -0.07837468
-0.2468196 -0.15160641 -0.090901434 -0.10005775 0.064081006 0.0848952 0.30737698 0.2842945
0.2409243 0.0127512375 -0.20313832 0.23518851 -0.0746578 -0.36826807 -0.26058912 -0.058481816
-0.1844797 0.24403691 -0.29611924 -0.24908149 -0.011461564 -0.17081779 0.11106753 -0.20635489
-0.14833768 0.017136667 0.22356357 -0.20956297 0.15344082 0.20589747 0.29808226 -0.23219062
0.091277525 0.05395209 0.27983296 -0.105205566 0.2028312 -0.017863268 -0.022895766 0.0025713856
0.044477075 0.14856698 0.05116625 -0.15401909 -0.25275517 0.24667382 0.24207383 0.21940564
0.25308457 -0.22824146 -0.10392754 0.28107366 -0.23108397 0.005890466 -0.24941605 -0.2307043
0.15091464 -0.20618698 -0.08475853 0.24234119 0.26247168 0.28054056 -0.056196433 -0.6259866
0.29655662 -0.06381938 -0.11807562 0.084061824 -0.23075771 0.22271584 0.19028828 -0.25904098
-0.2605945 -0.16922984 0.11592441 0.009960249 -0.14584799 0.016650662 -0.31659627 -0.21752392
-0.21921608 0.22417694 0.27813148 -0.31743902 0.009179778 0.15040912 0.04009624 -0.16488993
00000000: c201 293e bfb6 82bd 52bb 71bd 568c 2a3e
00000010: f312 93be bf87 5d3e 7638 abbd d557 313e
00000020: cd24 153d 9f5c 3cbd 7177 c13d 0ad7 ad3e
00000030: 0297 023e 1e0a ecbd b238 1fbd f2e2 24bd
00000040: d572 2c3d 68ae d5b9 6be6 8c3e e128 ed3d
00000050: 1a08 f0bd b0b2 e8be 9e28 83bd f674 11be
00000060: 7ec3 d4bd 5bb3 9e3b 38ec 453e 65b4 343e
00000070: 1a71 8ebe ee33 3f3e 7e97 b53d 3a66 623d
00000080: 7b7f 623e 1d50 98be 2afb 82be 50f5 1cbe
00000090: 6ae7 943e a9c5 4cbd 454d 0a3e 58ce 02be
000000a0: 9d10 9b3e 9dd8 f3be 5f26 613e 99a5 b03c
000000b0: 6063 22be 63de 293e e8ee 3cbe 7c94 e13d
000000c0: c1d0 b3bd 4190 14bd 59ed a4be 3cee 2abe
000000d0: 153d 293e b7b2 bcbd 00b0 9f3e 82ab 6e3e
000000e0: 4eda 4dbc 0f56 43be 8cbb 443e efa4 ae3d
000000f0: 05b1 4ebe dcf3 1bbe 6179 423e 92b6 943e
00000100: abb8 33be 957b 70bd 398d 00bc cb37 1f3d
00000110: 776c 71be bdc6 55be 1da0 343e cf69 b1be
00000120: 930e 143e 113c b53c a1e8 d83d 0560 653d
00000130: 259f cf3d 67fe 2d3e d7ab 87be 082f 103e
00000140: a710 74be c771 32be 8ab7 b53c 5835 68bd
00000150: 1863 3f3e 76be 54be 0e86 89be 62b8 723e
00000160: 7830 80bd 3475 453e b19c c03d 6274 10bf
00000170: badd 7c3d c4ca a53d 6400 5ebe ab03 15be
00000180: cec8 d93d a6fd 803d a893 13be b1d5 c8bd
00000190: 7ebf 943e b09c acbe 9e99 373e f19e 063e
000001a0: 219c 37be 6dba 86be 3211 9b3e cb62 843c
000001b0: 1ac7 583e 31e4 483d c604 c83d f9c2 ccbc
000001c0: 725d 953e 3e57 53be 073a 493d 396c 693e
000001d0: 378a 713e da76 543e 5cc7 41be c953 54be
000001e0: c29a 39be ab63 80be 2ce1 983e c817 54be
000001f0: 79ae 2a3e 4042 19be 5513 99be 0233 85bd
00000200: f835 343e 6268 933e 3702 40be 8ffb 803d
00000210: 767b 873e 8503 543e e002 403e 5cd2 7e3e
00000220: 98bc 503e b8a3 d73d 53d6 3dbe 9b18 86be
00000230: b0ed 14be e88b ac3a fd08 43be 4342 f13d
00000240: 163d ae3d 69c1 83bd 1405 e23d 9461 c43d
00000250: 14e1 423e d43f 3d3e adbd debd 08c5 4cbd
00000260: d250 33bd 58cd 26bc f63a 8ebe 0550 40be
00000270: 960d 47be 9d5c 14be 9a47 623e a815 e2bd
00000280: 32fd 7ebe 245d 063e 54e5 ce3d 97ae 4a3e
00000290: a9a5 25be 8aea 5b3d d15b cbbd e782 a0bd
000002a0: 47be 7cbe b63e 1bbe 882a babd 14eb ccbd
000002b0: e73c 833d 89dd ad3d 8460 9d3e 0c8f 913e
000002c0: dcb4 763e 91ea 503c 7e03 50be 42d5 703e
000002d0: 30e6 98bd a28d bcbe f06b 85be a18a 6fbd
000002e0: 3fe8 3cbe d0e4 793e f19c 97be 380f 7fbe
000002f0: 49c9 3bbc dcea 2ebe 6077 e33d b24e 53be
00000300: d5e5 17be 3262 8c3c d9ed 643e ad97 56be
00000310: 971f 1d3e c9d6 523e 3d9e 983e 61c3 6dbe
00000320: b6ef ba3d defc 5c3d 4446 8f3e 0476 d7bd
00000330: fbb2 4f3e fd55 92bc e78f bbbc b184 283b
00000340: 982d 363d f121 183e b493 513d 2eb7 1dbe
00000350: 2069 81be 1098 7c3e 34e2 773e dfab 603e
00000360: 4d94 813e 21b8 69be f6d7 d4bd e3e8 8f3e
00000370: 47a1 6cbe cf04 c13b ec66 7fbe bf3d 6cbe
00000380: 5e89 1a3e ae22 53be e195 adbd 4a28 783e
00000390: b062 863e 03a3 8f3e 3b2e 66bd a840 20bf
000003a0: 45d6 973e bcb3 82bd a1d1 f1bd 9b28 ac3d
000003b0: c04b 6cbe 9f0f 643e eeda 423e 05a1 84be
000003c0: a46c 85be 964a 2dbe c769 ed3d 5030 233c
000003d0: 2d59 15be f866 883c e818 a2be 97be 5ebe
000003e0: 2e7a 60be a48e 653e 4067 8e3e 5e87 a2be
000003f0: c866 163c d904 1a3e f43b 243d e8d8 28be

bias f4 [128]
0.020134315 -0.00533634 0.059389062 0.00016906379 0.18807468 0.019453024 0.22655436 0.08544225
0.0044869245 0.056857884 0.23079875 0.059681896 0.23774128 -0.017045133 0.0030938252 0.27249047
-0.30409166 0.046049245 0.30454946 -0.152031 -0.047350284 -0.0055023213 0.119933225 0.13764516
0.08967044 0.13122141 -0.12890814 0.14748895 -0.100859724 0.21600094 -0.07953798 -0.26829812
0.037604243 0.19604385 -0.0030826933 -0.003058306 0.0074648857 0.18051846 0.023952175 -0.29580376
-0.22035886 0.03047766 -0.010060655 0.32411882 -0.0483619 0.24686946 -0.25380307 -0.30208316
-0.016441768 -0.20620678 -0.08112145 0.03275459 -0.26379368 0.23840946 -0.17804086 0.2624139
0.109134756 -0.04766865 -0.2685166 0.052373808 -0.16707276 0.28721124 -0.26100063 -0.081977926
-0.16015139 -0.19536246 -0.18240035 -0.016352572 0.025098031 0.0763051 0.1720244 -0.11441206
-0.21555464 -0.05886691 0.31601864 -0.038283754 -0.27266333 0.26440632 0.07027903 0.0796251
0.061605867 0.22548684 -0.14851189 0.2512548 0.3224182 -0.07492745 0.21829514 0.19076145
0.3131086 -0.067166865 -0.1832039 -0.111928724 -0.20999357 0.023841942 0.32472274 0.3224291
0.24425933 0.036730755 0.022210432 0.22223401 0.21300839 -0.03198454 -0.07418528 0.1341553
0.013413029 -0.2016364 -0.14593843 0.26707342 0.27651027 -0.11158664 -0.0581655 -0.1510676
-0.10093377 0.29504943 -0.30428997 0.14724447 -0.28194603 -0.14527325 -0.04700253 0.02399145
-0.040341504 -0.14610614 -0.13496305 -0.2062494 -0.22303954 -0.19467302 0.32653388 -0.13554768
00000000: b8f0 a43c 77dc aebb f241 733d b746 3139
00000010: a696 403e f35b 9f3c defd 673e 59fc ae3d
00000020: 0d07 933b d0e3 683d 8256 6c3e 0175 743d
00000030: 7372 733e 3ca2 8bbc c6c1 4a3b df83 8b3e
00000040: e7b1 9bbe 229e 3c3d e8ed 9b3e 04ae 1bbe
00000050: 5ff2 41bd d14c b4bb 8d9f f53d daf2 0c3e
00000060: 23a5 b73d e85e 063e 7f00 04be 5807 173e
00000070: 8b8f cebd 5a2f 5d3e cfe4 a2bd 5f5e 89be
00000080: e806 1a3d b8bf 483e 0307 4abb dc6d 48bb
00000090: 009c f43b d5d9 383e 5a37 c43c 9773 97be
000000a0: c1a5 61be 49ac f93c 72d5 24bc e7f2 a53e
000000b0: 2117 46bd 59cb 7c3e 7af2 81be a5aa 9abe
000000c0: e3b0 86bc df27 53be 0123 a6bd ad29 063d
000000d0: f70f 87be 9c21 743e 5850 36be 1d5b 863e
000000e0: 0b82 df3d 3440 43bd 027b 89be eb85 563d
000000f0: 1f15 2bbe 5a0d 933e e0a1 85be 0be4 a7bd
00000100: bafe 23be 190d 48be 28c7 3abe d4f5 85bc
00000110: 639a cd3c d945 9c3d 2a27 303e df50 eabd
00000120: 5bba 5cbe 6e1e 71bd 32cd a13e 6dcf 1cbd
00000130: 879a 8bbe 4460 873e 74ee 8f3d 7c12 a33d
00000140: 6f56 7c3d 06e6 663e 8013 18be 78a4 803e
00000150: 0014 a53e 9073 99bd c388 5f3e f856 433e
00000160: c54f a03e c88e 89bd ce99 3bbe e33a e5bd
00000170: 8e08 57be 2d50 c33c 0f42 a63e 6d15 a53e
00000180: 1e1f 7a3e fd72 163d a7f2 b53c 5091 633e
00000190: df1e 5a3e 3902 03bd 74ee 97bd 0260 093e
000001a0: 52c2 5b3c c679 4ebe e270 15be d9bd 883e
000001b0: c192 8d3e 8987 e4bd f33e 6ebd 77b1 1abe
000001c0: 5db6 cebd b810 973e e5cb 9bbe 41c7 163e
000001d0: 3b5b 90be 83c2 14be ba85 40bd b889 c43c
000001e0: 223d 25bd d99c 15be c133 0abe 0b33 53be
000001f0: 7a64 64be 5d58 47be 732f a73e 03cd 0abe

weight f4 [128, 128]
-0.08167229 0.06790035 0.039826427 0.06979449 -0.08517209 -0.0745003 -0.06189549 -0.049261983
-0.011638633 0.043769035 0.056907535 -0.0639072 0.0363481 -0.045913942 0.013321812 0.041234232
0.016044572 0.035926174 0.0025482636 0.049119826 0.020133588 0.08331311 0.016956571 -0.040164083
0.052787013 0.00074932195 0.09304343 -0.012716741 0.07978564 -0.053852327 0.04178032 -0.06829503
0.057137534 0.023555927 0.06636376 -0.07322852 -0.086921185 0.042908724 -0.023416046 0.038895216
-0.04904849 -0.02374481 0.022461073 0.055738304 0.037177566 0.0032099527 -0.029597713 0.0013989968
0.029959742 -0.06570604 -0.017898282 -0.081102505 -0.00058117026 -0.0069308826 0.05242056 0.0851765
-0.06760615 -0.03214621 -0.05030919 0.0021644684 -0.038801227 -0.05447426 -0.037975665 -0.006602749
0.049651094 -0.02402524 0.06433113 -0.06881662 0.0055293157 -0.057162017 -0.09187559 0.011832577
-0.039434325 0.06745981 0.06794406 -0.07604791 -0.0026956208 -0.0048276437 -0.04174918 -0.041202147
-0.050152205 0.049514774 0.0072915866 0.06858102 -0.008500579 0.045546774 0.0187194 -0.01936825
-0.0112183215 -0.089195 -0.012734677 -0.02210572 -0.051605437 -0.026909571 -0.032742426 -0.06474678
0.013628728 -0.0023684455 -0.030775763 0.08990488 0.07307313 0.041303612 -0.04250639 0.000896657
-0.0656525 0.059492406 0.0771488 -0.01254263 0.06416303 0.07667452 -0.009868674 -0.03103397
-0.009338682 0.0131350765 -0.08843184 0.009887989 -0.034361046 0.06437855 -0.021759365 0.068241864
0.05810781 -0.027032882 0.026511742 -0.014493103 -0.031410757 -0.03834743 0.007293228 0.031017186
-0.01063452 0.011581058 0.06078889 0.04126525 0.042219978 0.03093503 -0.061069373 -0.051522173
-0.061328713 0.06292896 -0.07430103 -0.061090533 0.060158987 0.053173907 -0.07987776 0.056652177
-0.020863349 0.020329915 -0.0450257 -0.013623616 0.01644314 0.066623144 0.057795204 -0.041417897
-0.056222923 0.0001313852 0.029429581 0.057613093 -0.08517684 0.0024846417 0.011211585 -0.043033425
0.07871996 -0.0148234675 -0.07581008 -0.047207303 0.007369675 -0.05701837 0.01984558 0.07873883
0.012499016 -0.010571029 0.093215816 0.074032634 0.06142157 0.014955812 0.009126829 -0.06075323
0.01533422 0.096208595 0.012795381 -0.07321196 0.034643058 0.0834143 0.0817121 0.01521593
0.025744319 0.021807926 -0.03591318 -0.012057494 0.06682997 0.018301386 0.08005207 -0.064189106
-0.008679931 0.0035135574 -0.040143605 0.07417917 0.06459727 -0.040190563 0.08268089 0.076038696
-0.048375767 0.0009866224 0.092243895 -0.05498959 -0.009943115 -0.05451974 0.072199784 0.020897293
0.04082087 0.0726952 -0.015687443 -0.069892846 0.013802079 -0.0009916364 0.041388217 0.046647336
-0.036295336 -0.03071389 0.054075617 0.028152818 0.02171339 0.050337464 0.045853388 -0.057518754
0.017860118 0.006312701 -0.07954146 0.031632047 0.01108189 0.070952035 -0.086127765 0.088642165
-0.041821424 0.048708558 0.05597804 -0.0038791264 -0.039454374 -0.011570968 -0.05719062 0.01286119
0.03601704 0.023864701 -0.050356865 0.062181234 0.07424057 -0.02416742 0.04501199 -0.008339111
0.035154343 -0.0676469 -0.07011119 -0.01323277 -0.06759568 0.03824743 0.09207228 -0.015937086
00000000: cd43 a7bd 570f 8b3d 0921 233d 6af0 8e3d
00000010: b46e aebd 9d93 98bd 2086 7dbd efc6 49bd
00000020: f7af 3ebc 2947 333d e017 693d c7e1 82bd
00000030: bfe1 143d 4210 3cbd bb43 5a3c 3ae5 283d
00000040: e86f 833c 5327 133d c500 273b df31 493d
00000050: 32ef a43c 10a0 aa3d 82e8 8a3c 1883 24bd
00000060: 3237 583d 256e 443a 8e8d be3d e159 50bc
00000070: a766 a33d 4294 5cbd d721 2b3d 44de 8bbd
00000080: 0c09 6a3d 5cf8 c03c b9e9 873d d6f8 95bd
00000090: bc03 b2bd 0fc1 2f3d 02d3 bfbc 9750 1f3d
000000a0: 12e7 48bd 7a84 c2bc 4900 b83c d94d 643d
000000b0: 8147 183d 125e 523b e776 f2bc 8b5e b73a
000000c0: 226e f53c e390 86bd 6b9f 92bc 1219 a6bd
000000d0: ad59 18ba 751c e3bb f1b6 563d 0471 ae3d
000000e0: 1875 8abd bfab 03bd 0211 4ebd c1d9 0d3b
000000f0: 09ee 1ebd 6720 5fbd 5f8c 1bbd e05b d8bb
00000100: f25e 4b3d 95d0 c4bc 0ac0 833d baef 8cbd
00000110: 432f b53b b822 6abd 4529 bcbd 6ddd 413c
00000120: e385 21bd 5e28 8a3d 4126 8b3d 02bf 9bbd
00000130: 03a9 30bb 3631 9ebb 3001 2bbd 95c3 28bd
00000140: 666c 4dbd 01d0 4a3d 43ee ee3b 3574 8c3d
00000150: 0346 0bbc 418f 3a3d 6d59 993c 2aaa 9ebc
00000160: 0dcd 37bc deab b6bd 1ba5 50bc 0e17 b5bc
00000170: 3960 53bd 7671 dcbc ec1c 06bd f699 84bd
00000180: 074b 5f3c ec37 1bbb 741d fcbc 0d20 b83d
00000190: 5da7 953d fa2d 293d 2e1b 2ebd a20d 6b3a
000001a0: d174 86bd 4fae 733d 3100 9e3d 9a7f 4dbc
000001b0: e867 833d 8807 9d3d 38b0 21bc f43a febc
000001c0: 4501 19bc 8134 573c c11b b5bd 3b01 223c
000001d0: 2bbe 0cbd e7d8 833d b240 b2bc 64c2 8b3d
000001e0: 7402 6e3d 1074 ddbc 272f d93c 7b74 6dbc
000001f0: 91a8 00bd 3212 1dbd 08fc ee3b c117 fe3c
00000200: 693c 2ebc 7abe 3d3c c5fd 783d c005 293d
00000210: dbee 2c3d 766b fd3c e123 7abd ea08 53bd
00000220: d133 7bbd e6e0 803d 232b 98bd 113a 7abd
00000230: 4569 763d e2cc 593d f396 a3bd 1d0c 683d
00000240: 9de9 aabc ec8a a63c de6c 38bd 9635 5fbc
00000250: c4b3 863c b771 883d aaba 6c3d d0a5 29bd
00000260: 024a 66bd 72c4 0939 4e16 f13c b5fb 6b3d
00000270: 3271 aebd 5fd5 223b ccb0 373c d143 30bd
00000280: ee37 a13d 21de 72bc 5142 9bbd 725c 41bd
00000290: 517d f13b 188c 69bd 3393 a23c d341 a13d
000002a0: acc8 4c3c 1c32 2dbc efe7 be3d 6c9e 973d
000002b0: 2f95 7b3d 3909 753c b288 153c 61d8 78bd
000002c0: 613c 7b3c 0309 c53d b8a3 513c 27f0 95bd
000002d0: e1e5 0d3d 1ed5 aa3d ac58 a73d 3c4c 793c
000002e0: c0e5 d23c 89a6 b23c b319 13bd cc8c 45bc
000002f0: 27de 883d caec 953c 57f2 a33d 9475 83bd
00000300: 4536 0ebc b643 663b 9f6d 24bd 40eb 973d
00000310: 934b 843d dc9e 24bd 9954 a93d 2dba 9b3d
00000320: ab25 46bd 8e51 813a 5eea bc3d c43c 61bd
00000330: 72e8 22bc 1750 5fbd 7bdd 933d cd30 ab3c
00000340: c933 273d 39e1 943d f482 80bc fb23 8fbd
00000350: 1d22 623c ccf9 81ba b186 293d 4711 3f3d
00000360: 6baa 14bd b29b fbbc 657e 5d3d bda0 e63c
00000370: 47e0 b13c a82e 4e3d c3d0 3b3d c998 6bbd
00000380: 624f 923c c6da ce3b a2e6 a2bd 9b90 013d
00000390: d190 353c 4d4f 913d c163 b0bd 068a b53d
000003a0: f14c 2bbd a082 473d 3b49 653d f138 7ebb
000003b0: e99a 21bd 2894 3dbc b640 6abd beb7 523c
000003c0: 9b86 133d e87f c33c 0043 4ebd c0b1 7e3d
000003d0: 710b 983d c1fa c5bc 7e5e 383d c4a0 08bc
000003e0: 00fe 0f3d 758a 8abd 7596 8fbd 43ce 58bc
000003f0: 9b6f 8abd 56a9 1c3d 6490 bc3d 7e8e 82bc

bias f4 [128]
0.06667018 0.057702594 -0.022400724 0.046429835 -0.029752022 -0.013182989 -0.08067016 0.046844494
0.06724163 0.0071610063 -0.08633566 -0.0034691975 -0.05760308 -0.04268315 -0.015409277 0.042443953
0.05425046 -0.08155275 -0.05010319 -0.046814583 0.029509934 0.001090659 -0.015368559 0.012903223
0.0057140514 -0.07356585 0.030631987 0.02155641 0.016693925 0.04729021 0.020299265 -0.0531067
0.09927975 0.046647426 0.090474606 0.019008057 0.067216106 -0.005968066 0.003191895 0.049340993
-0.038616903 -0.07893635 0.022811633 0.0631966 0.09263181 -0.008268939 -0.026867952 -0.056222215
0.09172309 0.00013837512 -0.033970904 -0.05833142 -0.020292632 0.08253222 0.041879874 -0.071609885
0.045727342 -0.028808478 0.089158215 -0.027166959 0.0011101797 0.031266194 -0.011069907 -0.047013737
-2.1766915e-05 0.09689814 -0.069235 0.06426026 0.05333939 0.08763965 0.025137298 -0.002882789
-0.05274889 0.099245474 0.00953723 0.0046221307 0.026442599 -0.013124068 0.0070209755 0.02703526
0.066672236 0.06234161 -0.09304654 -0.013849425 -0.00019337793 0.041920416 -0.05263115 -0.010868299
-0.041112274 -0.054088622 0.016377833 0.068349585 0.029123662 -0.036253482 -0.0011085835 -0.029152503
0.09530297 0.031350415 -0.05373777 -0.074066214 -0.03821004 -0.06393398 0.02683371 -0.03591981
-0.08429123 -0.020804774 -0.039483573 -0.031687353 0.07533057 -0.0006365616 -0.058633026 -0.046736445
0.08995657 -0.007790319 -0.027748093 -0.019038737 0.03840444 0.07835892 -0.012632384 -0.005332384
-0.027068604 -0.06041153 0.05216846 0.01760066 0.010567534 0.017791191 0.023670658 0.08051784
00000000: 608a 883d 8e59 6c3d b981 b7bc 362d 3e3d
00000010: 83ba f3bc 77fd 57bc 6636 a5bd 03e0 3f3d
00000020: fbb5 893d e0a6 ea3b c0d0 b0bd 7a5b 63bb
00000030: 35f1 6bbd 87d4 2ebd 3177 7cbc b6d9 2d3d
00000040: bb35 5e3d 2105 a7bd 0139 4dbd a6c0 3fbd
00000050: d1be f13c 71f4 8e3a 69cc 7bbc 0a68 533c
00000060: f03c bb3b b1a9 96bd efef fa3c 1197 b03c
00000070: b3c1 883c 61b3 413d a54a a63c 6986 59bd
00000080: 2e53 cb3d 5f11 3f3d c04a b93d c9b6 9b3c
00000090: 99a8 893d c48f c3bb 1d2f 513b c819 4a3d
000000a0: c22c 1ebd 62a9 a1bd 76df ba3c 386d 813d
000000b0: bfb5 bd3d 727a 07bc 2e1a dcbc 4449 66bd
000000c0: 51d9 bb3d ca18 1139 1325 0bbd edec 6ebd
000000d0: bc3c a6bc a706 a93d 3b8a 2b3d 34a8 92bd
000000e0: 984c 3b3d c2ff ebbc 9598 b63d 3e8d debc
000000f0: 7383 913a fb10 003d 8e5e 35bc 7a91 40bd
00000100: 1898 b6b7 8872 c63d 14cb 8dbd e29a 833d
00000110: 677a 5a3d 6b7c b33d bcec cd3c 2ced 3cbb
00000120: 380f 58bd 3641 cb3d 0b42 1c3c 3e75 973b
00000130: 269e d83c 5506 57bc 3610 e63b 0d79 dd3c
00000140: 748b 883d eb59 7f3d 2f8f bebd b3e8 62bc
00000150: 7ec5 4ab9 beb4 2b3d c393 57bd f310 32bc
00000160: 5865 28bd 088c 5dbd ce2a 863c defa 8b3d
00000170: bf94 ee3c 887e 14bd e44d 91ba 3bd1 eebc
00000180: 342e c33d 4b69 003d 231c 5cbd 07b0 97bd
00000190: 2282 1cbd d2ef 82bd 5ed2 db3c a720 13bd
000001a0: e1a0 acbd c66e aabc 87b9 21bd 99ca 01bd
000001b0: ea46 9a3d edde 26ba 2f29 70bd b76e 3fbd
000001c0: 263b b83d ef45 ffbb f84f e3bc 20f7 9bbc
000001d0: f94d 1d3d a47a a03d 0ff8 4ebc 47bb aebb
000001e0: fabe ddbc 1572 77bd 98ae 553d 422f 903c
000001f0: 7323 2d3c d5be 913c f8e8 c13c 8ae6 a43d

weight f4 [128, 128]
-0.0005788476 0.04092054 0.010384016 0.031703293 -0.05792771 0.052839737 -0.059094954 0.011902538
0.07932136 -0.019541278 -0.037515964 0.049896277 -0.036477156 -0.032593153 -0.0053076195 0.035903554
0.06568308 -0.03479881 0.012802288 0.1152089 0.06971454 -0.056284472 -0.04345384 -0.0070697223
-0.054582592 -0.029542094 -0.007696827 -0.03539678 -0.053323288 -0.036000047 0.03046626 -0.068584174
0.077454254 0.08702944 0.024734424 -0.04238504 0.02045632 -0.07572613 0.042370006 0.05588642
0.05463485 0.06468131 0.052331507 -0.09099153 -0.051736224 -0.012666887 0.01757412 0.05391569
-0.0925016 -0.05527552 0.033478495 0.05540035 0.003822889 0.04143588 0.0798959 0.07943977
0.019980315 -0.07679957 -0.03582916 -0.05172312 -0.05555615 0.06351296 0.0045452085 -0.05733591
0.04185747 -0.030555012 -0.051151436 -0.004238536 -0.047244072 -0.05051818 -0.051278125 -0.06422128
-0.031073032 0.050642923 -0.04517726 0.092237644 0.010515018 -0.022876745 -0.007354293 -0.005234132
0.020975504 0.057946566 0.02421679 -0.097253986 0.010595853 0.025351502 -0.06710784 -0.06496506
0.03614585 -0.09075072 -0.07122304 0.069050595 -0.009073479 -0.0122708175 0.05747575 0.030559419
-0.01975451 0.0032348973 0.05709327 0.07655078 -0.038882576 -0.005549723 0.055329952 0.05584268
0.010806843 0.023981405 0.06495157 -0.056149907 0.0016676463 0.011284143 -0.020506438 -0.04680856
-0.013109816 -0.08794859 -0.06772765 -0.044064667 -0.026956346 -0.060235094 0.02071223 -0.090459205
-0.019356417 -0.08791723 0.017956646 -0.027125511 0.0018210496 -0.02257706 -0.07792096 0.060070377
-0.07856257 0.025708294 0.09545808 0.07409995 0.07716076 -0.064683296 0.052472156 -0.028903766
-0.010902202 -0.06412294 0.09197603 0.04766059 -0.006224723 0.074888594 -0.051647514 -0.027724434
-0.015106745 -0.03525186 0.043108154 0.053917848 -0.0064275833 0.02775344 -0.05902169 0.030385694
-0.057713665 0.079406895 -0.051433858 0.08198621 -0.040170062 0.021605842 0.009529914 -0.014599912
0.058937564 0.053172227 -0.0015653673 -0.0006083882 -0.055327 0.028321212 -0.026776532 0.054895654
-0.09171874 0.063154064 -0.06239423 -0.08944606 0.010195149 0.07759067 -0.024836244 0.070042886
0.047097735 -0.026711153 -0.052099533 -0.04135169 0.05495926 0.023800205 0.0019247504 -0.03475751
0.08057734 0.06280884 -0.08897664 -0.062492047 -0.07170795 0.021994729 -0.04260415 -0.02081955
-0.06985227 -0.071862735 -0.0019780633 -0.08501578 -0.026493166 0.0066308607 0.027339574 -0.089851074
0.008679474 0.07295017 -0.060560945 -0.037110858 0.026515221 -0.006006235 -0.041723527 0.047424823
-0.08649142 -0.08704637 0.054252427 0.03278329 0.011249191 0.0783858 -0.078524664 0.06395487
0.010109436 0.06054485 0.03977942 0.026980994 -0.08478618 0.004039346 -0.0298139 -0.013190914
0.07203462 -0.01678218 -0.04397855 -0.03368041 -0.021316987 0.052557472 0.011249564 0.008879365
-0.051488083 0.08473364 -0.023836812 0.030174376 -0.07449037 0.04302871 0.032241117 0.06336932
0.043905385 -0.099718444 -0.030845622 0.053055465 0.03533672 -0.021029446 0.046263557 0.07217393
0.010830471 0.0062951525 0.079501346 0.069422334 -0.033130214 -0.0029356363 -0.013897244 0.038285412
00000000: cebd 17ba 4c9c 273d b821 2a3c 50db 013d
00000010: 9b45 6dbd 7b6e 583d 8d0d 72bd dd02 433c
00000020: 3d73 a23d 0815 a0bc 57aa 19bd 0a60 4c3d
00000030: 1269 15bd 6680 05bd 8aeb adbb 9b0f 133d
00000040: da84 863d 3289 0ebd b0c0 513c a5f2 eb3d
00000050: 7fc6 8e3d 8c8a 66bd a7fc 31bd 21a9 e7bb
00000060: ff91 5fbd 4302 f2bc aa35 fcbb 37fc 10bd
00000070: 8569 5abd c974 13bd 6194 f93c dc75 8cbd
00000080: 56a0 9e3d 7e3c b23d d99f ca3c f09b 2dbd
00000090: 0394 a73c 4d16 9bbd 2c8c 2d3d 29e9 643d
000000a0: cbc8 5f3d a277 843d 9059 563d c459 babd
000000b0: 5de9 53bd c688 4fbc 9af7 8f3c b3d6 5c3d
000000c0: 7b71 bdbd 9568 62bd bf20 093d 7aeb 623d
000000d0: 6f89 7a3b abb8 293d 76a0 a33d 51b1 a23d
000000e0: c2ad a33c 1849 9dbd 99c1 12bd 9fdb 53bd
000000f0: d88e 63bd 1513 823d f9ef 943b 0fd9 6abd
00000100: bd72 2b3d 814e fabc 2b84 51bd 6be3 8abb
00000110: 0083 41bd 27ec 4ebd 0309 52bd 7286 83bd
00000120: df8c febc f46e 4f3d ca0b 39bd 17e7 bc3d
00000130: 2f47 2c3c 0368 bbbc 48fc f0bb 1583 abbb
00000140: d2d4 ab3c 6159 6d3d 4a62 c63c 192d c7bd
00000150: 3b9a 2d3c f4ad cf3c d66f 89bd 670c 85bd
00000160: ac0d 143d 83db b9bd 63dd 91bd 666a 8d3d
00000170: eea8 14bc 8a0b 49bc b16b 6b3d bf57 fa3c
00000180: 36d4 a1bc 9200 543b a2da 693d a8c6 9c3d
00000190: 5643 1fbd 73da b5bb a9a1 623d 4bbb 643d
000001a0: 2f0f 313c a774 c43c 5405 853d 72fd 65bd
000001b0: ed94 da3a 20e1 383c 1efd a7bc 55ba 3fbd
000001c0: 8eca 56bc 641e b4bd cbb4 8abd 277d 34bd
000001d0: 8ed3 dcbc 13b9 76bd b2ac a93c ad42 b9bd
000001e0: 5991 9ebc f30d b4bd d119 933c 5236 debc
000001f0: 49b0 ee3a 87f3 b8bc 0695 9fbd 5b0c 763d
00000200: 6ae5 a0bd 339a d23c 877f c33d b7c1 973d
00000210: 7606 9e3d ad78 84bd 0bed 563d 97c7 ecbc
00000220: 269f 32bc e352 83bd ee5d bc3d c037 433d
00000230: c3f8 cbbb 315f 993d 588c 53bd 5a1e e3bc
00000240: 4882 77bc 4164 10bd 2d92 303d f6d8 5c3d
00000250: 7a9e d2bb 2f5b e33c bac0 71bd 6beb f83c
00000260: 2a65 6cbd 15a0 a23d 4fac 52bd 63e8 a73d
00000270: 5d89 24bd bcfe b03c 5b23 1c3c 7834 6fbc
00000280: 8468 713d 1fcb 593d 032d cdba 3e7c 1fba
00000290: 909e 62bd e301 e83c 755a dbbc 44da 603d
000002a0: 09d7 bbbd eb56 813d 1891 7fbd 7f2f b7bd
000002b0: 8e09 273c dbe7 9e3d 6175 cbbc a572 8f3d
000002c0: 8ee9 403d 59d1 dabc 5266 55bd 6460 29bd
000002d0: f61c 613d a6f8 c23c e847 fc3a e45d 0ebd
000002e0: bc05 a53d eca1 803d 6239 b6bd a9f7 7fbd
000002f0: 9edb 92bd 4a2e b43c b081 2ebd c38d aabc
00000300: b50e 8fbd c52c 93bd 65a2 01bb c11c aebd
00000310: 3208 d9bc b147 d93b 3ef7 df3c d703 b8bd
00000320: 5a34 0e3c e666 953d c10e 78bd 8e01 18bd
00000330: 7336 d93c f3cf c4bb 4ae6 2abd 8840 423d
00000340: 6a22 b1bd 5e45 b2bd cb37 5e3d c547 063d
00000350: 874e 383c bc88 a03d 8ad1 a0bd c5fa 823d
00000360: 0ca2 253c e0fd 773d bfef 223d 3f07 dd3c
00000370: 60a4 adbd 7d5c 843b 483c f4bc b41e 58bc
00000380: e386 933d c87a 89bc da22 34bd 78f4 09bd
00000390: f6a0 aebc 8146 573d 1750 383c c27a 113c
000003a0: 2be5 52bd d588 ad3d 6b45 c3bc 4130 f73c
000003b0: 688e 98bd df3e 303d 430f 043d c6c7 813d
000003c0: 22d6 333d 2f39 ccbd f5af fcbc b050 593d
000003d0: 3dbd 103d f245 acbc db7e 3d3d edcf 933d
000003e0: 4a72 313c 9147 ce3b 9ad1 a23d 4c2d 8e3d
000003f0: 8cb3 07bd ce63 40bb 44b1 63bc 2ad1 1c3d

bias f4 [128]
-0.050580062 -0.041556805 -0.026956966 -0.07310076 0.08570193 0.06877926 0.009121098 0.0055874153
0.068649486 0.075403534 -0.02709855 -0.04306312 0.047230482 -0.058750477 0.047031466 -0.074847415
-0.041439194 -0.0058461335 -0.05065831 0.02855751 0.0018855262 0.008395262 0.07113255 0.037709795
-0.06008763 -0.0543361 0.0249716 -0.042392813 0.070901185 0.09434354 -0.017607989 -0.080097005
-0.094656594 -0.06715642 -0.07790543 0.061062872 -0.05594328 -0.07232752 0.0913312 -0.0652168
0.0693162 -0.02943762 -0.01578643 0.03815049 0.053540498 -0.0228094 0.08929895 0.03250991
0.07411432 0.07753931 -0.056152444 0.015386235 -0.07175925 -0.06803947 0.014688646 -0.028322574
-0.05553204 0.016412625 -0.036454793 -0.07933899 0.03799778 -0.0046658847 0.039080303 -0.043661956
-0.021851443 0.048644163 -0.06697841 0.0050605005 0.097429976 0.013789166 0.036937583 -0.074822135
0.034944795 -0.08333881 0.081671186 0.017511176 -0.06045273 0.016446618 0.09892503 -0.052576553
-0.0022243564 0.090038575 0.003480981 0.051978365 0.06074318 -0.02171458 0.09398947 -0.025581319
0.099687845 -0.017298656 0.024209917 -0.09032133 0.036819585 -0.001938185 -0.08557342 -0.038863987
0.07307989 -0.08666248 0.028458618 0.0003278509 0.00989218 -0.0016038123 0.004635708 -0.027886052
-0.09631446 -0.020504395 0.06205033 -0.09186758 -0.045020163 -0.06503027 -0.061153807 -0.027342333
0.061047602 0.05706591 0.035996396 0.05021636 -0.10165538 -0.09026335 0.09288417 0.07606809
0.04665545 -0.08533748 -0.07469471 0.086079575 -0.06678099 -0.019527614 0.0207941 0.098970175
00000000: 0a2d 4fbd 7837 2abd dbd4 dcbc dab5 95bd
00000010: 7e84 af3d 24dc 8c3d a870 153c a316 b73b
00000020: 1a98 8c3d 2b6d 9a3d c7fd ddbc f462 30bd
00000030: c074 413d 57a4 70bd 11a4 403d 9a49 99bd
00000040: 25bc 29bd ec90 bfbb 177f 4fbd 70f1 e93c
00000050: c323 f73a 488c 093c f1ad 913d 9675 1a3d
00000060: 721e 76bd 888f 5ebd 3e91 cc3c 16a4 2dbd
00000070: a434 913d 3037 c13d a13e 90bc e609 a4bd
00000080: 51db c1bd 4e89 89bd e28c 9fbd 101d 7a3d
00000090: c824 65bd 7320 94bd da0b bb3d 6390 85bd
000000a0: a7f5 8d3d 2a27 f1bc 8b52 81bc b043 1c3d
000000b0: 484d 5b3d c7da babc 5ee2 b63d 1d29 053d
000000c0: 40c9 973d eecc 9e3d 1b00 66bd 8c16 7c3c
000000d0: 83f6 92bd 4758 8bbd a6a8 703c be04 e8bc
000000e0: 9075 63bd c573 863c 9f51 15bd 7b7c a2bd
000000f0: 8fa3 1b3d 47e4 98bb ab12 203d e1d6 32bd
00000100: cc01 b3bc 1a3f 473d fa2b 89bd 8ed2 a53b
00000110: 5e89 c73d f4eb 613c dd4b 173d 593c 99bd
00000120: 4622 0f3d 8aad aabd 3943 a73d 9973 8f3c
00000130: 489d 77bd 0fbb 863c 3599 ca3d 835a 57bd
00000140: 82c6 11bb 2566 b83d 2c21 643b 44e7 543d
00000150: d7cd 783d c6e2 b1bc 8d7d c03d ea8f d1bc
00000160: 2429 cc3d e9b5 8dbc e053 c63c 64fa b8bd
00000170: 22d0 163d b20a feba 1e41 afbd d82f 1fbd
00000180: e9aa 953d 197c b1bd 0c22 e93c 67e3 ab39
00000190: cf12 223c 0337 d2ba 23e7 973b 4a71 e4bc
000001a0: 8440 c5bd d5f8 a7bc 7d28 7e3d 1225 bcbd
000001b0: 1067 38bd 972e 85bd 6a7c 7abd 07fd dfbc
000001c0: 0d0d 7a3d f2bd 693d f570 133d abaf 4d3d
000001d0: b230 d0bd fedb b8bd 0e3a be3d 96c9 9b3d
000001e0: c919 3f3d 6bc5 aebd 8af9 98bd 7d4a b03d
000001f0: 79c4 88bd 60f8 9fbc 6358 aa3c e0b0 ca3d

weight f4 [1, 128]
0.017641367 0.015710697 0.018094994 0.0006446603 -0.0070322007 -0.0064970367 -0.010682079 0.0036817805
-0.018243436 -0.002425966 0.013373277 -0.0151993595 0.0020940888 0.015201199 -0.0013587645 0.011220767
0.018808307 0.011472274 -0.014954654 -0.0039707753 -0.0011606279 0.0017923956 -0.012803517 0.012509293
-0.015661685 0.007950484 -0.018275654 0.013555745 0.003996253 -0.026142018 0.015888406 0.006572762
0.010017755 0.02344985 0.021151066 -0.007990608 0.016814543 0.014398591 -0.0016406449 -0.010841742
-0.0025807293 0.015394912 -0.00054187194 -0.0024631943 -0.028222661 -0.0069735483 -0.012344961 -0.014208722
-0.018535418 -0.008465886 0.008652548 -0.014098727 -0.00941062 -0.00038686427 0.0061552 0.017564606
-0.0035495511 0.00038596816 -0.027675092 0.025613904 -0.022338647 0.014962094 -0.008087214 0.004833543
0.043782096 -0.007420714 0.010159947 -0.0070670038 -0.0073497156 0.020167075 -0.015759524 0.011209432
0.014155945 0.01404004 -0.008408439 0.005108 -0.009842634 -0.00388039 -0.020076552 -0.01971356
0.0071050404 -0.014828271 -0.021045899 -0.0021830734 -0.0066066766 0.012605359 -0.0312653 0.012234235
-0.01373957 0.004152675 0.007274397 0.023326248 -0.013174432 0.010680158 -0.00030615152 0.018555256
-0.025506413 0.015436211 -0.02359578 0.013307563 -0.0044941525 -0.0022438706 0.016494175 0.021271825
0.0049396246 -0.018433213 -0.017021054 0.016125461 -0.015972866 -0.0065686028 0.02341741 0.026821218
0.007881029 -0.024951337 -0.006517709 -0.0055552833 0.025284892 0.00046159027 -0.017323732 -0.018921515
0.018757548 0.016512018 0.008886361 -0.0066929893 0.01618711 0.018180279 0.008796391 -0.0051254677
00000000: a184 903c b8b3 803c f43b 943c 6cfe 283a
00000010: 606e e6bb 18e5 d4bb e303 2fbc 074a 713b
00000020: 4273 95bc f5fc 1ebb 971b 5b3c bc06 79bc
00000030: fb3c 093b 730e 793c 9218 b2ba 4fd7 373c
00000040: e113 9a3c 34f6 3b3c 5d04 75bc 471d 82bb
00000050: 3620 98ba d1ee ea3a d8c5 51bc c7f3 4c3c
00000060: ef4c 80bc bf42 023c d3b6 95bc ea18 5e3c
00000070: 00f3 823b c927 d6bc 6728 823c 5360 d73b
00000080: 8321 243c e619 c03c 0045 ad3c 0aeb 02bc
00000090: a7be 893c 11e8 6b3c e80a d7ba 90a1 31bc
000000a0: 7421 29bb f13a 7c3c 690c 0eba 8b6d 21bb
000000b0: 3633 e7bc 5d82 e4bb 8542 4abc b3cb 68bc
000000c0: 97d7 97bc 80b4 0abc 6bc3 0d3c 59fe 66bc
000000d0: 002f 1abc 0bd4 cab9 8fb1 c93b a6e3 8f3c
000000e0: 969f 68bb c55b ca39 e0b6 e2bc 40d4 d13c
000000f0: 8aff b6bc 9223 753c 3c80 04bc b362 9e3b
00000100: db54 333d 7629 f3bb e875 263c 5392 e7bb
00000110: e2d5 f0bb 6c35 a53c 1e1a 81bc c4a7 373c
00000120: 56ee 673c 3208 663c 8dc3 09bc 0261 a73b
00000130: 0043 21bc 244e 7ebb 9577 a4bc 557e a1bc
00000140: 66d1 e83b 47f2 72bc 7368 acbc e511 0fbb
00000150: d27c d8bb b586 4e3c 0b10 00bd 1a72 483c
00000160: ef1b 61bc 2a13 883b 115e ee3b b016 bf3c
00000170: 93d9 57bc d4fb 2e3c f682 a0b9 3101 983c
00000180: d3f2 d0bc 29e8 7c3c f04b c1bc f707 5a3c
00000190: af43 93bb e70d 13bb cb1e 873c 4042 ae3c
000001a0: 93dc a13b 4001 97bc bd6f 8bbc 8b19 843c
000001b0: 87d9 82bc 6f3d d7bb ded5 bf3c 2cb8 db3c
000001c0: 6e1f 013c bf66 ccbc 8192 d5bb 1809 b6bb
000001d0: 4322 cf3c 9901 f239 80ea 8dbc 4b01 9bbc
000001e0: 6ea9 993c 3644 873c 1998 113c dd50 dbbb
000001f0: d59a 843c cfee 943c bd1e 103c 8af3 a7bb

weight f4 [3, 128]
-0.011723247 0.007523591 0.002375889 0.0060454584 -0.010072288 0.0018249603 0.013068031 -0.0013224797
0.0063258084 0.008900113 0.0057029817 0.023615478 0.009369542 -0.000932172 -0.007165959 -0.005875956
0.0021464508 -0.004199804 -0.0025574674 -0.0026506265 0.012724865 0.0052403277 0.014743999 -0.013086253
-0.014366519 0.0059772246 0.008275333 0.005042743 -0.008437369 -0.01247101 -0.003994234 -0.0022462923
0.0058431136 -0.008098364 0.018856358 0.015477047 -0.0016055349 0.0028803155 0.0013667231 -0.015600202
-0.003918404 0.0001566957 0.0064312564 0.0016596338 -0.0057803337 0.02349395 0.014437956 -0.005745644
0.0018774597 -0.0047938176 -0.004630867 0.017196143 0.011413262 0.0059927283 0.006800227 0.010072035
7.7888806e-05 -0.0038026331 -0.013017159 -0.0024308187 0.00050133973 -0.011879884 -0.0109895775 -0.001575965
-0.0044615828 -0.0071284724 -0.0034258312 0.0128973005 -0.0017019411 -0.0019047763 -0.0004379605 -0.011409014
0.0023764188 0.00048332935 -0.012783484 0.014770666 -0.00092458556 0.00068442494 0.0030738097 -0.005953796
0.003104719 -0.0008872104 0.010568467 0.002571836 0.019686919 -0.007414627 0.00893272 -0.0107726315
0.007282392 -0.015217822 0.0042312047 0.008108202 -0.002969394 -0.013372623 0.013395394 -0.006550741
-0.011754179 0.008258418 -0.0044967057 -0.0046796757 -0.007112215 0.0033742904 0.012964717 0.009076951
0.008849462 0.011827501 -0.00904179 0.0068533598 -0.0019941193 0.0029700983 -0.008294038 0.0037707288
0.0032410934 0.0039385613 -0.00051693595 0.0017916802 0.004057979 0.0063518356 -0.0005781896 -0.006350373
0.005499166 -0.0006717913 -0.0005705773 -0.004440782 -0.014816305 -0.012445361 0.0033011707 -0.0027774225
0.0026852684 -0.002955033 -0.0045145135 0.013824582 0.00921869 -0.0074584605 0.012560348 -0.0036195097
-0.0040581916 0.009625606 -0.00096917356 0.017638726 0.0022276633 -0.02221715 0.010755062 0.015759427
0.00260784 -0.0035072132 0.015463276 -0.005716973 -0.005309819 0.014155156 0.0064932364 -0.00046760726
-0.00060035655 -0.0038783257 0.0074594356 -0.008015704 0.011480323 -0.0016604179 0.014467581 -0.0017963547
-0.0068787406 -0.0013479678 0.0128285065 -0.006643038 -0.0052184425 0.003976756 -0.00012364173 -0.007663938
0.0070322296 0.01318711 0.0012683707 -0.010906333 0.0042333994 -0.009743181 -0.005117995 -0.0038924909
-0.01517683 0.008175967 -0.002774975 -0.0023438644 0.0045721256 0.010899231 0.0060500745 0.008133651
-0.008652009 0.0005033171 -0.0010957487 0.0031954078 0.0031754873 0.0063012065 -0.0038061107 -0.01051114
0.014720691 0.013002023 0.0037074187 -0.009046374 -0.0023721908 0.007470137 -0.008554337 0.0011635788
-0.0040441095 -0.018442864 0.012301888 0.00011006549 0.004067542 -0.00013306127 -0.0037622782 -0.014112886
0.012233337 0.0007398742 -0.010016435 0.0044544237 0.014012563 0.0021012463 0.008469776 0.00044509847
0.0014321251 -0.019624393 0.0087616285 -0.0058101076 0.004485596 0.006541377 0.003956256 0.008956209
-0.0086451005 0.010660782 0.0029163547 -0.011094328 0.0010149056 0.004900192 -0.012770449 0.007649325
0.0031300788 -0.0016261499 0.0023785634 0.00096113473 -0.0018879101 0.013571022 0.019388175 0.004784832
0.008737054 0.008334926 0.0022625101 0.013140308 -0.0007157476 -0.00018209555 -0.01212713 0.009156939
0.0054330826 -0.012965668 -0.00050663325 -0.00538213 -0.00028506693 -0.0067590107 -0.017768621 0.0016106789
00000000: dd12 40bc 7588 f63b ceb4 1b3b fb18 c63b
00000010: 3d06 25bc 8233 ef3a 4b1b 563c 0e57 adba
00000020: ba48 cf3b c8d1 113c 14e0 ba3b 3f75 c13c
00000030: b582 193c 015d 74ba 6cd0 eabb 178b c0bb
00000040: 78ab 0c3b 829e 89bb 2f9b 27bb 22b6 2dbb
00000050: f47b 503c 0eb7 ab3b d090 713c b967 56bc
00000060: 8c61 6bbc 98dc c33b 4395 073c 983d a53b
00000070: e43c 0abc 3553 4cbc 10e2 82bb 8836 13bb
00000080: 9777 bf3b 00af 04bc a678 9a3c 7193 7d3c
00000090: d070 d2ba adc3 3c3b 9e23 b33a fd97 7fbc
000000a0: f565 80bb af4e 2439 4abd d23b 1288 d93a
000000b0: f468 bdbb 6276 c03c 2d8d 6c3c f545 bcbb
000000c0: 1815 f63a 7515 9dbb 87be 97bb edde 8c3c
000000d0: b1fe 3a3c a65e c43b 70d4 de3b 2d05 253c
000000e0: 3c58 a338 9935 79bb ec45 55bc 5f4e 1fbb
000000f0: 576c 033a d8a3 42bc a10d 34bc 9c90 ceba
00000100: 7832 92bb f695 e9bb e983 60bb 334f 533c
00000110: ab13 dfba b0a9 f9ba 109e e5b9 e0ec 3abc
00000120: b1bd 1b3b 5e67 fd39 d171 51bc aa00 723c
00000130: e35f 72ba fb6a 333a f871 493b 1018 c3bb
00000140: 8b78 4b3b af93 68ba 5d27 2d3c 408c 283b
00000150: 7646 a13c 66f6 f2bb 8b5a 123c b17f 30bc
00000160: 22a1 ee3b 2c54 79bc eba5 8a3b 44d8 043c
00000170: 2a9a 42bb d918 5bbc 5b78 5b3c 99a7 d6bb
00000180: 9a94 40bc 514e 073c 1a59 93bb f757 99bb
00000190: 950d e9bb 3323 5d3b f769 543c 7eb7 143c
000001a0: 55fd 103c 22c8 413c 0424 14bc 2692 e03b
000001b0: c5af 02bb fba5 423b b7e3 07bc 551e 773b
000001c0: 8668 543b 0c0f 813b fc82 07ba d0d6 ea3a
000001d0: ccf8 843b 0f23 d03b a691 17ba ca16 d0bb
000001e0: 5932 b43b 271b 30ba cb92 15ba fb83 91bb
000001f0: 16c0 72bc a1e7 4bbc 7458 583b 6b05 36bb
00000200: 54fb 2f3b 3aa9 41bb 7cee 93bb 8080 623c
00000210: fd09 173c 1a66 f4bb ebc9 4d3c 4c35 6dbb
00000220: 94fa 84bb b8b4 1d3c 2310 7eba 177f 903c
00000230: fdfd 113b be00 b6bc 0036 303c ea19 813c
00000240: 4ce8 2a3b 46d9 65bb ae59 7d3c 7255 bbbb
00000250: fdfd adbb 07eb 673c 37c5 d43b 2f29 f5b9
00000260: 3f61 1dba 822b 7ebb 486e f43b 4d54 03bc
00000270: f717 3c3c 61a2 d9ba 6f09 6d3c a973 ebba
00000280: 0f67 e1bb 4bae b0ba a82e 523c d7ad d9bb
00000290: 78ff aabb 724f 823b d3a5 01b9 c621 fbbb
000002a0: 9e6e e63b c00e 583c 753f a63a 7ab0 32bc
000002b0: 54b8 8a3b dda1 1fbc dbb4 a7bb 2919 7fbb
000002c0: 3da8 78bc 7ef4 053c 5bdc 35bb 859b 19bb
000002d0: c5d1 953b b092 323c b43f c63b 0143 053c
000002e0: 28c1 0dbc 0af1 033a 3a9f 8fba 0c6a 513b
000002f0: d61b 503b 5a7a ce3b f16f 79bb eb36 2cbc
00000300: 0e2f 713c 7006 553c 2af8 723b 3e37 14bc
00000310: c276 1bbb 0dc8 f43b 7d27 0cbc 3a83 983a
00000320: 7384 84bb 7d15 97bc dc8d 493c f6d2 e638
00000330: 0449 853b 5d86 0bb9 8e90 76bb bc39 67bc
00000340: 566e 483c 1ef4 413a f91b 24bc 6af6 913b
00000350: f394 653c 10b5 093b d1c4 0a3c 1b5c e939
00000360: 25b6 bb3a 56c3 a0bc ef8c 0f3c b762 bebb
00000370: e8fb 923b 0c59 d63b 7ba3 813b 10bd 123c
00000380: 2ea4 0dbc 90aa 2e3c 5020 3f3b fcc4 35bc
00000390: 9506 853a ca91 a03b 253b 51bc 30a7 fa3b
000003a0: 0222 4d3b 8924 d5ba ace1 1b3b a9f4 7b3a
000003b0: c073 f7ba fe58 5e3c f3d3 9e3c 14ca 9c3b
000003c0: dc25 0f3c 378f 083c 9f46 143b 724a 573c
000003d0: 02a1 3bba e7f0 3eb9 dfb0 46bc fc06 163c
000003e0: 0008 b23b f46d 54bc 95cf 04ba 945c b0bb
000003f0: 0975 95b9 b17a ddbb 808f 91bc 6a1d d33a

bias f4 [3]
0.0010261955 0.002923386 -0.0026819431
00000000: 6881 863a 4796 3f3b 8ac3 2fbb

weight f4 [1, 128]
0.0124706635 0.02410302 0.015036052 0.015995508 -0.012684047 -0.022744166 -0.005535612 0.017931098
-0.027309047 0.005508654 0.0132652335 -0.021684717 0.025141783 0.011804071 0.0066105295 0.010191661
0.010414134 0.005110097 -0.013718495 0.012885069 -0.014695095 0.017132036 -0.014349323 0.017229216
-0.0018757483 0.00855398 -0.016147474 0.02203586 -0.0026781869 -0.013015692 0.013154852 0.020364946
0.007560748 0.0323474 -0.0032217572 0.0056603593 0.027756173 0.013309822 -0.019508548 -0.02007603
0.0032878998 0.007734189 0.003554181 0.011661595 -0.023331309 -0.013674687 -0.009554887 -0.013680167
-0.011783017 -0.01617733 0.0055417055 -0.009911253 -0.017978726 0.014694814 0.018443443 0.008325657
0.003385902 -0.012788818 -0.007071475 0.011985497 -0.022261377 -0.014286132 -0.009360942 0.012554906
0.010999411 -0.019461833 0.012935385 0.0025383022 -0.009408363 0.019255424 -0.024203062 0.0058973744
0.0046019573 0.0012980783 -0.016831372 0.018618394 0.015483914 -0.011431991 -0.007034388 0.006758048
0.012320182 -0.006731318 0.0026608137 -0.0027110418 -0.014427162 -0.0016203031 -0.013809603 0.014412599
-0.01838778 0.009763002 -0.0014849219 0.028806029 -0.0032816783 0.005227447 0.010832832 0.008714978
-0.019404616 0.0041098287 -0.023828674 0.015331928 -0.019985115 -0.012942254 0.0074698357 0.025908861
0.023311436 0.012402202 -0.022418333 0.008205647 -0.002460233 -0.01156435 0.024229342 0.009647575
0.005311185 -0.0005754081 -0.0106836585 -0.017761767 0.013442616 0.014029451 -0.0066625304 -0.0149429515
0.02748461 -0.00043024519 0.02016329 -0.011701492 0.0068912976 0.015510828 0.01578052 -0.017796278
00000000: c151 4c3c b273 c53c c659 763c 0309 833c
00000010: c0d0 4fbc f951 babc 1464 b5bb 3de4 923c
00000020: 39b7 dfbc f081 b43b 6c56 593c 26a4 b1bc
00000030: 24f6 cd3c dd65 413c 249d d83b edfa 263c
00000040: 0ba0 2a3c 9a72 a73b 8ac3 60bc e51b 533c
00000050: b2c3 70bc 7c58 8c3c 6c19 6bbc 4924 8d3c
00000060: abdb f5ba fe25 0c3c b547 84bc 8c84 b43c
00000070: 8584 2fbb c53f 55bc 7387 573c 63d4 a63c
00000080: 27c0 f73b b57e 043d 1e24 53bb 897a b93b
00000090: ea60 e33c 7111 5a3c 64d0 9fbc 7d76 a4bc
000000a0: ce79 573b 146f fd3b 43ed 683b 4610 3f3c
000000b0: 4d21 bfbc cb0b 60bc 1a8c 1cbc c722 60bc
000000c0: 8e0d 41bc 5286 84bc 3297 b53b cf62 22bc
000000d0: 1f48 93bc 84c2 703c b416 973c 5668 083c
000000e0: 02e6 5d3b 3188 51bc d5b7 e7bb d15e 443c
000000f0: 7e5d b6bc 6110 6abc a35e 19bc 18b3 4d3c
00000100: e036 343c 6c6e 9fbc f0ee 533c a559 263b
00000110: 8925 1abc 8dbd 9d3c 8045 c6bc c33e c13b
00000120: 04cc 963b 4824 aa3a f2e1 89bc 9a85 983c
00000130: 3eb0 7d3c 3f4d 3bbc b980 e6bb 9e72 dd3b
00000140: 97da 493c 6392 dcbb 0c61 2e3b bcab 31bb
00000150: e75f 6cbc 5a60 d4ba ac41 62bc d222 6c3c
00000160: f8a1 96bc 00f5 1f3c b6a1 c2ba 9ffa eb3c
00000170: 6d11 57bb 014b ab3b 317c 313c 44c9 0e3c
00000180: 6ef6 9ebc beab 863b 5a34 c3bc c432 7b3c
00000190: d3b7 a3bc bf0b 54bc 86c5 f43b d23e d43c
000001a0: a0f7 be3c 9b32 4b3c a7a6 b7bc fa70 063c
000001b0: dc3b 21bb 6678 3dbc 9d7c c63c dd10 1e3c
000001c0: 7309 ae3b fcd6 16ba 830a 2fbc 2081 91bc
000001d0: 6b3e 5c3c c8db 653c 5b51 dabb 48d3 74bc
000001e0: 6827 e13c 8892 e1b9 7c2d a53c 9db7 3fbc
000001f0: 65d0 e13b 2121 7e3c 2646 813c 80c9 91bc

weight f4 [3, 128]
0.008590224 -0.00024958648 -0.0119597595 -0.0020418451 0.0020743655 -0.014764574 0.00848052 0.0012373591
0.00056980876 -0.006552132 0.001775423 -0.009915864 0.0060373116 0.0007152636 0.00047170185 -0.01044076
-0.010631748 -0.005527816 -0.0021595773 -0.0068941796 0.0080424305 -7.9510726e-05 0.0041716746 0.009470154
0.0022418303 0.008404631 -0.0045871674 -0.003558999 0.00021099676 0.005375018 -0.023195846 -0.00075789844
-0.011280966 -0.010143154 -0.006423207 0.0007287133 0.017060496 0.011346318 0.0040392163 0.0028937678
0.0065937946 0.0081284875 -0.0027245623 -0.017525434 0.004717805 -0.008196758 0.0004992014 -0.018699415
0.010080158 -0.0039004346 -0.0017143366 0.009899557 -0.0036045073 -0.009459158 -0.005787589 0.0022818365
0.00018973995 0.0038633398 -0.010469408 0.005326771 -0.009739557 0.005756515 -0.009668733 -0.00018832431
-0.0033613371 0.004802038 0.0020541698 -0.0053284364 0.0024742573 0.02045806 -0.0022452949 -0.018122047
-0.01730401 -0.005455926 0.010126277 0.0004374047 0.011701811 -0.015279014 -0.0066524316 0.014819976
0.008015396 0.0007968094 -0.011798596 0.0072925244 0.0020922485 -0.0071077654 0.0111708 -0.008093887
0.010296542 -0.012139721 0.008843527 -0.004802403 0.0039782254 -0.0037528314 -0.0009344581 -0.0005332438
0.0005251667 0.009512451 -0.0136432815 0.01237294 -0.00033140715 -0.00025257564 -0.0047632507 0.0040517007
0.014029248 -0.012076156 0.005091914 0.0077746115 -0.01205332 -0.006476555 -0.0023819103 -0.014857173
0.0021782732 0.007718024 -0.0047186576 -0.008642319 0.00011495855 0.01674944 0.001646234 -0.014984988
-0.0006821485 -0.00270067 0.0049990173 -0.0036901361 -0.008535141 0.0012394821 0.010948642 0.004723446
-0.002839636 0.005915709 -0.0019503108 1.8558088e-05 -0.0025851757 -0.009126016 -0.002986224 -0.0088377325
0.003721202 -0.0019098506 -0.006181404 -0.0066109975 0.0034824961 -0.014969852 -0.0007723476 -0.009691862
0.0019696786 0.011648617 -0.005742966 0.011589562 0.008993483 -0.011318543 0.0079309195 0.0012394126
0.012745379 -0.0153861 0.0040630074 -0.0047566323 -0.003014816 -0.006211936 0.0031443809 0.0035460046
-0.01408472 0.001989202 0.009655035 0.0062806546 -0.0013932595 0.004729414 -0.0005215842 0.0013494318
0.011955757 0.008175341 -0.008816604 0.016845988 0.012503198 -0.009901666 0.0062480965 -0.012699045
0.024781104 0.008105476 0.017457234 0.0089452015 -0.012590459 0.001194207 0.0041290936 0.0015646577
-0.0027460915 0.00554414 0.0070149954 0.007842623 -0.0034283793 0.008171623 -0.004157436 0.00018888396
-0.011794365 -0.008511046 0.0070557534 -0.013615924 0.013350268 0.0017473744 -0.008372774 0.0026900268
0.0021461742 -0.014483003 -0.0065716524 -0.012453497 -0.004107301 -0.0065641473 -0.0025925946 -0.0039478387
0.001997521 0.00026883665 0.0026691817 0.005743157 0.014931172 0.010872828 0.0116358595 -0.012046352
0.00076494674 -0.002409578 -0.0053062523 0.002078473 0.0049544354 -0.008993241 0.019597588 0.005110038
-0.003962393 -0.009761049 -0.0052264743 -0.007441429 0.0042132987 0.0016897563 0.0011943859 0.015463949
-0.0061652767 -0.005598706 0.004350593 -0.012048254 0.00895986 0.0036943906 0.0046096463 0.014723327
-0.0011070821 -0.003436126 0.0019753068 -0.008291827 -0.008151806 -0.012136352 -0.019990766 0.008596711
-0.003291041 0.0044597597 -0.017135693 0.0043841223 0.0077420226 0.00030090535 0.011058425 0.0077049574
00000000: 03be 0c3c eeda 82b9 def2 43bc 7ad0 05bb
00000010: 14f2 073b 1de7 71bc e1f1 0a3c e22e a23a
00000020: 385f 153a 44b3 d6bb 4fb5 e83a 2676 22bc
00000030: a4d4 c53b 8780 3b3a c04e f739 b90f 2bbc
00000040: c830 2ebc ae22 b5bb b287 0dbb 92e8 e1bb
00000050: 66c4 033c ffbe a6b8 8bb2 883b b428 1b3c
00000060: aceb 123b 94b3 093c f34f 96bb 183e 69bb
00000070: 033f 5d39 eb20 b03b 3705 bebc b4ad 46ba
00000080: cdd3 38bc 792f 26bc c479 d2bb 1f07 3f3a
00000090: 74c2 8b3c e8e5 393c 675b 843b 5ea5 3d3b
000000a0: c210 d83b 592d 053c 928e 32bb 8091 8fbc
000000b0: d197 9a3b b24b 06bc d7dc 023a 842f 99bc
000000c0: 3f27 253c 6f9e 7fbb 97b3 e0ba c031 223c
000000d0: 9939 6cbb 96fa 1abc d1a5 bdbb dd8a 153b
000000e0: eef4 4639 1630 7d3b e187 2bbc 328c ae3b
000000f0: aa92 1fbc 26a1 bc3b 9b69 1ebc ec78 45b9
00000100: e149 5cbb 6a5a 9d3b 409f 063b 2a9a aebb
00000110: 2627 223b a997 a73c cc25 13bb b074 94bc
00000120: 24c1 8dbc a0c7 b2bb afe8 253c 7753 e539
00000130: f4b8 3f3c d454 7abc a4fc d9bb 7ccf 723c
00000140: 0253 033c f9e0 503a e64e 41bc 21f6 ee3b
00000150: 1b1e 093b 42e8 e8bb bb05 373c 399c 04bc
00000160: d4b2 283c aee5 46bc 71e4 103c 7a5d 9dbb
00000170: c65b 823b 10f2 75bb 6cf6 74ba 63c9 0bba
00000180: 57ab 093a 1cda 1b3c 1288 5fbc dfb7 4a3c
00000190: b7c0 adb9 216c 84b9 0b15 9cbb 21c4 843b
000001a0: eeda 653c 12db 45bc 12da a63b 2bc2 fe3b
000001b0: 4a7b 45bc 4839 d4bb d319 1cbb 806b 73bc
000001c0: 5cc1 0e3b 7ae7 fc3b f89e 9abb 8398 0dbc
000001d0: e715 f138 1f36 893c 72c6 d73a 9883 75bc
000001e0: 36d2 32ba b9fd 30bb ccce a33b 36d6 71bb
000001f0: fad6 0bbc 1e76 a23a ef61 333c 23c7 9a3b
00000200: 3019 3abb 90d8 c13b 92a1 ffba 31ad 9b37
00000210: 0d6c 29bb 4985 15bc 86b4 43bb 23cc 10bc
00000220: 69df 733b f453 faba 608d cabb 11a1 d8bb
00000230: 973a 643b 1c44 75bc 5f77 4aba 9eca 1ebc
00000240: b915 013b d7d9 3e3c 7e2f bcbb 25e2 3d3c
00000250: 6759 133c 6971 39bc b0f0 013c c973 a23a
00000260: fed1 503c fb15 7cbc fa22 853b 86dd 9bbb
00000270: 3894 45bb 7f8d cbbb f511 4e3b 1664 683b
00000280: 99c3 66bc 465d 023b 2730 1e3c f3cd cd3b
00000290: 089e b6ba 33f9 9a3b ecba 08ba 6bdf b03a
000002a0: 14e2 433c def1 053c 8473 10bc 9900 8a3c
000002b0: 37da 4c3c 993a 22bc d5bc cc3b a80f 50bc
000002c0: be01 cb3c d5cc 043c 7902 8f3c e58e 123c
000002d0: 3648 4ebc f086 9c3a 594d 873b 3315 cd3a
000002e0: c5f7 33bb 9eab b53b 0cde e53b 587e 003c
000002f0: a9ae 60bb 45e2 053c 1a3b 88bb 270f 4639
00000300: 273d 41bc ea71 0bbc f333 e73b 5315 5fbc
00000310: 15bb 5a3c 2808 e53a f62d 09bc 294b 303b
00000320: d4a6 0c3b 1e4a 6dbc 0457 d7bb c109 4cbc
00000330: 8a96 86bb 0f18 d7bb 85e8 29bb df5c 81bb
00000340: d7e8 023b a5f2 8c39 70ed 2e3b 1831 bc3b
00000350: e0a1 743c f223 323c 55a4 3e3c 105e 45bc
00000360: b586 483a 03ea 1dbb 12e0 adbb fe36 083b
00000370: d158 a23b 6358 13bc 1f8b a03c 1b72 a73b
00000380: f6d6 81bb cfec 1fbc d842 abbb 3bd7 f3bb
00000390: b60f 8a3b d07a dd3a f18c 9c3a 815c 7d3c
000003a0: 1706 cabb 5a75 b7bb 6b8f 8e3b 0a66 45bc
000003b0: 60cc 123c 971d 723b 840c 973b 1c3a 713c
000003c0: 831b 91ba a130 61bb 2674 013b 71da 07bc
000003d0: 278f 05bc 8dd7 46bc adc3 a3bc 38d9 0c3c
000003e0: 81ae 57bb 2d23 923b 2760 8cbc afa8 8f3b
000003f0: cbb0 fd3b d5c2 9d39 652e 353c de79 fc3b

bias f4 [3]
0.001357976 0.0013410633 -0.0016915532
00000000: 1dfe b13a 9ec6 af3a 1bb7 ddba
