TradeSimulator-v0_D3QN_-1/actor_00104280_307.017.pth (torch, 152106 bytes, 14 tensors)

state_avg f4 [10]
00000000: 2784 a13d 3ce3 8c39 c9eb 0cbb a1d8 933d
00000010: 55b2 873a 5ab4 4cbb 6a29 cdbc e86e c43d
00000020: 5f74 c23a df80 cabb
0.07886534 0.00026872184 -0.0021502844 0.07219053 0.001035283 -0.0031235428 -0.025044162 0.09591466
0.0014835707 -0.0061799134

state_std f4 [10]
00000000: bd4d 723f fa91 653f 3f0e 743f c6df 783f
00000010: 881d 6f3f 4ea3 6b3f 577d 7f3f 8432 703f
00000020: a933 6e3f 2dd9 6b3f
0.9464987 0.8967587 0.9533424 0.9721645 0.93404436 0.9204606 0.9980063 0.9382708
0.9304758 0.9212826

weight f4 [128, 10]
00000000: 1c39 283e e56d 90bd 58ea 85bd 8a69 243e
00000010: 8cd7 91be 7621 493e e677 9bbd 3efc 2f3e
00000020: d7e8 363d 8974 47bd 834f c53d 91ea 1b3e
00000030: bbc8 043e 5f40 e1bd bc2c 05bd 72a9 16bd
00000040: 74ae 213d ce02 bd38 d765 8f3e 155c e53d
00000050: bd4f eebd 5759 a0be 82d5 6ebd f5e7 12be
00000060: f03c d1bd a885 623b 5299 473e 0888 323e
00000070: 5b8e 93be 88fb 443e d310 b93d 44d3 4b3e
00000080: 6a2c 563e 90b8 97be ee91 90be 0af7 20be
00000090: cdc8 933e 06e4 36bd 1fe9 0f3e ebdd 0fbe
000000a0: c046 9b3e 421f 8fbe 560f 653e 94b0 a63c
000000b0: 0079 27be 95a0 2f3e 1641 3abe 2a58 df3d
000000c0: 534c bbbd 958b 15bd ec77 a4be 12ee fcbd
000000d0: ed08 293e dbab 9cbd 35f3 a23e 2e63 823e
000000e0: 4920 5dbc faca 40be 184b 443e 6425 c53d
000000f0: 0a6c 4dbe f470 353d f2fa 423e d24c 933e
00000100: 71b7 32be 70ff 4dbd bd64 1cbc a899 203d
00000110: 2d4a 7abe a589 5fbe b8cb 2e3e 6b51 35be
00000120: 7cfa 153e f829 ad3c 7c28 e03d eb46 843d
00000130: cb0e d53d 2a41 2a3e be4b 8cbe 2cdd 1b3e
00000140: a278 70be 8fb4 4fbe 6ef5 983c 1702 60bd
00000150: 1280 3d3e 0026 48be 0d28 8bbe ee34 733e
00000160: cfac 75bd 44c3 3b3e 52d3 c13d e338 c4be
00000170: 7936 723d 7ff6 a43d eb61 59be 884d 13be
00000180: f171 d83d beee 823d 161a 0bbe a4dd cdbd
00000190: 3310 943e d138 3fbe 3ab5 343e 897c 093e
000001a0: 650e 42be fef7 88be e5a9 9b3e 1387 963c
000001b0: 8614 603e 2f43 5f3d 1f33 ce3d 6cb2 193e
000001c0: 2068 963e 07cb 55be 0790 4b3d 1a94 6a3e
000001d0: 5976 6f3e 4ea5 503e 90d0 4ebe e685 5cbe
000001e0: 4a56 3abe 25d9 bcbd 9cb0 9c3e f332 54be
000001f0: f6e7 2c3e 2b22 21be ebd6 99be 0e03 88bd
00000200: f53e 383e 27a7 943e 461f 42be df7d 513d
00000210: 7406 8e3e 6aa9 5b3e 99e1 3b3e 387c 6d3e
00000220: 2e79 4b3e 20aa d13d 21cb 50be 4386 89be
00000230: 6a7a 1bbe 8296 aebc e831 49be b9b0 ea3d
00000240: 1789 b83d 2d25 68bd 70d7 e63d ae10 cb3d
00000250: 7152 3e3e 1e5b 4d3e ee08 d5bd 4b10 1c3e
00000260: fff5 2dbd e62c d3bb a902 92be fd9f 44be
00000270: a41b 45be 264a 0dbe aa7c 633e 44a6 e2bd
00000280: e0ba 7bbe e164 153e b354 d63d 7685 553e
00000290: fa18 32be 524a 843d c411 e3bd ba59 81bd
000002a0: dbfe 80be 2ff1 0bbe e75e c2bd 9215 e03c
000002b0: 2ef9 7d3d e47c ab3d 4a9b 9c3e 973e 963e
000002c0: 717d 6f3e 5866 463c 08ac 54be 69cd 753e
000002d0: b111 97bd 574f 30be a04e 89be 11b3 67bd
000002e0: d010 46be a0d6 873e bb56 95be e526 79be
000002f0: dd64 0abc 9666 32be b976 e23d 3246 47be
00000300: 87b9 16be 3de8 a43c c4c4 663e 2ec9 63be
00000310: b65b 1b3e 948c 563e 3de3 9d3e 577a 68be
00000320: 2e8c ba3d 835b e6bd 1e08 903e 7111 d9bd
00000330: fa75 493e 35d1 77bc 023f bebc de9e d239
00000340: 9ffe 3d3d 2363 1b3e b4f9 383d 533b 75bc
00000350: 1f91 87be 1ae3 763e 3cbb 843e 8f45 6e3e
00000360: 215f 803e c71f 6ebe 28a9 d6bd 3c25 8d3e
00000370: 76fd 6fbe cd1c 233e f1c4 81be e7b3 66be
00000380: fdf9 153e 2c95 57be 5a6a a6bd a557 773e
00000390: e2dc 813e 9964 933e b214 77bd eb8e d2be
000003a0: 2dc1 993e 2c0d 87bd ae2a febd 7c8d ad3d
000003b0: cc89 6dbe 47ee 5f3e 4cfe 483e 2d03 84be
000003c0: a60f 85be a241 bdbd 778f ff3d 146d f43b
000003d0: b24d 1abe 2d49 2a3c 5107 a0be 0636 61be
000003e0: 92cb 56be 1d3a 703e bca3 8d3e 93d7 1bbe
000003f0: 9107 ff3b 6fcd 1c3e 9c70 383d 4b59 26be
0.16428035 -0.07052211 -0.06538838 0.16055885 -0.28484762 0.1964167 -0.07591228 0.17186067
0.044655647 -0.04869512 0.09634306 0.15226199 0.12967198 -0.10998606 -0.032513365 -0.03678269
0.039473012 9.012745e-05 0.28007385 0.11199204 -0.116363026 -0.3131816 -0.058309086 -0.14346297
-0.10216701 0.0034564529 0.19492081 0.17434704 -0.28819546 0.19236577 0.09036412 0.1990481
0.2091538 -0.29632998 -0.28236336 -0.15719238 0.28864136 -0.044651054 0.14053772 -0.14049499
0.30327415 -0.27953535 0.22369131 0.02034787 -0.16354752 0.17151101 -0.18188891 0.10905488
-0.09145417 -0.03651007 -0.32122743 -0.12350096 0.16507311 -0.07649966 0.31826177 0.25466293
-0.013496467 -0.1882743 0.19169271 0.09626272 -0.20060745 0.044297174 0.1904104 0.28769547
-0.1745279 -0.050292432 -0.009545502 0.039209038 -0.24442358 -0.21829851 0.170699 -0.1770684
0.14646333 0.021138176 0.10945222 0.06458839 0.10403212 0.1662642 -0.27401537 0.15221089
-0.23483518 -0.20283721 0.018671717 -0.054689493 0.18505886 -0.19545746 -0.27178994 0.2375066
-0.059979256 0.18336207 0.09464134 -0.3832465 0.05913398 0.08054828 -0.21228759 -0.14385045
0.105686076 0.06393193 -0.1358417 -0.1005204 0.2891861 -0.18674017 0.17647257 0.13426413
-0.18950804 -0.26751703 0.30403057 0.018374955 0.21882829 0.05450743 0.10068344 0.15009469
0.29376316 -0.2087823 0.049697902 0.22908059 0.2338499 0.20375559 -0.20196748 -0.21535453
-0.18196979 -0.092211045 0.30603492 -0.2072256 0.16885361 -0.1573569 -0.30046782 -0.06641208
0.17992766 0.29033777 -0.18957242 0.05114543 0.27739298 0.21451345 0.18347777 0.23191917
0.19870445 0.10237527 -0.20389988 -0.26860246 -0.15183416 -0.021312002 -0.19647944 0.114594884
0.09010523 -0.05667608 0.1127156 0.09915291 0.18586136 0.2005429 -0.10402094 0.1524059
-0.04247093 -0.0064445613 -0.28517655 -0.19201656 -0.19248825 -0.13797817 0.22215524 -0.11066869
-0.24583006 0.14589263 0.10465374 0.20851693 -0.1739234 0.06459488 -0.11087373 -0.06315942
-0.2519444 -0.13666223 -0.094907574 0.027354036 0.062005214 0.0837343 0.30587226 0.29344627
0.23387696 0.012109362 -0.2076875 0.24004139 -0.07376421 -0.17217766 -0.268178 -0.056567255
-0.19342351 0.26530933 -0.29167733 -0.24331243 -0.008446899 -0.17421946 0.11057801 -0.19460371
-0.1471921 0.020130271 0.22535998 -0.22244713 0.15171704 0.20952064 0.30837432 -0.22702919
0.091087684 -0.11247923 0.28131193 -0.1059903 0.1967391 -0.015125562 -0.023223404 0.00040172687
0.046385404 0.15174536 0.04516001 -0.014967757 -0.26477906 0.2411007 0.25924098 0.23268722
0.25072578 -0.2325431 -0.10481483 0.2756747 -0.23436531 0.15928955 -0.25345567 -0.22529565
0.14646144 -0.21052998 -0.08125754 0.24154527 0.25363833 0.28787687 -0.06032247 -0.41124663
0.30030194 -0.06594309 -0.12410484 0.08474252 -0.23197097 0.2186824 0.19628257 -0.25783673
-0.259885 -0.09241034 0.124785356 0.007459292 -0.15068701 0.010393423 -0.31255582 -0.21993265
-0.20976093 0.23459668 0.27663982 -0.15218954 0.0077828844 0.15312742 0.045029268 -0.16245

bias f4 [128]
00000000: abd4 7b3c d8fa 52bb af07 6d3d b596 3a3b
00000010: 15f5 3e3e f91e 123d b191 6a3e 56e2 a63d
00000020: 00fe 17b9 4c75 663d 683b 6a3e 38d1 633d
00000030: fa73 713e 3201 a3bc 9a73 153b 181e 8e3e
00000040: d990 96be 05e8 303d c63c 9d3e 8c53 1bbe
00000050: 5d18 4dbd 7377 16bc 9e01 f13d 8172 083e
00000060: 10cf b53d 8bcd 063e 3d8c 07be 3c05 173e
00000070: 84a0 d2bd fa56 5a3e 7abb a7bd efc2 88be
00000080: d347 133d 6aac 463e 1943 7dbb 5e1e 493b
00000090: 8052 e23b 03f4 393e 79e0 ed3c 2a54 90be
000000a0: 7597 5cbe c050 f73c fd49 03bc 7a06 a43e
000000b0: 7c28 6bbd f911 803e a086 83be 81f7 9bbe
000000c0: c68b 92bc dafe 4cbe 541b a8bd f96b 043d
000000d0: ecb9 8bbe f6b0 743e 737b 3abe c328 863e
000000e0: aa2e e63d 4229 50bd b0e5 88be ff4d 743d
000000f0: 64ea 2abe 4bca 933e 7d74 88be a776 a8bd
00000100: 2159 27be c11f 4abe 12ca 29be fbd6 a5bc
00000110: 6f06 ae3c 848d 943d 3931 313e bfb1 f7bd
00000120: 1343 55be 9fa8 70bd 0b4e a13e 7617 10bd
00000130: a35f 89be 78a1 883e 3586 9f3d 3c88 953d
00000140: 447a 7c3d cf36 643e 5218 17be 9dcf 7a3e
00000150: 2977 a43e a975 9abd cb06 5e3e f58e 413e
00000160: 27a7 9e3e a4f9 87bd 979a 2cbe f19b ecbd
00000170: a5d8 55be 46ea c23c bf91 a53e 804c a43e
00000180: 6e1c 7a3e 9494 0b3d 205f 8f3c 07c2 6a3e
00000190: 628c 583e 85c8 07bd 1f16 99bd 2727 0a3e
000001a0: 5608 f13b c559 53be 2f0b 15be 910d 893e
000001b0: 4b75 8d3e e086 e7bd a4b0 64bd 7f67 1ebe
000001c0: e40e c5bd d93f 943e d22f 91be 63d2 1a3e
000001d0: e49d 90be 6b87 19be c70a 39bd 9009 c93c
000001e0: 5add 34bd 2802 10be f7cd 08be 2cb7 4dbe
000001f0: 1038 63be 44fa 4abe c210 a63e 39a4 0cbe
0.015370528 -0.0032192972 0.057868656 0.0028471176 0.18648179 0.03567407 0.2290714 0.08148639
-0.00014495105 0.056264207 0.22874224 0.05561945 0.23579398 -0.01989803 0.00228045 0.27757335
-0.29407385 0.04319002 0.3071043 -0.1516859 -0.050072063 -0.009183752 0.117678866 0.1332493
0.08877385 0.13164346 -0.1323709 0.1474809 -0.10284522 0.21322241 -0.08190055 -0.26711223
0.03595717 0.19401708 -0.003864473 0.0030688266 0.0069068074 0.1815949 0.029037701 -0.28189212
-0.21542151 0.030189872 -0.008013246 0.3203619 -0.057411656 0.25013712 -0.25688648 -0.30462268
-0.017888915 -0.20019093 -0.082083374 0.032329533 -0.27290285 0.2389563 -0.18211155 0.26202974
0.11239369 -0.050820597 -0.26737738 0.059644695 -0.16690975 0.28865275 -0.26651374 -0.08225756
-0.16342594 -0.19738676 -0.1658099 -0.020244112 0.021243302 0.072535545 0.17303933 -0.12094449
-0.20826368 -0.05875456 0.31504855 -0.035178624 -0.26830778 0.2668569 0.0778927 0.07301375
0.06164004 0.22286533 -0.14755371 0.2449326 0.32122162 -0.07541973 0.21682279 0.1890219
0.30986902 -0.06639412 -0.16855846 -0.11553181 -0.20883425 0.02379335 0.32337758 0.32089615
0.24424908 0.034077242 0.017501414 0.22925578 0.21147302 -0.033150215 -0.074749224 0.13491498
0.00735573 -0.20639713 -0.14555047 0.26768163 0.2762855 -0.11305022 -0.05583252 -0.15469168
-0.09621981 0.28954962 -0.28356797 0.15119319 -0.2824546 -0.14993064 -0.045176294 0.024540693
-0.04415641 -0.14063323 -0.1335982 -0.20089406 -0.22189355 -0.19822031 0.3243466 -0.13734521

weight f4 [128, 128]
00000000: 4c9d a0bd c289 8e3d 167a 203d 2483 903d
00000010: 7828 b2bd 89e1 9dbd 4d39 7bbd 705d 4bbd
00000020: 6b33 05bc 37fb 243d 8ac2 6a3d 77ae 87bd
00000030: 0d98 1f3d 5011 34bd b4f1 913c c441 2c3d
00000040: dd1c 9c3c 0ac3 203d 1c18 683b 7f9f 493d
00000050: 833d 9d3c b1de b03d bc5e b33c 8904 23bd
00000060: 3a0c 633d b6ef 18b8 2dc0 be3d 6dff 7bbc
00000070: 94f4 a23d 9055 5dbd 71ce 2e3d 21a4 8ebd
00000080: d4c0 6f3d b300 c33c 73b9 823d adf3 8fbd
00000090: 6d38 adbd d2cf 383d feea dfbc 31f7 1e3d
000000a0: 0865 4abd 9bc8 bcbc b5a8 bb3c 0b4d 6f3d
000000b0: 90b5 093d be5c f93a 8e87 f2bc 9a7d 24bc
000000c0: e799 0a3d 301b 8cbd e5c8 a5bc 1ebf a7bd
000000d0: 1f89 3bbb d2f8 b8bb d876 553d 6604 ad3d
000000e0: 691a 8abd 4ba2 05bd 70f9 25bd d326 743b
000000f0: 2318 0ebd 9623 4cbd 1981 3ebd dae8 f3bb
00000100: 7ee2 4b3d f7d4 a6bc e609 833d e198 8cbd
00000110: 3f80 a33b acdd 6fbd 143f b0bd 3726 643c
00000120: 0559 22bd 8edf 8a3d 9baa 9a3d d9b9 9ebd
00000130: 7a67 fcbb 3482 b1bb 643d 26bd bd71 31bd
00000140: dbb9 55bd 1493 4a3d d967 c63b 79ad 883d
00000150: 37ba 07bc 6088 383d 0f1b a63c a746 adbc
00000160: 3bc4 0abc dd62 b7bd b908 20bc 2569 89bc
00000170: 9608 4cbd 5004 d3bc 0060 dabc 319d 81bd
00000180: b960 833c 227a ceba b8dc 13bd 96ac b53d
00000190: 8f17 943d 2c2b 223d 2d8e 24bd c77d 723b
000001a0: 9b27 6dbd e87b 863d 8c04 a33d 78e4 47bc
000001b0: 2295 833d 60f2 a33d 5f58 92bb 9099 fbbc
000001c0: 96d4 15bc 23e7 803c b002 b1bd 2402 083c
000001d0: 9eed 1dbd 9218 843d eef9 4dbc e8e0 843d
000001e0: 4e4d 7f3d feeb d1bc 5a19 a93c 47ba 42bc
000001f0: 7395 05bd 3a57 2cbd 85ba 053c 518e 1d3d
00000200: ada0 24bc 177b 623c 8611 7c3d fe51 353d
00000210: 1f49 283d 24a4 e33c 85d1 76bd 4b73 52bd
00000220: a670 7abd bccd 793d 1bb5 98bd 68b9 7bbd
00000230: 8954 803d 6745 633d 3b63 a4bd b117 773d
00000240: dc80 afbc e8fe b23c 2d8c 29bd edf0 74bc
00000250: 954b 803c db86 8d3d 0d5f 743d 25e5 29bd
00000260: c4b7 5cbd d13e 38ba 4ec0 ef3c 1f98 673d
00000270: f9ee adbd e666 cd3a 80f7 2e3c a48b 31bd
00000280: c084 a13d 92bd 7cbc 879b 99bd f0ee 42bd
00000290: 76ef 1d3c 5275 69bd 5d71 943c 245a ac3d
000002a0: 447a 6a3c a347 20bc c5a3 bf3d 2064 973d
000002b0: f2f0 793d 6ec1 813c ee94 013c 8f72 7bbd
000002c0: 4ceb 743c ced3 c33d cd34 6f3c 1674 95bd
000002d0: 98e8 f93c 5fc2 ac3d 6b4b a63d d7f2 893c
000002e0: 687b e73c 5b97 b23c 7e2e 10bd 55ba 61bc
000002f0: 0d7d 8c3d 36b0 963c fecb 9f3d a65b 89bd
00000300: b85d 00bc a73c d53b 989a 24bd cd70 973d
00000310: 4587 813d e789 25bd a2e4 aa3d 0d47 a13d
00000320: 10e8 46bd 4df7 e93a f8cc c03d 6786 60bd
00000330: b4d8 69bc e47e 58bd 5e84 903d 218f 9e3c
00000340: 4e8e 283d cfc2 933d c0b4 8ebc a17d 90bd
00000350: 2e94 5b3c ec92 01bb 7652 293d a2f1 3c3d
00000360: f06b 16bd 1c0b fdbc 41c1 5b3d 7c79 ec3c
00000370: ee39 af3c f4e6 473d 22f2 443d 341a 6cbd
00000380: 5a17 983c b8db e33b 3526 a3bd 5fbd 0a3d
00000390: e953 393c 4a91 8e3d c00a aabd a788 b63d
000003a0: 53c4 27bd cd55 673d a64a 5d3d 5182 6ebb
000003b0: 358a 1fbd f9fd 32bc a2b1 62bd c4ed 623c
000003c0: 844f 143d dd49 ca3c 9dc4 61bd 944e 7c3d
000003d0: c610 943d a559 bfbc a889 303d 4217 16bc
000003e0: 0328 113d 143c 85bd 2e06 94bd 34ed 0ebc
000003f0: 12eb 8dbd 3728 173d 91ed bc3d 0f7e 75bc
-0.07842502 0.06959869 0.03917893 0.07056263 -0.08699125 -0.07709033 -0.061333943 -0.049649656
-0.008129935 0.04027864 0.057314433 -0.066250734 0.038963366 -0.043961823 0.017815448 0.042054906
0.019056732 0.039248504 0.003541476 0.049224373 0.01919437 0.08636225 0.021895759 -0.039799247
0.055431582 -3.6462872e-05 0.09313998 -0.0153807225 0.07956806 -0.054036677 0.042677347 -0.06964899
0.058533505 0.023804044 0.06383028 -0.07028899 -0.08458028 0.045120068 -0.027333733 0.03880996
-0.049412757 -0.023044875 0.022907594 0.058423083 0.033620417 0.0019024832 -0.029605653 -0.010039711
0.03383818 -0.06841123 -0.020237396 -0.081907496 -0.0028615666 -0.005644896 0.05211529 0.084481046
-0.067433186 -0.032625478 -0.040521085 0.0037254586 -0.034690987 -0.049838625 -0.046509836 -0.0074435296
0.049776547 -0.020365221 0.06398372 -0.06865097 0.0049896534 -0.058561012 -0.08605781 0.013925127
-0.039635677 0.06780921 0.07552072 -0.077502914 -0.007702765 -0.0054171328 -0.04058589 -0.04332136
-0.0521792 0.04945667 0.00605486 0.06673712 -0.008284143 0.045051932 0.020276574 -0.021151854
-0.008469637 -0.089544035 -0.009767705 -0.01677377 -0.049812876 -0.025758892 -0.026657104 -0.0632881
0.016037332 -0.0015752951 -0.036099166 0.08870809 0.07231056 0.039591953 -0.040174652 0.0037001239
-0.0578991 0.06566602 0.079598516 -0.012200467 0.06424929 0.08005214 -0.004466101 -0.030712873
-0.009144923 0.015735215 -0.08643091 0.008301292 -0.038556688 0.06449999 -0.012571795 0.0648821
0.062329583 -0.025625225 0.020641971 -0.011885232 -0.03261323 -0.042075373 0.0081621455 0.0384658
-0.010048074 0.013823292 0.06154015 0.044267647 0.04108536 0.02778823 -0.060258407 -0.051379483
-0.061142586 0.06098722 -0.07456418 -0.061456114 0.06266124 0.05548611 -0.08026739 0.06032533
-0.02142375 0.021850064 -0.041393448 -0.014950019 0.01566104 0.06910487 0.05966096 -0.041478295
-0.05388619 -0.00070284033 0.029266503 0.05654156 -0.08492846 0.0015670925 0.010679126 -0.043346062
0.07886648 -0.015426056 -0.075003676 -0.04759115 0.0096396115 -0.05699665 0.018120462 0.084156305
0.014311377 -0.0097827045 0.093574084 0.07392144 0.0610208 0.015839305 0.007909043 -0.06138855
0.014948677 0.09561883 0.014599991 -0.07297532 0.030506417 0.08435511 0.081198536 0.016839428
0.028257087 0.021800688 -0.03520059 -0.013777335 0.06859789 0.01839457 0.0780258 -0.06706934
-0.007834844 0.0065074745 -0.040186495 0.07394562 0.06324629 -0.040414717 0.083443895 0.0787488
-0.048561156 0.0017850191 0.09414095 -0.054815676 -0.014272857 -0.052855387 0.07056497 0.019355359
0.041151337 0.07214891 -0.017420173 -0.07055212 0.013402028 -0.001977141 0.041338407 0.046128877
-0.03672403 -0.030889086 0.0536511 0.028866522 0.021389928 0.04880424 0.04808248 -0.057642177
0.018565822 0.0069536828 -0.07966272 0.033872005 0.01131151 0.069613054 -0.08302832 0.08912783
-0.040958714 0.05647831 0.05402627 -0.0036393593 -0.038950164 -0.01092481 -0.055345185 0.013850633
0.036208645 0.024693424 -0.055119146 0.061598375 0.07229762 -0.023358176 0.04310003 -0.0091608185
0.03543855 -0.065055996 -0.07227741 -0.008723546 -0.06929602 0.036903586 0.09225 -0.014983668

bias f4 [128]
00000000: a623 873d 0f46 6b3d 242b b5bc f0ad 433d
00000010: 2b54 f8bc a9ed 62bc c7b1 a5bd 6e97 433d
00000020: f16d 8d3d c04c d63b a825 b1bd 51a4 7bbb
00000030: 4dda 6fbd 27fe 31bd 55f6 97bc 3811 383d
00000040: 02f9 703d b9b8 a6bd d789 4bbd 26be 34bd
00000050: c3a5 f03c 1de6 923a 341a 67bc 3105 563c
00000060: 44c5 973b 1fb9 95bd 269e f73c 6daf bc3c
00000070: 81f0 863c 0dac 3d3d caf1 a63c aba1 59bd
00000080: 8963 c83d cf28 423d 2ae5 b83d 6489 a23c
00000090: 82e5 883d 8cfc d4bb 1acf 6f3b edad 483d
000000a0: c87f 1fbd b3a0 a1bd 0696 b23c 7ee4 803d
000000b0: 4749 bd3d 0b19 10bc 120b debc 201c 6abd
000000c0: 5c34 ba3d 3908 89b9 698d 06bd f022 6ebd
000000d0: c78e a1bc a505 a83d 1131 2a3d dfec 95bd
000000e0: f528 393d 3b8e e5bc 89d5 b23d 75ff e3bc
000000f0: 63cd 20ba 9c44 f93c e1b6 3fbc 3019 46bd
00000100: a469 1eba 5694 c33d a411 8fbd 1829 833d
00000110: 2fc7 613d e97b b13d ff32 c93c b703 87bb
00000120: abe5 5bbd c3f8 cb3d ea82 e13b 4316 ae3b
00000130: c1b1 d33c 7269 45bc 8a75 b73b 5991 da3c
00000140: 8735 853d 5610 7c3d 68b4 bfbd 703b 6dbc
00000150: e539 12b9 c3e9 2d3d 5825 59bd 142a 2abc
00000160: 854f 26bd 8063 5ebd e604 833c 5e1f 8b3d
00000170: 6daf e83c 8cda 0fbd ad2f bcba 0a7d efbc
00000180: 2927 c23d bd45 fa3c e04e 59bd e4c3 97bd
00000190: c6fa 20bd e8bf 7bbd 03ff d23c b3e9 12bd
000001a0: c5c3 a8bd 1e66 b0bc 7059 22bd 456d 06bd
000001b0: eb16 983d 994f 7aba b6ee 70bd b372 41bd
000001c0: d584 b73d 5119 e4bb 5baf e9bc 0fe5 33bc
000001d0: 5a33 1c3d 20cf 9f3d d087 52bc 9556 bfbb
000001e0: 8ec2 eabc 76f3 7abd 30d2 513d 8992 8a3c
000001f0: 291e 263c e7e2 893c daf7 b93c ac5a a23d
0.06598596 0.05743986 -0.022115298 0.0477733 -0.030313572 -0.013850608 -0.08090549 0.047751836
0.06905735 0.006539911 -0.086497605 -0.00383975 -0.058557797 -0.04345527 -0.018550077 0.044938296
0.058831222 -0.08140702 -0.049692 -0.044126652 0.029375916 0.0011207495 -0.014105368 0.013062761
0.00463167 -0.073107 0.030226778 0.023032868 0.016472103 0.04630666 0.020378966 -0.053132694
0.0978461 0.0474022 0.090280846 0.019840904 0.066844 -0.0064998325 0.0036591948 0.048993994
-0.03894022 -0.07891979 0.021800052 0.062935814 0.09242492 -0.008795033 -0.027104888 -0.05715573
0.09092018 -0.00026136803 -0.032849703 -0.058138788 -0.019721402 0.082042016 0.0415507 -0.0732057
0.045205075 -0.028021922 0.08732135 -0.027831772 -0.00061341206 0.030428223 -0.011701317 -0.048363864
-0.00060429634 0.09549777 -0.069857866 0.064043224 0.055121597 0.08666212 0.02456045 -0.004120316
-0.053685825 0.09959557 0.0068820613 0.0053127124 0.025841596 -0.012049066 0.0055987285 0.026680635
0.0650435 0.061539017 -0.09360582 -0.014479503 -0.00013945212 0.04245926 -0.05301413 -0.010386009
-0.04060318 -0.05429411 0.015993547 0.06793092 0.028403962 -0.035120532 -0.001435747 -0.029234428
0.094801255 0.030550832 -0.053053737 -0.0741041 -0.039301656 -0.061462313 0.025756365 -0.035867404
-0.08240465 -0.021533068 -0.039636075 -0.03281905 0.07426246 -0.0009548604 -0.058821402 -0.047228526
0.089608826 -0.0069610258 -0.028525999 -0.010979905 0.03813491 0.07803178 -0.012849763 -0.005839179
-0.028657224 -0.06126734 0.05122584 0.016915577 0.010139027 0.016831828 0.022701193 0.079274505

weight f4 [128, 128]
00000000: b239 07bb 87e6 233d 87ac c33b 59bb 0a3d
00000010: 3505 28bd a84f 563d 3e29 72bd 770b 4f3c
00000020: 0a4b 7a3d b85a a4bc 9650 13bd 61db 4a3d
00000030: 0ea4 5ebc 8c25 03bd ddc6 5fbb 0a22 0d3d
00000040: 53c7 793d a907 12bd 13bd b83b 4966 cf3d
00000050: a934 8b3d 6449 65bd 9d8e 63bd 9f78 c8bb
00000060: 203d 4fbd 2501 e2bc 9211 05bc 1d27 15bd
00000070: 5e2b 5bbd 0b17 14bd f039 f33c 0c26 8cbd
00000080: 978a 9e3d 14cf a93d 1a1c cf3c bd03 35bd
00000090: 370f ac3c 29af 99bd 7eb1 283d 480e 653d
000000a0: 857e 5f3d 9153 843d 0bfd 593d d737 bcbd
000000b0: 8f4b 51bd 0d4a 3ebc fd73 893c 3005 553d
000000c0: 888c bebd eb90 61bd 61e7 083d 96aa 523d
000000d0: dd7d ee3b f52d 2a3d 8a43 a83d 5a0c ab3d
000000e0: 79ff 9f3c df10 9cbd 2998 10bd 6a80 5cbd
000000f0: d74d 68bd e49d 823d 91cd 833b 8329 6fbd
00000100: 0562 363d 6109 fcbc ec7f 56bd 906b 7cbb
00000110: 039d 4fbd 30f3 4bbd c34f 56bd d3b4 83bd
00000120: 930d 00bd bd89 503d 6384 28bd 6e40 b63d
00000130: 835b 1c3c 1aea c5bc 3b20 1dbc adc0 90bb
00000140: d378 af3c 8ab2 6a3d d5ba cb3c bc18 c9bd
00000150: f222 1d3c c0ac d73c 3158 89bd 9729 85bd
00000160: 062c 013d 397e b9bd 4a80 93bd 13f2 8a3d
00000170: 8912 1fbc c98e 37bc ed5e 473d 96fd f83c
00000180: 7e5e a3bc f6f0 5b3b a5f9 703d 2d2f 9f3d
00000190: 717a 20bd 39b1 67bc 5a13 643d 915b 5f3d
000001a0: dc0a 063c 7682 c63c 7b9c 823d a79f 63bd
000001b0: 08c9 2f3b 97a8 2e3c 9002 b6bc 958f 40bd
000001c0: 6efb 5ebc e254 aabd 7262 8bbd 8431 2dbd
000001d0: ae77 dcbc c2b9 75bd c68e a33c f1c8 b7bd
000001e0: 39b5 94bc 03d8 aebd f977 a33c 9905 efbc
000001f0: 319c 973a a554 b8bc a00b a0bd c25a 673d
00000200: 02d3 a3bd 3fb7 cc3c 9a8d ba3d e39c 9b3d
00000210: 9a33 b33d d5d1 85bd a236 573d 4f6b e9bc
00000220: 3319 ffbc 8238 83bd e2a1 be3d 4659 3e3d
00000230: 4128 8a3c a4b4 993d 1058 50bd 6e63 f7bc
00000240: 73c1 c5bc 2be7 17bd bb2e 123d 3a86 233d
00000250: dac1 eabb c352 e33c 7f51 92bd a3d1 013d
00000260: cdb7 5cbd 448b a43d f0a4 54bd a741 a23d
00000270: 0bdc 24bd 4906 b03c 1772 093c 18bb 6fbc
00000280: c6e8 723d e019 413d fd29 afba bb0b daba
00000290: ee1b 62bd 469e e93c ef09 e8bc 68fe 573d
000002a0: 5ed0 bcbd 15cd 7b3d 25d9 77bd bb54 b8bd
000002b0: ff1c 333c d165 9f3d 251c d8bc d1ef 8b3d
000002c0: b61f 403d b569 d9bc 5627 69bd a2cb 40bd
000002d0: 7b8f 723d 9d28 c23c de1e 373b ed4c ffbc
000002e0: af6f a33d 33d2 813d 9c83 b2bd dd36 85bd
000002f0: 54be 93bd 055d b73c 61d3 2fbd 2a9a b4bc
00000300: ab73 89bd d510 93bd c7df 33bb 5367 adbd
00000310: 6aa6 f5bc 832f f43b 74c0 d63c bf32 b8bd
00000320: 78dc 0d3c 9cd7 963d eaae 5ebd 26f0 18bd
00000330: 6661 d33c e430 fdbb 3106 31bd 00ee 423d
00000340: 0a1f b0bd 0cff b5bd 4348 5f3d 39d9 063d
00000350: 4ce3 303c fa94 a23d c810 a1bd 3740 823d
00000360: 798a 673b 69c7 753d 3926 1f3d ac3d d93c
00000370: 8e8e afbd 7dc6 c03b 3ef8 1cbd 8938 58bc
00000380: d846 933d d7eb 7fbc 309f 2dbd 15e9 05bd
00000390: acf8 aebc 8f2f 393d 51b4 343c 7fa1 0a3c
000003a0: 0f03 63bd 4ca9 ab3d ff0b c9bc 46f2 f93c
000003b0: 1782 96bd 61bd 2c3d c500 043d 2e3d 803d
000003c0: 4a61 313d bc83 bfbd 1940 02bd 37bb 5a3d
000003d0: 58bf 163d d881 abbc b310 3c3d ac50 953d
000003e0: 30aa 553c fc76 f03b 12e2 a33d 8520 8a3d
000003f0: 4a86 09bd 7d1a 76bb 91de 65bc 34f0 113d
-0.0020633754 0.04001477 0.0059714946 0.033870075 -0.04102059 0.05232206 -0.059121363 0.012637011
0.06110672 -0.02006279 -0.035965525 0.049525622 -0.013588918 -0.03201823 -0.0034145631 0.03445629
0.060981106 -0.035651837 0.005637774 0.10126931 0.067971535 -0.055978194 -0.05555593 -0.006117895
-0.050595403 -0.027588436 -0.008121865 -0.036414254 -0.053508155 -0.036154788 0.029690713 -0.06843194
0.07741278 0.0829145 0.025281955 -0.04419302 0.021003349 -0.07504112 0.041184895 0.055921823
0.054564018 0.064612515 0.053219836 -0.09190338 -0.05109745 -0.011614335 0.01677894 0.0520069
-0.09304148 -0.055069845 0.033423785 0.051432215 0.0072781877 0.041547734 0.08216007 0.08351965
0.019530999 -0.076204054 -0.03530136 -0.053833403 -0.05671486 0.063777715 0.004022308 -0.058389198
0.044527072 -0.030766191 -0.05236809 -0.003851626 -0.050686847 -0.04979247 -0.05232216 -0.06430974
-0.031262945 0.050912607 -0.04114188 0.08899008 0.0095433025 -0.02415948 -0.009590204 -0.0044175
0.021419918 0.057299174 0.024869362 -0.09819171 0.009590851 0.02632749 -0.06706274 -0.06502073
0.031536125 -0.09057278 -0.072022036 0.06784453 -0.009709009 -0.011203476 0.048674513 0.030394357
-0.019942518 0.0033560372 0.05883183 0.0777267 -0.03917927 -0.014141374 0.055682518 0.054530684
0.0081813 0.02423213 0.063775025 -0.05557218 0.0026822705 0.010660312 -0.022218019 -0.04701193
-0.01360975 -0.08316971 -0.06805886 -0.04228355 -0.026912536 -0.059991606 0.01996554 -0.089738734
-0.01815282 -0.08537295 0.019954668 -0.029177474 0.0011566934 -0.0225013 -0.07814717 0.056483038
-0.07999231 0.024989722 0.091090396 0.07598283 0.087500766 -0.06534163 0.052542336 -0.028493552
-0.031139946 -0.064072624 0.093082204 0.046471857 0.016864898 0.075051576 -0.050865233 -0.030198779
-0.024140095 -0.037085693 0.035689097 0.03992293 -0.007164222 0.027749425 -0.071444504 0.031694066
-0.053886224 0.08034375 -0.05191511 0.079226784 -0.04024891 0.021487372 0.008389018 -0.014632009
0.05930402 0.047143817 -0.0013363954 -0.0016635576 -0.055202417 0.028517853 -0.02832505 0.052732855
-0.092194304 0.06147488 -0.06050982 -0.09000536 0.010932206 0.07783092 -0.026380608 0.06832851
0.046905242 -0.026539663 -0.05692228 -0.0470692 0.059218865 0.023701007 0.0027941982 -0.03116461
0.07980286 0.063389204 -0.08716509 -0.06504605 -0.072140366 0.022383222 -0.042926196 -0.022046167
-0.06711515 -0.07180945 -0.0027446614 -0.08466973 -0.029986579 0.007451953 0.026214816 -0.08994054
0.008658521 0.07365343 -0.05436603 -0.0373384 0.02580328 -0.0077267755 -0.043218795 0.047590256
-0.0859967 -0.08886537 0.054512274 0.032922003 0.010796379 0.07938571 -0.07864529 0.06359904
0.003533034 0.060004625 0.03885481 0.026518665 -0.08572112 0.0058830366 -0.03832268 -0.013197073
0.07191247 -0.015620193 -0.04238814 -0.032692987 -0.02135881 0.04521137 0.011029319 0.008461355
-0.05542284 0.083819 -0.024541853 0.030511033 -0.073490314 0.042172793 0.032227296 0.06261669
0.043305673 -0.09351298 -0.03179941 0.0534012 0.036803573 -0.020935938 0.045914363 0.072907776
0.013041064 0.007338403 0.08002104 0.06744484 -0.033575334 -0.003755241 -0.014030115 0.035629466

bias f4 [128]
00000000: f439 4ebd e9fa 27bd 70ff d9bc 478f 94bd
00000010: d197 ae3d 7ae5 8b3d 6f57 133c 578d cc3b
00000020: 9dcb 8b3d 2a90 9a3d 817a d9bc 9d9a 31bd
00000030: bf21 443d 8adc 6fbd c888 413d 5be3 98bd
00000040: 9271 28bd 90d1 a7bb bc9c 50bd 99e5 eb3c
00000050: 92f1 c53a a25e 173c 7c52 913d 3460 1c3d
00000060: e586 77bd b886 5dbd 9b19 ca3c 7902 2cbd
00000070: a622 933d 072a c03d 4d81 8cbc 614e a3bd
00000080: 5d6b c1bd cdb2 88bd cd57 9ebd 530c 7b3d
00000090: 1b65 62bd 8a43 93bd 1e2c ba3d 07f6 87bd
000000a0: c9e5 8d3d cf95 eabc f438 79bc bbf0 1d3d
000000b0: ecbf 593d b263 bebc ba75 b63d a7f4 023d
000000c0: 455a 973d 102d 9e3d ed36 63bd cb25 793c
000000d0: 9dfc 93bd 33b6 8abd d48a 793c e9eb e4bc
000000e0: b418 67bd aa70 833c deab 16bd 6b95 a1bd
000000f0: d5b3 193d 6dae c2bb 1098 1e3d 0efd 2fbd
00000100: 4836 b0bc b281 453d 2a66 88bd 6b0d ae3b
00000110: bfb3 c63d 19f1 663c b706 153d c7f7 98bd
00000120: d6f0 0f3d 2881 aabd 3cb9 a63d a76f 953c
00000130: 5261 77bd 5276 843c a4e6 c93d 9eb4 58bd
00000140: 998e 5bba 90f1 b73d e163 3c3b 2b07 553d
00000150: a42f 783d bd0c b0bc b5f7 bf3d 3bb1 cfbc
00000160: cd4d cb3d 73fb 8cbc f958 ca3c f7f8 b7bd
00000170: ea33 153d 18e4 d3ba 85a6 adbd e4bc 1dbd
00000180: c371 943d 8bc6 b0bd 6539 e43c 63f4 4e3a
00000190: 2870 1c3c 635f 03bb 0c2a a13b c7ff debc
000001a0: ba24 c4bd 8cfc a6bc 95d8 7b3d 5f6b bbbd
000001b0: 3a61 39bd be09 86bd d99e 78bd 364f ddbc
000001c0: b2c8 7a3d 065e 673d 007e 123d e557 4b3d
000001d0: ee4d cfbd 69bf b7bd e3a5 bc3d f914 9b3d
000001e0: 6430 413d e96d aebd b73c 98bd bc9b af3d
000001f0: 6837 88bd 4f4f 9cbc cd47 ad3c 34e0 c93d
-0.050348237 -0.04101077 -0.02661106 -0.072538905 0.085250504 0.068308786 0.008993014 0.006242435
0.068259455 0.07547028 -0.026547672 -0.04336034 0.047883745 -0.05855993 0.047249585 -0.074652396
-0.041123934 -0.0051214173 -0.050930724 0.028796004 0.0015101901 0.009238871 0.07095811 0.038177684
-0.06043138 -0.054083556 0.024670413 -0.041994546 0.07184343 0.09383016 -0.0171515 -0.07973934
-0.09444306 -0.066747285 -0.077315904 0.06129105 -0.055272203 -0.071906164 0.09090446 -0.06638723
0.06928594 -0.028635887 -0.015211333 0.038559657 0.053161547 -0.023240898 0.08909173 0.0319716
0.073902644 0.07723439 -0.055472303 0.015206764 -0.072259165 -0.06773033 0.015230853 -0.027944522
-0.056420043 0.016044933 -0.036785 -0.07889827 0.037525017 -0.0059412033 0.038719237 -0.04296594
-0.021510258 0.04821939 -0.06660111 0.005311658 0.097022526 0.014095568 0.036383357 -0.07469135
0.03514179 -0.08325416 0.081407994 0.018241717 -0.060395546 0.0161697 0.09858444 -0.052906625
-0.0008375436 0.08981621 0.0028746056 0.05200879 0.06059231 -0.02149045 0.09373418 -0.025353065
0.09926949 -0.017209744 0.024700629 -0.08983033 0.036426462 -0.0016166 -0.08479027 -0.03851022
0.07248261 -0.08631619 0.0278594 0.0007894693 0.0095482245 -0.0020045869 0.0049183425 -0.027221574
-0.095773175 -0.020384096 0.061485846 -0.09151339 -0.045258738 -0.06544827 -0.060698364 -0.02701531
0.061226554 0.056486152 0.035764694 0.04964437 -0.10122286 -0.089720555 0.09211328 0.075723596
0.04716529 -0.085170574 -0.074334554 0.08574626 -0.06651193 -0.019080786 0.021152401 0.098572165

weight f4 [1, 128]
00000000: 6a32 8f3c a892 863c c920 923c 344f 5d3a
00000010: 2cfb d7bb baef bebb dd6d 35bc dace 773b
00000020: a3e4 92bc ee53 24bb a70c 5f3c 6d17 78bc
00000030: 329b 1d3b 5d7f 723c 7099 23ba ee1a 383c
00000040: 402a 9d3c 4d87 443c 83bf 5ebc 9d07 75bb
00000050: a68e 243b 4cfc ae3a 31db 48bc 6ebb 413c
00000060: e7a4 85bc b142 033c 5c93 8ebc f3f1 483c
00000070: 7e44 9b3b 8ff6 d6bc 3b3c 803c 3325 d53b
00000080: b9d7 393c 6cd3 b63c c7a5 a83c 8474 fabb
00000090: 9e13 893c 3515 653c ac99 96ba 7df8 27bc
000000a0: 3fb3 1cbb 4557 743c fb1b bdb9 b141 0dbb
000000b0: 683b e5bc d2f2 e6bb 3778 4ebc 612f 6bbc
000000c0: fce8 97bc 5eae 0fbc a0b0 113c d5ee 77bc
000000d0: 7933 23bc 9063 65bb a29d bc3b 5a85 8e3c
000000e0: 84b2 68bb 74ec 003b 62e2 e7bc a7bf d23c
000000f0: 8290 b5bc 199b 723c a5b4 04bc 56df 883b
00000100: 6d16 2f3d ac50 f2bb 2e74 1e3c 80d8 e1bb
00000110: 7878 e8bb 0990 aa3c d679 84bc dcc7 dc3b
00000120: ecf0 6c3c 6a40 6a3c bfff 0bbc 6859 9d3b
00000130: 66b0 23bc f7e5 95bb 2b27 acbc 05ae a0bc
00000140: d3f5 0a3c 25e7 6ebc 24e0 acbc a233 9a3a
00000150: 1f6e dbbb 01b5 4c3c 05f0 00bd 21c8 4b3c
00000160: 8a7e 4abc 8da0 913b 024b f83b 3353 bc3c
00000170: c2d3 55bc 11b3 293c 6c4e d7b9 560e 983c
00000180: 7e07 d0bc b85a 7b3c 674b c2bc f104 573c
00000190: 1891 96bb f272 24bb 29cb 823c f568 ad3c
000001a0: 7890 a13b c15f 9abc 43b6 89bc e243 713c
000001b0: 04f9 84bc 0c6d b3bb 4c76 bd3c ab28 dc3c
000001c0: e40a f53b 2a11 cebc d92a e2bb f331 b0bb
000001d0: 6934 cb3c 9b26 783a 45c2 8dbc ad6b 91bc
000001e0: 90fb 983c 4935 843c b8c0 0f3c fd3d d9bb
000001f0: bb17 863c b4ff 953c 48d9 063c 77c7 99bb
0.017480094 0.016427353 0.017837899 0.0008442283 -0.0065912213 -0.0058269175 -0.011073557 0.0037812502
-0.017931288 -0.002507444 0.013613856 -0.015142304 0.0024048802 0.014800874 -0.00062408205 0.011236889
0.019185185 0.011995149 -0.013595465 -0.003738857 0.002510944 0.0013350337 -0.012259291 0.011824472
-0.016313983 0.008011506 -0.01740425 0.012264716 0.0047383895 -0.026240615 0.01565372 0.0065046786
0.011342936 0.02231761 0.020586861 -0.0076432843 0.016732987 0.013982107 -0.001148989 -0.010252115
-0.002391055 0.014913385 -0.00036069736 -0.0021554048 -0.027982429 -0.0070479894 -0.012601904 -0.014354558
-0.018543713 -0.0087696 0.008892208 -0.015132626 -0.0099610025 -0.003500197 0.005756096 0.017397571
-0.0035506794 0.0019672187 -0.02830619 0.025726153 -0.022163633 0.014807486 -0.00809971 0.0041770143
0.042745996 -0.0073948707 0.009671254 -0.006892264 -0.007094439 0.020820634 -0.016171377 0.0067376923
0.014461737 0.014297584 -0.008544861 0.004801918 -0.009990787 -0.004574533 -0.02101477 -0.019614229
0.008481461 -0.014581476 -0.021102972 0.0011764655 -0.006696477 0.012494327 -0.0314789 0.012437851
-0.012359271 0.004444188 0.007577301 0.022988891 -0.013050975 0.010357634 -0.00041066424 0.018561523
-0.025394198 0.015341453 -0.023717595 0.013123737 -0.0045949332 -0.0025092927 0.015966015 0.021168211
0.004930552 -0.018844487 -0.016810542 0.014725657 -0.016232021 -0.005475646 0.023127697 0.02687486
0.007478105 -0.025154669 -0.0069020805 -0.005377048 0.024805265 0.0009466202 -0.017304549 -0.01775154
0.018674642 0.01613869 0.008773975 -0.006629704 0.016368737 0.018310405 0.008230515 -0.0046929675

weight f4 [3, 128]
00000000: b27e 39bc c8eb ba3b d30a 483b b5fe bd3b
00000010: a860 2dbc 0834 8d3b ef91 513c e9fe bcba
00000020: 8f06 b33b 231f 243c c1a1 a23b 67bc c53c
00000030: 0f41 133c c4ef d9ba 7d9f cebb 38fb e0bb
00000040: b1c1 e93a 24ac 9abb 41fa eeba 1460 13bb
00000050: 8e38 2b3c a25d a53b 54e1 733c 5e36 4ebc
00000060: befc 62bc 7862 c23b beec 063c 57dd 9c3b
00000070: 27f3 29bc 5ee2 48bc 9d18 6fbb e9b0 d0ba
00000080: 3844 b03b 5a43 06bc 8fd8 8e3c 7300 7b3c
00000090: 5ce5 eeba ceb8 803b 76da a33a a4fd 8cbc
000000a0: aa66 7abb 34af b939 d27f cb3b dac1 b93a
000000b0: 059c 97bb 9e75 c43c 3812 8c3c a974 dbbb
000000c0: d2f6 d93a 50c7 88bb a444 93bb 3fa9 993c
000000d0: d2ee 3f3c ee98 713b da1c db3b cc48 243c
000000e0: 1b4e 2c3b bc5c 82bb 776b 55bc 4250 26bb
000000f0: 310a 353a 66f5 2fbc 50d4 3fbc a886 fbb9
00000100: ecd5 bbbb 311c f1bb 40cc 47bb 828c 4b3c
00000110: 21c6 f1ba 563c 05bb a3a7 433a 9212 5ebc
00000120: 7ec6 403b c53c f039 4993 3fbc 0c03 703c
00000130: 970b 64ba b18a 263a a2c7 963b 25b3 99bb
00000140: 2000 0b3b ef06 79ba f4fc 3f3c 2daf ee3a
00000150: 2228 aa3c 2d9f ebbb 50d0 1a3c e7f7 35bc
00000160: a67b ec3b 05b2 79bc dabc ff3a f113 0b3c
00000170: 7711 63bb 08a8 55bc fbf7 5a3c bb21 eebb
00000180: f9aa 39bc 3a29 103c 9af4 97bb 351c 8dbb
00000190: 0b4f e6bb 66c5 273b 430f 503c f959 0a3c
000001a0: 5ac5 0a3c cb30 2f3c 740f 0fbc 758d 973b
000001b0: 85da 4abb b3cc 7b3b 1175 0dbc ca34 733b
000001c0: 7636 1d3b ad8b 8b3b 0c1a 5eb7 0d74 d83a
000001d0: 3abd 6b3b 1ad0 ca3b 731b 98ba d49e 95bb
000001e0: a076 b43b d509 87b9 294c 6bba 17da 52bb
000001f0: 9de1 7dbc 9d23 40bc 614c 6b3b 02d5 07bb
00000200: f8f3 2a3b a61b 77bb 774a 90bb 5419 593c
00000210: 40d5 083c 49d8 d5bb c2bc 453c 0408 7abb
00000220: 00b4 5fbb 01d1 343c f0da 9bba 2128 943c
00000230: 6286 e43a e736 b5bc 4a11 4a3c c2ff 823c
00000240: 7ba4 1e3b e6c7 5abb 39e9 8e3c 18ce b1bb
00000250: 6655 a8bb 4d89 783c eb2a d13b bb99 2d39
00000260: 7760 a937 68ce 4fbb 3577 f13b 9389 fbbb
00000270: 7582 3c3c 742a cdba 3140 6f3c 0aa6 84ba
00000280: 7a7c 0abc 183e c2ba 0a20 253c c445 d1bb
00000290: 52c7 b3bb 7c58 633b 5eca 46ba 7945 23bc
000002a0: 21a9 053c 8348 5a3c cc9f bd3a 8bc9 2fbc
000002b0: e977 b23b 76e2 1fbc 44e8 7bbb 8b36 87bb
000002c0: 8549 77bc cb4b 093c e3dc 47bb 82a1 97ba
000002d0: 9865 b73b 0b3d fd3b bd96 a83b 05bc 023c
000002e0: 86e3 eabb 561f 8639 5b78 9eba eb59 5f3b
000002f0: bd4e 843b b26d 053c 8131 88bb 63de 13bc
00000300: 938d 613c b2fb 4d3c 8e0c 553b 7989 24bc
00000310: 66c9 1bbb 0485 e23b e3d8 edbb e2dd 9f3b
00000320: e0d5 8bbb 6152 98bc 4318 623c 52d7 eb38
00000330: ac34 913b 1f7a 9f3a 8f51 31bb b7e8 4fbc
00000340: 1337 213c b935 593a 0677 25bc cff7 f13a
00000350: 2047 7c3c 782d 373b cb58 1e3c 5eda 103a
00000360: f524 613a c897 a4bc 7832 ff3b e665 d0bb
00000370: 63d4 9b3b e5d8 103c 7481 733b c1c1 fb3b
00000380: bd5a 09bc e13a 363c 6424 4b3b 7bd2 35bc
00000390: 414f 8f3a 459d c13b edfd 48bc 3637 033c
000003a0: d2ae c43a 2eef 04bb 8372 593b e3a3 55ba
000003b0: cda9 1fbb 6bc0 6b3c 7924 a03c 9f7a 9b3b
000003c0: 5b5a fc3b 3bbf 0f3c 2054 753b c36a 5a3c
000003d0: ca37 0eba 4d57 9cb9 c5e5 47bc d712 253c
000003e0: 5d1b bc3b 76ef 55bc afe3 9eba 2462 85bb
000003f0: 66b1 e7b9 06c2 e2bb 104c 90bc ed84 143b
-0.01132171 0.005704377 0.003052403 0.0057981857 -0.010582127 0.004309181 0.012791141 -0.0014419231
0.0054634283 0.010017189 0.00496313 0.024137689 0.008987679 -0.0016627242 -0.0063056336 -0.006865885
0.0017834214 -0.004720228 -0.001823254 -0.0022487687 0.010450495 0.0050465623 0.014885265 -0.012586204
-0.013854204 0.0059321485 0.008235155 0.004787128 -0.010372913 -0.012261001 -0.0036483177 -0.0015921864
0.005379226 -0.008194769 0.017437248 0.015319931 -0.0018226313 0.0039282804 0.001250102 -0.017210789
-0.0038208165 0.00035416486 0.0062103057 0.0014172152 -0.0046267533 0.023981865 0.017098531 -0.0066972566
0.0016629344 -0.0041741505 -0.0044942666 0.01875746 0.011714654 0.0036864835 0.006686789 0.010027122
0.0026291672 -0.00397834 -0.01302611 -0.0025377427 0.00069061207 -0.01073966 -0.011708334 -0.00047974777
-0.0057322886 -0.007358097 -0.0030486733 0.012423636 -0.0018445888 -0.0020330152 0.00074636395 -0.013554232
0.0029415186 0.00045821644 -0.01169283 0.014649164 -0.0008699237 0.0006353064 0.004601435 -0.004690545
0.0021209791 -0.00094996294 0.011718024 0.0018210165 0.02077109 -0.007190606 0.00944908 -0.011106468
0.0072168885 -0.015240197 0.0019511238 0.008488641 -0.003464786 -0.01304055 0.013364787 -0.0072672046
-0.011332267 0.008798892 -0.004637313 -0.004306341 -0.0070284656 0.0025599836 0.012698951 0.008444303
0.008469904 0.0106927855 -0.008731712 0.0046250173 -0.0030953002 0.003842157 -0.008633868 0.0037110322
0.002398876 0.004258594 -1.3238296e-05 0.0016514078 0.0035970942 0.0061893584 -0.001160486 -0.004566053
0.0055073053 -0.00025756532 -0.00089758873 -0.0032173449 -0.015495685 -0.011727241 0.003590368 -0.0020726328
0.0026085358 -0.0037705689 -0.004403408 0.013250668 0.008351624 -0.0065260273 0.012068929 -0.003815175
-0.0034134388 0.011036159 -0.001189081 0.018085541 0.0017435069 -0.022120906 0.012333224 0.015991095
0.0024206925 -0.003338331 0.017445194 -0.0054261796 -0.0051371334 0.015169454 0.00638329 0.00016555835
2.019129e-05 -0.003170872 0.007368947 -0.0076763122 0.011505713 -0.0015652911 0.014602707 -0.0010120284
-0.008452529 -0.0014819531 0.0100784395 -0.0063864905 -0.0054864073 0.0034690192 -0.00075832556 -0.009965294
0.008157999 0.013322952 0.0014467179 -0.010729204 0.0054464233 -0.009758582 -0.0038438002 -0.004126375
-0.015093212 0.008379887 -0.003049665 -0.0011568519 0.0055968277 0.007728224 0.0051449225 0.007979398
-0.007168236 0.0002558182 -0.0012090312 0.0034080695 0.0040377066 0.008143829 -0.004156292 -0.009025189
0.013766664 0.012572216 0.0032508704 -0.010042542 -0.0023771166 0.0069128294 -0.007258521 0.0048787454
-0.0042674392 -0.018593969 0.01379973 0.0001124578 0.004431328 0.0012167132 -0.002705667 -0.012689761
0.009839791 0.00082858984 -0.010099178 0.0018460694 0.015397817 0.0027950685 0.009664725 0.00055257033
0.0008588576 -0.020091906 0.0077879988 -0.0063598035 0.004755543 0.008840774 0.0037156017 0.0076830094
-0.00838345 0.011122436 0.0030997032 -0.011097546 0.0010933654 0.0059086406 -0.012267572 0.008008769
0.0015005714 -0.0020284164 0.0033179827 -0.0008149726 -0.0024362684 0.014389138 0.019548642 0.004744842
0.007701201 0.00877362 0.0037434176 0.013331118 -0.00054251833 -0.00029819683 -0.012200777 0.010075293
0.0057405666 -0.01305758 -0.0012122298 -0.004070537 -0.00044191926 -0.006920102 -0.017614394 0.0022662238

bias f4 [3]
00000000: dd1a 963a 2c67 423b bc04 36bb
0.0011452098 0.0029663546 -0.0027773818

weight f4 [1, 128]
00000000: 9f9e 453c 58af ca3c b7b5 773c 3c01 863c
00000010: 7160 4ebc 0984 afbc 456b ccbb 7a56 943c
00000020: 8f4e e4bc 5553 c33b d9af 5e3c 301c b0bc
00000030: 6c2e d43c 782c 3a3c daed 0d3c 2ad2 263c
00000040: d241 363c dada af3b 5e63 4abc e817 693c
00000050: 624c 3dbc 59ba 8c3c cf70 61bc bf0a 8c3c
00000060: 8807 d6ba a1c0 133c 373e 77bc 5817 a53c
00000070: 9502 e5ba 8ab0 57bc e4ab 513c d036 ab3c
00000080: 70a1 013c 7b0f 023d 63d4 76bb 3c14 d53b
00000090: 0362 e13c 5173 4d3c c9dd 9abc 4f70 98bc
000000a0: cb9b 8b3b 5e80 fb3b c4bf 643b 09b8 4a3c
000000b0: 7d20 b2bc 3c03 67bc cf38 13bc 0f7a 5ebc
000000c0: 1f52 3abc ac28 86bc 3924 bc3b 1212 24bc
000000d0: 4d11 95bc 4762 873c 3f15 903c b348 003c
000000e0: 3874 c63a d07b 39bc 47b6 02bc 73f8 3b3c
000000f0: 4475 babc d08e 7ebc 3cbb 12bc ba2b 483c
00000100: 2e33 223c 3b8b a1bc fcd3 3a3c 356d 5b3b
00000110: c8a4 18bc dae8 a13c 92d1 dbbc f4f9 0fb9
00000120: 6ca4 9e3b eb49 953a 2306 8dbc 8bf9 943c
00000130: e8af 803c 266f 54bc aada f7bb 153d e13b
00000140: 09fd 2c3c 4d71 d8bb 6d26 1b3b 99d5 25ba
00000150: 7906 58bc 01d2 08bb 4b67 62bc 767f 7a3c
00000160: 7901 8cbc 17b3 283c 73da d7ba 338a eb3c
00000170: 3158 45bb f4ac 9d3b 2b33 353c 0d7a 0c3c
00000180: 700d 99bc 482c 853b 9b9c c3bc 54fd 783c
00000190: 1dbe a7bc 0db7 59bc 5d5a c53b 1304 d23c
000001a0: 033e c73c 61f9 5a3c a720 b4bc b9c3 b73b
000001b0: f187 12bb ffed 33bc 9418 c23c 21fc 223c
000001c0: 68f7 8c3b 46ce 96b9 17c1 2fbc 9648 91bc
000001d0: b33a 5a3c 164f 423c 3000 d7bb 980d 56bc
000001e0: 1de5 e23c 8715 70ba 9ee2 a33c 0850 4bbc
000001f0: d2bd e53b d0f9 753c 6d0a 813c 0fd1 8bbc
0.012061744 0.024741814 0.015119008 0.01635801 -0.012596236 -0.021425264 -0.0062383735 0.018107641
-0.02786949 0.0059608617 0.01359173 -0.021497816 0.025901042 0.011363141 0.008662665 0.010181943
0.011124091 0.0053666653 -0.012352793 0.014226891 -0.011553856 0.017178701 -0.013759806 0.017094968
-0.0016329149 0.009018094 -0.015090517 0.020152733 -0.0017472083 -0.013164649 0.01279733 0.02090016
0.007912025 0.031753045 -0.0037663213 0.0065026563 0.027512556 0.012539701 -0.018904584 -0.01860824
0.0042605153 0.0076752147 0.003490434 0.012372979 -0.021744007 -0.014099892 -0.008985712 -0.013578906
-0.011372118 -0.016376816 0.0057416228 -0.010014074 -0.018196726 0.016526354 0.017588256 0.007829833
0.0015140837 -0.011321023 -0.007978029 0.011472809 -0.022760995 -0.015536979 -0.008955773 0.0122174565
0.0098998975 -0.01971971 0.01140308 0.003348184 -0.009316631 0.019764353 -0.02683333 -0.00013730658
0.004841378 0.0011389827 -0.01721484 0.018185398 0.015708879 -0.012965953 -0.0075639086 0.0068737366
0.010558375 -0.0066053034 0.0023674027 -0.0006326079 -0.013185137 -0.0020877125 -0.013818572 0.015289178
-0.017090546 0.010296605 -0.0016468301 0.028752422 -0.003011238 0.0048118774 0.011059563 0.008574021
-0.018683165 0.0040641166 -0.023878386 0.015197117 -0.020476395 -0.013288272 0.006022735 0.025636708
0.024321562 0.013365121 -0.021988226 0.0056080488 -0.002235886 -0.010982036 0.02369336 0.0099478075
0.004301954 -0.00028763915 -0.010727189 -0.017734807 0.013319659 0.011859676 -0.0065613016 -0.013064764
0.02769714 -0.0009158481 0.02000552 -0.012409218 0.0070111537 0.015013173 0.015752042 -0.01706746

weight f4 [3, 128]
00000000: 138b 193c 6050 91b9 9e2f 44bc a7d0 1dbb
00000010: 7a01 2a3b f5e1 74bc 0ef2 003c d6d8 193b
00000020: 315c b13a a566 aebb 811d 803a 0546 1fbc
00000030: ffb6 ab3b 8d0b 9ab9 d1ab 723a 6441 34bc
00000040: e775 36bc 59e9 bfbb 5db4 47b7 b67b 02bc
00000050: cd07 e13b b523 ae39 b150 8a3b 9f76 203c
00000060: 7316 dd3a f24f 0c3c 1820 89bb 220e 48bb
00000070: 8a65 38bb 1783 d93b 6056 bebc 6981 8aba
00000080: 8049 33bc bc23 3cbc 2060 bcbb acc3 523a
00000090: 666a 8d3c 49c0 3f3c bc88 733b f6be 693b
000000a0: e246 083c 1703 093c d2f2 18bb 66d7 95bc
000000b0: 0207 9c3b 8329 03bc 42c7 003b 67b8 9abc
000000c0: fd09 213c 4ce1 9bbb f686 8dba 2e4a 1b3c
000000d0: 2014 79bb 3a46 1ebc e09a f8bb c3c4 193b
000000e0: a2ff ea3a 75f0 9f3b 4f46 20bc b4bc bf3b
000000f0: 4cad 0fbc 8ca1 073c 7265 33bc 7cf6 633a
00000100: e55c 27bb 3271 a03b 0226 483b d563 d3bb
00000110: d833 1a3b 6744 a53c b81d 94b7 e0fd 78bc
00000120: 6070 93bc d5e8 b6bb 3b8a 383c 24b3 d339
00000130: 2b4b 443c 4ab4 7abc e68b bebb afa8 853c
00000140: 4464 163c bdc3 9f3a 1292 35bc 6114 8e3b
00000150: 959a a03a 0d91 c1bb 2a97 473c d749 0dbc
00000160: 40f4 2e3c bd59 48bc b48a fb3b 0ab0 a5bb
00000170: 46f4 6f3b 52f1 32bb 4793 a0ba 42d8 7abb
00000180: 7170 363a 4b46 213c 36cc 60bc 87fc 4f3c
00000190: d49d 36b9 439b 5e39 0301 94bb 6d27 5d3b
000001a0: 2255 5c3c 58ad 69bc eee1 a43b 5673 f83b
000001b0: 0063 53bc 6c22 a9bb 7b9d 4cbb 6e5e 89bc
000001c0: a02b 9e3a 85e9 013c 6dc8 b5bb a756 11bc
000001d0: 5398 45b9 66dc 993c 19ed 7b3a 23e3 73bc
000001e0: 5d6d 03ba eb1a 12bb aa11 9b3b 4956 26bb
000001f0: f5a8 12bc 5d86 b63a b945 3c3c 554b 9c3b
00000200: d17c 38bb a09a 343b ac73 c4ba 3648 a2b9
00000210: f7c8 1cbb 6f71 14bc 3612 41bb c860 1cbc
00000220: 6c9e aa3b 4b59 aeba d258 ecbb 05c6 c0bb
00000230: 1fdf 133b af75 7cbc 4bbf 61ba c54d 21bc
00000240: 1166 003b 9f41 383c 705e 20bb 2baf 423c
00000250: cc91 1d3c 6e5c 48bc f2a6 023c 4343 0c3b
00000260: 2315 5b3c a3bb 82bc 8ef8 8c3b 165d 78bb
00000270: 5329 c6bb 2eef cbbb ba68 733b 98ad 8d3b
00000280: a717 70bc 6025 093b 1350 cb3b 8fcf c83b
00000290: 8211 d4ba 7a18 9d3b 1d25 f7b9 4149 b23a
000002a0: 3442 353c 908b f03b 0cf2 14bc b90f 933c
000002b0: d476 5d3c 042c 28bc 403f cf3b 7e04 60bc
000002c0: 740f c93c 41db 133c b3eb 903c 1310 243c
000002d0: 5abc 40bc e799 2abb 5af4 8b3b 2157 0a3b
000002e0: f3af 5cba 80c4 3f3b 5205 003c 8807 013c
000002f0: a55a 34bb f364 163c ebb2 a7bb d0a5 dc3a
00000300: e743 52bc f21e 0dbc 21d0 0e3c 733a 77bc
00000310: 3813 523c 511e c23a c317 98bb ec8c e639
00000320: 244b 3e3b dfe1 72bc 2f60 adbb 9c82 50bc
00000330: c95f 9dbb 7447 80bb e8ee afba 873b 25bb
00000340: 6fac b63a d8f8 3539 122a 673b 6b07 5e3b
00000350: 8172 923c d453 3d3c 824b 4d3c 1b56 51bc
00000360: 4474 8e3a a105 07bb 7bd4 b1bb 9587 cb3a
00000370: e6c1 9c3b ff01 05bc b20a 9b3c 4c87 443b
00000380: 98a2 80bb 5086 14bc 5afe a5bb ec06 f7bb
00000390: f371 853b 36a7 a03a 595c e639 152f 7e3c
000003a0: 13b3 f5bb ce84 c3bb 56c5 a53b 3b4a 50bc
000003b0: 4f12 063c cbde 8f3b 7df9 7d3b 6ed8 803c
000003c0: 87b0 08bb 3e0c 65bb 3163 533b a244 0bbc
000003d0: 292b 12bc 26bb 47bc 4e82 a5bc 00da 303c
000003e0: 02df 5cbb b12e a13b 0577 92bc 0a65 d13b
000003f0: dfa3 043c bc97 573a 8079 3c3c c58e 013c
0.009371537 -0.0002771644 -0.011974243 -0.0024080665 0.0025940822 -0.0149464505 0.00787021 0.0023475192
0.0013531504 -0.005322295 0.0009774418 -0.009721284 0.0052403207 -0.00029381775 0.000925717 -0.011001918
-0.011136509 -0.0058566746 -1.1903318e-05 -0.007964065 0.006867385 0.0003321447 0.004221045 0.0097939065
0.0016867652 0.008563982 -0.004184734 -0.0030526002 -0.0028136694 0.0066379416 -0.023234546 -0.0010567132
-0.010942817 -0.011483129 -0.0057487637 0.00080400216 0.017262649 0.011703559 0.0037160357 0.00356668
0.008317681 0.008362553 -0.0023338092 -0.018291187 0.0047615776 -0.008005503 0.0019650017 -0.018886758
0.009829042 -0.004757082 -0.0010797668 0.009478135 -0.003800638 -0.009660298 -0.007586822 0.0023463226
0.0017928968 0.0048809596 -0.009782388 0.0058513526 -0.008769345 0.008278262 -0.010949479 0.0008696092
-0.0025537547 0.0048963064 0.0030540233 -0.00645111 0.0023529436 0.020174218 -1.7656814e-05 -0.015197247
-0.01799792 -0.005581955 0.011263425 0.00040378526 0.011980812 -0.015301773 -0.005815017 0.016315786
0.009179179 0.0012189072 -0.011082189 0.0043359254 0.00122531 -0.005907184 0.012182036 -0.008623562
0.010678351 -0.0122284265 0.007676447 -0.005056386 0.0036614104 -0.0027304483 -0.0012250923 -0.0038275872
0.0006959504 0.009843419 -0.013720563 0.012694485 -0.00017415668 0.0002122941 -0.004516722 0.0033745423
0.013448032 -0.01426252 0.0050318157 0.0075821085 -0.012902021 -0.005161574 -0.0031221795 -0.01676866
0.0012067445 0.007929211 -0.0055475743 -0.008870757 -0.00018844129 0.018781852 0.00096102204 -0.014885697
-0.000501355 -0.0022293876 0.0047323303 -0.002538102 -0.008951415 0.0013925541 0.011491233 0.0047697225
-0.0028150568 0.0027557984 -0.0014988086 -0.0003095285 -0.0023923495 -0.009060248 -0.0029460317 -0.009544559
0.0052068736 -0.0013301758 -0.0072127366 -0.005882981 0.002256341 -0.015408917 -0.0008611574 -0.009845202
0.0019592086 0.011246114 -0.0024470352 0.011882584 0.00961728 -0.012229068 0.007974373 0.0021402396
0.013371739 -0.015958613 0.004302091 -0.003789728 -0.0060474067 -0.006223581 0.003714128 0.0043236725
-0.014654077 0.0020926818 0.006204614 0.0061282585 -0.0016179534 0.0047941776 -0.00047139163 0.0013602154
0.011063147 0.007340856 -0.009090912 0.017951833 0.0135171 -0.0102644 0.0063246787 -0.013672946
0.024543501 0.009024442 0.017690515 0.010013598 -0.0117636565 -0.0026031674 0.0042710723 0.0021109062
-0.00084185525 0.002926141 0.007813768 0.007875331 -0.0027519849 0.009179342 -0.005117764 0.0016834084
-0.012833572 -0.008613335 0.008716614 -0.015089619 0.012821965 0.001481006 -0.0046415045 0.00043974014
0.0029036487 -0.01482436 -0.005291007 -0.012726452 -0.0048026782 -0.003914768 -0.001342264 -0.0025212483
0.0013936887 0.00017354207 0.0035272879 0.0033878933 0.017876865 0.011555631 0.0125302095 -0.012776877
0.001086839 -0.002060272 -0.005426941 0.0015528077 0.0047838567 -0.008118152 0.018925998 0.002998787
-0.0039256327 -0.009065226 -0.0050657215 -0.007538667 0.0040724217 0.0012256864 0.00043937823 0.015514155
-0.007498154 -0.0059667593 0.0050589247 -0.01271301 0.008183076 0.0043905727 0.0038753443 0.015728202
-0.0020857172 -0.0034949924 0.0032255168 -0.00850025 -0.008921423 -0.012190616 -0.020203736 0.010794163
-0.003370226 0.004918896 -0.017879019 0.0063902186 0.008095711 0.00082242093 0.011503577 0.007907574

bias f4 [3]
00000000: c531 b73a 5daa b73a b5a4 e5ba
0.0013976624 0.0014012564 -0.00175204
