TradeSimulator-v0_D3QN_-1/actor_00094800_167.222.pth (torch, 152106 bytes, 14 tensors)

state_avg f4 [10]
0	0x3d935333	0.07193603
1	0x3980433d	0.0002446416
2	0xbb008b57	-0.0019614303
3	0x3d87214c	0.06598148
4	0x3a7783d6	0.00094419473
5	0xbb3b1461	-0.0028546082
6	0xbcbb6986	-0.022877466
7	0x3db372f0	0.08762157
8	0x3ab1e566	0.0013572394
9	0xbbb8f9d0	-0.0056450143

state_std f4 [10]
0	0x3f738606	0.9512638
1	0x3f67da8a	0.9056784
2	0x3f751649	0.9573713
3	0x3f797b9a	0.97454226
4	0x3f70931e	0.93974483
5	0x3f6d65b6	0.92733324
6	0x3f7f88ad	0.99817926
7	0x3f7190d9	0.94361645
8	0x3f6fbd90	0.93648624
9	0x3f6d9784	0.9280932

weight f4 [128, 10]
0	0x3e28d6f0	0.16488242
1	0xbd9cef50	-0.07662833
2	0xbd8758cb	-0.06608733
3	0x3e23a390	0.15980363
4	0xbe91d684	-0.28483975
5	0x3e47c8d8	0.1951021
6	0xbd98e9d4	-0.07466474
7	0x3e2f9d54	0.1714986
8	0x3d34e629	0.04416481
9	0xbd467187	-0.04844811
10	0x3dc60a1d	0.09669898
11	0x3e0e193b	0.13876812
12	0x3e048cf1	0.1294439
13	0xbde0766d	-0.10960088
14	0xbd00e853	-0.03147156
15	0xbd11f72b	-0.03563611
16	0x3d21754e	0.03941851
17	0x398de18b	0.00027061658
18	0x3e8f7b6d	0.28023854
19	0x3de41ce0	0.1113832
20	0xbdeec76d	-0.11659131
21	0xbe9a933e	-0.30190462
22	0xbd6db529	-0.058034096
23	0xbe12edcc	-0.14348525
24	0xbdd12115	-0.10211388
25	0x3b507197	0.0031805986
26	0x3e47943c	0.1949014
27	0x3e322a1e	0.17398879
28	0xbe93e181	-0.28882983
29	0x3e45013d	0.19238754
30	0x3db7e31d	0.08978865
31	0x3e56e543	0.20985894
32	0x3e554a01	0.20829011
33	0xbe978ae9	-0.29598168
34	0xbe91d466	-0.2848236
35	0xbe213e9f	-0.15746544
36	0x3e93db2e	0.28878158
37	0xbd365610	-0.04451567
38	0x3e105dc1	0.14098264
39	0xbe10bdfa	-0.1413497
40	0x3e9b6257	0.30348465
41	0xbe87287d	-0.26398078
42	0x3e659eb0	0.22423816
43	0x3ca42299	0.020036029
44	0xbe277e3e	-0.16356751
45	0x3e2ee6b5	0.17080195
46	0xbe39d4cc	-0.18147582
47	0x3ddf245d	0.108956076
48	0xbdbc143f	-0.09183549
49	0xbd181f66	-0.03713932
50	0xbea47425	-0.3211986
51	0xbdfb5674	-0.12272349
52	0x3e295137	0.16534887
53	0xbd9a7575	-0.075419344
54	0x3ea31019	0.3184822
55	0x3e82828d	0.25490227
56	0xbc5d1fa9	-0.013496318
57	0xbe4012ee	-0.18757221
58	0x3e4432bb	0.19159977
59	0x3dc40fb1	0.095733054
60	0xbe4d4a64	-0.20047909
61	0x3d749abc	0.05971788
62	0x3e43553b	0.19075482
63	0x3e9325a3	0.28739652
64	0xbe331bfd	-0.17491145
65	0xbd4db1d0	-0.050218403
66	0xbc1c8b84	-0.0095547475
67	0x3d20edbe	0.03928923
68	0xbe7aa055	-0.24475224
69	0xbe603f60	-0.21899176
70	0x3e2eaee9	0.1705891
71	0xbe27613d	-0.16345687
72	0x3e16228b	0.14661615
73	0x3ca72f3b	0.020408263
74	0x3de0276f	0.10945021
75	0x3d856409	0.06513221
76	0x3dd58945	0.10426573
77	0x3e2a0f51	0.16607405
78	0xbe8cccb0	-0.27499914
79	0x3e1cbd58	0.15306604
80	0xbe6fc373	-0.23414402
81	0xbe560d50	-0.20903516
82	0x3c987289	0.018609302
83	0xbd5efa33	-0.054437827
84	0x3e3c9a0d	0.1841814
85	0xbe4666dc	-0.19375175
86	0xbe8b2847	-0.27179167
87	0x3e733826	0.23751888
88	0xbd710211	-0.05883986
89	0x3e3af84c	0.1825878
90	0x3dc2e287	0.09515863
91	0xbebded3e	-0.37095064
92	0x3d72ffe5	0.05932607
93	0x3da4f6e7	0.080549054
94	0xbe58b106	-0.21161279
95	0xbe13dbc6	-0.14439306
96	0x3dd8f548	0.10593659
97	0x3d82853a	0.06373067
98	0xbe0aa923	-0.13541083
99	0xbdceb225	-0.10092572
100	0x3e93e83c	0.28888118
101	0xbe319848	-0.17343247
102	0x3e3470f7	0.17621218
103	0x3e09d5ee	0.13460514
104	0xbe432e96	-0.1906074
105	0xbe898941	-0.2686253
106	0x3e9bb56f	0.3041186
107	0x3c97dede	0.018538889
108	0x3e6085b5	0.21926005
109	0x3d5f4bda	0.054515697
110	0x3dcf784f	0.10130369
111	0x3e263f9e	0.16235206
112	0x3e965e20	0.29368687
113	0xbe56c56e	-0.20973751
114	0x3d4b224a	0.049593247
115	0x3e6a41b8	0.22876632
116	0x3e6f14aa	0.23347726
117	0x3e505ca8	0.20347846
118	0xbe5097fa	-0.20370474
119	0xbe5d51d6	-0.21613249
120	0xbe3a5c4e	-0.18199274
121	0xbda22b11	-0.079183705
122	0x3e9cc6ae	0.3062033
123	0xbe53fc58	-0.2070173
124	0x3e2d0c1e	0.16899154
125	0xbe21e4bc	-0.15809911
126	0xbe99f8d2	-0.30072647
127	0xbd87bc4b	-0.06627711
128	0x3e385d9b	0.18004458
129	0x3e94c203	0.2905427
130	0xbe420afb	-0.18949501
131	0x3d6c3368	0.057666212
132	0x3e8e5442	0.2779866
133	0x3e5bf60f	0.21480583
134	0x3e3cf0cc	0.18451232
135	0x3e6b972f	0.2300689
136	0x3e4b69de	0.19864604
137	0x3dd15722	0.102216974
138	0xbe529b4b	-0.20567052
139	0xbe89d5c5	-0.26920906
140	0xbe1b8dfc	-0.15190881
141	0xbccf6557	-0.025316877
142	0xbe49abd5	-0.19694455
143	0x3de9e280	0.114201546
144	0x3dbae55d	0.09125779
145	0xbd6568e2	-0.056008227
146	0x3de77f87	0.11303621
147	0x3dcbe2bb	0.09955355
148	0x3e3ecb32	0.186322
149	0x3e4ea7e2	0.2018123
150	0xbdd4b878	-0.10386747
151	0x3e2c2263	0.16809992
152	0xbd2d0544	-0.04224135
153	0xbbccf450	-0.0062547103
154	0xbe92db41	-0.28682902
155	0xbe44b909	-0.1921121
156	0xbe449a78	-0.1919955
157	0xbe0ca10f	-0.13733314
158	0x3e640b1d	0.22269864
159	0xbde21a42	-0.110401645
160	0xbe7b73ac	-0.24555844
161	0x3e16919b	0.14703982
162	0x3dd5c18c	0.10437307
163	0x3e567be0	0.20945692
164	0xbe31d3c4	-0.17365938
165	0x3d863e21	0.06554819
166	0xbde6519d	-0.11246035
167	0xbd7dd16d	-0.061967302
168	0xbe812c22	-0.25228983
169	0xbe0d9d31	-0.13829495
170	0xbdc344bf	-0.09534597
171	0x3d1ccf29	0.0382835
172	0x3d7c4367	0.061587717
173	0x3dab7269	0.083714314
174	0x3e9cd542	0.30631453
175	0x3e966529	0.29374054
176	0x3e6eed30	0.23332667
177	0x3c45ee45	0.012080734
178	0xbe5533e7	-0.2082058
179	0x3e76368b	0.24044244
180	0xbd9756e0	-0.07389617
181	0xbe20c8b4	-0.15701562
182	0xbe89ad15	-0.26889864
183	0xbd67d7f1	-0.056602422
184	0xbe46e65c	-0.19423813
185	0x3e8927c7	0.2678816
186	0xbe9511e7	-0.2911522
187	0xbe78f4e1	-0.24312164
188	0xbc059392	-0.008152859
189	0xbe327639	-0.17427911
190	0x3de2d6cb	0.11076125
191	0xbe473b42	-0.19456199
192	0xbe160ae1	-0.14652587
193	0x3ca26139	0.01982175
194	0x3e66f0de	0.22552821
195	0xbe63e43b	-0.22255032
196	0x3e1b9b36	0.15195927
197	0x3e56a0f0	0.2095983
198	0x3e9e002d	0.3085951
199	0xbe67d076	-0.22638115
200	0x3dba6f1d	0.091032244
201	0xbe003349	-0.12519564
202	0x3e8ff10b	0.2811359
203	0xbdda10b3	-0.106477164
204	0x3e488fcc	0.19586104
205	0xbc581388	-0.01318825
206	0xbcbd7e87	-0.023131622
207	0x3903ab37	0.00012556916
208	0x3d40515d	0.046952594
209	0x3e1bad81	0.15202905
210	0x3d366d8e	0.044538073
211	0xbb7bd043	-0.0038423694
212	0xbe87f957	-0.2655742
213	0x3e76169b	0.24032061
214	0x3e857b8e	0.26070827
215	0x3e6ff823	0.234345
216	0x3e8010da	0.25012857
217	0xbe6f001c	-0.23339885
218	0xbdd70882	-0.104996696
219	0x3e8c9f0a	0.27465087
220	0xbe7025f6	-0.23451981
221	0x3e30071d	0.17190214
222	0xbe81d8ee	-0.25360817
223	0xbe66623e	-0.22498414
224	0x3e161ec2	0.1466017
225	0xbe57f059	-0.21087779
226	0xbda61939	-0.081102796
227	0x3e77732f	0.24165033
228	0x3e81688d	0.25275078
229	0x3e93bfdd	0.28857318
230	0xbd77ee52	-0.060530014
231	0xbeca1f84	-0.3947717
232	0x3e99e717	0.3005912
233	0xbd878bfe	-0.06618498
234	0xbdfe8ee6	-0.124295995
235	0x3dad6156	0.08465831
236	0xbe6d811c	-0.23193783
237	0x3e5fa093	0.21838598
238	0x3e498110	0.1967814
239	0xbe83b9aa	-0.25727588
240	0xbe8526cf	-0.2600617
241	0xbdb091c2	-0.08621551
242	0x3e0080cb	0.1254913
243	0x3bfd3df0	0.007728331
244	0xbe1ad6b7	-0.1512097
245	0x3c2790d9	0.0102274055
246	0xbe9fc81b	-0.31207356
247	0xbe61503c	-0.22003263
248	0xbe556059	-0.20837535
249	0x3e717573	0.2357996
250	0x3e8dbdd7	0.276839
251	0xbe11b42d	-0.14228888
252	0x3bfd23fb	0.0077252365
253	0x3e1c8bd0	0.15287709
254	0x3d39f896	0.045403086
255	0xbe25714a	-0.16156498

bias f4 [128]
0	0x3c79b34c	0.015240502
1	0xbb3cb44d	-0.002879399
2	0x3d6cd33b	0.057818633
3	0x3b29e803	0.0025925643
4	0x3e3ef5c5	0.18648441
5	0x3d174593	0.036931586
6	0x3e6ac5b8	0.22926986
7	0x3da67e77	0.0812959
8	0xba14a9f1	-0.0005671075
9	0x3d673120	0.056443334
10	0x3e69e482	0.22841075
11	0x3d640b2d	0.05567472
12	0x3e716329	0.23572983
13	0xbca28003	-0.019836431
14	0x3b1c91f6	0.002389071
15	0x3e8e3d64	0.27781212
16	0xbe961564	-0.29313195
17	0x3d3007d4	0.042976215
18	0x3e9d2f36	0.30700082
19	0xbe1b45dd	-0.1516337
20	0xbd4e10b2	-0.05030889
21	0xbc1e40a5	-0.009658967
22	0x3df0c7ed	0.11756883
23	0x3e082b94	0.13297874
24	0x3db5b208	0.088718474
25	0x3e06c754	0.13161975
26	0xbe07e369	-0.13270344
27	0x3e16f269	0.1474091
28	0xbdd32390	-0.103095174
29	0x3e5a272b	0.21304004
30	0xbda7e8bf	-0.0819869
31	0xbe88a245	-0.26686302
32	0x3d120b8e	0.03565555
33	0x3e464645	0.19362743
34	0xbb7778fe	-0.0037761326
35	0x3b5316e7	0.0032209696
36	0x3bda47d0	0.0066613927
37	0x3e3a3d65	0.18187483
38	0x3cedd203	0.029030805
39	0xbe9012ac	-0.28139246
40	0xbe5c0dd7	-0.21489654
41	0x3cf7a3dd	0.030229503
42	0xbc00e2fc	-0.007866617
43	0x3ea3e794	0.32012618
44	0xbd6e346a	-0.058155455
45	0x3e804b65	0.2505752
46	0xbe83b8b3	-0.25726852
47	0xbe9c367e	-0.30510324
48	0xbc92e006	-0.017929088
49	0xbe4de52a	-0.2010695
50	0xbda8b78f	-0.08238136
51	0x3d0464c1	0.03232265
52	0xbe8c1cbb	-0.2736567
53	0x3e74767f	0.23873328
54	0xbe3aa0cf	-0.18225406
55	0x3e862220	0.2619791
56	0x3de6bc8b	0.112664305
57	0xbd503659	-0.05083308
58	0xbe88e09d	-0.26733866
59	0x3d767527	0.06017032
60	0xbe2b0b51	-0.16703536
61	0x3e93cedc	0.2886876
62	0xbe88cdff	-0.26719663
63	0xbda8642a	-0.0822223
64	0xbe27a28d	-0.16370602
65	0xbe4a3f5e	-0.19750735
66	0xbe2911d1	-0.16510703
67	0xbca9596c	-0.020672522
68	0x3cae30d9	0.021263527
69	0x3d9414d4	0.07230535
70	0x3e3138e1	0.17306854
71	0xbdf821ad	-0.12115798
72	0xbe5492c2	-0.20759109
73	0xbd71d477	-0.059040513
74	0x3ea1223b	0.31471428
75	0xbd0dde8b	-0.03463606
76	0xbe88db57	-0.26729843
77	0x3e88ae72	0.2669559
78	0x3da09378	0.078406274
79	0x3d93f10c	0.072237104
80	0x3d7bcb60	0.06147325
81	0x3e6437de	0.22286937
82	0xbe173254	-0.14765292
83	0x3e7a2bcd	0.24430771
84	0x3ea4639e	0.32107252
85	0xbd99c3d3	-0.07508054
86	0x3e5dccdd	0.2166018
87	0x3e416be7	0.18888818
88	0x3e9e86f4	0.30962336
89	0xbd87fd95	-0.06640164
90	0xbe2c7b17	-0.1684383
91	0xbdeda9ab	-0.11604627
92	0xbe55abbb	-0.20866291
93	0x3cc03a9d	0.023465449
94	0x3ea56937	0.32306835
95	0x3ea428e2	0.3206244
96	0x3e798fc2	0.24371246
97	0x3d0b7d90	0.034055293
98	0x3c8ca209	0.017167108
99	0x3e6ab009	0.22918715
100	0x3e57b63d	0.21065612
101	0xbd08f6cf	-0.0334385
102	0xbd9b8235	-0.075931944
103	0x3e09e613	0.13466673
104	0x3be0110f	0.006837971
105	0xbe53da0a	-0.20688644
106	0xbe15b930	-0.14621425
107	0x3e890fc3	0.26769838
108	0x3e8d7a02	0.27632147
109	0xbde79f2a	-0.11309655
110	0xbd63fd9d	-0.055661786
111	0xbe1e0e85	-0.15435226
112	0xbdc3909c	-0.095490664
113	0x3e941f96	0.28930348
114	0xbe9079cb	-0.2821792
115	0x3e1af92c	0.15134114
116	0xbe908da0	-0.2823305
117	0xbe19da1f	-0.15024613
118	0xbd399da0	-0.04531634
119	0x3cc8d4c5	0.024515519
120	0xbd36ab08	-0.0445967
121	0xbe0feae5	-0.14054449
122	0xbe08c7e3	-0.133575
123	0xbe4ccf91	-0.20001055
124	0xbe6336bd	-0.2218885
125	0xbe4bbe0e	-0.19896719
126	0x3ea5e410	0.3240056
127	0xbe0cd48e	-0.13752958

weight f4 [128, 128]
0	0xbd9fb832	-0.07798804
1	0x3d8e9388	0.06961733
2	0x3d203267	0.039110567
3	0x3d90ae29	0.070644684
4	0xbdb2588e	-0.08708297
5	0xbd9db1f1	-0.07699955
6	0xbd7a5ef5	-0.061125714
7	0xbd4bc98a	-0.04975275
8	0xbbee6b69	-0.007275988
9	0x3d23e22e	0.040010624
10	0x3d6a2e2d	0.057172943
11	0xbd888e9c	-0.066678256
12	0x3d212c9e	0.03934919
13	0xbd33a309	-0.043856654
14	0x3c91f90e	0.017818954
15	0x3d2c05d8	0.04199776
16	0x3c9fd54b	0.019510886
17	0x3d1f13d9	0.038837288
18	0x3b714c37	0.003681911
19	0x3d4b6e42	0.049665697
20	0x3c9d42c6	0.01919688
21	0x3db089d0	0.08620036
22	0x3cb8abee	0.02254292
23	0xbd22d745	-0.03975608
24	0x3d645180	0.055741787
25	0xb8c8dc44	-9.577771e-05
26	0x3dbe57cb	0.09294089
27	0xbc79b906	-0.015241867
28	0x3da3c2aa	0.079961136
29	0xbd5d142c	-0.053974316
30	0x3d30cc97	0.043163862
31	0xbd8d7cee	-0.06908594
32	0x3d70b87d	0.05876969
33	0x3cc29467	0.023752404
34	0x3d81b4e9	0.06333334
35	0xbd8ff969	-0.07029993
36	0xbdac957a	-0.08426948
37	0x3d3a77cc	0.045524403
38	0xbce39c72	-0.02778456
39	0x3d1d6de2	0.03843487
40	0xbd4c7443	-0.049915563
41	0xbcbc3b13	-0.022977388
42	0x3cbd1234	0.023079969
43	0x3d704122	0.058655865
44	0x3d0b9880	0.034080982
45	0x3af816a8	0.001892765
46	0xbcefabd0	-0.029256731
47	0xbc19e464	-0.0093928315
48	0x3d0e499d	0.03473817
49	0xbd8d0578	-0.06885809
50	0xbca9c714	-0.02072481
51	0xbda828bf	-0.08210897
52	0xbb13221a	-0.0022450746
53	0xbbbea726	-0.0058182655
54	0x3d56555f	0.05232751
55	0x3dac7cd3	0.08422246
56	0xbd8a3126	-0.067476556
57	0xbd04fdb0	-0.032468498
58	0xbd1f81cb	-0.03894214
59	0x3b7f17fb	0.0038924206
60	0xbd0cc1ad	-0.03436439
61	0xbd4afcc0	-0.049557447
62	0xbd3cd290	-0.046099246
63	0xbbf94427	-0.0076070013
64	0x3d5033a9	0.050830517
65	0xbca1cae4	-0.019750066
66	0x3d8327f2	0.06404103
67	0xbd8c7958	-0.06859082
68	0x3ba119ec	0.00491642
69	0xbd70ab59	-0.05875716
70	0xbdaef431	-0.085426696
71	0x3c629b98	0.013831042
72	0xbd234367	-0.0398592
73	0x3d8a9c72	0.06768121
74	0x3d9b986d	0.07597432
75	0xbd9f5217	-0.07779329
76	0xbc002054	-0.007820208
77	0xbbb9d498	-0.005671095
78	0xbd262e9d	-0.040571798
79	0xbd3355f2	-0.043783136
80	0xbd55608e	-0.052094035
81	0x3d499686	0.049215816
82	0x3bcd172f	0.006258867
83	0x3d87d818	0.066330135
84	0xbc03783e	-0.008024273
85	0x3d37b59e	0.044850938
86	0x3ca629b0	0.02028355
87	0xbcada5c0	-0.0211972
88	0xbc07a1b7	-0.008278302
89	0xbdb6a9f4	-0.08919135
90	0xbc1e5e69	-0.009666064
91	0xbc89d05f	-0.016822992
92	0xbd4b2cfd	-0.04960345
93	0xbcd3f243	-0.025872355
94	0xbcd23136	-0.025658231
95	0xbd81bef3	-0.06335249
96	0x3c852330	0.01625213
97	0xbad7cd19	-0.0016464322
98	0xbd1390a0	-0.036026597
99	0x3db545b8	0.088511884
100	0x3d93f81e	0.07225059
101	0x3d21082b	0.03931443
102	0xbd23352e	-0.039845638
103	0x3b8d02b1	0.0043032994
104	0xbd6c3213	-0.057664942
105	0x3d8862d3	0.06659474
106	0x3da32763	0.07966497
107	0xbc448c24	-0.011996303
108	0x3d83f23e	0.064426884
109	0x3da4eeba	0.08053346
110	0xbb8399f1	-0.004016154
111	0xbcf92622	-0.030413691
112	0xbc0ee837	-0.0087223565
113	0x3c81556c	0.015787803
114	0xbdafe317	-0.08588236
115	0x3c053099	0.008129262
116	0xbd1eef8f	-0.03880268
117	0x3d83a71c	0.06428358
118	0xbc42673a	-0.011865431
119	0x3d83e655	0.06440417
120	0x3d80be44	0.0628629
121	0xbcd0b774	-0.025478102
122	0x3ca6545e	0.020303901
123	0xbc4137bc	-0.011793073
124	0xbd069fbb	-0.032867175
125	0xbd2e1836	-0.042503558
126	0x3c059af9	0.008154624
127	0x3d201c50	0.0390895
128	0xbc25c53e	-0.010117827
129	0x3c67c610	0.014146343
130	0x3d7c6893	0.061623167
131	0x3d36e92f	0.044655975
132	0x3d27bdc7	0.04095247
133	0x3ce1a9ab	0.027546724
134	0xbd7673ce	-0.060169034
135	0xbd528a9e	-0.051401727
136	0xbd79dc1f	-0.06100094
137	0x3d79ad15	0.06095608
138	0xbd98a95d	-0.074541785
139	0xbd7c3190	-0.061570704
140	0x3d80d6f6	0.062910005
141	0x3d63c861	0.055611018
142	0xbda4d297	-0.08047979
143	0x3d781639	0.06056807
144	0xbcb2f5a1	-0.02184564
145	0x3cb36a62	0.021901313
146	0xbd28577a	-0.04109905
147	0xbc7453ce	-0.014912559
148	0x3c814307	0.015779031
149	0x3d8de680	0.0692873
150	0x3d74f6c2	0.05980564
151	0xbd29ea7a	-0.04148338
152	0xbd5bff6e	-0.053710394
153	0xba4cb5d8	-0.0007809079
154	0x3cee6dce	0.029105093
155	0x3d6710b8	0.05641243
156	0xbdadd8eb	-0.084886394
157	0x3ac04f58	0.0014672084
158	0x3c2f892b	0.010713856
159	0xbd30f6f6	-0.04320427
160	0x3da19f20	0.07891679
161	0xbc7bf9d4	-0.015379388
162	0xbd99ef6f	-0.075163715
163	0xbd433eaa	-0.047667183
164	0x3c1ab463	0.009442422
165	0xbd693686	-0.056936763
166	0x3c95f8fa	0.018307198
167	0x3dad336f	0.08457076
168	0x3c654cfa	0.013995403
169	0xbc2079a6	-0.009794628
170	0x3dbf727e	0.093480095
171	0x3d977a5e	0.073963866
172	0x3d79f36d	0.061023165
173	0x3c8271de	0.015923437
174	0x3bfee2ba	0.0077784928
175	0xbd7c4ef1	-0.061598722
176	0x3c750e87	0.014957077
177	0x3dc33cd1	0.09533084
178	0x3c6d8b30	0.014498517
179	0xbd9526b6	-0.07282774
180	0x3cfd86f1	0.030948134
181	0x3dacf3b3	0.084449194
182	0x3da6654c	0.081247896
183	0x3c8a72a7	0.016900374
184	0x3ce97788	0.02849938
185	0x3cb373e8	0.021905854
186	0xbd10273e	-0.035193674
187	0xbc63bacd	-0.013899517
188	0x3d8d1202	0.068882
189	0x3c960496	0.018312734
190	0x3d9fad51	0.07796729
191	0xbd89d8ee	-0.06730829
192	0xbbff7f31	-0.007797145
193	0x3bdc4522	0.0067221085
194	0xbd247db0	-0.040158927
195	0x3d9724de	0.07380079
196	0x3d813b46	0.06310134
197	0xbd264c6d	-0.04060023
198	0x3dab2a4d	0.083576776
199	0x3da20271	0.07910622
200	0xbd47287b	-0.04862259
201	0x3af1150c	0.0018393113
202	0x3dc14622	0.09437205
203	0xbd60783b	-0.05480216
204	0xbc67fe3d	-0.014159736
205	0xbd57ccbf	-0.052685495
206	0x3d909c39	0.07061047
207	0x3c9eb59c	0.019373707
208	0x3d28aead	0.04118221
209	0x3d939243	0.072056316
210	0xbc9108ea	-0.017704446
211	0xbd90e0d1	-0.0707413
212	0x3c5a2482	0.013314368
213	0xbb10edd7	-0.002211442
214	0x3d2879f4	0.04113193
215	0x3d3cc04f	0.046081837
216	0xbd16886d	-0.0367512
217	0xbcfd0372	-0.030885432
218	0x3d5bc066	0.053650282
219	0x3ced4da8	0.028967693
220	0x3cae3f2c	0.021270357
221	0x3d471899	0.048607443
222	0x3d45c75d	0.04828583
223	0xbd6c61fa	-0.057710625
224	0x3c99cb19	0.018773602
225	0x3bdfb96d	0.0068275244
226	0xbda3374b	-0.07969531
227	0x3d0af61b	0.03392611
228	0x3c3b14e0	0.011418551
229	0x3d8e7c19	0.069572635
230	0xbda95e6e	-0.08269964
231	0x3db6b306	0.08920865
232	0xbd26c9c2	-0.040719755
233	0x3d6abb50	0.05730754
234	0x3d5e7e31	0.054319564
235	0xbb6cd23b	-0.003613605
236	0xbd1fb823	-0.038993966
237	0xbc2d1ea1	-0.0105663845
238	0xbd62523f	-0.055254217
239	0x3c68102a	0.01416401
240	0x3d142c91	0.036175314
241	0x3cca0eac	0.0246652
242	0xbd63fc26	-0.05566039
243	0x3d7ca4a4	0.06168045
244	0x3d93ce95	0.07217137
245	0xbcbd37e9	-0.02309795
246	0x3d30a22c	0.04312341
247	0xbc18ca6a	-0.009325603
248	0x3d117ed9	0.035521362
249	0xbd84c3c5	-0.064826526
250	0xbd93b4d4	-0.072122246
251	0xbc07abb4	-0.008280683
252	0xbd8e586c	-0.06950459
253	0x3d15dc88	0.036587268
254	0x3dbcf883	0.09227087
255	0xbc6d0661	-0.014466853

bias f4 [128]
0	0x3d86efe3	0.065887235
1	0x3d6aeaeb	0.05735294
2	0xbcb55bc8	-0.022138491
3	0x3d44ca1b	0.048044305
4	0xbcf76da9	-0.030203657
5	0xbc6448da	-0.013933385
6	0xbda58ad4	-0.0808312
7	0x3d4315b8	0.047628134
8	0x3d8d4947	0.06898742
9	0x3bd3064d	0.00643996
10	0xbdb0fc05	-0.08641819
11	0xbb7a65a4	-0.0038207555
12	0xbd6e1f98	-0.0581356
13	0xbd320c18	-0.043468565
14	0xbc98881d	-0.018619591
15	0x3d396bed	0.04526894
16	0x3d6febef	0.058574613
17	0xbda63cd0	-0.08117068
18	0xbd4af8be	-0.049553625
19	0xbd33f3e1	-0.043933753
20	0x3cf1a0c5	0.029495606
21	0x3a82a9dc	0.0009968835
22	0xbc6872fe	-0.0141875725
23	0x3c50e82e	0.012750668
24	0x3b94d522	0.004542009
25	0xbd9594e0	-0.07303786
26	0x3cf68f05	0.030097494
27	0x3cbdaba0	0.023153126
28	0x3c864110	0.016388446
29	0x3d3cfd16	0.0461398
30	0x3ca75e09	0.020430582
31	0xbd59efbc	-0.053207144
32	0x3dc7f91c	0.09764311
33	0x3d4274f7	0.047474828
34	0x3db8a934	0.09016648
35	0x3ca3995f	0.019970594
36	0x3d88b7a1	0.066756494
37	0xbbd76d0b	-0.006574278
38	0x3b6b9b43	0.0035950697
39	0x3d491c42	0.049099214
40	0xbd1fe51e	-0.039036863
41	0xbda19a20	-0.07890725
42	0x3cb2834d	0.021791125
43	0x3d80af4b	0.062834345
44	0x3dbd100a	0.09231575
45	0xbc120773	-0.008912909
46	0xbcdfe503	-0.027330881
47	0xbd6afccd	-0.057369996
48	0x3dba09a2	0.090838686
49	0xb9933ce5	-0.00028083395
50	0xbd060640	-0.032720804
51	0xbd6e0458	-0.05810961
52	0xbca18008	-0.01971437
53	0x3da7b59d	0.08188937
54	0x3d2a0c79	0.0415158
55	0xbd964181	-0.07336713
56	0x3d38b5a7	0.045095112
57	0xbce36b63	-0.027761167
58	0x3db28ca9	0.08718235
59	0xbce56a48	-0.02800478
60	0xba1f035b	-0.00060658687
61	0x3cf7570d	0.030192876
62	0xbc426bc5	-0.011866515
63	0xbd46d98d	-0.048547316
64	0xba2db05a	-0.00066257047
65	0x3dc346a7	0.0953496
66	0xbd8f4a9e	-0.06996654
67	0x3d82d424	0.06388119
68	0x3d635369	0.055499468
69	0x3db15d67	0.08660393
70	0x3cc83ff0	0.02444455
71	0xbb8c508b	-0.0042820624
72	0xbd5c75e4	-0.053823367
73	0x3dcbd88e	0.09953414
74	0x3bd52cb9	0.0065055755
75	0x3b92610c	0.0044671353
76	0x3cd2e283	0.025742775
77	0xbc4680b8	-0.01211565
78	0x3bae6618	0.005322229
79	0x3cdbc6a9	0.026828127
80	0x3d84853c	0.06470725
81	0x3d7b8867	0.06140938
82	0xbdbfec9a	-0.093713
83	0xbc6ee2b4	-0.014580417
84	0xb9467879	-0.00018927631
85	0x3d2dc941	0.04242826
86	0xbd599735	-0.053122718
87	0xbc2bf229	-0.010494747
88	0xbd2639c1	-0.040582422
89	0xbd5efabd	-0.05443834
90	0x3c82203a	0.015884507
91	0x3d8af083	0.06784155
92	0x3ce7f135	0.028313259
93	0xbd0ffc0c	-0.03515248
94	0xbb393ddb	-0.0028265628
95	0xbcf07ea8	-0.02935727
96	0x3dc21c4d	0.09478054
97	0x3cf9203a	0.030410875
98	0xbd583769	-0.05278722
99	0xbd97f20b	-0.07419213
100	0xbd20fde3	-0.039304625
101	0xbd7cddea	-0.06173507
102	0x3cd283f4	0.025697686
103	0xbd133c74	-0.035946324
104	0xbda8654c	-0.08222446
105	0xbcb2dd85	-0.021834144
106	0xbd22cb35	-0.039744575
107	0xbd06ca84	-0.032907978
108	0x3d97da9b	0.074147426
109	0xba89088f	-0.0010454821
110	0xbd70d4ea	-0.0587968
111	0xbd41e969	-0.047341738
112	0x3db73a0d	0.08946619
113	0xbbe13829	-0.00687315
114	0xbceae502	-0.028673653
115	0xbc2a23e1	-0.010384531
116	0x3d1bb2db	0.038012367
117	0x3d9f9c38	0.07793468
118	0xbc53bfc4	-0.012924138
119	0xbbc73069	-0.006078769
120	0xbcec6a5b	-0.028859308
121	0xbd7b5467	-0.06135979
122	0x3d518e80	0.05116129
123	0x3c88a988	0.016682401
124	0x3c241203	0.01001406
125	0x3c889b32	0.016675565
126	0x3cb8dbcf	0.02256575
127	0x3da20248	0.07910591

weight f4 [128, 128]
0	0xbb0ab4bc	-0.0021164855
1	0x3d2343d9	0.039859626
2	0x3bad883c	0.0052957814
3	0x3d0bdba1	0.034145
4	0xbd24b6a1	-0.04021323
5	0x3d55e501	0.05222035
6	0xbd724573	-0.059148263
7	0x3c50cd37	0.0127442395
8	0x3d71f0f1	0.05906767
9	0xbca4fd77	-0.020140393
10	0xbd13ebef	-0.036113676
11	0x3d4a54a5	0.04939713
12	0xbc53cf66	-0.012927866
13	0xbd025017	-0.03181466
14	0xbb669921	-0.0035186487
15	0x3d0d2b0f	0.034464892
16	0x3d764734	0.0601265
17	0xbd12c642	-0.035833605
18	0x3b9dd769	0.0048169387
19	0x3dcaec77	0.09908383
20	0x3d8b05f7	0.06788247
21	0xbd64a7b6	-0.055824004
22	0xbd69e604	-0.057104126
23	0xbbaf8347	-0.0053562257
24	0xbd4e5327	-0.05037227
25	0xbce0b326	-0.027429175
26	0xbc045de9	-0.008079031
27	0xbd18a499	-0.037266348
28	0xbd5b05ad	-0.05347221
29	0xbd146e20	-0.036237836
30	0x3cf34350	0.029695183
31	0xbd8c1a6e	-0.068409786
32	0x3d9e7f8b	0.07739171
33	0x3da8f2a8	0.08249408
34	0x3ccf76a1	0.025325121
35	0xbd35cc5e	-0.044384353
36	0x3cacc588	0.021090284
37	0xbd99d2cf	-0.07510912
38	0x3d2881c8	0.041139394
39	0x3d66a5ce	0.056310467
40	0x3d5f4225	0.05450644
41	0x3d8479c7	0.0646854
42	0x3d5b371b	0.05351935
43	0xbdbc611c	-0.0919821
44	0xbd512497	-0.051060285
45	0xbc397bda	-0.011321032
46	0x3c8875ca	0.016657729
47	0x3d558c64	0.05213584
48	0xbdbe872e	-0.09303127
49	0xbd614654	-0.05499871
50	0x3d0c4aaa	0.034250893
51	0x3d4f4443	0.05060221
52	0x3bf807ea	0.007569303
53	0x3d29f83b	0.041496497
54	0x3da84db0	0.08217943
55	0x3dab8b25	0.08376149
56	0x3c9f7a89	0.019467609
57	0xbd9beef5	-0.07613937
58	0xbd10218d	-0.035188247
59	0xbd5ce791	-0.053931776
60	0xbd69139e	-0.056903474
61	0x3d82c3e9	0.06385023
62	0x3b829b4e	0.003985799
63	0xbd6f5664	-0.058431998
64	0x3d35bf00	0.044371605
65	0xbcfc6d0e	-0.03081372
66	0xbd56a9f2	-0.052408166
67	0xbb7639ff	-0.003757119
68	0xbd5086f5	-0.050909955
69	0xbd4c0181	-0.04980612
70	0xbd56a0c0	-0.052399397
71	0xbd83bc32	-0.0643238
72	0xbd00030c	-0.031252906
73	0x3d50c473	0.0509686
74	0xbd26352e	-0.04057806
75	0x3db6b75e	0.08921693
76	0x3c1bd616	0.009511491
77	0xbcc55ffe	-0.024093624
78	0xbc20fb65	-0.009825562
79	0xbb96ac89	-0.0045982045
80	0x3cb00787	0.021487964
81	0x3d6b4ec8	0.05744818
82	0x3cc85f6d	0.024459565
83	0xbdc8fd90	-0.09813988
84	0x3c18cf15	0.009326716
85	0x3cd73010	0.026268035
86	0xbd895344	-0.06705335
87	0xbd852c30	-0.06502569
88	0x3cfe9d14	0.03108076
89	0xbdb96340	-0.090521336
90	0xbd93c26c	-0.072148174
91	0x3d8ab76b	0.067732655
92	0xbc20ce76	-0.009814849
93	0xbc34f4fa	-0.011044735
94	0x3d40a36e	0.04703086
95	0x3cf93bd7	0.030424042
96	0xbca36e5e	-0.019950088
97	0x3b6773f1	0.003531691
98	0x3d71177e	0.058860295
99	0x3d9f9b7a	0.07793327
100	0xbd204b5e	-0.039134376
101	0xbc7cee83	-0.015437725
102	0x3d63f94e	0.055657677
103	0x3d5e41a5	0.054261822
104	0x3bf1d787	0.007380429
105	0x3cc8821b	0.024476102
106	0x3d8235e0	0.06357932
107	0xbd63781a	-0.05553446
108	0x3b35de18	0.0027750786
109	0x3c2df14f	0.0106166145
110	0xbcb781a5	-0.022400687
111	0xbd412bb7	-0.04716083
112	0xbc5ea79b	-0.013589765
113	0xbdabe2bb	-0.08392855
114	0xbd8b7962	-0.06810261
115	0xbd2b789d	-0.041863073
116	0xbcdb80d6	-0.026794832
117	0xbd75d69f	-0.06001913
118	0x3ca3457a	0.01993059
119	0xbdb79864	-0.08964613
120	0xbc92799f	-0.01788026
121	0xbdae32e0	-0.085057974
122	0x3ca477d7	0.020076675
123	0xbcef9918	-0.029247805
124	0x3aa9a509	0.0012942861
125	0xbcb8c573	-0.022555089
126	0xbda003ab	-0.078131996
127	0x3d66bea7	0.056334164
128	0xbda3e8cd	-0.080033876
129	0x3ccb767a	0.024836767
130	0x3db92790	0.09040749
131	0x3d9c1831	0.07621802
132	0x3db418f7	0.08793824
133	0xbd860809	-0.06544501
134	0x3d56f071	0.052475397
135	0xbce80fdb	-0.028327873
136	0xbd093c07	-0.033504512
137	0xbd834391	-0.06409372
138	0x3dbe4375	0.0929021
139	0x3d3d8fe8	0.046279818
140	0x3c8f39cf	0.01748362
141	0x3d9a1489	0.07523448
142	0xbd50a669	-0.05093995
143	0xbcf8acb2	-0.030355785
144	0xbcd01698	-0.025401399
145	0xbd18d478	-0.037312
146	0x3d0ef957	0.034905758
147	0x3d1ae27f	0.03781366
148	0xbbebd1c9	-0.007196639
149	0x3ce3c30f	0.027802972
150	0xbd95bbd1	-0.07311214
151	0x3d04bf65	0.03240909
152	0xbd5c28de	-0.05374991
153	0x3da4afa2	0.08041312
154	0xbd547a81	-0.05187464
155	0x3d9fff69	0.078123875
156	0xbd24b523	-0.040211808
157	0x3caf8e30	0.021430105
158	0x3c08d977	0.008352629
159	0xbc6f47fe	-0.014604567
160	0x3d7309c1	0.059335474
161	0x3d3ed21d	0.0465871
162	0xbaa94b4c	-0.0012916117
163	0xbaf47fd4	-0.0018653818
164	0xbd61d743	-0.05513693
165	0x3ce8804a	0.028381485
166	0xbce899cb	-0.028393647
167	0x3d58f7f9	0.05297086
168	0xbdbce903	-0.09224131
169	0x3d7bd751	0.06148464
170	0xbd7670af	-0.060166057
171	0xbdb869b2	-0.09004535
172	0x3c340ec3	0.010989848
173	0x3d9fc91a	0.07802029
174	0xbcd80de4	-0.026373811
175	0x3d8c79ce	0.0685917
176	0x3d4045ed	0.046941686
177	0xbcd8cf4f	-0.02646604
178	0xbd65f672	-0.05614323
179	0xbd44ed58	-0.04807791
180	0x3d73cbf3	0.059520673
181	0x3cc1a61c	0.023638777
182	0x3b36b2f4	0.002787766
183	0xbcfd0f71	-0.030891152
184	0x3da34410	0.07971966
185	0x3d81f155	0.063448586
186	0xbdb21709	-0.086958
187	0xbd85857d	-0.065196015
188	0xbd93f867	-0.07225113
189	0x3cb858bd	0.022503251
190	0xbd300a2a	-0.042978443
191	0xbcb4a6b6	-0.02205215
192	0xbd89c8a2	-0.06727721
193	0xbd930a8e	-0.071797475
194	0xbb3392b6	-0.002740068
195	0xbdad180f	-0.084518544
196	0xbcf712be	-0.030160304
197	0x3bf7b1cb	0.0075590364
198	0x3cd61c8d	0.026136661
199	0xbdb85587	-0.09000688
200	0x3c0e184d	0.008672786
201	0x3d970cf8	0.073755205
202	0xbd5ca42a	-0.053867497
203	0xbd1780ee	-0.03698819
204	0x3cd340bb	0.025787702
205	0xbbf989c1	-0.0076152985
206	0xbd31a55f	-0.0433706
207	0x3d424417	0.047428217
208	0xbdaff28e	-0.085911855
209	0xbdb622ad	-0.08893333
210	0x3d5d5b01	0.054041866
211	0x3d07021f	0.032961007
212	0x3c2c0bb4	0.010500837
213	0x3da278a8	0.079331696
214	0xbda10f27	-0.07864218
215	0x3d824205	0.063602485
216	0x3b43d4a7	0.002988139
217	0x3d75c666	0.06000366
218	0x3d1eb9b9	0.038751338
219	0x3cd8c753	0.026462233
220	0xbdafce00	-0.08584213
221	0x3bc96a65	0.0061467164
222	0xbd238ae2	-0.03992737
223	0xbc573ee2	-0.013137551
224	0x3d934651	0.07191146
225	0xbc7c2f86	-0.01539219
226	0xbd2d904b	-0.042373937
227	0xbd05405d	-0.032532085
228	0xbcaed071	-0.021339627
229	0x3d3325c9	0.043737207
230	0x3c33e8ee	0.010980828
231	0x3c0791e2	0.008274527
232	0xbd6721a1	-0.056428555
233	0x3dac0665	0.08399657
234	0xbcca2246	-0.024674546
235	0x3cfa38f3	0.030544734
236	0xbd965fda	-0.07342501
237	0x3d2c6df2	0.04209704
238	0x3d03f164	0.03221263
239	0x3d7fd5ec	0.06245987
240	0x3d317551	0.043324772
241	0xbdc0e17d	-0.094180085
242	0xbd028ba6	-0.03187146
243	0x3d5c3c3f	0.053768393
244	0x3d179d8e	0.03701549
245	0xbcab5b3c	-0.020917527
246	0x3d3c1e9d	0.045927633
247	0x3d9580c1	0.072999485
248	0x3c59db41	0.013296903
249	0x3bfc6533	0.0077024936
250	0x3da407f9	0.08009333
251	0x3d8a1b2d	0.067434646
252	0xbd08eaa8	-0.03342691
253	0xbb7e0eab	-0.0038766067
254	0xbc659cee	-0.014014466
255	0x3d11a227	0.03555503

bias f4 [128]
0	0xbd4deea6	-0.05027642
1	0xbd278cee	-0.040905885
2	0xbcd93e66	-0.026519012
3	0xbd944d1b	-0.07241269
4	0x3dae5ce1	0.08513809
5	0x3d8bafcf	0.06820642
6	0x3c125d16	0.008933326
7	0x3bd1197f	0.006381213
8	0x3d8b9b0c	0.06816682
9	0x3d9a9007	0.07547002
10	0xbcd87b7c	-0.02642607
11	0xbd31ecb0	-0.043438613
12	0x3d44a7ed	0.04801171
13	0xbd6f9b41	-0.05849767
14	0x3d41af00	0.047286034
15	0xbd98c038	-0.07458538
16	0xbd2815cf	-0.041036423
17	0xbba1f358	-0.004942339
18	0xbd50e5b5	-0.051000316
19	0x3cec88ec	0.028873883
20	0x3abce46b	0.0014411336
21	0x3c1a3239	0.009411388
22	0x3d913343	0.070898555
23	0x3d1cd775	0.038291413
24	0xbd77ef81	-0.060531143
25	0xbd5d33ed	-0.0540046
26	0x3cc96f14	0.024589099
27	0xbd2b9deb	-0.04189865
28	0x3d9351e4	0.07193354
29	0x3dbfeb49	0.09371049
30	0xbc8b9244	-0.017037518
31	0xbda31e44	-0.07964757
32	0xbdc146b2	-0.09437312
33	0xbd888103	-0.06665232
34	0xbd9e14a9	-0.07718784
35	0x3d7b054e	0.061284356
36	0xbd61d65e	-0.055136077
37	0xbd930c1c	-0.07180044
38	0x3db9f5d4	0.09080091
39	0xbd885b0e	-0.06657992
40	0x3d8de06e	0.06927572
41	0xbce91ac5	-0.028455148
42	0xbc7809db	-0.0151390685
43	0x3d1e420d	0.03863721
44	0x3d59631a	0.053073026
45	0xbcbf4b97	-0.023351474
46	0x3db6532f	0.08902585
47	0x3d026e98	0.03184375
48	0x3d9736c8	0.073834956
49	0x3d9e0231	0.07715262
50	0xbd627f7d	-0.055297364
51	0x3c78249f	0.01514545
52	0xbd9438bb	-0.07237383
53	0xbd8a913b	-0.06765982
54	0x3c7b7bfd	0.015349385
55	0xbce41a28	-0.027844504
56	0xbd675895	-0.056480963
57	0x3c82a4ed	0.015947783
58	0xbd170979	-0.03687427
59	0xbda15b3a	-0.07878728
60	0x3d1943e3	0.037418257
61	0xbbc563be	-0.006023853
62	0x3d1e28e5	0.03861322
63	0xbd2f4cd1	-0.042797867
64	0xbcaf7bd6	-0.021421354
65	0x3d451681	0.048117165
66	0xbd8830a9	-0.06649906
67	0x3bad81f6	0.0052950336
68	0x3dc67958	0.09691113
69	0x3c68487e	0.01417744
70	0x3d149668	0.03627625
71	0xbd98e5e9	-0.07465727
72	0x3d103ad7	0.035212364
73	0xbdaa670c	-0.08320436
74	0x3da69360	0.08133578
75	0x3c96a2b8	0.018388137
76	0xbd773670	-0.06035465
77	0x3c83d181	0.01609111
78	0x3dc9b6ba	0.098493055
79	0xbd58fdfb	-0.05297659
80	0xba27ca9c	-0.00064007356
81	0x3db7cb08	0.08974272
82	0x3b31d5e8	0.0027135555
83	0x3d54fc8c	0.05199866
84	0x3d77f7ff	0.060539242
85	0xbcafb06b	-0.021446427
86	0x3dbfd1b3	0.09366169
87	0xbccf203b	-0.025283923
88	0x3dcb18c5	0.09916834
89	0xbc8c98a8	-0.017162636
90	0x3ccafc9f	0.024778662
91	0xbdb7bfbe	-0.08972119
92	0x3d14b8f7	0.03630921
93	0xbac50b57	-0.0015033287
94	0xbdad482b	-0.084610306
95	0xbd1d6626	-0.038427494
96	0x3d942d3b	0.072351895
97	0xbdb08f88	-0.086211264
98	0x3ce32b20	0.027730525
99	0x3a6bf0ba	0.00090004096
100	0x3c1b01c3	0.009460869
101	0xbb0a539b	-0.0021106962
102	0x3ba3dc9a	0.005000663
103	0xbcdddc3d	-0.027082557
104	0xbdc3eaaf	-0.09566247
105	0xbca71bcb	-0.020398995
106	0x3d7b583e	0.06136345
107	0xbdbb3ecf	-0.09142839
108	0xbd39bbd3	-0.04534514
109	0xbd863b46	-0.06554274
110	0xbd783090	-0.060593188
111	0xbcdc94f9	-0.026926504
112	0x3d7b0f95	0.061294157
113	0x3d66c9f2	0.056344934
114	0x3d123247	0.03569248
115	0x3d4ad20c	0.049516723
116	0xbdcf17a7	-0.10111933
117	0xbdb78d0a	-0.08962448
118	0x3dbc4622	0.09193064
119	0x3d9ae850	0.07563841
120	0x3d41a7c1	0.047279123
121	0xbdae4688	-0.085095465
122	0xbd980e78	-0.07424635
123	0x3daf6faa	0.0856622
124	0xbd880c5a	-0.06642981
125	0xbc9b687e	-0.018970724
126	0x3cae0ca4	0.021246262
127	0x3dc9ad87	0.09847551

weight f4 [1, 128]
0	0x3c8ebc1b	0.01742368
1	0x3c86d0f4	0.016457058
2	0x3c91c5e4	0.017794557
3	0x3a4fbd36	0.0007924618
4	0xbbd42f3b	-0.006475357
5	0xbbbaf3b5	-0.0057053217
6	0xbc360fb4	-0.011112142
7	0x3b7ac403	0.0038263805
8	0xbc92dfc7	-0.017928971
9	0xbb25db0b	-0.0025307562
10	0x3c5f27f4	0.013620365
11	0xbc77addd	-0.015117136
12	0x3b206bc2	0.002447829
13	0x3c71165e	0.014714805
14	0xba195f19	-0.00058506575
15	0x3c3693d0	0.01114364
16	0x3c9d02d3	0.019166386
17	0x3c44c618	0.01201012
18	0xbc5ddc32	-0.013541268
19	0xbb74f66d	-0.0037378327
20	0x3b404815	0.002933984
21	0x3a9ec096	0.0012111838
22	0xbc46dd6f	-0.012137755
23	0x3c40c2d6	0.0117652025
24	0xbc85c537	-0.01632939
25	0x3c023efa	0.007949585
26	0xbc8d9a1b	-0.017285397
27	0x3c4749c5	0.012163584
28	0x3b9c9e91	0.004779645
29	0xbcd6624b	-0.026169917
30	0x3c7fbc5e	0.015608875
31	0x3bd509ce	0.006501413
32	0x3c3b896f	0.011446341
33	0x3cb59d6d	0.022169793
34	0x3ca63f96	0.020293992
35	0xbbf92c11	-0.00760413
36	0x3c8826be	0.016620036
37	0x3c638c89	0.013888487
38	0xba8a3c61	-0.0010546559
39	0xbc273881	-0.010206343
40	0xbb1e1357	-0.0024120414
41	0x3c728d49	0.014804193
42	0xb9a3f527	-0.00031272435
43	0xbb073c39	-0.002063526
44	0xbce5043f	-0.027956126
45	0xbbe76c5e	-0.007062479
46	0xbc4d2a50	-0.012522295
47	0xbc6c2a8a	-0.014414439
48	0xbc978dc0	-0.018500209
49	0xbc0eba20	-0.008711368
50	0x3c12472a	0.0089281
51	0xbc7ac219	-0.015305066
52	0xbc23387f	-0.0099622
53	0xbb5a00a1	-0.0033264535
54	0x3bbcdd49	0.005763684
55	0x3c8e409e	0.017364796
56	0xbb6bb3e8	-0.0035965387
57	0x3b021f10	0.001985494
58	0xbce84fd1	-0.028358372
59	0x3cd2459b	0.025667956
60	0xbcb539b1	-0.022122236
61	0x3c72a290	0.014809266
62	0xbc04a53d	-0.0080960365
63	0x3b8637ac	0.004095992
64	0x3d2e79f7	0.042596783
65	0xbbef5b39	-0.0073045758
66	0x3c1e042d	0.00964455
67	0xbbe2acc5	-0.0069175684
68	0xbbe715ad	-0.0070521445
69	0x3caa7aba	0.020810474
70	0xbc856cde	-0.016287263
71	0x3bc5e5bf	0.0060393508
72	0x3c6da28b	0.014504085
73	0x3c69fbe5	0.014281248
74	0xbc0b6d57	-0.008509955
75	0x3b9b8e7d	0.0047472105
76	0xbc2459db	-0.010031189
77	0xbb956a9e	-0.004559829
78	0xbcabaa34	-0.020955183
79	0xbca0a5ce	-0.019610312
80	0x3c0f2dab	0.008738915
81	0xbc6dd957	-0.01451715
82	0xbcac6282	-0.021043066
83	0x3aa9e122	0.0012960772
84	0xbbd083db	-0.0063633746
85	0x3c4bce17	0.012439272
86	0xbd00d8df	-0.031456824
87	0x3c4c0276	0.012451759
88	0xbc493a03	-0.0122818975
89	0x3b910f79	0.0044268933
90	0x3bfe83b4	0.007767165
91	0x3cbb437b	0.022859326
92	0xbc553be4	-0.013014767
93	0x3c27f294	0.010250706
94	0xb9eabaf9	-0.00044771263
95	0x3c97c410	0.018526107
96	0xbccf854e	-0.02533212
97	0x3c7afa04	0.015318397
98	0xbcc23d50	-0.023710877
99	0x3c5646b0	0.013078377
100	0xbb9568e8	-0.004559625
101	0xbb257bd2	-0.0025250805
102	0x3c8143c0	0.015779376
103	0x3cad22a1	0.021134676
104	0x3ba050fc	0.0048924666
105	0xbc9a4370	-0.018830985
106	0xbc890d4a	-0.01672997
107	0x3c70d784	0.01469982
108	0xbc853071	-0.01625845
109	0xbbb4397f	-0.005500018
110	0x3cbcbc9a	0.023039151
111	0x3cdbede8	0.026846841
112	0x3bf092a0	0.007341698
113	0xbcceb0ea	-0.025230844
114	0xbbe416ef	-0.0069607417
115	0xbbaffe6d	-0.005370906
116	0x3ccab38a	0.024743814
117	0x3a86536a	0.0010248248
118	0xbc8da2e1	-0.01728958
119	0xbc906074	-0.017624117
120	0x3c99119a	0.01868515
121	0x3c836dc5	0.016043553
122	0x3c0f4942	0.008745493
123	0xbbd768ec	-0.006573787
124	0x3c862839	0.016376602
125	0x3c958513	0.018251931
126	0x3c05fdc9	0.008178183
127	0xbb968b0f	-0.004594214

weight f4 [3, 128]
0	0xbc3816c7	-0.011235899
1	0x3bafce61	0.0053651785
2	0x3b4c2715	0.0031151224
3	0x3bbe705e	0.005811735
4	0xbc2dbb85	-0.01060379
5	0x3b8da2a9	0.004322369
6	0x3c50c653	0.012742597
7	0xbabb9285	-0.0014310634
8	0x3badf338	0.005308535
9	0x3c25bb88	0.010115512
10	0x3ba0eea1	0.0049112593
11	0x3cc63b02	0.024198059
12	0x3c1234ba	0.008923704
13	0xbae00b9a	-0.0017093301
14	0xbbcd5f90	-0.0062674955
15	0xbbe1f7ee	-0.0068960106
16	0x3ae8dc70	0.0017765891
17	0xbb9beac8	-0.0047582127
18	0xbae86374	-0.0017729835
19	0xbb116a7b	-0.0022188711
20	0x3c285afb	0.010275598
21	0x3ba126e4	0.004917966
22	0x3c741731	0.014898107
23	0xbc4d91e4	-0.01254699
24	0xbc6140d2	-0.0137483645
25	0x3bc0386e	0.005866102
26	0x3c070741	0.008241476
27	0x3b9aba24	0.0047218967
28	0xbc2c31b4	-0.010509897
29	0xbc48d504	-0.012257818
30	0xbb6c2468	-0.0036032442
31	0xbad036fb	-0.0015885526
32	0x3bae335d	0.0053161816
33	0xbc04e130	-0.0081103295
34	0x3c8fd333	0.017556762
35	0x3c7a2098	0.01526656
36	0xbad7d9b3	-0.0016468078
37	0x3b836a5b	0.0040104813
38	0x3aa552f4	0.0012613223
39	0xbc8d8e54	-0.017279781
40	0xbb7062c4	-0.0036679963
41	0x39b759b7	0.00034971323
42	0x3bc7d8c7	0.00609884
43	0x3ab610f6	0.0013890553
44	0xbb8cb9af	-0.004294596
45	0x3cc50321	0.024049344
46	0x3c8cda96	0.017194074
47	0xbbda7910	-0.006667264
48	0x3ad78468	0.0016442658
49	0xbb864478	-0.0040975176
50	0xbb91aa42	-0.004445345
51	0x3c9b8767	0.018985463
52	0x3c3ecd90	0.01164569
53	0x3b630714	0.003464167
54	0x3bd2c21d	0.0064318315
55	0x3c223aaf	0.009901687
56	0x3b380d1e	0.002808399
57	0xbb748adc	-0.0037314212
58	0xbc54db3d	-0.012991724
59	0xbb24420e	-0.0025063786
60	0x3a3a6886	0.0007110912
61	0xbc2cba9d	-0.010542539
62	0xbc40d760	-0.011770099
63	0xb9b8dd69	-0.00035260178
64	0xbbba5b35	-0.0056871423
65	0xbbf03561	-0.007330582
66	0xbb51e348	-0.003202634
67	0x3c4c5013	0.012470263
68	0xbaf19912	-0.0018432459
69	0xbb06ba8c	-0.0020557968
70	0x3a825a2b	0.0009945085
71	0xbc56eb91	-0.013117687
72	0x3b3b07bb	0.0028538543
73	0x39cf84b8	0.00039581
74	0xbc3e62ea	-0.011620263
75	0x3c6ff4cc	0.0146457665
76	0xba70af6a	-0.0009181412
77	0x3a22b907	0.0006207381
78	0x3b99261b	0.004673732
79	0xbb92d720	-0.0044812113
80	0x3ada43fe	0.0016652343
81	0xba776b4c	-0.0009438291
82	0x3c3ed5d1	0.0116476575
83	0x3acf8551	0.0015832578
84	0x3ca502f0	0.020143002
85	0xbbea69c0	-0.0071537197
86	0x3c1b73e8	0.009488083
87	0xbc36f5fe	-0.011167048
88	0x3bed5da5	0.0072438293
89	0xbc795cf6	-0.0152199175
90	0x3af5239a	0.0018702627
91	0x3c0bbdba	0.008529121
92	0xbb650fe7	-0.0034952105
93	0xbc55495c	-0.0130179785
94	0x3c5b815d	0.013397542
95	0xbbfd4f20	-0.0077303797
96	0xbc3a84e8	-0.011384226
97	0x3c0f729d	0.008755353
98	0xbb97948e	-0.0046258634
99	0xbb8c42d1	-0.004280426
100	0xbbe6ceb5	-0.0070436844
101	0x3b2694e2	0.002541833
102	0x3c507a16	0.01272442
103	0x3c09e6af	0.008416816
104	0x3c0c4f6c	0.0085638575
105	0x3c2e6735	0.010644724
106	0xbc0fd944	-0.0087798275
107	0x3b8bf66b	0.0042713187
108	0xbb4cc4a1	-0.003124513
109	0x3b83253e	0.0040022423
110	0xbc0c5fbb	-0.008567746
111	0x3b7130cb	0.0036802765
112	0x3b1d749b	0.00240258
113	0x3b9235f4	0.004461998
114	0x380879f4	3.2538504e-05
115	0x3ad86ce3	0.0016511943
116	0x3b6cba59	0.0036121814
117	0x3bd0e315	0.0063747265
118	0xbaa09173	-0.0012250378
119	0xbb91623b	-0.004436759
120	0x3bb52a92	0.0055287564
121	0xb925a36b	-0.00015796504
122	0xba6b90bf	-0.00089861074
123	0xbb485ee2	-0.0030574133
124	0xbc7eb769	-0.015546658
125	0xbc3f4eeb	-0.01167653
126	0x3b73753b	0.0037148732
127	0xbb0d3b8a	-0.002155038
128	0x3b29af4c	0.0025891839
129	0xbb6c78ed	-0.003608282
130	0xbb904972	-0.0044032866
131	0x3c582c7f	0.013194202
132	0x3c0794b3	0.008275199
133	0xbbd46c26	-0.006482619
134	0x3c45120a	0.012028227
135	0xbb7c175d	-0.0038466074
136	0xbb5d414c	-0.0033760844
137	0x3c3639d7	0.0111221885
138	0xbaa8b44b	-0.0012871114
139	0x3c9532a4	0.018212624
140	0x3ad8e042	0.0016546326
141	0xbcb52193	-0.022110736
142	0x3c4ce672	0.012506114
143	0x3c838b56	0.016057651
144	0x3b1e877a	0.0024189637
145	0xbb59c78b	-0.003323051
146	0x3c90d804	0.01768113
147	0xbbb22196	-0.0054361327
148	0xbbaf1054	-0.0053425226
149	0x3c7bad7d	0.015361187
150	0x3bcfd417	0.0063424218
151	0x38e58b83	0.00010945557
152	0x3840ed08	4.599712e-05
153	0xbb49994f	-0.0030761545
154	0x3bf039ff	0.0073311324
155	0xbbfd37c6	-0.007727596
156	0x3c3ce440	0.011529028
157	0xbace1e11	-0.0015725513
158	0x3c6e0c9e	0.014529375
159	0xba876481	-0.0010329635
160	0xbc0c1b10	-0.008551374
161	0xbacbf3c9	-0.0015560325
162	0x3c288e9c	0.010287907
163	0xbbcb2e3c	-0.00620058
164	0xbbae6643	-0.005322249
165	0x3b61101c	0.0034341877
166	0xba50dc92	-0.0007967438
167	0xbc248fc6	-0.010044044
168	0x3c04fd39	0.008117014
169	0x3c5a30ba	0.013317281
170	0x3accafd4	0.0015616366
171	0xbc30fd77	-0.010802618
172	0x3bba3dc9	0.005683635
173	0xbc1f7493	-0.009732383
174	0xbb74fe2d	-0.0037382946
175	0xbb84a4ec	-0.0040479805
176	0xbc773b2a	-0.015089789
177	0x3c08bace	0.008345319
178	0xbb4aba25	-0.0030933705
179	0xba872b12	-0.0010312519
180	0x3bbbcba2	0.005731062
181	0x3beb6bca	0.0071844803
182	0x3ba98a0c	0.005173927
183	0x3c026622	0.007958921
184	0xbbea6f77	-0.007154401
185	0x3980fdd3	0.00024603176
186	0xba9de10c	-0.0012045219
187	0x3b616d26	0.0034397333
188	0x3b877876	0.004134233
189	0x3c078fcc	0.00827403
190	0xbb87dddf	-0.004146322
191	0xbc11e2b6	-0.00890415
192	0x3c61612c	0.013756078
193	0x3c4da910	0.012552515
194	0x3b4e6a52	0.0031496477
195	0xbc23a57f	-0.009988188
196	0xbb1d8792	-0.0024037105
197	0x3be362b3	0.006939256
198	0xbbebdc06	-0.0071978597
199	0x3baf297a	0.0053455206
200	0xbb8e4d1f	-0.0043426896
201	0xbc98ea8a	-0.018666524
202	0x3c63d3dd	0.013905493
203	0x38dcd29c	0.000105296465
204	0x3b9280b9	0.0044709113
205	0x3a99bc58	0.0011729104
206	0xbb334b91	-0.0027358274
207	0xbc4e7f20	-0.012603551
208	0x3c212dfd	0.009837625
209	0x3a5ec369	0.00084977463
210	0xbc24249d	-0.010018495
211	0x3afb17e6	0.0019156903
212	0x3c7a715c	0.015285816
213	0x3b3a4389	0.0028421602
214	0x3c200b95	0.009768386
215	0x3a1dc5da	0.0006018557
216	0x3a5e0a5a	0.00084701704
217	0xbca4aff6	-0.020103436
218	0x3bfabc21	0.0076518212
219	0xbbd06b38	-0.0063604377
220	0x3b9dc290	0.0048144534
221	0x3c12e478	0.008965604
222	0x3b6f0b9d	0.0036475428
223	0x3bfb4d75	0.0076691457
224	0xbc088fa4	-0.008335028
225	0x3c361d2f	0.011115356
226	0x3b513a36	0.0031925566
227	0xbc368edc	-0.011142459
228	0x3a97180d	0.0011527553
229	0x3bc51ea5	0.006015616
230	0xbc48d69b	-0.012258197
231	0x3c03e57f	0.008050322
232	0x3a949263	0.001133513
233	0xbb06a8f7	-0.0020547488
234	0x3b5ddf2f	0.0033854952
235	0xba79534f	-0.000951101
236	0xbb1faf3d	-0.0024365925
237	0x3c6e8dbe	0.014560161
238	0x3c9fa2a8	0.01948674
239	0x3b9b5a6e	0.0047410047
240	0x3bf9bcce	0.007621384
241	0x3c10b40a	0.008831987
242	0x3b8062e7	0.00391804
243	0x3c5b9ad3	0.013403612
244	0xba1731a2	-0.0005767589
245	0xb991cdb6	-0.00027809822
246	0xbc475a58	-0.012167536
247	0x3c253a77	0.01008474
248	0x3bba54ae	0.005686364
249	0xbc563a78	-0.0130754635
250	0xbaaa8bed	-0.0013011672
251	0xbb82973f	-0.003985315
252	0xba05a4c2	-0.0005098098
253	0xbbe23399	-0.0069031236
254	0xbc90994c	-0.017651223
255	0x3b1a8978	0.0023580473

bias f4 [3]
0	0x3a956572	0.0011398031
1	0x3b418302	0.002952755
2	0xbb356502	-0.0027678614

weight f4 [1, 128]
0	0x3c44ac10	0.0120039135
1	0x3ccb7b76	0.024839144
2	0x3c76fc3f	0.015074789
3	0x3c85a8e1	0.01631588
4	0xbc4d5d4a	-0.012534449
5	0xbcae83b3	-0.021303033
6	0xbbcd57f2	-0.0062665874
7	0x3c94cc65	0.01816387
8	0xbce51bbf	-0.027967332
9	0x3bc3ed43	0.0059792115
10	0x3c5f7efb	0.013641114
11	0xbcaffd5c	-0.021483116
12	0x3cd4d488	0.025980249
13	0x3c398ad5	0.011324604
14	0x3c0f3a02	0.0087418575
15	0x3c2627c4	0.010141317
16	0x3c368137	0.011139206
17	0x3baf1b2f	0.0053438167
18	0xbc4a0345	-0.012329881
19	0x3c6ab0c9	0.014324375
20	0xbc38bbcf	-0.011275246
21	0x3c8c7be1	0.017148914
22	0xbc5f6bc0	-0.013636529
23	0x3c8bf777	0.017085774
24	0xbacce1d3	-0.0015631266
25	0x3c12d9ae	0.008963032
26	0xbc750d36	-0.014956763
27	0x3ca3a831	0.01997766
28	0xbad5f9b4	-0.0016325028
29	0xbc570a3e	-0.0131250005
30	0x3c50fb6c	0.012755256
31	0x3cab3c56	0.020902794
32	0x3c029493	0.007969993
33	0x3d01c4a2	0.031681664
34	0xbb86c84f	-0.004113234
35	0x3bd6fe14	0.00656105
36	0x3cdffea8	0.02734311
37	0x3c4be56c	0.012444835
38	0xbc9a1134	-0.018807031
39	0xbc968618	-0.018374488
40	0x3b8ce94d	0.0043002726
41	0x3bf8daa6	0.0075944243
42	0x3b65865e	0.0035022716
43	0x3c4c2db8	0.012462072
44	0xbcb0d7f0	-0.021587342
45	0xbc67ad64	-0.014140461
46	0xbc1210da	-0.008915151
47	0xbc5ec854	-0.013597567
48	0xbc3900be	-0.011291681
49	0xbc85c994	-0.016331472
50	0x3bbc3cb1	0.0057445397
51	0xbc25a92d	-0.010111135
52	0xbc94ca50	-0.018162876
53	0x3c8b5a1c	0.017010741
54	0x3c8f83e2	0.017518941
55	0x3bfe6b65	0.0077642673
56	0x3aac6376	0.00131522
57	0xbc395ed4	-0.011314113
58	0xbc040b23	-0.008059296
59	0x3c3a67e6	0.01137731
60	0xbcba87a0	-0.02276975
61	0xbc8093bf	-0.01569545
62	0xbc12269e	-0.00892034
63	0x3c46feed	0.01214574
64	0x3c1ff335	0.009762575
65	0xbca11f10	-0.019668132
66	0x3c381dfb	0.011237617
67	0x3b5cfc07	0.0033719556
68	0xbc183f82	-0.009292485
69	0x3ca1c490	0.019747049
70	0xbcded591	-0.027201446
71	0xba6f3295	-0.0009124664
72	0x3b9e215b	0.0048257536
73	0x3a9022bb	0.0010996679
74	0xbc8d3d99	-0.017241286
75	0x3c94a0ab	0.018143019
76	0x3c80aead	0.015708292
77	0xbc552c9a	-0.013011122
78	0xbbf590f2	-0.0074940855
79	0x3bdd4ad1	0.0067533036
80	0x3c2d78cc	0.010587882
81	0xbbd73aa0	-0.006568268
82	0x3b1a50ba	0.0023546652
83	0xb9ca6b84	-0.00038608548
84	0xbc513c38	-0.012770705
85	0xbb0d9c8f	-0.0021608209
86	0xbc62041f	-0.013794928
87	0x3c7b9715	0.015355845
88	0xbc8b63f6	-0.017015439
89	0x3c291c69	0.010321715
90	0xbac36e6d	-0.0014910229
91	0x3ceaced1	0.02866307
92	0xbb412a0c	-0.0029474525
93	0x3b9a8270	0.0047152564
94	0x3c3526ef	0.011056646
95	0x3c0ac832	0.008470582
96	0xbc986185	-0.018601188
97	0x3b84a8b6	0.004048432
98	0xbcc39355	-0.023873964
99	0x3c784427	0.015152968
100	0xbca7bd22	-0.020475928
101	0xbc597d34	-0.01327448
102	0x3bbf6a36	0.0058415188
103	0x3cd1d940	0.025616288
104	0x3cc743f9	0.024324404
105	0x3c5c9b6c	0.01346479
106	0xbcb36448	-0.021898404
107	0x3bb48806	0.0055093793
108	0xbb112218	-0.0022145566
109	0xbc3401f0	-0.01098679
110	0x3cc16333	0.023606872
111	0x3c2260be	0.00991076
112	0x3b883592	0.0041567767
113	0xb9ad6fdd	-0.00033080476
114	0xbc308072	-0.010772811
115	0xbc9145bf	-0.017733453
116	0x3c59f83a	0.013303811
117	0x3c409bfc	0.01175594
118	0xbbd6586d	-0.006541303
119	0xbc53819e	-0.012909321
120	0x3ce3093f	0.02771437
121	0xba846576	-0.0010101038
122	0x3ca3b5df	0.019984184
123	0xbc4ad9b2	-0.012381004
124	0x3be6cfb5	0.0070438036
125	0x3c74f7cc	0.0149516575
126	0x3c8093c2	0.015695456
127	0xbc8accd7	-0.016943378
