TradeSimulator-v0_D3QN_-1/actor_00388680.pth (torch, 151866 bytes, 14 tensors)

state_avg f4 [10]
000000 c6 43 86 3e 9c 67 76 3a ae ee e4 bb 6c 28 6e 3e
       0.26223582 0.0009399594 -0.0069864606 0.23257607
000010 39 67 5a 3b c9 30 25 bc a7 00 a5 bd a5 69 9e 3e
       0.0033325686 -0.010082432 -0.08056765 0.30939975
000020 24 0c 9d 3b be 78 a3 bc
       0.004792707 -0.019955035

state_std f4 [10]
000000 3c 5e 51 3f 5b be 2a 3f 8e 72 59 3f 33 18 69 3f
       0.81784415 0.6669671 0.8494042 0.9105255
000010 93 86 49 3f c8 4b 3e 3f 4d 5e 7e 3f 26 10 4d 3f
       0.7872097 0.74334383 0.9936264 0.80102766
000020 4a 93 46 3f 25 ff 3e 3f
       0.77568495 0.7460807

weight f4 [128, 10]
000000 8e c2 2d 3e fa bf 35 3b f2 65 5c bd f3 68 32 3e
       0.16968748 0.0027732835 -0.05380816 0.17422847
000010 8c 2b 98 be 6b 23 5e 3e 8c 63 a8 bd 3a e7 2f 3e
       -0.29720724 0.21693198 -0.08222112 0.1717805
000020 67 b7 16 3d 28 05 11 bd 3f 2b c2 3d 19 9b d1 3e
       0.036796 -0.035405308 0.09480905 0.40938643
000030 08 f9 03 3e 75 b1 f2 bd 21 25 2b bd 1b 10 19 bd
       0.12887967 -0.118502535 -0.041783456 -0.037368875
000040 66 59 32 3d 81 69 31 b9 ec 80 88 3e c7 7f ee 3d
       0.04354229 -0.00016919339 0.2666086 0.11645465
000050 cd cf f0 bd 92 47 f9 be 47 08 85 bd 4f d1 10 be
       -0.11758385 -0.48687416 -0.064957194 -0.14142345
000060 3e 36 df bd 33 14 86 3b d6 b5 45 3e 4c 0c 34 3e
       -0.10899018 0.0040917634 0.19307646 0.17582816
000070 92 bb 8a be e4 93 3b 3e a0 73 ae 3d bb 6c e4 3b
       -0.2709623 0.18318135 0.085181475 0.0069709695
000080 6e 6d 67 3e 49 3c 99 be 59 d6 7a be 96 3b 1b be
       0.22600338 -0.29928806 -0.2449583 -0.15159449
000090 61 9b 94 3e b4 b3 60 bd ce 5b 08 3e 62 0b ed bd
       0.29024795 -0.05485888 0.1331627 -0.11574437
0000a0 c9 15 9c 3e ce e5 03 bf f3 f6 5e 3e 1b 1e a9 3c
       0.3048537 -0.5152253 0.21773891 0.020644238
0000b0 5b 34 20 be 3f bf 25 3e 3b 33 3d be a9 6b e1 3d
       -0.15644972 0.16186236 -0.18476574 0.11006863
0000c0 8f 9f af bd 43 5a 20 bd 05 84 a6 be 84 c5 77 be
       -0.08575355 -0.03914858 -0.32522598 -0.2419644
0000d0 12 04 2a 3e 6b fe ce bd bb 8e a0 3e 3d cc 5d 3e
       0.16603115 -0.1010712 0.31358895 0.21659942
0000e0 e5 69 c1 bc 38 36 35 be ac e4 42 3e 7e 97 9d 3d
       -0.023610065 -0.17696464 0.19032544 0.076949105
0000f0 77 96 4c be 78 b9 4e be d1 6f 3d 3e 36 94 98 3e
       -0.19979273 -0.20187938 0.18499686 0.29800576
000100 24 f1 30 be 3c e1 7e bd 82 46 fb bb 88 aa 31 3d
       -0.17279488 -0.06222652 -0.0076683173 0.043375522
000110 ea 23 66 be 1e f9 4e be 50 df 39 3e d0 4a c8 be
       -0.22474638 -0.20212218 0.18151593 -0.39119577
000120 d8 88 12 3e 8f 2b b4 3c 30 47 ca 3d aa f4 52 3d
       0.14310014 0.021993427 0.09876859 0.05150286
000130 dc 8a cd 3d 24 5a 2f 3e 5a 87 86 be 7a 2e 0c 3e
       0.10036251 0.1712423 -0.2627514 0.13689604
000140 cb 7d 74 be 8d 4b 48 be 4e c7 cf 3c 37 66 5c bd
       -0.23876111 -0.1956007 0.02536359 -0.053808417
000150 ca 46 3f 3e 9a c3 4f be da 54 88 be 7c 4e 74 3e
       0.18679348 -0.2028946 -0.26627237 0.23858064
000160 3f 80 6c bd 19 19 4a 3e c4 bd c5 3d 0c 41 24 bf
       -0.057739493 0.19736136 0.096553355 -0.64161754
000170 98 da 7d 3d d2 90 a0 3d 53 16 5b be 78 eb 18 be
       0.061976045 0.07840122 -0.21395235 -0.14933574
000180 e0 e1 db 3d 52 41 86 3d 89 ea 12 be ea 58 c6 bd
       0.107364416 0.065554276 -0.1434728 -0.09684928
000190 43 b2 95 3e db b0 b3 be b1 42 36 3e ac e0 02 3e
       0.29237565 -0.35095868 0.17798878 0.12781018
0001a0 60 c8 32 be 75 ce 84 be 64 8e 9b 3e 91 35 8b 3c
       -0.1745925 -0.25938764 0.30382073 0.016993316
0001b0 e8 cd 52 3e 43 06 3b 3d 20 65 c5 3d f4 ca 95 bd
       0.2058636 0.04566027 0.09638429 -0.07314101
0001c0 21 39 93 3e 0a df 52 be bb 18 4a 3d fd ee 64 3e
       0.28754523 -0.20592895 0.04933999 0.22356792
0001d0 8e a0 74 3e 03 d0 55 3e 91 a5 3a be 17 91 4f be
       0.23889372 0.20880131 -0.18227221 -0.20270191
0001e0 e7 aa 3c be 9a d4 91 be 80 25 97 3e c4 80 52 be
       -0.18424569 -0.28482515 0.29520798 -0.20556933
0001f0 c9 37 29 3e e9 76 18 be c7 6f 97 be dc 19 84 bd
       0.16525187 -0.1488911 -0.29577467 -0.06450245
000200 bf 01 30 3e ad 31 91 3e 59 6e 3e be 10 e8 0e 3e
       0.17188166 0.28358212 -0.18596782 0.13955712
000210 ba 69 83 3e af d0 52 3e 6f fe 4a 3e 61 30 80 3e
       0.256666 0.20587419 0.19823621 0.2503691
000220 27 b9 53 3e f9 fb d9 3d ba 65 36 be b6 3b 82 be
       0.20676099 0.10643763 -0.17812243 -0.2543618
000230 6e 80 10 be 2d 32 85 bc c7 fe 42 be 7e 7f fd 3d
       -0.14111492 -0.016259277 -0.19042502 0.12377833
000240 e0 e9 a7 3d e2 03 79 bd 85 48 e5 3d b6 ad b7 3d
       0.08198905 -0.06079472 0.11195473 0.089686796
000250 c5 fd 42 3e 3f f1 2f 3e 0f 4b e2 bd 40 83 cf bd
       0.19042118 0.17181872 -0.110494725 -0.10132456
000260 91 be 39 bd 39 8a 25 bc f1 c4 8e be f4 33 3b be
       -0.045347754 -0.010103756 -0.2788463 -0.18281537
000270 aa b6 49 be 10 ab 13 be da 6e 5e 3e 68 f4 d8 bd
       -0.19698587 -0.14420724 0.21721974 -0.10593492
000280 6b 1e 7c be f9 51 e6 3d 35 84 cb 3d d3 77 49 3e
       -0.24620979 0.11246104 0.09937326 0.19674616
000290 9d e3 25 be 6a 23 59 3d c0 2c ce bd cc 70 9d bd
       -0.16200109 0.05301229 -0.10067129 -0.0768753
0002a0 6e 3c 83 be 9c 5c 1f be b7 29 b8 bd 96 e6 02 be
       -0.25632042 -0.15562671 -0.089923315 -0.12783274
0002b0 21 cc 81 3d be cc ab 3d 34 44 9f 3e 26 21 8c 3e
       0.063377626 0.08388661 0.31106722 0.2736904
0002c0 7f 3c 7d 3e a9 54 21 3c 3b a4 4b be 68 e4 64 3e
       0.24730109 0.009846845 -0.19886868 0.22352755
0002d0 a6 0c 9d bd 42 fb d5 be 38 27 82 be 5d 6c 76 bd
       -0.07668428 -0.41793257 -0.25420547 -0.060161937
0002e0 2d 12 3a be bc d1 70 3e a1 51 99 be 90 88 81 be
       -0.18170996 0.23517507 -0.2994509 -0.252995
0002f0 5e 4f 1b bc b6 3c 2b be 5c 2f ec 3d 11 fb 5d be
       -0.009479372 -0.16722378 0.115324706 -0.21677805
000300 bf ee 18 be 3b e7 77 3c cb 0a 60 3e d4 8e 50 be
       -0.14934824 0.015130813 0.21879117 -0.20366985
000310 60 1a 22 3e 3b db 51 3e 1d 54 91 3e c5 56 74 be
       0.15830374 0.20493786 0.28384486 -0.23861225
000320 c8 55 be 3d b3 8e d5 3d 47 1c 8f 3e 17 fa d4 bd
       0.09293705 0.10427608 0.2795126 -0.10399263
000330 27 9e 4f 3e 61 92 2b bc a5 eb a5 bc 66 d9 14 3b
       0.20275174 -0.010471911 -0.020253966 0.0022712587
000340 36 63 4f 3d f3 4a 17 3e 34 84 5a 3d 2d da 58 be
       0.050631724 0.14774685 0.053348735 -0.21176977
000350 77 e8 80 be c4 b2 7f 3e 67 e4 6e 3e 30 b4 5b 3e
       -0.25177357 0.24970537 0.23329316 0.21455455
000360 27 d8 81 3e a0 66 68 be 48 2a e0 bd 5c a7 8c 3e
       0.25360224 -0.22695398 -0.109455645 0.27471435
000370 02 e9 6c be 77 e8 f2 bc 10 fc 7d be fe 13 70 be
       -0.2313576 -0.029651864 -0.24803185 -0.23445126
000380 68 6d 1c 3e c6 67 4d be 1c c3 ae bd 7a 68 78 3e
       0.1527611 -0.20059118 -0.08533308 0.24258605
000390 e0 84 86 3e 87 65 8f 3e e5 71 4d bd e0 f9 30 bf
       0.2627325 0.28007147 -0.050157446 -0.6913128
0003a0 a4 6c 94 3e fb ac 7c bd d2 a7 ea bd 6a 5b a9 3d
       0.28989136 -0.061688405 -0.114577904 0.08269389
0003b0 6c ad 6c be d0 cf 69 3e af 5f 3f 3e 12 fa 84 be
       -0.2311303 0.2283318 0.18688844 -0.25972039
0003c0 93 d6 88 be 42 15 2a be 75 2f de 3d a6 10 34 3c
       -0.26726207 -0.16609672 0.108488955 0.010990297
0003d0 a5 b9 06 be 38 15 dc 3c 35 cd a0 be 94 14 5d be
       -0.13156755 0.026865587 -0.3140656 -0.21589881
0003e0 78 46 66 be 07 dc 5e 3e d1 8d 90 3e a6 0c b6 be
       -0.22487819 0.21763621 0.28233197 -0.35556525
0003f0 11 dc 0f 3c b1 20 18 3e 0e 94 17 3d 0e 4d 25 be
       0.008780495 0.14856221 0.03700643 -0.16142675

bias f4 [128]
000000 8a a2 e3 3c 3d 35 d3 bb e1 39 79 3d c9 dd 6a ba
       0.027787466 -0.0064455555 0.060846213 -0.000895944
000010 01 77 41 3e 6a 70 c8 3b 7c ea 6a 3e 73 f5 b6 3d
       0.18893053 0.0061169164 0.22941011 0.089335345
000020 66 eb 04 3c 99 5f 6e 3d 59 d9 6f 3e 5c 9a 81 3d
       0.008112764 0.058196638 0.23422755 0.0632827
000030 75 01 71 3e 2f 5f 81 bc f9 dc 8d 3b 74 22 8c 3e
       0.23535712 -0.015792457 0.0043293205 0.27370036
000040 04 0a 9b be e2 65 43 3d 89 a7 9a 3e 2a 5e 19 be
       -0.3028108 0.047704585 0.30205944 -0.14977327
000050 9f 31 3e bd eb 7b 27 bb 79 e0 f3 3d be 9a 13 3e
       -0.04643404 -0.0025556039 0.11908049 0.14414498
000060 e4 cf b1 3d 08 92 06 3e 56 8b 01 be 3a 97 18 3e
       0.0868223 0.13141644 -0.12650809 0.14901438
000070 57 d3 c7 bd f6 31 61 3e aa 68 9e bd 13 ef 89 be
       -0.09757107 0.21991715 -0.07734807 -0.26940212
000080 0b f5 24 3d 0b 01 49 3e 3f 56 6f bb 02 85 05 bc
       0.040272754 0.19629304 -0.0036519913 -0.008149387
000090 69 c9 00 3c 07 98 3a 3e af bd aa 3c 21 86 9b be
       0.00786052 0.18222056 0.020842401 -0.3037577
0000a0 59 34 6a be e4 54 06 3d ca f2 02 bc 65 e3 a7 3e
       -0.22871532 0.0327958 -0.007992456 0.32790676
0000b0 48 8d 3c bd bb c2 7b 3e 1d 8e 7e be ed 72 9b be
       -0.046033174 0.24586003 -0.248589 -0.3036112
0000c0 01 64 63 bc 53 66 5c be 7e 3f b2 bd bb f2 02 3d
       -0.013878823 -0.21523409 -0.087035164 0.031969767
0000d0 3a 72 84 be 39 47 74 3e 67 3a 34 be d5 81 86 3e
       -0.25868398 0.23855294 -0.17600404 0.2627093
0000e0 00 a3 d4 3d 27 d4 39 bd 8c 43 88 be de 7a 3f 3d
       0.10382652 -0.04536834 -0.26614034 0.046748035
0000f0 2c e0 29 be 6e ac 93 3e 2f 40 85 be d9 23 ad bd
       -0.16589421 0.2884249 -0.2602553 -0.08454103
000100 5c 11 20 be 07 ea 43 be e6 f9 44 be 20 92 81 bc
       -0.15631622 -0.19132243 -0.19235954 -0.015816748
000110 34 9b b1 3c de 58 a2 3d 2c 4b 31 3e 83 75 e5 bd
       0.021680452 0.07927106 0.17313832 -0.11204054
000120 cb 61 60 be c1 30 7c bd 68 ae a2 3e 82 74 1f bd
       -0.21912305 -0.061569933 0.31773686 -0.03892947
000130 08 8c 8b be 09 86 87 3e a4 4f 8a 3d 54 72 a4 3d
       -0.27255273 0.26469448 0.067534715 0.08029619
000140 39 b6 82 3d d6 51 68 3e e6 f3 14 be d1 c6 7f 3e
       0.063824125 0.22687468 -0.14546165 0.24978186
000150 15 87 a5 3e fe 08 91 bd 68 d1 61 3e 78 df 46 3e
       0.32329622 -0.07081793 0.22052538 0.19421184
000160 e0 fa a1 3e 4f b4 87 bd 64 d0 49 be 78 62 df bd
       0.31636715 -0.06626188 -0.19708401 -0.10907453
000170 c2 13 53 be 19 82 c9 3c 39 e5 a6 3e 1d 4e a6 3e
       -0.20613006 0.024598168 0.32596758 0.3248147
000180 ce 39 76 3e 32 11 2c 3d 43 22 c1 3c d3 66 59 3e
       0.24045488 0.042008586 0.023575908 0.2123063
000190 35 cc 55 3e 2f 72 02 bd c2 6d a9 bd 72 63 0b 3e
       0.2087868 -0.031847175 -0.08272888 0.13612154
0001a0 6a 50 8b 3c 09 d1 4d be ba e4 1b be c6 ac 89 3e
       0.017006118 -0.20099272 -0.15223971 0.26889628
0001b0 56 a9 8e 3e fc 92 e4 bd d6 2a 71 bd db 13 1e be
       0.27863568 -0.111608475 -0.058878742 -0.15437262
0001c0 73 10 cc bd 21 85 99 3e bc bf a2 be 96 f0 18 3e
       -0.09964075 0.29984382 -0.31786907 0.14935526
0001d0 0e 86 93 be 16 5d 12 be 5b 46 47 bd c2 08 b8 3c
       -0.28813213 -0.14293322 -0.04865108 0.022465114
0001e0 4a 02 19 bd 3e dc 1b be 7a e5 08 be 61 9d 52 be
       -0.0373557 -0.15220734 -0.13368788 -0.20567848
0001f0 33 0e 64 be c6 7b 49 be db a6 a7 3e bd e4 05 be
       -0.22271042 -0.19676122 0.32744488 -0.13075538

weight f4 [128, 128]
000000 8a be ae bd 92 de 89 3d b6 0a 26 3d b1 82 8e 3d
       -0.08532436 0.06731905 0.04053756 0.06958521
000010 91 ba ae bd e7 9c 9c bd 1c 2a 7c bd 8b 35 4b bd
       -0.085316785 -0.07647114 -0.061563596 -0.04961161
000020 8f 0a 6b bc 78 24 3f 3d c6 fc 67 3d 0f 7c 82 bd
       -0.014345779 0.04666564 0.056637548 -0.063713185
000030 fa f3 07 3d 87 3f 25 bd ea 6e 2b 3c 46 d1 26 3d
       0.03319166 -0.040343788 0.010463456 0.040726922
000040 33 39 86 3c 60 be ff 3c 24 dd 19 39 e7 82 5d 3d
       0.016384697 0.031218708 0.00014673598 0.054079916
000050 f5 38 a1 3c 9f e4 a5 3d 6d be 73 3c 73 37 21 bd
       0.01968048 0.08100247 0.014876944 -0.03935952
000060 99 5b 43 3d 5a b3 0d 3b 3b e1 c0 3d 2b 23 56 bc
       0.047694776 0.0021621794 0.09417959 -0.013069908
000070 62 0c a1 3d b2 6c 5e bd bf 56 26 3d 32 f8 81 bd
       0.0786369 -0.05430288 0.04061007 -0.063461676
000080 82 28 63 3d ec 33 b9 3c 1f 85 84 3d 55 98 9b bd
       0.055458553 0.022607766 0.06470703 -0.075974144
000090 5b 92 b6 bd 92 b3 27 3d d7 ed b0 bc 7d c4 16 3d
       -0.08914634 0.040942736 -0.021597786 0.03680848
0000a0 e8 8d 4b bd 9b 42 c7 bc 95 0e b0 3c 29 a1 5e 3d
       -0.04969588 -0.024323752 0.021491328 0.054352913
0000b0 72 73 0f 3d 0d a6 75 3b 37 90 fc bc 19 aa 5a 3c
       0.035022207 0.0037483007 -0.030830486 0.0133462185
0000c0 6e 79 e1 3c 54 34 84 bd 50 8d 9b bc 39 bb b0 bd
       0.027523722 -0.06455293 -0.018988281 -0.0862946
0000d0 57 98 8c 3b 71 71 ef bb 47 50 54 3d c2 95 ae 3d
       0.0042906213 -0.0073072244 0.05183437 0.08524658
0000e0 02 db 8d bd fd b4 fc bc c1 40 63 bd af 44 75 38
       -0.06926538 -0.03084802 -0.055481676 5.847652e-05
0000f0 f8 55 2b bd b8 84 70 bd 28 e9 12 bd 1c 89 eb bb
       -0.041830033 -0.05872032 -0.035866886 -0.0071879756
000100 9c ea 4e 3d 33 07 c2 bc f8 6b 81 3d 40 b2 8d bd
       0.05051671 -0.023685073 0.063194215 -0.06918764
000110 7e 6d d6 3b 12 52 62 bd 4c ec ba bd 2e 29 42 3c
       0.006543814 -0.05525405 -0.09127101 0.011850638
000120 97 69 26 bd 76 da 87 3d 74 f7 85 3d ff c6 9b bd
       -0.040628042 0.06633465 0.065413386 -0.07606315
000130 5a eb 6d 39 11 6a c7 bb e1 2a 30 bd c0 8f 2c bd
       0.00022689757 -0.006085642 -0.043009643 -0.04212928
000140 8b b5 41 bd 02 26 48 3d 3d 6a 0e 3c f0 82 8c 3d
       -0.047292273 0.048864372 0.008692321 0.06860912
000150 a0 83 1c bc c3 05 32 3d 7c d2 81 3c dd eb a1 bc
       -0.009552866 0.043462526 0.015847437 -0.019765789
000160 3f b6 61 bc e0 70 b6 bd b9 71 91 bc cc 15 cd bc
       -0.013776361 -0.08908248 -0.017754423 -0.025034808
000170 ba 7d 46 bd be 4e ea bc 86 ad 20 bd bc 15 86 bd
       -0.048459746 -0.028602 -0.039227985 -0.06547114
000180 35 38 3b 3c e4 44 02 bb 1f 4e e9 bc cc f9 b7 3d
       0.011426975 -0.0019877488 -0.028479634 0.08983192
000190 b4 04 94 3d c8 bf 2c 3d 59 69 3e bd 82 38 38 bb
       0.072274595 0.042175084 -0.046487186 -0.0028109853
0001a0 1f de 99 bd f7 5c 74 3d 59 e7 96 3d 8a cf 43 bc
       -0.07513069 0.05965897 0.07368345 -0.011951337
0001b0 28 12 7d 3d 98 28 9a 3d 76 8b 4f bc 27 76 10 bd
       0.061784893 0.07527274 -0.012667527 -0.03526893
0001c0 69 e4 25 bc 2a 5d 4b 3c 2e ab a3 bd c4 6f 21 3c
       -0.010125258 0.012412349 -0.07991634 0.009853307
0001d0 d8 3c f5 bc e7 32 84 3d bb a5 f7 bc 6f b6 8c 3d
       -0.02993624 0.06455021 -0.030230394 0.06870734
0001e0 7e d2 6b 3d 13 71 d7 bc 25 94 00 3d 41 ac 7a bc
       0.057573788 -0.026299035 0.03139128 -0.015299858
0001f0 9c b7 00 bd f9 6b 1b bd 96 2e c2 3b bf 60 de 3c
       -0.031425104 -0.037944768 0.0059259636 0.027145742
000200 82 23 34 bc 4a 8b 47 3c 68 07 78 3d 98 4a 24 3d
       -0.010994794 0.012179205 0.06055394 0.0401102
000210 55 a8 2e 3d 0c 0c fa 3c df 28 7b bd 6c c5 52 bd
       0.042641003 0.030523323 -0.061318275 -0.051457807
000220 ef bb 79 bd 0c df 82 3d 51 15 99 bd 04 27 7b bd
       -0.060970243 0.06390199 -0.07474769 -0.061316505
000230 e6 b6 6e 3d b5 5a 5a 3d 3e 44 a3 bd 81 20 63 3d
       0.058279894 0.05330916 -0.079720005 0.05545092
000240 24 6e c2 bc 72 c8 9b 3c 6f fd 40 bd a9 ae 5c bc
       -0.02373416 0.019016478 -0.047116693 -0.013469377
000250 35 af 8b 3c b4 7b 88 3d f9 50 66 3d 9d 50 29 bd
       0.017051319 0.066642195 0.056229565 -0.041336644
000260 1a 85 6b bd 19 66 4c 3a 26 e1 e9 3c cd 27 6e 3d
       -0.057499982 0.0007797196 0.028549742 0.058143426
000270 c4 b0 ad bd c8 e0 2a 3b a4 33 40 3c fc 9d 32 bd
       -0.08480981 0.0026073921 0.011731062 -0.043607697
000280 e6 61 9f 3d bc 4c 69 bc e8 07 9d bd 32 c8 41 bd
       0.077823445 -0.014239486 -0.076675236 -0.04731006
000290 70 a2 b7 3b 70 12 67 bd 30 50 b4 3c 0d ca 9c 3d
       0.005604081 -0.056414068 0.022010893 0.07655726
0002a0 ce 24 39 3c 2c 55 37 bc 49 31 be 3d c5 79 96 3d
       0.011300279 -0.01118974 0.09286744 0.073474444
0002b0 5e 9e 80 3d 66 7a 6c 3c 30 6a 1d 3c b1 ec 78 bd
       0.06280206 0.014433479 0.009607837 -0.0607726
0002c0 be 99 7d 3c 86 75 c4 3d a6 5b 42 3c de 1a 95 bd
       0.0154785495 0.09592728 0.011862671 -0.07280515
0002d0 3c e2 10 3d 66 50 aa 3d d5 c7 a6 3d 81 b2 62 3c
       0.035372004 0.08316116 0.08143584 0.013836504
0002e0 53 4a c9 3c 4d 10 ab 3c 9e fe 13 bd 0a 4d 3c bc
       0.024571573 0.020881796 -0.036131494 -0.011492977
0002f0 42 ad 86 3d 0f e2 94 3c 4b 49 a7 3d 9b c2 83 bd
       0.06576015 0.0181742 0.081682764 -0.064336024
000300 22 42 11 bc 1a 89 5c 3b 28 5d 2b bd d9 6b 95 3d
       -0.008865865 0.0033651055 -0.041836888 0.07295961
000310 98 95 83 3d a0 16 29 bd 82 5e a9 3d 4b e9 98 3d
       0.06425017 -0.041281343 0.08269979 0.07466372
000320 19 da 48 bd fa 86 8f 3a ab 97 bb 3d 0e 4d 62 bd
       -0.04903612 0.001095026 0.09159788 -0.055249266
000330 34 23 f9 bb b8 7b 66 bd 90 1c 93 3d d7 38 af 3c
       -0.0076030735 -0.05627033 0.07183182 0.021389408
000340 09 46 29 3d 2e 1e 95 3d 89 27 82 bc c3 4d 8f bd
       0.041326556 0.07281147 -0.015887992 -0.06997254
000350 29 bf 5c 3c e1 3f 9a ba fb 28 27 3d 9b a4 41 3d
       0.0134733105 -0.0011768305 0.040810566 0.04727612
000360 fc 9c 13 bd fc 53 fb bc a4 eb 64 3d 89 d5 e7 3c
       -0.036038384 -0.030679695 0.055888787 0.028300064
000370 a7 c0 b0 3c cb 84 50 3d df 72 38 3d 64 53 6b bd
       0.021576239 0.05090789 0.045031425 -0.057452574
000380 23 ae 8e 3c a2 10 ac 3b 52 f2 a1 bd 9d 60 ee 3c
       0.01741702 0.005251006 -0.07907547 0.029098803
000390 0e 02 20 3c f9 39 92 3d 12 70 b3 bd ec 8b b5 3d
       0.009766115 0.07139964 -0.0876161 0.088645786
0003a0 3f 09 29 bd fd 7e 40 3d 9f 84 69 3d a5 74 76 bb
       -0.041268583 0.046996105 0.057011243 -0.0037606147
0003b0 2f cb 24 bd 45 a3 3e bc 41 72 6e bd 18 6d 50 3c
       -0.040232833 -0.011635606 -0.05821443 0.0127213225
0003c0 4f 7e 11 3d 9e 80 c2 3c c7 37 4b bd 1e 58 7d 3d
       0.035520848 0.02374297 -0.04961374 0.061851613
0003d0 4f 5f 99 3d 9b 87 cb bc 44 fa 3a 3d ed 2c 08 bc
       0.07488882 -0.024844935 0.04564883 -0.008311492
0003e0 54 54 11 3d f4 f4 8a bd 19 a4 8e bd 14 f1 67 bc
       0.035480812 -0.06785002 -0.06964893 -0.014156599
0003f0 26 1e 8a bd 2f 6f 17 3d 0e 87 ba 3d b6 62 8e bc
       -0.067440316 0.036971267 0.09107791 -0.017381053

bias f4 [128]
000000 e5 c2 87 3d ae 9a 6e 3d 97 bb b5 bc 2f fd 3d 3d
       0.0662897 0.058252983 -0.022184176 0.046384033
000010 71 10 ec bc 89 42 48 bc 76 a6 a4 bd f5 e6 3d 3d
       -0.028816434 -0.0122228945 -0.080395624 0.046362836
000020 18 7e 87 3d 6b 73 06 3c 49 e0 b1 bd 24 d4 66 bb
       0.06615847 0.008206229 -0.08685357 -0.003522166
000030 b3 9e 6f bd 0a 75 2c bd eb 19 6d bc 15 45 2c 3d
       -0.058500957 -0.042103805 -0.014471511 0.04205807
000040 a0 55 4f 3d 43 65 a7 bd ad d3 4d bd c0 c1 45 bd
       0.050618768 -0.08173611 -0.050250698 -0.048280478
000050 e5 26 f0 3c 8b c1 c6 3a 93 da 87 bc c5 35 52 3c
       0.029315421 0.0015163881 -0.016583716 0.0128302025
000060 72 bf bc 3b 9a f7 9a bd 16 c7 00 3d 03 8f a6 3c
       0.0057601267 -0.075667575 0.031439863 0.020331865
000070 fd df 8c 3c f7 75 46 3d ae f3 a2 3c ec 27 58 bd
       0.01719665 0.048452344 0.019891586 -0.052772447
000080 6b 6c cf 3d 30 8e 3d 3d d3 3c ba 3d 91 85 94 3c
       0.10128101 0.04627818 0.090936325 0.018130096
000090 46 a3 8a 3d c5 00 a7 bb e7 fc 03 3b 8d 4a 4b 3d
       0.06769423 -0.0050965273 0.0020139755 0.049631644
0000a0 bc a8 1b bd a0 dd a1 bd d3 80 c4 3c 99 85 83 3d
       -0.038002715 -0.079036 0.02398721 0.06421966
0000b0 7a b5 be 3d ac b5 01 bc 84 f4 d6 bc 49 e9 63 bd
       0.09311958 -0.007916849 -0.026239641 -0.0556424
0000c0 cf 2f be 3d af d0 9e 3a 25 f7 1e bd c7 f3 6f bd
       0.092864625 0.0012116636 -0.038809914 -0.058582094
0000d0 65 97 a6 bc a8 51 ab 3d 35 90 2e 3d 4c e3 91 bd
       -0.020335862 0.08365184 0.042617995 -0.071234316
0000e0 39 47 3f 3d e3 66 e2 bc ae ca b8 3d 67 c7 dc bc
       0.046698783 -0.02763695 0.09023033 -0.026950551
0000f0 cc 7a e6 3a 04 f0 00 3d fb f6 22 bc 98 52 3d bd
       0.0017584204 0.031478897 -0.00994658 -0.046221346
000100 7f 6c 8c ba 3a 36 c8 3d db 12 8c bd f6 0d 85 3d
       -0.0010713487 0.09775968 -0.06839534 0.064968035
000110 85 f9 56 3d 5b ed b4 3d 02 9e d1 3c 1f 1c 0c bb
       0.052484054 0.088343345 0.02558804 -0.0021379066
000120 17 20 54 bd 0d ed cc 3d 7b 13 28 3c d7 29 34 3b
       -0.051788416 0.10006151 0.010258551 0.0027490759
000130 d2 46 e2 3c ff 42 64 bc 87 9d 03 3c 34 7b d2 3c
       0.02762166 -0.013931989 0.008033163 0.025693513
000140 6c 00 8a 3d dc d2 80 3d 69 e1 be bd bc 4f 5a bc
       0.06738362 0.06290218 -0.09320337 -0.013324674
000150 77 6a 64 3a 82 2c 2f 3d d5 0d 55 bd a5 8f 44 bc
       0.0008713374 0.042767055 -0.052015144 -0.011997138
000160 4d 77 28 bd 3c 1f 5f bd 7b 72 8e 3c 23 93 8d 3d
       -0.0411294 -0.054473147 0.017388573 0.0691283
000170 75 0d f6 3c cf 09 19 bd 70 ba b3 ba 1a 33 ea bc
       0.030035714 -0.03736287 -0.0013712179 -0.02858882
000180 24 98 c5 3d fe 6e 02 3d 64 62 58 bd dc 2d 97 bd
       0.09648159 0.03184413 -0.052828208 -0.07381794
000190 6a 6c 16 bd f1 4f 88 bd 7f f7 e5 3c f4 30 11 bd
       -0.036724485 -0.066558726 0.028072117 -0.035447076
0001a0 18 78 af bd aa e0 ae bc 5f 0d 1e bd e7 92 f6 bc
       -0.08567828 -0.021347363 -0.03858697 -0.030099345
0001b0 96 97 9c 3d f6 e5 fe 38 4b 5e 6c bd 03 f6 3c bd
       0.076461 0.000121544974 -0.057707112 -0.046133053
0001c0 b3 db b8 3d 47 1f ed bb 9d a9 de bc c9 0f ac bc
       0.09026279 -0.0072363946 -0.027180487 -0.02100362
0001d0 b6 c8 20 3d 97 c2 a1 3d 52 02 46 bc 94 f5 94 bb
       0.039253913 0.07898443 -0.012085514 -0.0045458768
0001e0 63 be dd bc 5d 24 75 bd 8f 96 58 3d f8 0d 94 3c
       -0.027068323 -0.05984913 0.05287796 0.018073067
0001f0 75 24 35 3c b3 83 9c 3c ef 98 c8 3c 51 22 a6 3d
       0.011056055 0.019105768 0.024486987 0.08112014

weight f4 [128, 128]
000000 e1 26 41 39 d2 bd 29 3d a0 84 25 3c eb b8 ff 3c
       0.00018420398 0.041440792 0.010102421 0.031216105
000010 66 9a 85 bd 2d 8e 5a 3d ab 4f 78 bd fb 23 3e 3c
       -0.0652359 0.053358246 -0.060622852 0.011605258
000020 c8 ef ab 3d c5 af 9b bc b4 bc 1e bd 7a b3 4c 3d
       0.08395344 -0.019004712 -0.03875418 0.04997585
000030 c3 13 6c bd 4d aa 06 bd 17 42 18 bc ed 24 11 3d
       -0.057636034 -0.032877255 -0.009293101 0.035435606
000040 f2 85 8d 3d 5a f1 0e bd 10 36 62 3c f8 4a f4 3d
       0.06910314 -0.03489814 0.013806835 0.11928362
000050 7e a5 90 3d 0b 44 65 bd 00 4b 25 bd b9 b4 ef bb
       0.07062815 -0.055973094 -0.04035473 -0.007315245
000060 f0 7b 61 bd 58 73 f2 bc cb f8 fb bb 13 30 06 bd
       -0.055049837 -0.029596016 -0.0076895705 -0.03276069
000070 aa 44 59 bd 5c a0 12 bd fa 67 f8 3c 62 f8 8b bd
       -0.053044 -0.035797462 0.030323017 -0.06834485
000080 f7 29 9e 3d 94 0e b3 3d 5f 13 c8 3c b2 7d 29 bd
       0.07722848 0.08743015 0.0244233 -0.041379638
000090 c1 84 a6 3c b3 11 9b bd 59 24 33 3d 09 f7 67 3d
       0.020326974 -0.07571735 0.043735836 0.056632075
0000a0 8f bd 60 3d e6 11 86 3d a7 53 52 3d aa a7 ba bd
       0.054868277 0.065463826 0.05134931 -0.09114011
0000b0 2b 47 56 bd 1b 3f 5b bc 78 98 90 3c 1b 38 60 3d
       -0.052313965 -0.013381745 0.017650828 0.054741006
0000c0 f7 c7 bc bd 94 71 61 bd 25 3b 18 3d 4d b5 65 3d
       -0.09217828 -0.055039957 0.03716578 0.056081105
0000d0 ea a6 04 3b 22 3b 29 3d d0 b9 a0 3d e4 24 a2 3d
       0.002024109 0.04131616 0.07847941 0.079171926
0000e0 34 d8 a5 3c 56 04 9e bd 9a d0 0d bd ba 81 53 bd
       0.020244695 -0.07715671 -0.034622766 -0.05163739
0000f0 8a 29 64 bd b5 b7 81 3d 98 56 97 3b df e6 65 bd
       -0.055703677 0.063338675 0.004618477 -0.05612838
000100 9f 24 20 3d a4 d2 fe bc 6d 0d 52 bd 37 4e 8b bb
       0.039097425 -0.0311063 -0.051282335 -0.0042512673
000110 db d6 39 bd 1f 1c 56 bd c3 c9 4e bd da ec 82 bd
       -0.045370918 -0.052272912 -0.050485384 -0.06392832
000120 ec 5c fb bc b8 15 4e 3d 83 97 3c bd d9 27 c0 3d
       -0.030683957 0.05031368 -0.04604293 0.093826
000130 bd d3 39 3c bc ab ab bc 56 48 e2 bb b1 3d d1 bb
       0.011341986 -0.020955913 -0.006905596 -0.006385528
000140 58 47 a7 3c 07 7e 6e 3d bd 50 c0 3c a4 56 c4 bd
       0.020419762 0.058225658 0.023475999 -0.09586838
000150 ab 37 1e 3c 71 45 cc 3c d2 22 89 bd 04 8f 85 bd
       0.009656827 0.024935456 -0.066960946 -0.06521419
000160 dc 69 1d 3d 47 46 b9 bd 27 48 91 bd f3 a8 8e 3d
       0.038431033 -0.090466075 -0.0709384 0.06965818
000170 24 72 0a bc 12 ad 4c bc 69 ba 66 3d 48 86 fa 3c
       -0.008450065 -0.012492435 0.05633012 0.030581608
000180 00 5c a3 bc 51 99 5e 3b 48 d9 64 3d 3a 81 9d 3d
       -0.01994133 0.0033965895 0.055871278 0.07690664
000190 5e 63 1c bd 80 20 9a bb d6 fa 61 3d 57 bc 66 3d
       -0.0381807 -0.0047035813 0.055170856 0.05633196
0001a0 7c 79 21 3c c8 0e c9 3c 50 c9 85 3d ae 45 65 bd
       0.009855624 0.024543181 0.06532538 -0.055974655
0001b0 83 5e 9d 3a cb 46 41 3c 32 c1 9c bc df 79 3e bd
       0.0012006316 0.0117966635 -0.019135091 -0.046502944
0001c0 59 4b 52 bc a7 b7 c2 bd 66 16 8a bd a3 53 36 bd
       -0.012835347 -0.09507685 -0.067425534 -0.044513356
0001d0 a9 a5 e0 bc ac 12 77 bd d4 78 b0 3c ab f1 b9 bd
       -0.027422743 -0.06032054 0.02154199 -0.09079298
0001e0 7f 6b 9e bc 67 6c b5 bd 33 ca 8f 3c bd 8a ce bc
       -0.019338368 -0.08858567 0.01755247 -0.02521264
0001f0 68 ef 02 3b c7 b0 bb bc 45 ed 9e bd 42 44 7a 3d
       0.0019979123 -0.022911442 -0.07760099 0.061100252
000200 06 61 9f bd 92 e3 d4 3c 30 d6 c6 3d 1a fb 95 3d
       -0.077821776 0.02598742 0.09708822 0.073232844
000210 00 2d 94 3d 23 4e 83 bd 82 fb 4c 3d d9 e9 ed bc
       0.072351456 -0.06411388 0.050044544 -0.029042171
000220 c5 23 bc bb 7d 9f 82 bd 72 6e bb 3d 1d ed 45 3d
       -0.0057415687 -0.06378076 0.09151925 0.048321832
000230 0a ea e5 bc f1 03 9a 3d 71 fd 5c bd 02 6a dc bc
       -0.0280657 0.07520283 -0.053952638 -0.026906017
000240 54 96 1d bc 3c d7 0d bd 7e 80 33 3d 6d e7 6f 3d
       -0.009618361 -0.03462909 0.04382371 0.058570314
000250 95 80 cf bb 91 cd e5 3c 46 2b 6d bd e6 23 f5 3c
       -0.006332467 0.028052123 -0.057902597 0.029924344
000260 bb 30 71 bd 4f 65 a2 3d 76 b7 52 bd 69 3d ae 3d
       -0.058884364 0.07929479 -0.051444493 0.08507807
000270 e4 72 24 bd f4 cc b2 3c 53 f6 17 3c 4a 56 6a bc
       -0.04014863 0.021826245 0.009275037 -0.0143027995
000280 4a e4 6f 3d 99 a2 5c 3d 48 69 e8 ba 45 f5 77 38
       0.058567323 0.053866003 -0.0017731572 5.9117814e-05
000290 9c 07 63 bd 3f eb e9 3c 72 e8 cf bc 4e f1 69 3d
       -0.05542718 0.028554557 -0.025379393 0.05711489
0002a0 c1 d2 ba bd 7f a1 84 3d c1 68 82 bd 12 fe b7 bd
       -0.09122229 0.064761154 -0.063676365 -0.08984007
0002b0 f9 6d 1c 3c af 33 9d 3d 23 66 c2 bc 73 e5 8f 3d
       0.009547704 0.076758735 -0.023730343 0.07026186
0002c0 9d 6c 41 3d 17 52 d9 bc bb eb 40 bd 43 ad 1f bd
       0.047222722 -0.026528401 -0.04709981 -0.038983595
0002d0 11 e5 56 3d 2b a2 c3 3c e4 f3 ed 3a 20 83 10 bd
       0.05246455 0.023881039 0.001815435 -0.0352813
0002e0 f4 07 a6 3d 1d 95 7e 3d c4 46 b4 bd a1 9f 7c bd
       0.08106986 0.062153924 -0.0880256 -0.06167567
0002f0 b1 70 92 bd aa 53 b0 3c d6 15 30 bd f0 94 a0 bc
       -0.071504004 0.02152427 -0.042989574 -0.019602269
000300 99 f9 93 bd d7 a3 94 bd 34 c3 0b bb 68 96 ae bd
       -0.07225341 -0.072578125 -0.0021326067 -0.085247815
000310 4b 27 c9 bc 6b 52 a0 3b d9 1c e5 3c 24 8d b7 bd
       -0.02455487 0.0048926375 0.027967857 -0.08962467
000320 19 46 11 3c ac 1e 94 3d dc 76 80 bd 35 f6 18 bd
       0.00886681 0.07232413 -0.062726706 -0.037344176
000330 1c 81 df 3c 6a 80 88 bb 60 ba 29 bd dc 48 3f 3d
       0.027283244 -0.004165699 -0.041437507 0.046700343
000340 1e a0 b2 bd 19 32 b2 bd 26 ac 56 3d dd f0 09 3d
       -0.08721946 -0.087009616 0.052410267 0.03367697
000350 f5 43 33 3c 29 ff 9e 3d 73 3f a0 bd 5f ff 82 3d
       0.010941495 0.07763512 -0.07824602 0.063963644
000360 54 05 46 3c 3a da 7a 3d d6 cd 24 3d 76 5f de 3c
       0.012086231 0.061243273 0.040235363 0.027145129
000370 36 f1 ab bd 69 8e 83 3b e1 40 fd bc 9f 9a 59 bc
       -0.08395617 0.0040147793 -0.030914726 -0.013281493
000380 ea 38 93 3d 3e 86 8e bc 02 e3 39 bd e4 7f 0a bd
       0.0718859 -0.017397996 -0.045382507 -0.033813372
000390 f7 18 ad bc b5 05 59 3d 9c 09 35 3c b0 ba 18 3c
       -0.021130068 0.05298396 0.011049654 0.0093218535
0003a0 53 af 57 bd 97 63 b0 3d c3 7a be bc a3 16 f9 3c
       -0.052657437 0.08612745 -0.023251897 0.030406302
0003b0 22 f3 99 bd 34 d4 32 3d 62 fd 06 3d 14 26 83 3d
       -0.07517077 0.043659404 0.03295649 0.06403747
0003c0 47 c6 35 3d 4f 1e e0 bd 74 63 f6 bc 4c 35 62 3d
       0.044378545 -0.10943281 -0.03007672 0.05522661
0003d0 89 0a 0c 3d fd d0 ab bc f1 d8 3f 3d a1 f8 92 3d
       0.034189735 -0.020973677 0.04683775 0.071763285
0003e0 b9 37 20 3c 77 b1 bd 3b e1 f9 a2 3d 1d a4 90 3d
       0.00977891 0.0057889777 0.07957817 0.07062552
0003f0 0a 0c 08 bd 99 18 47 bb 2c 1b 62 bc 87 fa 1d 3d
       -0.033214606 -0.0030379652 -0.013800424 0.038569

bias f4 [128]
000000 2c 61 51 bd af 6f 2d bd 98 e7 e1 bc ce 31 97 bd
       -0.05111806 -0.042342838 -0.027576253 -0.07382546
000010 94 da b0 3d de 62 8e 3d e5 e9 1c 3c a1 90 9d 3b
       0.086354405 0.06952451 0.009577249 0.004808501
000020 17 fb 8d 3d fa 1b 9b 3d 37 08 e4 bc f6 e7 2d bd
       0.06932657 0.075736955 -0.027835948 -0.042457543
000030 33 20 3e 3d 0b b7 72 bd 15 b2 41 3d 73 5c 9a bd
       0.046417426 -0.059256595 0.047288973 -0.075371645
000040 ed 38 2c bd f2 d1 d2 bb ce 09 4d bd 7d 75 e5 3c
       -0.042046476 -0.006433719 -0.05005818 0.028010124
000050 8d f0 27 3b fc 97 f8 3b ea b6 92 3d b3 a4 17 3d
       0.0025625557 0.0075864773 0.07163794 0.037022304
000060 3c d7 73 bd b8 9b 60 bd 78 7f d1 3c a0 56 30 bd
       -0.059531435 -0.054836005 0.025573477 -0.043051362
000070 30 b8 90 3d 0d b5 c2 3d ec b0 95 bc d5 50 a5 bd
       0.07066381 0.09507189 -0.01827284 -0.08072058
000080 c8 e4 c2 bd 6a ec 8a bd 15 20 a1 bd a1 f6 7a 3d
       -0.09516293 -0.06783374 -0.07867447 0.06127036
000090 6f 97 68 bd 23 7c 95 bd 99 69 bc 3d 8f a8 83 bd
       -0.056785043 -0.07299068 0.09199829 -0.064286344
0000a0 d0 c4 8e 3d 73 29 f7 bc cd 6d 87 bc 9b 32 1c 3d
       0.06971133 -0.030171132 -0.01653185 0.0381342
0000b0 1a f2 5d 3d 3c 74 b5 bc 64 ff b7 3d fc 12 08 3d
       0.054185964 -0.022150151 0.08984259 0.03322123
0000c0 db db 98 3d d7 00 a0 3d 0f 36 68 bd 0a 40 82 3c
       0.07463809 0.0781266 -0.05669218 0.015899677
0000d0 1b 72 91 bd 00 c3 8c bd 79 c0 63 3c f4 40 ed bc
       -0.07101842 -0.06873131 0.0139008695 -0.028961636
0000e0 bb 64 63 bd 1c 5b 8b 3c 9c e4 12 bd b9 e1 a3 bd
       -0.055515986 0.017011218 -0.03586255 -0.080020376
0000f0 b2 93 1e 3d 95 27 92 bb 99 77 22 3d 24 d1 35 bd
       0.038715072 -0.004460285 0.03966484 -0.044388905
000100 af 27 b8 bc ad fe 49 3d 54 85 8a bd 99 e0 a4 3b
       -0.02247986 0.049315143 -0.067637116 0.005031657
000110 16 d1 c8 3d be 13 58 3c e5 9e 1a 3d f3 5a 9a bd
       0.09805505 0.013188301 0.03774919 -0.075368784
000120 85 16 0d 3d 5a 81 ab bd f8 71 a8 3d 54 45 89 3c
       0.034445304 -0.08374281 0.08224863 0.016756691
000130 39 31 79 bd 06 6d 8b 3c 9b df cb 3d 2f ab 54 bd
       -0.060837958 0.01701976 0.09954759 -0.051921066
000140 f0 16 5b bb 00 7a b9 3d ac 2d 84 3b 76 83 56 3d
       -0.003343042 0.09056473 0.004033765 0.052371465
000150 4f e2 7a 3d e0 a2 b1 bc 30 a4 c1 3d 4c fa d5 bc
       0.06125098 -0.02168411 0.094551444 -0.026120327
000160 f4 89 cd 3d 14 29 91 bc ce 7e c6 3c fe 75 ba bd
       0.10036078 -0.017719783 0.024230387 -0.091045365
000170 0a 3e 19 3d 12 20 24 bb a7 22 b0 bd e8 de 21 bd
       0.03741268 -0.002504353 -0.086003594 -0.03951922
000180 4f 41 97 3d eb a4 b2 bd 17 88 ef 3c 33 46 b8 b9
       0.073855035 -0.08722862 0.029239697 -0.00035147517
000190 97 36 2c 3c 9c 05 7a ba da 33 85 3b bc 20 eb bc
       0.010511062 -0.0009537579 0.004065019 -0.028702132
0001a0 f9 cd c6 bd bb 68 ab bc 77 a4 80 3d c6 76 bd bd
       -0.09707255 -0.020923963 0.06281369 -0.0925117
0001b0 29 56 36 bd f4 ce 83 bd ee 5c 7d bd b1 f9 e4 bc
       -0.044515762 -0.064359576 -0.061856203 -0.027951093
0001c0 44 de 77 3d 48 a2 6c 3d 5f a5 15 3d bd bc 50 3d
       0.060514703 0.05777195 0.036534663 0.050961245
0001d0 d5 8f d1 bd 10 53 ba bd ce a4 bf 3d a7 13 9d 3d
       -0.10232512 -0.09097874 0.09357606 0.07669764
0001e0 05 1d 3c 3d f5 c2 af bd 51 43 9a bd 0d 8f b1 3d
       0.045926113 -0.08582107 -0.07532371 0.08669863
0001f0 4f ec 89 bd 4d a7 a5 bc 84 46 a5 3c a4 0e cc 3d
       -0.067345254 -0.020221377 0.020175226 0.0996373

weight f4 [1, 128]
000000 c7 c7 8f 3c 43 76 80 3c a1 b5 94 3c 62 3d 43 3a
       0.017551316 0.015681392 0.018153014 0.00074478064
000010 ca 4f f9 bb 31 0d eb bb cd 6d 30 bc 8e 1c 85 3b
       -0.0076083886 -0.0071732034 -0.010768366 0.004062242
000020 37 e1 95 bc 34 e7 30 bb e4 27 5c 3c 43 b0 76 bc
       -0.018295867 -0.0026993277 0.013437245 -0.0150566725
000030 59 22 f1 3a 6f b9 7a 3c 65 e6 07 bb 26 86 36 3c
       0.0018397077 0.015303 -0.002073669 0.011140382
000040 19 5c 99 3c ae b0 36 3c e7 d0 7c bc 66 f3 8a bb
       0.018720673 0.011150522 -0.015430666 -0.004240441
000050 46 50 fd ba 80 56 83 3a 3b 53 54 bc ca b7 4f 3c
       -0.0019326292 0.0010020286 -0.012959297 0.012678096
000060 b8 81 7c bc 87 2a 02 3c a7 c2 9a bc 44 80 69 3c
       -0.015411787 0.00794471 -0.018891646 0.014251772
000070 74 1e 7b 3b b1 40 d6 bc 16 58 85 3c 06 be ea 3b
       0.0038317712 -0.026153894 0.016277354 0.007163766
000080 d5 d8 17 3c 91 d2 c6 3c a4 ce bd 3c 8b 82 06 bc
       0.009268005 0.024270328 0.023169823 -0.008209835
000090 1b 5a 89 3c 54 75 69 3c 12 89 06 bb 1f cc 43 bc
       0.016766598 0.014249165 -0.0020528478 -0.011950522
0000a0 36 c2 41 bb 3b a7 80 3c 66 42 1e 39 93 c9 19 bb
       -0.0029565222 0.015704742 0.0001509279 -0.0023466095
0000b0 ce f4 ea bc 91 05 e4 bb b9 75 47 bc 44 f4 69 bc
       -0.028681185 -0.0069586714 -0.012174063 -0.014279429
0000c0 a6 ec 99 bc 78 e6 0d bc 12 2b 0e 3c 7b 55 64 bc
       -0.0187896 -0.008660905 0.008677261 -0.013936396
0000d0 e8 46 0f bc 2a 98 15 3b 10 90 e3 3b 46 7b 8e 3c
       -0.008744933 0.0022826293 0.006944664 0.017392766
0000e0 27 8a 33 bb 51 ae 0b b9 d7 32 e2 bc 0c a4 d1 3c
       -0.0027395578 -0.00013321011 -0.027612133 0.025590919
0000f0 39 df b6 bc ff db 82 3c 23 e5 04 bc 03 ee aa 3b
       -0.022323238 0.015974043 -0.008111271 0.0052163615
000100 4f 73 34 3d d9 79 f3 bb 22 21 2f 3c db ad df bb
       0.04405528 -0.007430297 0.010689052 -0.006826145
000110 43 c1 f6 bb 24 93 9f 3c 2e 06 7c bc b9 ae 61 3c
       -0.007530363 0.019479342 -0.015382333 0.013774567
000120 2c 76 6a 3c 7a c3 63 3c e1 2d 07 bc df af b2 3b
       0.014310401 0.013901586 -0.0082506845 0.0054530944
000130 7b 1f 1a bc 21 b8 7d bb 27 ea a1 bc a1 cc 9c bc
       -0.00940692 -0.0038714486 -0.019764973 -0.019140543
000140 29 46 f1 3b ee e1 73 bc cb 48 a9 bc c8 a8 a7 bb
       0.0073631 -0.014885409 -0.020664593 -0.005116556
000150 2f f2 cb bb 2f 05 4f 3c c8 e4 ff bc 44 c5 4d 3c
       -0.006223939 0.012635513 -0.031237021 0.012559239
000160 87 96 70 bc bc 35 6a 3b 97 c0 ee 3b 8f f9 bf 3c
       -0.014684326 0.0035737595 0.007286142 0.023434428
000170 be 49 5c bc b1 fd 2f 3c 2d ba d2 b9 84 73 99 3c
       -0.013445316 0.010741637 -0.00040193033 0.01873184
000180 a6 ff d3 bc 2b ed 7c 3c 19 34 c0 bc fe 75 5a 3c
       -0.025878739 0.015437405 -0.023462342 0.013333796
000190 8f 9a 8c bb bf b7 08 bb 41 4d 81 3c c5 ce ab 3c
       -0.0042908858 -0.0020861474 0.015783908 0.020972619
0001a0 24 e6 b2 3b c5 d9 92 bc fb 53 8c bc 01 11 8b 3c
       0.005459564 -0.017926106 -0.017129889 0.016975882
0001b0 85 d7 83 bc b4 d9 d7 bb 1b 59 c1 3c 31 d0 dd 3c
       -0.016093979 -0.0065872315 0.02360206 0.027076812
0001c0 c5 52 08 3c 20 b2 cb bc 0d 36 d6 bb 13 ff bc bb
       0.008320515 -0.02486521 -0.006537205 -0.005767712
0001d0 d1 24 d4 3c 43 49 07 3b 86 82 8f bc f0 cf a6 bc
       0.025896462 0.0020643033 -0.017518293 -0.020362824
0001e0 66 94 98 3c 42 25 8a 3c a7 07 13 3c 7f ce ee bb
       0.01862545 0.016863469 0.008973992 -0.0072878
0001f0 f4 3b 82 3c 8d 39 91 3c 5c 09 13 3c 18 b9 ad bb
       0.015897729 0.017727638 0.008974399 -0.005301606

weight f4 [3, 128]
000000 5a b4 43 bc ba 36 04 3c 26 f7 2f 3b 30 f6 c6 3b
       -0.011944855 0.008069688 0.0026850193 0.0060718283
000010 32 d3 15 bc 51 76 e8 3a 03 d5 4b 3c 5f 0e bb ba
       -0.009144591 0.0017735456 0.012440923 -0.0014271251
000020 f7 86 d0 3b 54 00 17 3c 42 05 c0 3b 4d c3 bd 3c
       0.0063637453 0.009216387 0.005860002 0.023164416
000030 30 9b 1b 3c 86 26 8d ba 4b db f6 bb ff 22 ac bb
       0.009497449 -0.0010768927 -0.007533466 -0.0052531953
000040 2e e1 29 3b c5 be 47 bb be e1 ef ba 01 24 12 bb
       0.002592157 -0.0030478698 -0.0018301529 -0.0022299292
000050 7d 15 52 3c 4e e1 ab 3b 9b 57 6e 3c 8c 11 57 bc
       0.012822506 0.0052453643 0.014547254 -0.013126742
000060 9b 65 61 bc 49 9b c9 3b 7b 8d fd 3b 38 4d 97 3b
       -0.013757135 0.0061525446 0.007737813 0.0046173595
000070 48 6d 03 bc e7 84 49 bc 29 9f 8a bb f4 64 31 bb
       -0.00802166 -0.012299753 -0.004230399 -0.002706823
000080 34 f4 ce 3b 52 52 01 bc c4 b0 8b 3c ee f7 7f 3c
       0.0063157324 -0.007893162 0.017052062 0.015623076
000090 01 92 e7 ba 0c 3b 33 3b 90 ad cf 3a 73 d1 6d bc
       -0.0017667414 0.0027348427 0.0015844572 -0.014515269
0000a0 f9 ec 7e bb 91 5a 02 ba 2e 05 b0 3b c0 7f 1d 3b
       -0.003889857 -0.0004972602 0.005371711 0.0024032444
0000b0 1f 91 97 bb 44 1b ba 3c a3 a2 57 3c 08 a6 a8 bb
       -0.004625454 0.02271808 0.013161334 -0.0051467456
0000c0 c7 b0 04 3b 26 85 99 bb b3 3c 86 bb 4f ae 80 3c
       0.002024697 -0.004685062 -0.0040965914 0.015708117
0000d0 ab e4 30 3c 67 ad d5 3b 0b 53 df 3b e9 54 36 3c
       0.010796706 0.0065209153 0.0068153194 0.011128643
0000e0 59 7d 17 3a d9 41 21 bb 8a da 4a bc b5 56 24 bb
       0.0005778871 -0.0024605899 -0.012381205 -0.0025076095
0000f0 d8 a4 c3 39 8b cb 45 bc dd 21 34 bc 7c 9e a5 ba
       0.00037316117 -0.012072454 -0.010994402 -0.0012635733
000100 9b 1e 81 bb e1 84 da bb ad a8 4a bb cf 2d 5b 3c
       -0.003940416 -0.0066686724 -0.0030923293 0.013377621
000110 0a a6 ce ba 0c 6b 17 ba 48 bd 09 39 0d be 0b bc
       -0.0015766036 -0.0005776144 0.00013135851 -0.008529198
000120 81 f3 f3 3a 5f 60 aa 39 a0 c1 4d bc 69 fa 75 3c
       0.0018611999 0.0003249673 -0.012558371 0.015013316
000130 d3 d1 97 ba 67 2f 57 3a d7 e7 2e 3b 3d 50 cd bb
       -0.0011582918 0.00082086626 0.002668848 -0.0062656687
000140 f6 5b 21 3b 64 21 52 ba 29 47 21 3c 91 df 2d 3b
       0.0024621463 -0.000801584 0.009843626 0.002653096
000150 e8 4d 92 3c 38 45 ee bb 4a dc 13 3c 74 38 29 bc
       0.017859414 -0.007271435 0.009024689 -0.010328401
000160 33 47 00 3c 79 92 67 bc 99 67 96 3b d3 83 f9 3b
       0.007829475 -0.014134043 0.0045899865 0.0076145916
000170 8d 70 39 bb 22 b3 5e bc 18 91 57 3c c9 a3 08 bc
       -0.0028295845 -0.013592513 0.013157152 -0.008339831
000180 98 26 3e bc 67 dc 05 3c 7b f0 99 bb 28 a4 a6 bb
       -0.011605881 0.008170224 -0.004697857 -0.005085487
000190 6d 40 f7 bb b1 f8 6f 3b 09 2a 4f 3c cc 12 13 3c
       -0.007545522 0.0036616737 0.012644299 0.0089766495
0001a0 bd d7 02 3c e0 bb 49 3c c2 4c 10 bc af 14 ed 3b
       0.007986006 0.012312859 -0.008807363 0.0072351317
0001b0 1f 58 d0 ba 4c 78 53 3b e9 d5 09 bc 2d fe 5f 3b
       -0.0015895403 0.0032267747 -0.008412817 0.00341786
0001c0 f4 4b 2c 3b 1c 26 7c 3b f7 de 45 ba dc b1 eb 3a
       0.0026290389 0.0038474863 -0.0007548178 0.0017982083
0001d0 1a 88 8e 3b f9 0a a8 3b 9d d0 a8 b9 65 56 b7 bb
       0.0043497207 0.005128261 -0.00032198886 -0.005595016
0001e0 40 cf b2 3b 64 b1 70 ba 93 bb 2c ba 37 b3 85 bb
       0.005456835 -0.00091817067 -0.000658923 -0.004080202
0001f0 f9 b2 6a bc 97 a0 46 bc 46 4c 6e 3b 90 df 40 bb
       -0.014324897 -0.012123249 0.003636138 -0.0029430129
000200 70 2f 44 3b 4e af 74 bb 4a 5e 99 bb 9e 7e 63 3c
       0.0029935502 -0.0037335935 -0.0046804296 0.013885168
000210 3f f5 22 3c d0 af f9 bb 0f 92 54 3c 43 80 7a bb
       0.009946167 -0.0076198354 0.012974276 -0.0038223423
000220 a7 60 91 bb b3 f7 0f 3c 51 dc a2 ba 5a 23 90 3c
       -0.0044365707 0.008787083 -0.0012425279 0.017594982
000230 d9 fc 10 3b 76 b2 b3 bc 95 ae 20 3c b3 05 7e 3c
       0.0022123365 -0.021935683 0.009807249 0.0155042885
000240 c5 03 29 3b 93 63 85 bb 47 d5 69 3c 52 5f a9 bb
       0.00257896 -0.004070708 0.014272041 -0.005168834
000250 7e e4 97 bb ca 60 72 3c db 3e c8 3b 3c c6 8a ba
       -0.0046353927 0.014793584 0.0061110086 -0.0010587643
000260 8c 9e 5d ba df 21 8d bb dd 4f f6 3b 32 27 f0 bb
       -0.0008454106 -0.0043070163 0.0075168447 -0.007328891
000270 08 73 46 3c 56 36 dc ba 3d 3a 62 3c c1 97 29 bb
       0.0121123865 -0.0016800861 0.01380783 -0.0025877806
000280 69 88 c6 bb b6 42 04 bb 1f 64 52 3c 33 35 c0 bb
       -0.006058742 -0.0020181364 0.012841254 -0.005865717
000290 2a f4 8c bb 9d 25 85 3b 2f ca bc 39 a6 db e2 bb
       -0.0043015676 0.0040633217 0.00036008793 -0.006923157
0002a0 c3 9b ba 3b 82 bb 51 3c 4d 4b 47 3a 8e 67 2f bc
       0.005694838 0.012801053 0.0007602468 -0.010705842
0002b0 da ea 9f 3b 0c 91 1c bc 62 82 bd bb 31 91 76 bb
       0.0048802914 -0.009556066 -0.005783365 -0.0037623162
0002c0 e4 49 7a bc 0e 7a f2 3b a1 01 31 bb 0e 3d 26 bb
       -0.015276406 0.007399804 -0.0027009028 -0.0025365981
0002d0 ee 00 88 3b b0 09 53 3c 6c d0 f6 3b e0 48 04 3c
       0.0041505015 0.012880728 0.00753217 0.008074015
0002e0 ef cf 2c bc b4 ca 02 39 d8 35 73 ba 88 18 47 3b
       -0.010547622 0.00012473279 -0.00092777377 0.0030379612
0002f0 e1 df 37 3b 86 33 bc 3b 00 d9 68 bb 07 73 37 bc
       0.0028057026 0.0057434468 -0.0035529733 -0.011196858
000300 4c 8a 7f 3c 2a e0 50 3c 95 6f a7 3b 14 7b 06 bc
       0.015596937 0.012748757 0.005109737 -0.008208055
000310 ca 42 2b bb d7 da fb 3b 20 2f 0e bc 88 e4 ec 39
       -0.0026132339 0.007686 -0.008678228 0.00045183697
000320 d6 ed 89 bb 84 d3 93 bc 44 60 3b 3c af bc fb 39
       -0.0042092605 -0.018045194 0.011436526 0.0004801503
000330 52 f1 74 3b df d0 bc 39 3a 62 88 bb 4b 85 6d bc
       0.0037375283 0.00036013775 -0.0041621 -0.014497112
000340 55 be 4c 3c fa 45 10 3a 69 7f 1a bc dd bc 44 3b
       0.012496551 0.00055035914 -0.009429791 0.0030019798
000350 44 48 5c 3c be 25 e6 3a 67 55 00 3c fd a4 6e 39
       0.013444964 0.0017558855 0.0078328615 0.00022758912
000360 95 40 13 3b f5 0c 9b bc 18 d1 01 3c 24 4d c0 bb
       0.0022468914 -0.018927077 0.007923387 -0.005868571
000370 0f 8d 91 3b 99 13 c3 3b 78 13 87 3b 49 f2 23 3c
       0.0044418643 0.005953264 0.004122194 0.010006496
000380 be 73 12 bc bd 6b 2c 3c 00 21 3b 3b cc 1e 30 bc
       -0.008938728 0.010523734 0.0028553605 -0.01074953
000390 16 f2 35 3a 2b ce 86 3b fd b4 42 bc 73 bf eb 3b
       0.00069406757 0.0041139326 -0.011883971 0.0071944534
0003a0 03 5b 6e 3b cb 9f 82 ba cb 8b 03 3b 4e 34 e7 3a
       0.0036370165 -0.0009965835 0.0020072337 0.0017639489
0003b0 a6 4f ed ba ec 27 50 3c 0d a2 9e 3c 86 9b af 3b
       -0.0018105402 0.012704831 0.019364381 0.005359116
0003c0 d1 97 18 3c 14 8a fa 3b 55 ce 1d 3b 98 bb 58 3c
       0.00931354 0.0076458547 0.0024079282 0.01322832
0003d0 1a db c0 ba e4 16 f3 39 36 6f 3f bc 35 06 0c 3c
       -0.0014713735 0.00046365627 -0.01168423 0.008546402
0003e0 db ca ab 3b ce 2d 55 bc c0 87 14 ba 14 68 b0 bb
       0.005242688 -0.013011409 -0.000566598 -0.005383501
0003f0 25 cb 2e 3a 2b f0 b4 bb 4c 64 8f bc 86 aa c5 3a
       0.0006667844 -0.0055217943 -0.01750388 0.0015080727

bias f4 [3]
000000 6f 1b a9 3a 05 bd 4f 3b e4 3d 43 bb
       0.0012901853 0.0031698358 -0.0029791528

weight f4 [1, 128]
000000 3d bd 4d 3c ca 59 c7 3c 4f 26 72 3c 52 e4 82 3c
       0.012557325 0.024334807 0.014779641 0.015978012
000010 8e 88 55 bc d4 e0 c1 bc 1f 00 b1 bb 28 9b 93 3c
       -0.013033045 -0.023666777 -0.0054016258 0.01801832
000020 c6 10 e0 bc c2 1e 9a 3b 87 64 58 3c 86 fd b0 bc
       -0.027351748 0.0047033736 0.013207561 -0.021605264
000030 4d c7 c9 3c 79 ae 4a 3c 1a b6 9d 3b 8c 12 2c 3c
       0.024631167 0.012370699 0.004812968 0.010502469
000040 71 19 25 3c 04 89 a5 3b d1 30 66 bc db f6 3c 3c
       0.0100768665 0.005051734 -0.014049725 0.011533464
000050 17 b7 78 bc 76 11 87 3c ed 62 6f bc 2a bb 8b 3c
       -0.015180371 0.016487818 -0.014610988 0.01705702
000060 a3 21 ea ba ad 28 07 3c 15 0c 87 bc 5d 2f bc 3c
       -0.0017862808 0.008249444 -0.016485253 0.022971803
000070 cf e0 1d bb 35 7c 59 bc 33 0a 5e 3c e8 52 a4 3c
       -0.0024090295 -0.013274242 0.013552236 0.020059064
000080 be d8 f4 3b c6 04 06 3d 7f c6 c2 ba 5c ef 9e 3b
       0.0074721267 0.032719396 -0.0014860182 0.004850311
000090 c2 5c df 3c 93 fe 5f 3c 5c d2 a3 bc 19 5b aa bc
       0.02726591 0.013671535 -0.019997768 -0.020795392
0000a0 cb e1 12 3b 06 a0 fc 3b 8c b8 8e 3b c9 97 38 3c
       0.0022412415 0.007709506 0.004355496 0.011266657
0000b0 82 c3 c9 bc 1b 05 5b bc 69 f0 27 bc 6f f3 62 bc
       -0.024629358 -0.013367916 -0.010250189 -0.013851984
0000c0 f2 85 48 bc 3a c6 84 bc 00 6a b0 3b 5a 71 25 bc
       -0.012238966 -0.016207803 0.00538373 -0.010097826
0000d0 f8 a2 8e bc dd fb 60 3c 43 29 9d 3c b2 e2 08 3c
       -0.017411694 0.013731924 0.019184714 0.00835483
0000e0 79 7b a6 3b a0 49 5f bc b6 f7 f0 bb a4 47 4c 3c
       0.005080637 -0.013628393 -0.007353748 0.012468252
0000f0 a1 e1 b2 bc ed c8 55 bc b3 8f 1d bc c7 43 4a 3c
       -0.021836104 -0.013048393 -0.00961678 0.012345261
000100 54 b7 3e 3c b5 b2 9f bc 74 a6 5f 3c 2a db 1a 3b
       0.0116403885 -0.019494394 0.013650525 0.0023629167
000110 31 1a 1c bc 64 b1 9a 3c b0 24 b9 bc aa b7 1f 3c
       -0.009527729 0.018883415 -0.022600502 0.009748379
000120 3b 77 93 3b a4 64 b5 3a 46 4a 8a bc c4 49 9c 3c
       0.0045002974 0.0013839197 -0.01688112 0.019078143
000130 0d dd 7e 3c ce 48 33 bc 95 a3 ea bb 43 23 ce 3b
       0.015555632 -0.010942651 -0.007160614 0.0062908246
000140 3e 1e 69 3c e2 bc de bb 64 29 44 3b ab af 62 bb
       0.014228402 -0.006797419 0.0029931897 -0.003458957
000150 fe 9f 76 bc a1 a3 b7 ba 21 e7 67 bc 02 66 65 3c
       -0.015052794 -0.0014010557 -0.0141542265 0.014001371
000160 69 06 9f bc 52 62 15 3c ad 39 87 ba 2a 7c eb 3c
       -0.019412236 0.00911768 -0.0010316871 0.02874573
000170 35 7a 67 bb cc 24 b7 3b 17 c4 2e 3c be e6 17 3c
       -0.0035320644 0.0055891033 0.010666869 0.009271322
000180 b2 cd a4 bc 02 0a 85 3b 12 a6 c2 bc 32 1b 7a 3c
       -0.020117614 0.004060031 -0.02376083 0.015265273
000190 9e 79 9e bc c0 39 50 bc cd d8 fe 3b 3d c6 d4 3c
       -0.019345101 -0.012709081 0.0077773095 0.025973434
0001a0 b0 42 c0 3c be 8f 48 3c 2b 4c ba bc fa 40 1a 3c
       0.0234693 0.012241302 -0.022741398 0.009414906
0001b0 33 64 36 bb 73 11 37 bc 5a 87 cb 3c c0 8a 18 3c
       -0.002783072 -0.011173594 0.024844814 0.009310424
0001c0 b6 ac ca 3b 62 dd 9c ba cd 5b 35 bc 12 01 92 bc
       0.0061851395 -0.0011967833 -0.01106925 -0.017822776
0001d0 0b d0 63 3c da 24 8a 3c 4f 74 e2 bb e9 ba 88 bc
       0.013904582 0.016863275 -0.0069108377 -0.016690688
0001e0 30 d5 dd 3c 26 8f 88 b7 34 b0 a6 3c ae 47 3a bc
       0.027079195 -1.6279122e-05 0.020347692 -0.011369629
0001f0 a4 be e0 3b c1 61 80 3c 61 2d 80 3c 5c f9 94 bc
       0.0068586636 0.015671613 0.015646638 -0.01818531
