TradeSimulator-v0_D3QN_-1/actor_00189600_374.393.pth (torch, 152106 bytes, 14 tensors)

state_avg f4 [10]
0	0x3e0e7d87	0.13915072
1	0x39fe202e	0.0004847063
2	0xbb748ef7	-0.003731666
3	0x3e006efb	0.12542336
4	0x3aeb4cb9	0.0017951942
5	0xbbb22e29	-0.0054376316
6	0xbd32271e	-0.043494336
7	0x3e2ad754	0.16683704
8	0x3b296a12	0.0025850576
9	0xbc3030ba	-0.010753805

state_std f4 [10]
0	0x3f67909c	0.9045503
1	0x3f5205ea	0.82040274
2	0x3f6b372c	0.9188106
3	0x3f73a4ee	0.9517354
4	0x3f62a1df	0.88528246
5	0x3f5c9432	0.8616363
6	0x3f7f1dea	0.9965502
7	0x3f648726	0.8926872
8	0x3f610988	0.8790517
9	0x3f5cf36a	0.8630892

weight f4 [128, 10]
0	0x3e275c57	0.16343819
1	0xbd8d486e	-0.068985805
2	0xbd7a966a	-0.061178602
3	0x3e2826c3	0.16421036
4	0xbe91a1ea	-0.28443843
5	0x3e57fda0	0.21092844
6	0xbda98b16	-0.08278482
7	0x3e30e633	0.17275314
8	0x3d23c491	0.039982382
9	0xbd4a42bd	-0.049380053
10	0x3dc2ee30	0.09518087
11	0x3e89c8e9	0.26911095
12	0x3e0394b8	0.128497
13	0xbde695fb	-0.11259075
14	0xbd1b2d9d	-0.037885297
15	0xbd24ada7	-0.04020467
16	0x3d2aba39	0.041681502
17	0xb9d288d1	-0.00040156257
18	0x3e8e26d9	0.27764013
19	0x3dec29ba	0.11531396
20	0xbdee65da	-0.116405204
21	0xbecf7c4e	-0.40524524
22	0xbd7c4881	-0.061592583
23	0xbe124988	-0.14285862
24	0xbdd10639	-0.10206265
25	0x3b885753	0.0041608005
26	0x3e469f68	0.19396746
27	0x3e347865	0.17624052
28	0xbe909b5d	-0.28243533
29	0x3e41b184	0.18915373
30	0x3dba06d7	0.09083336
31	0x3ddc3f85	0.10754303
32	0x3e5da65b	0.21645491
33	0xbe98034f	-0.29690024
34	0xbe87bd10	-0.2651143
35	0xbe1d92fc	-0.15388101
36	0x3e947e13	0.29002437
37	0xbd4100bb	-0.047119837
38	0x3e0cb5d9	0.13741244
39	0xbe084082	-0.13305858
40	0x3e9b0952	0.30280548
41	0xbed05946	-0.4069311
42	0x3e635ba2	0.22202924
43	0x3caba321	0.02095181
44	0xbe2397a6	-0.15975818
45	0x3e2d10ed	0.16900988
46	0xbe3bc16b	-0.18335502
47	0x3ddfc5c4	0.10926393
48	0xbdb5cb00	-0.0887661
49	0xbd0c503f	-0.034256216
50	0xbea3ad02	-0.31967932
51	0xbe0e8eb6	-0.13921627
52	0x3e2922f6	0.16517243
53	0xbdb14588	-0.0865584
54	0x3ea26a92	0.31721932
55	0x3e785883	0.24252515
56	0xbc5520d2	-0.013008313
57	0xbe45ba18	-0.1930927
58	0x3e4507ea	0.192413
59	0x3dbe6071	0.092957385
60	0xbe4e76c7	-0.20162497
61	0xbda8bdd2	-0.0823933
62	0x3e42bb0f	0.1901667
63	0x3e93d623	0.2887431
64	0xbe3378cb	-0.17526548
65	0xbd63f768	-0.055655867
66	0xbc0e3093	-0.008678573
67	0x3d1fa497	0.038975324
68	0xbe759a00	-0.23984528
69	0xbe59f1f0	-0.21283698
70	0x3e3199a7	0.1734377
71	0xbe93c1b9	-0.28858736
72	0x3e1456ce	0.14486238
73	0x3cb5a433	0.022173023
74	0x3ddf1e53	0.10894456
75	0x3d711ce6	0.05886545
76	0x3dd24600	0.10267258
77	0x3e2c0e9e	0.16802451
78	0xbe89a3db	-0.26882824
79	0x3e14e3bc	0.14539999
80	0xbe72ed92	-0.23723438
81	0xbe372922	-0.17886785
82	0x3ca62269	0.02028008
83	0xbd696285	-0.05697872
84	0x3e3fad7f	0.18718527
85	0xbe52104b	-0.20514028
86	0xbe8abe4a	-0.27098304
87	0x3e72b97f	0.23703574
88	0xbd832942	-0.06404354
89	0x3e4282d3	0.18995218
90	0x3dbdebcb	0.092734896
91	0xbefa7c3f	-0.48922917
92	0x3d783b72	0.060603566
93	0x3da7e019	0.0819704
94	0xbe5cdeec	-0.21569413
95	0xbe13e4a0	-0.14442682
96	0x3dd885fb	0.1057243
97	0x3d819eda	0.06329127
98	0xbe122718	-0.14272726
99	0xbdca2d75	-0.098719515
100	0x3e9440fd	0.28955832
101	0xbe93a4cd	-0.2883667
102	0x3e37977c	0.1792888
103	0x3e081ec6	0.13292989
104	0xbe3a2e40	-0.18181705
105	0xbe867d51	-0.26267484
106	0x3e9b60b4	0.30347216
107	0x3c83da69	0.016095357
108	0x3e5d37cf	0.2160332
109	0x3d55b2bb	0.052172404
110	0x3dc8e1fc	0.09808728
111	0x3d20869f	0.039190885
112	0x3e962387	0.2932398
113	0xbe53a59e	-0.20668647
114	0x3d48e6c2	0.049048193
115	0x3e6b49e7	0.2297741
116	0x3e70cc77	0.23515497
117	0x3e537877	0.20651422
118	0xbe45f39c	-0.19331211
119	0xbe56b528	-0.20967543
120	0xbe39a27c	-0.18128389
121	0xbe47bbec	-0.1950528
122	0x3e9a7b91	0.301724
123	0xbe5485b1	-0.20754124
124	0x3e2b7797	0.16744839
125	0xbe1c6d2d	-0.15276022
126	0xbe998ec6	-0.2999174
127	0xbd85e04e	-0.06536923
128	0x3e3675d6	0.17818388
129	0x3e940596	0.28910512
130	0xbe40b774	-0.18819982
131	0x3d028bd1	0.03187162
132	0x3e8a19f5	0.2697293
133	0x3e5779ae	0.21042511
134	0x3e3b4494	0.18287879
135	0x3e777fb5	0.2416981
136	0x3e4f0d69	0.2021996
137	0x3dd3fe27	0.1035121
138	0xbe449992	-0.19199207
139	0xbe87fb55	-0.2655894
140	0xbe18982e	-0.14901802
141	0xbc0038df	-0.007826059
142	0xbe431714	-0.19051772
143	0x3dea9658	0.11454457
144	0x3daf26c7	0.08552318
145	0xbd804138	-0.062624395
146	0x3de2eec2	0.11080696
147	0x3dc6c5c6	0.09705691
148	0x3e3feb9c	0.18742222
149	0x3e44670d	0.19179936
150	0xbddaf26e	-0.10690771
151	0x3cb6838f	0.022279529
152	0xbd327370	-0.04356712
153	0xbc0b71af	-0.008510991
154	0xbe8eb52a	-0.27872592
155	0xbe41e15d	-0.18933626
156	0xbe47689a	-0.19473496
157	0xbe11e8b0	-0.1424892
158	0x3e6270a6	0.22113284
159	0xbde48427	-0.111580186
160	0xbe7d961e	-0.24764296
161	0x3e082c99	0.13298263
162	0x3dd5b28e	0.10434447
163	0x3e4c62cd	0.19959565
164	0xbe292a77	-0.16520105
165	0x3d6bbf1f	0.057555314
166	0xbdd06824	-0.10176113
167	0xbd95ae65	-0.07308654
168	0xbe7e9dd8	-0.248649
169	0xbe1075cd	-0.14107437
170	0xbdbc6e3e	-0.092007145
171	0xbd658316	-0.056033216
172	0x3d8312be	0.06400059
173	0x3dacc4a2	0.08435942
174	0x3e9cac02	0.30599982
175	0x3e93a8c1	0.28839687
176	0x3e73a778	0.23794353
177	0x3c52f955	0.012876828
178	0xbe5229aa	-0.20523706
179	0x3e73666c	0.2376954
180	0xbd97ee0e	-0.07418452
181	0xbe986c10	-0.29769945
182	0xbe86c6a1	-0.26323417
183	0xbd6d2830	-0.057899654
184	0xbe4001da	-0.18750706
185	0x3e80395b	0.2504376
186	0xbe96dd7f	-0.29465863
187	0xbe7c58c1	-0.24643232
188	0xbc2f2291	-0.010689394
189	0xbe2ffb92	-0.1718581
190	0x3de02074	0.1094369
191	0xbe43845a	-0.19093457
192	0xbe17ce48	-0.14824784
193	0x3c937ad5	0.018002907
194	0x3e656fbb	0.22405903
195	0xbe5cc269	-0.21558537
196	0x3e1bec67	0.15226899
197	0x3e53acbb	0.2067136
198	0x3e9afc17	0.30270454
199	0xbe6df1c1	-0.23236753
200	0x3dba4aa4	0.09096268
201	0xbbd6fdc2	-0.006561012
202	0x3e8f9048	0.28039765
203	0xbdd8481a	-0.10560627
204	0x3e4d459a	0.20046082
205	0xbc978db6	-0.01850019
206	0xbcbfa17e	-0.023392435
207	0x3ad58cf3	0.0016292616
208	0x3d330fd6	0.043716274
209	0x3e1a48ec	0.1506688
210	0x3d4656ed	0.048422743
211	0xbdd34eb1	-0.103177436
212	0xbe833b16	-0.25631016
213	0x3e7a39f5	0.24436171
214	0x3e7d6006	0.24743661
215	0x3e661e86	0.22472581
216	0x3e8188ad	0.25299588
217	0xbe6aeaa2	-0.22941068
218	0xbdd5ec57	-0.10445469
219	0x3e905a98	0.28194118
220	0xbe6e0802	-0.23245242
221	0x3d6eab97	0.05826911
222	0xbe80a6d7	-0.2512729
223	0xbe6a7398	-0.22895658
224	0x3e18e666	0.1493164
225	0xbe5575e4	-0.20845753
226	0xbdaa341c	-0.0831072
227	0x3e777df7	0.24169146
228	0x3e84f1f5	0.2596585
229	0x3e90dae6	0.28292006
230	0xbd70932f	-0.058734115
231	0xbf0c44d7	-0.5479254
232	0x3e990438	0.2988603
233	0xbd8495b2	-0.064738646
234	0xbdf80855	-0.12110964
235	0x3dad8a65	0.08473662
236	0xbe6cdec0	-0.23131847
237	0x3e61e599	0.22060241
238	0x3e454da5	0.192679
239	0xbe8494f1	-0.25894883
240	0xbe8423a6	-0.25808448
241	0xbe1223a5	-0.1427141
242	0x3df40466	0.119149014
243	0x3c13502b	0.0089912815
244	0xbe1a7d5b	-0.15086882
245	0x3c61e39f	0.013787179
246	0xbea21ec3	-0.31664094
247	0xbe5fa8db	-0.21841757
248	0xbe5f1274	-0.21784383
249	0x3e691464	0.22761685
250	0x3e8d583f	0.2760639
251	0xbe82595a	-0.25458795
252	0x3c0e1aa2	0.008673342
253	0x3e1c2557	0.15248619
254	0x3d29540a	0.04133991
255	0xbe28d938	-0.16489112

bias f4 [128]
0	0x3c8e616b	0.017380437
1	0xbb8f7387	-0.0043777856
2	0x3d70663e	0.058691256
3	0x3b13beb3	0.0022544086
4	0x3e3f1216	0.18659243
5	0x3cd4813b	0.025940528
6	0x3e6896a3	0.22713713
7	0x3daa7947	0.08323913
8	0x3b37dab5	0.0028053944
9	0x3d659cbd	0.05605768
10	0x3e6b1230	0.22956157
11	0x3d6b00a6	0.057373665
12	0x3e73368c	0.23751277
13	0xbc94f656	-0.018183868
14	0x3add9ca8	0.0016907649
15	0x3e8c6761	0.27422622
16	0xbe9abbde	-0.30221456
17	0x3d386405	0.04501726
18	0x3e9ca3bb	0.30593666
19	0xbe1c5eec	-0.15270585
20	0xbd463852	-0.048393555
21	0xbbe4cd00	-0.0069824457
22	0x3df3a358	0.1189639
23	0x3e0a8278	0.13526332
24	0x3db9ac52	0.090660706
25	0x3e0649d2	0.13114098
26	0xbe052dd4	-0.13005763
27	0x3e173566	0.14766464
28	0xbdcf0366	-0.1010807
29	0x3e5c0610	0.21486688
30	0xbda4dd66	-0.08050041
31	0xbe893b2b	-0.26802954
32	0x3d177161	0.03697336
33	0x3e487b30	0.19578242
34	0xbb5a6145	-0.0033322137
35	0x3991ddaa	0.00027821708
36	0x3bf3c849	0.0074396473
37	0x3e387b76	0.18015847
38	0x3cce98c0	0.025219321
39	0xbe937df7	-0.2880704
40	0xbe5f169b	-0.21785967
41	0x3cf5a479	0.029985653
42	0xbc1dbb9a	-0.009627247
43	0x3ea512e8	0.32240987
44	0xbd50d780	-0.050986767
45	0x3e7df75e	0.24801394
46	0xbe82935a	-0.25503045
47	0xbe9ae9a9	-0.30256394
48	0xbc8b0d3e	-0.016974088
49	0xbe4e4802	-0.20144656
50	0xbda5214b	-0.08062991
51	0x3d08259b	0.03323899
52	0xbe89e53d	-0.26932707
53	0x3e744d65	0.23857649
54	0xbe38c2eb	-0.18043105
55	0x3e866cc9	0.2625487
56	0x3de35f7f	0.11102199
57	0xbd49a69f	-0.049231168
58	0xbe89d2f6	-0.26918763
59	0x3d6559c0	0.055993795
60	0xbe2b42ad	-0.16724654
61	0x3e936920	0.28791142
62	0xbe869cf3	-0.26291618
63	0xbda940d6	-0.082643196
64	0xbe25899a	-0.16165772
65	0xbe49ef1c	-0.19720119
66	0xbe33e1ee	-0.17566654
67	0xbc8dbd0d	-0.01730206
68	0x3cc80e5a	0.024420906
69	0x3d97ac7c	0.07405946
70	0x3e305365	0.17219312
71	0xbdf10b49	-0.117697306
72	0xbe5a4bca	-0.21317974
73	0xbd744110	-0.05963236
74	0x3ea1a4c6	0.31571025
75	0xbd1a00ce	-0.037598424
76	0xbe8b97aa	-0.27264148
77	0x3e87e39a	0.26540834
78	0x3d9776fe	0.07395743
79	0x3d9fee28	0.078090966
80	0x3d7c020b	0.061525386
81	0x3e659db5	0.22423442
82	0xbe182e06	-0.14861307
83	0x3e8018b0	0.25018835
84	0x3ea4e385	0.32204834
85	0xbd9c964b	-0.076458536
86	0x3e5ef682	0.21773723
87	0x3e422e87	0.18963061
88	0x3e9f89eb	0.3115991
89	0xbd892464	-0.06696394
90	0xbe33f636	-0.17574391
91	0xbde810fa	-0.11331363
92	0xbe56c338	-0.20972908
93	0x3cc4cbdf	0.024022995
94	0x3ea60d8f	0.3243222
95	0x3ea4bdd6	0.32176083
96	0x3e7b91ef	0.24567388
97	0x3d0e303e	0.034713976
98	0x3ca83be0	0.020536363
99	0x3e67eb6f	0.22648405
100	0x3e5b116f	0.21393369
101	0xbd035718	-0.03206548
102	0xbd932c3e	-0.07186173
103	0x3e096c85	0.13420303
104	0x3c39395b	0.0113051785
105	0xbe50a78d	-0.20376416
106	0xbe12ec97	-0.14348064
107	0x3e88e401	0.26736453
108	0x3e8d656a	0.27616435
109	0xbde6c988	-0.11268908
110	0xbd6b1ed8	-0.05740246
111	0xbe1e3f67	-0.15453874
112	0xbdcde0dc	-0.10052654
113	0x3e95b98e	0.2924313
114	0xbe973ac2	-0.29537016
115	0x3e170fb8	0.1475209
116	0xbe8f56fa	-0.27996045
117	0xbe15f181	-0.14642908
118	0xbd3ad268	-0.045610815
119	0x3cca5447	0.02469839
120	0xbd2c22e0	-0.042025447
121	0xbe1230dc	-0.14276451
122	0xbe0a79b2	-0.13522986
123	0xbe51e695	-0.20498116
124	0xbe6462d6	-0.22303328
125	0xbe469119	-0.19391288
126	0x3ea6c6b4	0.32573473
127	0xbe0ce970	-0.13760924

weight f4 [128, 128]
0	0xbda46c21	-0.080284365
1	0x3d8be75e	0.06831239
2	0x3d21a619	0.039465044
3	0x3d8f1d15	0.06987969
4	0xbdaf579c	-0.08561632
5	0xbd985cf8	-0.074396074
6	0xbd7eddb8	-0.062223166
7	0xbd4a1fd0	-0.049346745
8	0xbc22ac1e	-0.009928731
9	0x3d2a3ada	0.04156003
10	0x3d678143	0.056519758
11	0xbd838746	-0.06422286
12	0x3d1a9d4a	0.03774766
13	0xbd3ca1c0	-0.046052694
14	0x3c824bb9	0.015905248
15	0x3d2ac9d2	0.041696377
16	0x3c88a102	0.016678337
17	0x3d1b815e	0.03796517
18	0x3b5abc38	0.0033376347
19	0x3d4544a6	0.04816117
20	0x3ca39ef7	0.019973261
21	0x3dadfb7d	0.08495233
22	0x3c9ae12a	0.018906195
23	0xbd2352f5	-0.039874036
24	0x3d5df1d1	0.054185692
25	0x39380c8c	0.00017552281
26	0x3dbd88a8	0.09254581
27	0xbc5f881d	-0.013643292
28	0x3da3f2ba	0.08005281
29	0xbd5d2a55	-0.05399545
30	0x3d2d436d	0.04230063
31	0xbd8ea683	-0.06965353
32	0x3d6e8529	0.05823246
33	0x3cc39d05	0.023878584
34	0x3d87a764	0.06623724
35	0xbd92c474	-0.07166377
36	0xbdb06b75	-0.08614246
37	0x3d35547f	0.044270035
38	0xbcc85193	-0.02445296
39	0x3d212ce1	0.03934944
40	0xbd45feef	-0.048338827
41	0xbcbc227d	-0.022965664
42	0x3cb68541	0.022280337
43	0x3d6706d9	0.056403015
44	0x3d11fd96	0.03564223
45	0x3b282892	0.0025658947
46	0xbcf899cf	-0.03034678
47	0xbba10dbf	-0.0049149687
48	0x3cff7002	0.03118134
49	0xbd8876b5	-0.066632666
50	0xbc95ad5d	-0.018271143
51	0xbda3ee62	-0.08004452
52	0xbb27758c	-0.002555224
53	0xbbe27aac	-0.0069115963
54	0x3d578da9	0.052625332
55	0x3dae0c79	0.08498473
56	0xbd8936ba	-0.066998914
57	0xbd04da0e	-0.032434516
58	0xbd42f7dd	-0.047599662
59	0x3b26e353	0.0025465086
60	0xbd1a0518	-0.037602514
61	0xbd55ed76	-0.052228414
62	0xbd2acbfe	-0.04169845
63	0xbbde35b5	-0.0067813047
64	0x3d4b2fd5	0.049606163
65	0xbcbad7ef	-0.022808043
66	0x3d83868f	0.064221494
67	0xbd8c6871	-0.06855858
68	0x3bb387b6	0.0054788245
69	0xbd6daf2e	-0.058028392
70	0xbdb9052b	-0.09034189
71	0x3c532aec	0.012888651
72	0xbd1fdbe0	-0.03902805
73	0x3d8b6696	0.06806676
74	0x3d90dfd0	0.07073939
75	0xbd9c30fb	-0.0762653
76	0xbb9e00d2	-0.004821875
77	0xbb8de2bc	-0.0043300074
78	0xbd291294	-0.041277483
79	0xbd28f51a	-0.041249372
80	0xbd552549	-0.05203751
81	0x3d4b9a82	0.049707897
82	0x3bd4674c	0.0064820405
83	0x3d8b7e16	0.06811158
84	0xbc03b5b8	-0.008038931
85	0x3d3a3acf	0.04546624
86	0x3ca15af3	0.019696688
87	0xbc9f6a43	-0.01945985
88	0xbc2a9551	-0.010411576
89	0xbdb717e6	-0.08940105
90	0xbc30f93c	-0.01080161
91	0xbca96826	-0.020679545
92	0xbd51f494	-0.05125864
93	0xbcd7bbbc	-0.026334636
94	0xbcf4a2d8	-0.029862806
95	0xbd8438e1	-0.06456161
96	0x3c76ffcf	0.015075638
97	0xbb0e3527	-0.0021699162
98	0xbd069cf6	-0.032864533
99	0x3db760a0	0.08953977
100	0x3d955fc2	0.07293655
101	0x3d2496a7	0.040182736
102	0xbd2c30f5	-0.042038877
103	0x3b23da05	0.0025001776
104	0xbd79aeaa	-0.06095759
105	0x3d74182d	0.05959337
106	0x3da021f8	0.07818979
107	0xbc4c9b68	-0.012488224
108	0x3d838dc7	0.06423526
109	0x3da0044c	0.078133196
110	0xbc00dc35	-0.007865001
111	0xbcfda499	-0.030962275
112	0xbc1bfa63	-0.009520146
113	0x3c63a935	0.013895323
114	0xbdb6b77f	-0.08921718
115	0x3c18dc7d	0.009329912
116	0xbd134e52	-0.035963364
117	0x3d8484a5	0.064706124
118	0xbc8af21a	-0.016961146
119	0x3d89efe1	0.067352064
120	0x3d73f1ed	0.05955689
121	0xbcda6ed1	-0.02666417
122	0x3cc73b61	0.024320306
123	0xbc53ea83	-0.01293433
124	0xbd00f202	-0.031480797
125	0xbd208a10	-0.039194167
126	0x3c03a5c9	0.008035132
127	0x3d078e03	0.033094417
128	0xbc29b879	-0.010358923
129	0x3c459e24	0.012061629
130	0x3d7a3145	0.061082143
131	0x3d2c0b7c	0.04200314
132	0x3d2b807e	0.041870587
133	0x3cffc882	0.03122354
134	0xbd792d1c	-0.060834035
135	0xbd52f0c3	-0.05149914
136	0xbd7b6aa9	-0.061381016
137	0x3d7dbec4	0.061949506
138	0xbd985b25	-0.074392594
139	0xbd798628	-0.060918957
140	0x3d7a87bd	0.061164606
141	0x3d5d40f9	0.05401704
142	0xbda361e9	-0.07977659
143	0x3d6df16a	0.05809156
144	0xbc9e7a10	-0.019345313
145	0x3cab0a7c	0.020879023
146	0xbd32dc9b	-0.043667417
147	0xbc66a56a	-0.014077524
148	0x3c83e028	0.016098097
149	0x3d89cd63	0.067286275
150	0x3d703857	0.05864748
151	0xbd2936a1	-0.041311864
152	0xbd6278eb	-0.055291098
153	0xb95264d3	-0.0002006472
154	0x3cf13c7f	0.029447792
155	0x3d6a3b1a	0.05718527
156	0xbdae6e48	-0.08517128
157	0x3b0aaca6	0.0021160035
158	0x3c331f09	0.010932692
159	0xbd308108	-0.043091804
160	0x3da13d2b	0.07872995
161	0xbc77dbb4	-0.015128065
162	0xbd9a3ccf	-0.075311296
163	0xbd416ac9	-0.04722098
164	0x3c0ca9b7	0.008585385
165	0xbd69e311	-0.057101313
166	0x3c9bbbef	0.019010512
167	0x3da40947	0.08009582
168	0x3c618437	0.013764433
169	0xbc26a153	-0.010170299
170	0x3dc003da	0.093757346
171	0x3d978532	0.07398452
172	0x3d78f6b3	0.060782146
173	0x3c7bae2d	0.015361351
174	0x3c0e52d8	0.008686744
175	0xbd78af27	-0.060713913
176	0x3c77208e	0.015083445
177	0x3dc50685	0.09620384
178	0x3c5fb0eb	0.01365302
179	0xbd95f526	-0.07322149
180	0x3d05884f	0.032600697
181	0x3dab83de	0.08374761
182	0x3da6b822	0.08140589
183	0x3c822078	0.015884623
184	0x3cdbfcc3	0.026853925
185	0x3cb2f196	0.021843713
186	0xbd1235c6	-0.035695814
187	0xbc55071b	-0.013002182
188	0x3d8a4dfa	0.06753154
189	0x3c967ea2	0.01837093
190	0x3da1b4cb	0.07895812
191	0xbd854685	-0.06507591
192	0xbc0b207e	-0.008491633
193	0x3b9d16e4	0.0047939885
194	0xbd229905	-0.039696712
195	0x3d981bd9	0.074271865
196	0x3d83f9bc	0.064441174
197	0xbd243239	-0.04008696
198	0x3da99f68	0.082823575
199	0x3d9e0187	0.07715135
200	0xbd459462	-0.048237212
201	0x3a98169f	0.0011603421
202	0x3dbe759f	0.09299778
203	0xbd605ca9	-0.054775868
204	0xbc4859c1	-0.01222843
205	0xbd5cb2a6	-0.05388131
206	0x3d929802	0.071578994
207	0x3ca7ce06	0.020483982
208	0x3d271a20	0.0407964
209	0x3d949ffc	0.07257077
210	0xbc824e69	-0.01590653
211	0xbd8f549b	-0.06998559
212	0x3c6077b4	0.013700414
213	0xba9b939c	-0.0011869553
214	0x3d29e049	0.04147366
215	0x3d3d7d48	0.046262056
216	0xbd15b4a6	-0.036549233
217	0xbcfbfa71	-0.030759068
218	0x3d5c72cf	0.053820428
219	0x3ce76215	0.028245011
220	0x3cb1a386	0.02168442
221	0x3d4baa99	0.04972324
222	0x3d3ef386	0.04661896
223	0xbd6bc2de	-0.057558887
224	0x3c925986	0.017864954
225	0x3be1eb1a	0.0068944814
226	0xbda33745	-0.07969526
227	0x3d060ca6	0.032726906
228	0x3c38c225	0.011276756
229	0x3d908df6	0.07058327
230	0xbdaebb02	-0.08531763
231	0x3db5849f	0.08863186
232	0xbd2b744b	-0.041858952
233	0x3d4d573f	0.050132032
234	0x3d5fbe72	0.054624982
235	0xbb7dfae0	-0.003875427
236	0xbd207a7c	-0.03917931
237	0xbc3e679f	-0.011621385
238	0xbd67d9f7	-0.05660435
239	0x3c57d04c	0.01317222
240	0x3d1444a4	0.036198273
241	0x3cc59e6e	0.024123397
242	0xbd54425a	-0.05182109
243	0x3d7e7f3e	0.062133066
244	0x3d96f296	0.07370488
245	0xbcc34f1c	-0.023841433
246	0x3d36ff65	0.044677157
247	0xbc0a273b	-0.008432205
248	0x3d10fdf4	0.03539844
249	0xbd8935ea	-0.066997364
250	0xbd924e21	-0.07143808
251	0xbc3cac0c	-0.011515629
252	0xbd8b3620	-0.06797433
253	0x3d1d8f47	0.038466718
254	0x3dbd0540	0.09229517
255	0xbc7ef3db	-0.015561069

bias f4 [128]
0	0x3d88a019	0.06671161
1	0x3d6c2a2e	0.057657413
2	0xbcb7e474	-0.022447802
3	0x3d3ef4a8	0.04662004
4	0xbcf4378f	-0.029811649
5	0xbc5bb186	-0.013409024
6	0xbda54bcf	-0.080711
7	0x3d40dd04	0.047085777
8	0x3d8b5386	0.0680304
9	0x3be2161f	0.0068996097
10	0xbdb10b31	-0.08644713
11	0xbb7df130	-0.0038748495
12	0xbd6d7773	-0.057975244
13	0xbd2fd2ff	-0.04292583
14	0xbc86d3d1	-0.016458424
15	0x3d2d90e1	0.042374495
16	0x3d67a907	0.05655768
17	0xbda7b33f	-0.08188485
18	0xbd4c0aba	-0.049814917
19	0xbd3ab8ae	-0.04558628
20	0x3cf13c73	0.02944777
21	0x3a987b1c	0.0011633369
22	0xbc6bbb79	-0.014387959
23	0x3c5b4853	0.013383943
24	0x3bac68d1	0.0052615185
25	0xbd95ee60	-0.07320857
26	0x3cfa6ef6	0.030570488
27	0x3cb38a13	0.021916425
28	0x3c8885e5	0.016665408
29	0x3d401397	0.046893682
30	0x3ca7b334	0.020471193
31	0xbd592016	-0.053009115
32	0x3dca0a93	0.09865298
33	0x3d3fdce4	0.046841517
34	0x3db93ca3	0.09044769
35	0x3c9fe4bd	0.01951825
36	0x3d8960f5	0.06707946
37	0xbbd4e367	-0.006496835
38	0x3b51a080	0.0031986535
39	0x3d495963	0.04915751
40	0xbd1e7797	-0.03868827
41	0xbda1b205	-0.07895283
42	0x3cb7b163	0.022423452
43	0x3d812ede	0.06307767
44	0x3dbdb5c6	0.09263186
45	0xbc0a645c	-0.008446779
46	0xbcdb980c	-0.0268059
47	0xbd6766f1	-0.056494657
48	0x3dbb5ab5	0.0914816
49	0xb8eb27ac	-0.00011213063
50	0xbd08b2fb	-0.033373814
51	0xbd6fdc51	-0.05855972
52	0xbca33a91	-0.019925388
53	0x3da8da47	0.08244758
54	0x3d2a4c39	0.041576598
55	0xbd933cc8	-0.071893275
56	0x3d3a8ec5	0.045546312
57	0xbcf0feda	-0.029418398
58	0x3db5a343	0.0886903
59	0xbce0f695	-0.02746133
60	0x397d703e	0.00024169774
61	0x3cfea660	0.031085193
62	0xbc3935c0	-0.011304319
63	0xbd425398	-0.047443002
64	0x383aae7c	4.4508357e-05
65	0x3dc565dc	0.09638569
66	0xbd8e3e2e	-0.069454536
67	0x3d837a22	0.06419779
68	0x3d5b83b8	0.053592414
69	0x3db2bd19	0.08727474
70	0x3ccc33fc	0.024927132
71	0xbb510cf1	-0.0031898583
72	0xbd59563a	-0.053060748
73	0x3dcb8cbd	0.09938953
74	0x3c1138e1	0.008863659
75	0x3bae0b31	0.0053113927
76	0x3cd6e305	0.026231298
77	0xbc4be4f5	-0.012444724
78	0x3bdd3168	0.0067502744
79	0x3cdc990c	0.026928447
80	0x3d877776	0.06614582
81	0x3d7e9e3b	0.06216262
82	0xbdbf04c6	-0.09327082
83	0xbc6578bf	-0.014005839
84	0xb90368c0	-0.00012532156
85	0x3d2d16b2	0.042257972
86	0xbd57f920	-0.05272782
87	0xbc2b85e1	-0.010468931
88	0xbd28a324	-0.041171208
89	0xbd5daa73	-0.05411763
90	0x3c845670	0.016154498
91	0x3d8bc1f3	0.06824102
92	0x3cec58ea	0.028850991
93	0xbd13b934	-0.036065295
94	0xba7d6351	-0.00096659834
95	0xbcedfbe1	-0.02905077
96	0x3dc295d3	0.09501233
97	0x3d0061b4	0.031343177
98	0xbd5d5fc6	-0.054046415
99	0xbd97172c	-0.073774666
100	0xbd1f8b7b	-0.03895138
101	0xbd806a3a	-0.06270261
102	0x3cd84963	0.026402181
103	0xbd12f4e3	-0.035878073
104	0xbdaba04e	-0.08380185
105	0xbcac94fc	-0.021067135
106	0xbd22340e	-0.039600424
107	0xbd04427d	-0.03228997
108	0x3d998601	0.07496262
109	0xba578440	-0.0008221306
110	0xbd719cfd	-0.058987606
111	0xbd3fcbc3	-0.04682518
112	0x3db8285a	0.089920714
113	0xbbf7d1c4	-0.007562848
114	0xbce4e06c	-0.027939044
115	0xbc8aa43c	-0.016924016
116	0x3d1c08ba	0.03809426
117	0x3da0588e	0.078293905
118	0xbc4f7468	-0.012662031
119	0xbbb71724	-0.0055874754
120	0xbce12f34	-0.027488329
121	0xbd787a37	-0.06066343
122	0x3d546e2d	0.051862884
123	0x3c8e4ec2	0.017371539
124	0x3c2c2986	0.010507947
125	0x3c8f6efb	0.017508974
126	0x3cbf5b58	0.023358986
127	0x3da3a94e	0.07991277

weight f4 [128, 128]
0	0xba881b42	-0.00103841
1	0x3d2660fe	0.040619843
2	0x3c191648	0.009343691
3	0x3d03572d	0.03206556
4	0xbd5373f1	-0.051624242
5	0x3d57d257	0.05269083
6	0xbd70eb3a	-0.05881808
7	0x3c48f56e	0.012265546
8	0x3d96ba9d	0.073598124
9	0xbca16bc2	-0.019704703
10	0xbd15df1a	-0.03658972
11	0x3d4bb1e5	0.0497302
12	0xbcc8fb14	-0.024533786
13	0xbd052ec4	-0.032515302
14	0xbb605600	-0.0034230947
15	0x3d0f1800	0.034934998
16	0x3d819494	0.06327167
17	0xbd10281d	-0.035194505
18	0x3c3417fe	0.010992048
19	0x3de5288c	0.11189374
20	0x3d8d3e35	0.06896631
21	0xbd672bae	-0.05643814
22	0xbd4022bd	-0.04690813
23	0xbbfe7f74	-0.0077666584
24	0xbd5a7fa2	-0.053344376
25	0xbcedde97	-0.029036803
26	0xbc014f71	-0.007892475
27	0xbd1220bb	-0.035675745
28	0xbd5b2588	-0.05350259
29	0xbd13aafd	-0.03605174
30	0x3cf77bb0	0.030210346
31	0xbd8c6c41	-0.06856585
32	0x3d9ea831	0.07746924
33	0x3daf7bcf	0.085685365
34	0x3ccc54ec	0.024942838
35	0xbd318f70	-0.043349683
36	0x3ca8c9c5	0.020604024
37	0xbd9a7aa4	-0.07542923
38	0x3d2a46d2	0.041571446
39	0x3d63ff46	0.05566337
40	0x3d5fb0d1	0.054611985
41	0x3d83b0b0	0.06430185
42	0x3d57595e	0.05257546
43	0xbdbae430	-0.091255546
44	0xbd52f01f	-0.05149853
45	0xbc4c5f4d	-0.012473893
46	0x3c8bd236	0.01706801
47	0x3d57a378	0.05264613
48	0xbdbde2b9	-0.092717595
49	0xbd622092	-0.055206843
50	0x3cfcc58b	0.030855915
51	0x3d5eee8b	0.05442671
52	0x3ba4dfc7	0.005031559
53	0x3d29dc08	0.041469604
54	0x3da50f9c	0.08059618
55	0x3da49530	0.08036268
56	0x3ca2343d	0.0198003
57	0xbd9ceeb2	-0.07662715
58	0xbd12f081	-0.035873894
59	0xbd563c36	-0.052303515
60	0xbd62d299	-0.055376623
61	0x3d81ca3b	0.063374005
62	0x3b912257	0.0044291425
63	0xbd6c8dc2	-0.05775238
64	0x3d30050e	0.04297357
65	0xbcfad82c	-0.030620657
66	0xbd51caf5	-0.051218946
67	0xbb8ebe60	-0.0043561906
68	0xbd461384	-0.048358455
69	0xbd4b9da2	-0.049710877
70	0xbd5390d2	-0.051651783
71	0xbd838d2b	-0.0642341
72	0xbcfdcfc7	-0.030982865
73	0x3d4f885d	0.050667156
74	0xbd36f0a9	-0.044663105
75	0x3dba2ad2	0.090901986
76	0x3c256f28	0.0100973025
77	0xbcc691d0	-0.02423945
78	0xbc03154e	-0.008000685
79	0xbb934243	-0.004493983
80	0x3cace2f8	0.02110432
81	0x3d6c7b42	0.057734735
82	0x3cc70cec	0.024298154
83	0xbdc841a6	-0.097781464
84	0x3c2ccb64	0.010546539
85	0x3cd2eb71	0.025747033
86	0xbd895bc8	-0.06706959
87	0xbd851b50	-0.0649935
88	0x3d0bed9d	0.034162153
89	0xbdba1442	-0.09085895
90	0xbd9246fb	-0.07142445
91	0x3d8caa45	0.06868414
92	0xbc18cf5c	-0.009326782
93	0xbc461e16	-0.012092134
94	0x3d699145	0.057023305
95	0x3cfa2e5b	0.030539682
96	0xbca21e70	-0.019789904
97	0x3b4f246f	0.003160741
98	0x3d6cc01e	0.057800405
99	0x3d9d1b8f	0.07671272
100	0xbd20a17d	-0.039216507
101	0xbc0e2f97	-0.0086783385
102	0x3d62e202	0.05539132
103	0x3d63e095	0.0556341
104	0x3c37c571	0.011216507
105	0x3cbeda6b	0.02329751
106	0x3d8473b3	0.064673804
107	0xbd659e50	-0.05605918
108	0x3b0591c2	0.0020381068
109	0x3c35af06	0.011089092
110	0xbcab8533	-0.020937538
111	0xbd3fa86b	-0.046791475
112	0xbc5b8413	-0.013398188
113	0xbda9c07a	-0.08288665
114	0xbd8adb8e	-0.06780158
115	0xbd3643f9	-0.044498418
116	0xbcdbeb80	-0.026845694
117	0xbd766228	-0.060152203
118	0x3ca75f8d	0.020431304
119	0xbdb86c14	-0.09004989
120	0xbc9f5bca	-0.019452948
121	0xbdb2c5e3	-0.0872915
122	0x3c979fed	0.018508876
123	0xbce6aa50	-0.028157383
124	0x3ac06daf	0.0014681126
125	0xbcb83a4e	-0.02248874
126	0xbd9fc741	-0.078016765
127	0x3d701c6e	0.058620863
128	0xbda19f1b	-0.07891675
129	0x3cd16e50	0.025565296
130	0x3dc10479	0.09424681
131	0x3d98be4c	0.07458171
132	0x3da67bc3	0.081290744
133	0xbd84e34c	-0.06488666
134	0x3d58e65b	0.05295406
135	0xbcebcd05	-0.028784284
136	0xbc88e8e9	-0.016712623
137	0xbd82ebf0	-0.06392658
138	0x3dbdb70f	0.09263431
139	0x3d419b71	0.04726738
140	0x3bc01554	0.0058619175
141	0x3d98aec8	0.07455212
142	0xbd4eb0e2	-0.050461657
143	0xbceaca28	-0.028660849
144	0xbc9cc611	-0.019137414
145	0xbd13d925	-0.036095757
146	0x3d2957a8	0.04134336
147	0x3d4ee790	0.050513804
148	0xbbdb71e4	-0.0066969264
149	0x3ce25204	0.027626999
150	0xbd7d9b7d	-0.061915863
151	0x3cf40f86	0.029792558
152	0xbd672108	-0.056427985
153	0x3da35a71	0.07976235
154	0xbd536b80	-0.051616192
155	0x3da6af3e	0.081388935
156	0xbd24c6b3	-0.040228557
157	0x3cb03cd4	0.02151338
158	0x3c17368a	0.009229312
159	0xbc6ff2a7	-0.014645255
160	0x3d7240df	0.059143897
161	0x3d520978	0.05127856
162	0xbac1cd0e	-0.0014785843
163	0xba9db975	-0.001203342
164	0xbd6278c3	-0.05529095
165	0x3cea33a9	0.028589087
166	0xbce19e20	-0.02754122
167	0x3d5be057	0.053680744
168	0xbdbc3ec0	-0.09191656
169	0x3d7f0a52	0.0622657
170	0xbd7d5fa8	-0.061858803
171	0xbdb7911d	-0.08963225
172	0x3c2b91e5	0.010471796
173	0x3d9efc71	0.07762993
174	0xbcd3ab9b	-0.025838664
175	0x3d8cff0d	0.068845846
176	0x3d40a412	0.04703147
177	0xbcdaae16	-0.026694339
178	0xbd69198f	-0.05690914
179	0xbd306055	-0.04306062
180	0x3d67c9e0	0.056589007
181	0x3cc2e377	0.023790104
182	0x3b0149a1	0.0019727724
183	0xbd0aaf5a	-0.033858635
184	0x3da4aeeb	0.080411755
185	0x3d8143de	0.06311773
186	0xbdb54fbb	-0.08853098
187	0xbd81a66c	-0.063305706
188	0xbd922f81	-0.07137967
189	0x3cb37c53	0.021909868
190	0xbd2e6b72	-0.042582937
191	0xbcaf2a6a	-0.02138253
192	0xbd8cfb2b	-0.06883844
193	0xbd930d5f	-0.07180285
194	0xbafe5e23	-0.0019406717
195	0xbdae3b3b	-0.08507391
196	0xbce354ac	-0.027750336
197	0x3bee2595	0.0072676637
198	0x3cdca9df	0.02693647
199	0xbdb7d114	-0.08975425
200	0x3c10790e	0.008817924
201	0x3d95dd1a	0.073175624
202	0xbd6e8040	-0.058227777
203	0xbd1868c2	-0.03720928
204	0x3cd6cb96	0.026220124
205	0xbbff1285	-0.00778419
206	0xbd2c3e00	-0.042051315
207	0x3d443c7f	0.047909256
208	0xbdb0cdee	-0.08633028
209	0xbdb329eb	-0.087482296
210	0x3d5fe455	0.054661114
211	0x3d05a110	0.032624304
212	0x3c3a50e6	0.011371827
213	0x3da19838	0.078903615
214	0xbda0e0da	-0.07855387
215	0x3d82be60	0.063839674
216	0x3bfb4462	0.007668064
217	0x3d76bc81	0.060238365
218	0x3d21f4ab	0.039539974
219	0x3cdca936	0.026936155
220	0xbdae65d3	-0.08515515
221	0x3b91ca8f	0.0044491957
222	0xbcf74ab5	-0.03018699
223	0xbc574074	-0.013137925
224	0x3d93792b	0.07200845
225	0xbc85a42d	-0.016313637
226	0xbd310982	-0.043221958
227	0xbd08f013	-0.033432078
228	0xbcaf6dca	-0.021414656
229	0x3d51085a	0.051033355
230	0x3c3738fa	0.011183018
231	0x3c136945	0.008997266
232	0xbd519278	-0.051165074
233	0x3dabb455	0.08384005
234	0xbcc495a0	-0.023997128
235	0x3cf7d2e6	0.030251931
236	0xbd979ae2	-0.074025884
237	0x3d2f0cf5	0.042736966
238	0x3d0430f8	0.032273263
239	0x3d8167d0	0.06318629
240	0x3d329096	0.04359492
241	0xbdbff2a1	-0.0937245
242	0xbcfeeab0	-0.031117767
243	0x3d5567e8	0.052101046
244	0x3d13bd40	0.036069155
245	0xbcac5bbb	-0.021039834
246	0x3d3cda81	0.04610682
247	0x3d94c75c	0.07264587
248	0x3c3acf74	0.011402
249	0x3bcf9052	0.006334343
250	0x3da2ca86	0.079487845
251	0x3d8c6ded	0.06856904
252	0xbd08a7ca	-0.03336314
253	0xbb4827e2	-0.003054135
254	0xbc631158	-0.013859116
255	0x3d19355d	0.037404407

bias f4 [128]
0	0xbd4f07b9	-0.050544474
1	0xbd297d68	-0.041379362
2	0xbcdc28c0	-0.0268749
3	0xbd95592f	-0.07292401
4	0x3daf43d2	0.085578576
5	0x3d8c8eab	0.06863149
6	0x3c15900e	0.009128584
7	0x3bbe43f4	0.0058064405
8	0x3d8c6121	0.06854463
9	0x3d9a8f8e	0.07546912
10	0xbcdc92c9	-0.026925461
11	0xbd30a9d2	-0.043130703
12	0x3d425a6f	0.047449525
13	0xbd708f53	-0.058730435
14	0x3d4118f4	0.047142938
15	0xbd993c8b	-0.07482251
16	0xbd296f5e	-0.041365974
17	0xbbb6cc5e	-0.0055785617
18	0xbd4fbcf8	-0.050717324
19	0x3cea460e	0.028597858
20	0x3ae8f816	0.0017774131
21	0x3c0e628e	0.008690489
22	0x3d91a691	0.07111848
23	0x3d1b0050	0.037842095
24	0xbd7672c0	-0.060168028
25	0xbd5e6868	-0.05429879
26	0x3ccc0845	0.024906287
27	0xbd2d380e	-0.042289786
28	0x3d91ff32	0.07128753
29	0x3dc0e62e	0.09418903
30	0xbc8f241e	-0.017473277
31	0xbda3dd6f	-0.080012195
32	0xbdc1ce5d	-0.09463189
33	0xbd894ee7	-0.067045026
34	0xbd9f0e16	-0.077663586
35	0x3d7ab090	0.06120354
36	0xbd64384f	-0.055717763
37	0xbd93e5df	-0.07221579
38	0x3dbacf51	0.09121574
39	0xbd867cb0	-0.06566751
40	0x3d8e04e4	0.069345266
41	0xbceec64d	-0.029147292
42	0xbc7f8f01	-0.01559806
43	0x3d1d11e0	0.038347125
44	0x3d5ae519	0.05344114
45	0xbcbbe85e	-0.02293795
46	0x3db6d213	0.08926787
47	0x3d0485ae	0.03235405
48	0x3d97bb28	0.07408744
49	0x3d9eab1f	0.077474825
50	0xbd64eaa7	-0.055887844
51	0x3c7bcb9b	0.015368368
52	0xbd9349af	-0.071917884
53	0xbd8b2899	-0.06794853
54	0x3c737fe1	0.014862032
55	0xbce73f9a	-0.02822857
56	0xbd655d50	-0.055997193
57	0x3c85c1e4	0.016327806
58	0xbd159efb	-0.03652857
59	0xbda23b4c	-0.07921466
60	0x3d1b122a	0.03785912
61	0xbba7ff70	-0.005126886
62	0x3d1fbf5b	0.03900085
63	0xbd31f9ca	-0.043451108
64	0xbcb25268	-0.02176781
65	0x3d46c7db	0.04853044
66	0xbd88f9f5	-0.066883005
67	0x3ba88121	0.0051423465
68	0x3dc7522a	0.097324684
69	0x3c6305a2	0.013856323
70	0x3d1687f3	0.036750745
71	0xbd9933c4	-0.07480577
72	0x3d0f36e8	0.034964472
73	0xbdaabb86	-0.083365485
74	0x3da72739	0.08161778
75	0x3c91748b	0.017755767
76	0xbd77c7e5	-0.06049337
77	0x3c864701	0.01639128
78	0x3dca6d35	0.09884111
79	0xbd57bdcd	-0.052671243
80	0xbadb2f3f	-0.0016722454
81	0x3db855d6	0.09000747
82	0x3b5625c6	0.0032676323
83	0x3d551e99	0.052031133
84	0x3d78c53e	0.06073498
85	0xbcb0cdd2	-0.021582518
86	0x3dc065ff	0.09394454
87	0xbcd146c3	-0.025546437
88	0x3dcbec50	0.099571824
89	0xbc8de378	-0.01732038
90	0x3cc8222c	0.024430357
91	0xbdb8ae1c	-0.09017584
92	0x3d166d44	0.036725298
93	0xbaf53cc0	-0.0018710122
94	0xbdaea570	-0.085276484
95	0xbd1ec847	-0.038765218
96	0x3d9546cf	0.07288896
97	0xbdb1552c	-0.08658823
98	0x3ce78fb2	0.028266761
99	0x39f09a55	0.00045891354
100	0x3c20bcb5	0.009810616
101	0xbae06031	-0.0017118511
102	0x3b99b26a	0.004690458
103	0xbce2a005	-0.027664194
104	0xbdc4e5d2	-0.09614147
105	0xbca7c1a3	-0.020478075
106	0x3d7d6e62	0.061872847
107	0xbdbbf361	-0.0917728
108	0xbd388598	-0.04504928
109	0xbd856f07	-0.065153174
110	0xbd79f12d	-0.06102102
111	0xbcdf5cd6	-0.027265947
112	0x3d7a2709	0.061072383
113	0x3d6900b2	0.05688543
114	0x3d134ae9	0.03596011
115	0x3d4cf331	0.050036613
116	0xbdcff29b	-0.10153695
117	0xbdb88698	-0.09010047
118	0x3dbda6b7	0.09260314
119	0x3d9b9be8	0.07598096
120	0x3d3fb910	0.04680735
121	0xbdaec18c	-0.0853301
122	0xbd98ca94	-0.07460514
123	0x3db01fb7	0.08599799
124	0xbd88a897	-0.06672781
125	0xbc9ef3b7	-0.019403322
126	0x3cab0b6d	0.020879472
127	0x3dca7881	0.098862655

weight f4 [1, 128]
0	0x3c8fe3ae	0.01756462
1	0x3c819af1	0.015820952
2	0x3c93546d	0.017984593
3	0x3a3ee9c6	0.000728276
4	0xbbdebee4	-0.0067976583
5	0xbbcaa71b	-0.0061844713
6	0xbc2efe2c	-0.0106807165
7	0x3b68458b	0.0035441841
8	0xbc935591	-0.017985137
9	0xbb1fb1f0	-0.0024367534
10	0x3c5c9bc0	0.013464868
11	0xbc7856c8	-0.015157409
12	0x3b0da216	0.0021611503
13	0x3c77b92c	0.015119832
14	0xba8ba9f8	-0.0010655513
15	0x3c398090	0.011322156
16	0x3c9ba57b	0.018999806
17	0x3c3fa3f0	0.011696801
18	0xbc68495b	-0.014177646
19	0xbb811883	-0.0039396896
20	0xb9be321c	-0.00036276958
21	0x3afc3b1f	0.0019243694
22	0xbc4f7b5e	-0.01266369
23	0x3c4854bc	0.0122272335
24	0xbc811cdf	-0.015760837
25	0x3c022213	0.007942694
26	0xbc942687	-0.018084778
27	0x3c57508a	0.013141761
28	0x3b87ae33	0.004140639
29	0xbcd771c9	-0.026299374
30	0x3c812903	0.015766626
31	0x3bd564e8	0.006512273
32	0x3c2b65f0	0.0104613155
33	0x3cbc840e	0.023012187
34	0x3ca968aa	0.02067979
35	0xbc027f45	-0.007964914
36	0x3c89e3d0	0.016832262
37	0x3c6bd14a	0.01439316
38	0xbabb0b7b	-0.0014270389
39	0xbc2896c1	-0.010289849
40	0xbb36a1bb	-0.0027867395
41	0x3c78ee64	0.0151935555
42	0xba20dab4	-0.0006136105
43	0xbb215faa	-0.002462367
44	0xbce56176	-0.028000575
45	0xbbe7a1ef	-0.0070688645
46	0xbc4ed400	-0.012623787
47	0xbc685b1e	-0.01418188
48	0xbc97e263	-0.018540567
49	0xbc0dbcd9	-0.008650982
50	0x3c0e4627	0.008683718
51	0xbc68f840	-0.014219344
52	0xbc1cda57	-0.009573541
53	0xbb008176	-0.0019608415
54	0x3bc38c45	0.005967649
55	0x3c907e3c	0.017638318
56	0xbb6e9083	-0.0036402054
57	0x3a700a20	0.0009156782
58	0xbce41bf6	-0.027845364
59	0x3cd1ea9e	0.02562457
60	0xbcb68dd1	-0.02228442
61	0x3c71e87e	0.014764903
62	0xbc0502ad	-0.008118314
63	0x3b975bc4	0.0046190936
64	0x3d317ffc	0.043334946
65	0xbbf68d71	-0.0075241853
66	0x3c250cfe	0.010073898
67	0xbbe17461	-0.0068803285
68	0xbbee0b3c	-0.007264523
69	0x3ca83515	0.020533124
70	0xbc80d736	-0.01572762
71	0x3c251363	0.010075423
72	0x3c68e7ed	0.014215452
73	0x3c69132c	0.014225762
74	0xbc0b73c1	-0.008511485
75	0x3ba3403f	0.004982024
76	0xbc230404	-0.009949688
77	0xbb82a032	-0.003986382
78	0xbca80a37	-0.020512683
79	0xbca2cef7	-0.01987408
80	0x3be6632d	0.0070308656
81	0xbc72406e	-0.014785869
82	0xbcacbc51	-0.02108589
83	0xba13c2a5	-0.0005636609
84	0xbbe20e2d	-0.0068986625
85	0x3c4d9ef1	0.012550102
86	0xbd004dfe	-0.03132438
87	0x3c46808d	0.01211561
88	0xbc589929	-0.01322011
89	0x3b8f2abe	0.004369109
90	0x3bf367a8	0.0074281283
91	0x3cbe9b13	0.023267305
92	0xbc56d974	-0.013113368
93	0x3c2e40be	0.010635553
94	0xb9ae07a8	-0.0003319357
95	0x3c97eb9e	0.018544968
96	0xbcd06275	-0.025437573
97	0x3c7cfdbc	0.015441354
98	0xbcc1d193	-0.023659503
99	0x3c592d65	0.013255452
100	0xbb959d1c	-0.004565848
101	0xbb16c357	-0.0023004615
102	0x3c87b0d3	0.016563809
103	0x3cada2ac	0.021195732
104	0x3ba7176b	0.005099227
105	0xbc98502a	-0.018592913
106	0xbc8a761f	-0.016902028
107	0x3c7eb080	0.015545011
108	0xbc831f47	-0.016006125
109	0xbbc5f653	-0.006041327
110	0x3cbf06e0	0.023318708
111	0x3cdb6c18	0.026784942
112	0x3c00a9fd	0.007853028
113	0xbccc242f	-0.024919597
114	0xbbd4bac5	-0.006491991
115	0xbbb0f2fd	-0.00540006
116	0x3ccc4998	0.024937436
117	0x393d918d	0.00018078666
118	0xbc8dacbf	-0.017294286
119	0xbc966387	-0.018358005
120	0x3c98ddff	0.018660543
121	0x3c869b47	0.016431464
122	0x3c1073e1	0.00881669
123	0xbbd7e6e3	-0.006588803
124	0x3c865e04	0.016402252
125	0x3c962a33	0.018330669
126	0x3c0c1f59	0.008552396
127	0xbba5116a	-0.0050374763

weight f4 [3, 128]
0	0xbc3d32a4	-0.011547718
1	0x3bf93b55	0.00760595
2	0x3b250397	0.0025179142
3	0x3bc1cd13	0.0059143393
4	0xbc285008	-0.010272987
5	0x3b363086	0.0027799918
6	0x3c5839b7	0.013197354
7	0xbab26910	-0.0013611633
8	0x3bcad7e2	0.006190286
9	0x3c155844	0.009115282
10	0x3ba878fd	0.005141376
11	0x3cc33202	0.023827557
12	0x3c172e0b	0.009227286
13	0xba7ae225	-0.00095704413
14	0xbbe2c5ed	-0.0069205672
15	0xbbd00f10	-0.006349452
16	0x3afd4690	0.0019323397
17	0xbb97c2ff	-0.0046313996
18	0xbb322d16	-0.0027187518
19	0xbb33f991	-0.0027461986
20	0x3c37d72c	0.011220735
21	0x3bae6b06	0.005322817
22	0x3c720e3c	0.014773902
23	0xbc535e4a	-0.012900898
24	0xbc6d4dff	-0.014483928
25	0x3bc31dcb	0.0059544793
26	0x3c08af12	0.008342521
27	0x3ba945a6	0.0051657734
28	0xbc17001e	-0.0092163365
29	0xbc4a4ea5	-0.012347852
30	0xbb7f3ac8	-0.0038944948
31	0xbb0b7552	-0.0021279645
32	0x3bb54470	0.00553184
33	0xbc085d30	-0.008322999
34	0x3ca02711	0.019549878
35	0x3c7d48f5	0.015459289
36	0xbab10eb6	-0.0013508413
37	0x3b52f583	0.0032189793
38	0x3ab3d335	0.0013719561
39	0xbc88024a	-0.016602654
40	0xbb850807	-0.004059795
41	0x39e34ca4	0.00043353916
42	0x3bddf00d	0.006773001
43	0x3ab70817	0.0013964203
44	0xbbcd73b9	-0.0062698987
45	0x3cc33df8	0.02383326
46	0x3c7e8a97	0.015535972
47	0xbbc45b68	-0.005992342
48	0x3af6e0cb	0.0018835304
49	0xbb90d4bd	-0.0044198916
50	0xbb9ee3c7	-0.0048489305
51	0x3c92aae6	0.017903756
52	0x3c3f9b10	0.011694685
53	0x3bb47c7f	0.005508005
54	0x3be0c8e9	0.006859888
55	0x3c21d0f6	0.00987648
56	0x38a9e1f1	8.100633e-05
57	0xbb93a6c2	-0.004505963
58	0xbc57f02e	-0.013179822
59	0xbb2640a0	-0.002536811
60	0x3a15acb6	0.0005709635
61	0xbc415a39	-0.011801296
62	0xbc368f08	-0.0111425
63	0xbac6b3d3	-0.0015159793
64	0xbb9fd930	-0.0048781857
65	0xbbecc36b	-0.007225444
66	0xbb6874a7	-0.003546992
67	0x3c4f8d20	0.012667924
68	0xbaeaeccb	-0.0017923353
69	0xbb0d7c6b	-0.0021589051
70	0xb9abcc9d	-0.0003276811
71	0xbc59e662	-0.013299556
72	0x3b2b9bff	0.002618551
73	0x39aaedb1	0.0003260202
74	0xbc4c6475	-0.012475123
75	0x3c7100bc	0.014709648
76	0xba68cf73	-0.000888101
77	0x3a217dd4	0.00061604124
78	0x3b71789b	0.0036845568
79	0xbbb849cb	-0.005624031
80	0x3b5b38fb	0.003345071
81	0xba7cb629	-0.0009640181
82	0x3c369eea	0.0111462865
83	0x3b33df9b	0.0027446512
84	0x3cab44ed	0.02090689
85	0xbbf34ea7	-0.0074251476
86	0x3c171426	0.009221112
87	0xbc31bd7f	-0.010848402
88	0x3bee0c07	0.0072646174
89	0xbc7b1ea7	-0.015327132
90	0x3b641d28	0.0034807418
91	0x3c081c51	0.008307532
92	0xbb4e59a3	-0.0031486533
93	0xbc5c9acf	-0.013464644
94	0x3c5bc97c	0.013414737
95	0xbbc15472	-0.0058999592
96	0xbc3db838	-0.011579566
97	0x3c08f68f	0.008359565
98	0xbb9285e2	-0.0044715265
99	0xbb93f124	-0.00451483
100	0xbbe33c5d	-0.006934686
101	0x3b4a3da6	0.00308595
102	0x3c50883d	0.012727794
103	0x3c142c64	0.009043787
104	0x3c0b7485	0.008511667
105	0x3c396f94	0.011318106
106	0xbc14a33d	-0.009072122
107	0x3bd7dfe6	0.00658797
108	0xbb1341d4	-0.0022469657
109	0x3b353efa	0.0027655945
110	0xbc09de93	-0.008414882
111	0x3b804941	0.0039149825
112	0x3b4d512e	0.0031328904
113	0x3b7d4398	0.0038645025
114	0xb9b76998	-0.00034983153
115	0x3aed324d	0.0018096656
116	0x3b7f1495	0.003892218
117	0x3bdb196e	0.006686381
118	0xba3003a9	-0.00067144126
119	0xbbcaf685	-0.006193938
120	0x3bb475b9	0.0055071977
121	0xba13984a	-0.0005630298
122	0xba28fe2f	-0.0006446568
123	0xbb8cd543	-0.0042978837
124	0xbc7883f4	-0.015168179
125	0xbc495b45	-0.012289827
126	0x3b51bd94	0.0032003867
127	0xbb22c7a4	-0.0024838233
128	0x3b2e22da	0.0026571066
129	0xbb471932	-0.0030380008
130	0xbb92acfc	-0.0044761878
131	0x3c5f5303	0.013630631
132	0x3c0fab13	0.008768815
133	0xbbeddf52	-0.007259288
134	0x3c4a5c15	0.012351056
135	0xbb7488b7	-0.0037312934
136	0xbb715502	-0.003682435
137	0x3c26b0dd	0.010174003
138	0xba7a94c2	-0.000955891
139	0x3c9193d9	0.017770695
140	0x3b0caf1c	0.0021466678
141	0xbcb6ade0	-0.022299707
142	0x3c3b0114	0.011413831
143	0x3c81e86e	0.015857901
144	0x3b2732c2	0.0025512432
145	0xbb62d29c	-0.0034610396
146	0x3c846bd0	0.01616469
147	0xbbbb385d	-0.005713506
148	0xbba269a5	-0.0049564415
149	0x3c669d36	0.014075568
150	0x3bd80f56	0.006593625
151	0xb8f6f63b	-0.00011776058
152	0xb9d616c6	-0.00040834228
153	0xbb6d5eef	-0.0036219915
154	0x3bfbb4f9	0.0076814857
155	0xbc05b3ff	-0.00816059
156	0x3c3fefdb	0.011714901
157	0xbad139ba	-0.0015962638
158	0x3c71100d	0.014713299
159	0xbabf915e	-0.0014615466
160	0xbbf10111	-0.0073548635
161	0xba951935	-0.001137531
162	0x3c42de59	0.011893832
163	0xbbda63f1	-0.006664746
164	0xbbb2ef1e	-0.005460634
165	0x3b70d930	0.0036750548
166	0xb9c3f309	-0.00037374374
167	0xbc0d86ea	-0.008638123
168	0x3bfd3aa1	0.0077279364
169	0x3c5931a2	0.013256462
170	0x3aae6c5c	0.001330744
171	0xbc3303a9	-0.010926166
172	0x3b8d63cf	0.0043148766
173	0xbc1dc7ff	-0.009630202
174	0xbb97cdd3	-0.0046326905
175	0xbb823d82	-0.0039746175
176	0xbc7715fd	-0.015080926
177	0x3c09cc8b	0.008410583
178	0xbb396dd1	-0.0028294215
179	0xbb0f54cf	-0.0021870618
180	0x3b9d43ab	0.0047993264
181	0x3c2085de	0.009797541
182	0x3baaa6f8	0.0052078925
183	0x3c02f341	0.007992567
184	0xbc006011	-0.007835404
185	0x3a38587d	0.0007032229
186	0xbaabd607	-0.001311005
187	0x3b5458e9	0.0032401627
188	0x3b63368a	0.003466996
189	0x3bd7a114	0.0065804813
190	0xbb802ec6	-0.003911826
191	0xbc23e7d1	-0.010004
192	0x3c6998a3	0.014257583
193	0x3c5318b1	0.012884305
194	0x3b512e1c	0.0031918352
195	0xbc1dc8e6	-0.009630417
196	0xbb127c3b	-0.002235188
197	0x3be97baa	0.0071253376
198	0xbc0b6f33	-0.008510399
199	0x3abb7ae5	0.0014303593
200	0xbb85e529	-0.004086156
201	0xbc97ccca	-0.018530268
202	0x3c526547	0.012841529
203	0xb8f1211b	-0.00011497942
204	0x3b8a501a	0.0042209746
205	0x38921055	6.9648646e-05
206	0xbb577526	-0.0032876222
207	0xbc605b60	-0.0136936605
208	0x3c42e013	0.011894244
209	0x3a53b01d	0.0008075254
210	0xbc275d50	-0.0102151185
211	0x3b8bacae	0.0042625284
212	0x3c6e74fc	0.014554258
213	0x3b181630	0.0023206584
214	0x3c10731f	0.0088165095
215	0x39d29820	0.00040167663
216	0x3a959404	0.001141191
217	0xbca371ac	-0.019951664
218	0x3c0d554e	0.008626295
219	0xbbc23172	-0.0059263045
220	0x3b9876e2	0.004652844
221	0x3bf05095	0.007333825
222	0x3b804e5c	0.003915591
223	0x3c0b372e	0.008497043
224	0xbc0bf5ab	-0.0085424585
225	0x3c3084bc	0.010773834
226	0x3b3fad26	0.0029247492
227	0xbc362fb6	-0.011119774
228	0x3a84c29e	0.0010128801
229	0x3baec599	0.005333614
230	0xbc501d39	-0.01270228
231	0x3bfd8a15	0.007737408
232	0x3b2800a8	0.0025635157
233	0xbaea10c3	-0.0017857779
234	0x3b34b6f5	0.0027574871
235	0x39044b15	0.00012616471
236	0xbb1052d7	-0.0022022033
237	0x3c631fa5	0.013862525
238	0x3c9fc8be	0.019504901
239	0x3b977220	0.004621759
240	0x3c08fc2d	0.008360905
241	0x3c0cf5b4	0.008603502
242	0x3b244a59	0.0025068729
243	0x3c5702ad	0.013123197
244	0xb9f1e0f4	-0.00046134705
245	0xb91a1377	-0.00014693836
246	0xbc47aaf9	-0.012186759
247	0x3c1ec7f7	0.00969123
248	0x3bb5f142	0.005552442
249	0xbc566fcb	-0.013088177
250	0xba38bfcd	-0.00070476235
251	0xbba2f479	-0.004972991
252	0xba06a696	-0.00051365176
253	0xbbe7ffd4	-0.0070800576
254	0xbc91f7ce	-0.017818358
255	0x3af3397c	0.001855656

bias f4 [3]
0	0x3a90e4ee	0.0011054554
1	0x3b4431e4	0.0029936964
2	0xbb35531c	-0.0027667945

weight f4 [1, 128]
0	0x3c48f1e9	0.012264707
1	0x3cc5f44f	0.024164347
2	0x3c77469f	0.015092521
3	0x3c8491f4	0.016182877
4	0xbc4e09b0	-0.012575552
5	0xbcb5e986	-0.02220608
6	0xbbbc54e9	-0.0057474268
7	0x3c922344	0.017839082
8	0xbcdff438	-0.027338132
9	0x3bbc29c5	0.005742284
10	0x3c5a90d4	0.013340194
11	0xbcb0955a	-0.021555591
12	0x3ccfcd9a	0.025366593
13	0x3c3d90d6	0.011570176
14	0x3bf538a8	0.0074835606
15	0x3c26a291	0.010170595
16	0x3c2f920b	0.010715972
17	0x3babc22d	0.0052416534
18	0xbc53e055	-0.012931903
19	0x3c5bdf40	0.013419926
20	0xbc6446e4	-0.013932917
21	0x3c8d2f3c	0.017234437
22	0xbc68b4fe	-0.014203308
23	0x3c8c632c	0.017137133
24	0xbadf5fe3	-0.0017042126
25	0x3c0fa44e	0.008767201
26	0xbc830033	-0.015991306
27	0x3cafda8e	0.02146652
28	0xbb23d83a	-0.0025000707
29	0xbc574ae0	-0.01314041
30	0x3c545d27	0.012961662
31	0x3ca91775	0.020641068
32	0x3bf8ee9d	0.0075968043
33	0x3d037fa9	0.032104168
34	0xbb6c4b9a	-0.0036055804
35	0x3bc530df	0.006017789
36	0x3ce5216d	0.02797004
37	0x3c55f067	0.013057805
38	0xbc9dcbf3	-0.01926229
39	0xbca029de	-0.019551214
40	0x3b603cf5	0.003421602
41	0x3bfd03fe	0.007721423
42	0x3b6223ec	0.0034506274
43	0x3c429b7f	0.0118778935
44	0xbcb95bdb	-0.022626808
45	0xbc6415dc	-0.013921227
46	0xbc189c6b	-0.009314637
47	0xbc5e3ba7	-0.013564027
48	0xbc3ece3e	-0.011645852
49	0xbc862b69	-0.016378121
50	0x3bb79860	0.0056028813
51	0xbc1ed4bb	-0.009694274
52	0xbc93bc1c	-0.018034033
53	0x3c785016	0.015155813
54	0x3c94a0bc	0.01814305
55	0x3c0782c8	0.008270927
56	0x3b2acfa9	0.0026063717
57	0xbc4848a0	-0.012224346
58	0xbbef78f4	-0.00730812
59	0x3c406c2f	0.011744543
60	0xbcb82255	-0.022477308
61	0xbc71e0c4	-0.014763061
62	0xbc1720db	-0.009224142
63	0x3c4d1d04	0.012519125
64	0x3c2b523b	0.010456617
65	0xbca0d5e0	-0.019633234
66	0x3c4d6b43	0.01253778
67	0x3b41e229	0.0029584265
68	0xbc19b1e1	-0.009380789
69	0x3c9fd627	0.019511295
70	0xbccc7f23	-0.024962967
71	0x3b849343	0.0040458753
72	0x3b9c1dd4	0.004764298
73	0x3aab1925	0.0013053758
74	0xbc8a7978	-0.016903624
75	0x3c9693d5	0.018381039
76	0x3c7e5504	0.015523199
77	0xbc4269fc	-0.011866089
78	0xbbeeb1d8	-0.007284384
79	0x3be5a627	0.0070083323
80	0x3c369e14	0.011146087
81	0xbbdc1a21	-0.006716982
82	0x3b2c6bce	0.0026309374
83	0xbb0d2b29	-0.0021540618
84	0xbc67fb81	-0.014159084
85	0xbaefd37a	-0.0018297278
86	0xbc617ade	-0.013762204
87	0x3c6ef009	0.014583596
88	0xbc9270e8	-0.017876104
89	0x3c242a99	0.010019922
90	0xbabfb347	-0.0014625572
91	0x3cec49cf	0.028843788
92	0xbb51ede3	-0.003203266
93	0x3ba9a39a	0.0051769735
94	0x3c32796f	0.01089321
95	0x3c0ef0a3	0.008724364
96	0xbc9c61a8	-0.019089535
97	0x3b86d7b2	0.0041150684
98	0xbcc34e42	-0.023841027
99	0x3c7afce7	0.015319086
100	0xbca5b7a8	-0.020229176
101	0xbc55e4b7	-0.013055018
102	0x3be59e74	0.0070074145
103	0x3cd2b2e2	0.025720064
104	0x3cc3e8d0	0.023914725
105	0x3c50b59b	0.012738611
106	0xbcb5d2ff	-0.022195337
107	0x3beb5921	0.007182256
108	0xbb18e1c6	-0.002332793
109	0xbc3a44f4	-0.011368979
110	0x3cc47dfe	0.023985859
111	0x3c2125d2	0.009835677
112	0x3ba2cfe9	0.0049686325
113	0xb99c6d19	-0.00029835923
114	0xbc2c1e93	-0.010505336
115	0xbc90f38e	-0.01769426
116	0x3c58dc79	0.0132361585
117	0x3c5142cc	0.012772273
118	0xbbd830b5	-0.006597603
119	0xbc67b210	-0.0141415745
120	0x3ce17b66	0.027524661
121	0xba0f0ff9	-0.0005457397
122	0x3ca43fd6	0.02004997
123	0xbc44d7ce	-0.0120143425
124	0x3be622fc	0.0070232134
125	0x3c7b3d7c	0.015334483
126	0x3c81aaed	0.015828574
127	0xbc902904	-0.017597683
