TradeSimulator-v0_D3QN_-1/actor_00009480_034.744.pth (torch, 152106 bytes, 14 tensors)

state_avg f4 [10]
00000000: 205b f13b f99a c637 b4e8 59b9 3c86 e23b
00000010: 0977 cd38 9cd1 9eb9 276c 1cbb 9225 163c
00000020: ccb0 1539 c790 1aba
0.0073655993 2.3675604e-05 -0.00020781421 0.0069129746 9.797334e-05 -0.0003029228 -0.0023868175 0.009164231
0.0001427561 -0.00058962073

state_std f4 [10]
00000000: 7dbc 7e3f 5779 7d3f d8db 7e3f bd50 7f3f
00000010: 3f63 7e3f 090e 7e3f 9df3 7f3f 7a7d 7e3f
00000020: d34c 7e3f f712 7e3f
0.9950636 0.99013275 0.99554205 0.9973257 0.9937019 0.99240166 0.999811 0.9941021
0.99335974 0.9924769

weight f4 [128, 10]
00000000: 20b6 263e 7398 0cbe 2905 84bd 176d 1d3e
00000010: 4008 9abe eb68 433e 2f73 8abd 4fbc 2b3e
00000020: 1900 403d f282 2dbd 5b63 bc3d ba96 c03c
00000030: cef5 ed3d 6791 f2bd 9fd5 bbbc 54df edbc
00000040: 4719 3d3d 783a bdba 4967 8c3e 99b8 cd3d
00000050: ed02 fcbd 7ea7 4dbe 6731 65bd 3b63 0ebe
00000060: 085a d5bd 5fa8 803c 01d7 413e 587c 303e
00000070: 7c10 9ebe e3ac 483e 3ddc ad3d a1df 973e
00000080: 3fb2 563e b13b 95be d13c 9bbe b9ae 1dbe
00000090: a3e6 903e 241a 48bd b2b6 0b3e be69 19be
000000a0: e615 9d3e 2a60 10be 85e9 723e a4c6 f33b
000000b0: ebb0 2dbe cc1d 273e 1009 33be 05cc cb3d
000000c0: a08f b7bd c093 22bd 8da0 9bbe 5ca6 19be
000000d0: 98bc 2f3e 4716 9cbd d69d 9f3e 7b4d 813e
000000e0: 60e6 53bc f135 56be 1a16 433e 2d14 c73d
000000f0: ed4d 54be 30ed 453e 97ee 453e bd31 903e
00000100: a5b6 38be da4f 4fbd 0d4d e5bb 5fe9 3d3d
00000110: 6c80 74be dd9f 65be 99d6 2d3e 2acc a3bd
00000120: e1a2 1c3e e2ca 9f3c 1c86 d33d 09c5 8f3d
00000130: fb7f e53d 0c69 253e bd01 95be a5cd 213e
00000140: bd86 65be 762e 7bbe 8a78 8d3c 7cf2 6dbd
00000150: 3d34 3c3e fc3f 39be 52de 8dbe c180 683e
00000160: 1a33 45bd 7726 363e b984 c43d 34c6 7cbe
00000170: 259c 853d 7e9b a13d 8a1a 5cbe 29b7 19be
00000180: df74 df3d 0fac 7b3d 6e77 09be 7e51 cdbd
00000190: 68e1 923e 8f59 7ebd 86bf 373e 85a0 0e3e
000001a0: 7270 52be 0390 8abe 07bd 9a3e 1443 ab3c
000001b0: cddc 613e b871 7a3d 2bfb c83d 76c9 6c3e
000001c0: d04a 993e 0fd9 5abe 1c59 283d 2e86 723e
000001d0: 1775 6a3e 8602 4d3e d227 6bbe e926 6cbe
000001e0: 16d3 43be 60d9 023d eb22 a03e b917 50be
000001f0: cff0 2b3e 16cf 30be 4c3f 99be 24e8 89bd
00000200: 3c4a 3c3e 0a90 973e c113 4cbe 605d 8b3d
00000210: df86 8d3e 73a2 5f3e 8bcc 4a3e d7b6 643e
00000220: 510b 4b3e eb2a b83d 6928 5cbe 7767 89be
00000230: 28ba 17be 9d8a 44bd 2e9f 47be c6a8 e83d
00000240: 68a6 ca3d b02b 90bd c00c ec3d 35f9 ce3d
00000250: f7f8 453e 899f 5a3e 2b6c dfbd ecf5 993e
00000260: 2668 23bd 7cc1 d5bb eacc 99be 961f 4fbe
00000270: 83ca 3fbe 731a 06be da8c 693e 9c50 dabd
00000280: b73d 70be 6209 f73d 2830 cc3d 08ba 553e
00000290: eae5 2abe 1f09 8e3d 312a f5bd 0c59 90bd
000002a0: 5cb1 82be 5b0f 16be 3e2a d2bd 15c9 043e
000002b0: bf32 663d b8b3 a53d 706c a23e 6892 9d3e
000002c0: e21a 633e d944 633c 7e22 60be 26c7 7a3e
000002d0: 2046 a5bd bb6c fabc 45a8 8dbe bab5 6ebd
000002e0: 8107 52be 2cd3 943e 9be0 8fbe 4103 76be
000002f0: bc9d 0abc f4ba 33be bfa4 e23d d771 03be
00000300: 3323 1cbe 380f a43c 8326 6c3e 42d0 64be
00000310: 9495 193e 2637 553e 13ad a03e 5ffe 66be
00000320: df86 a13d 4af4 6cbe 87e2 883e 634a fabd
00000330: d8ff 403e 11d1 163c e5aa cabc d549 50bc
00000340: 8e68 523d 1294 163e edb0 343d 81bb b53d
00000350: eb47 92be f7a1 6d3e adf5 8c3e 4c69 853e
00000360: 471f 733e 953c 6abe 84f9 ecbd 1239 8e3e
00000370: b659 79be fd16 903e b97e 81be dca1 5fbe
00000380: e59b 1e3e d931 68be f2d0 a0bd bece 733e
00000390: aeb3 813e 9cfa 973e 6db9 8abd c195 82be
000003a0: c81e 9e3e c641 85bd 08b1 04be ad2b a13d
000003b0: da7a 68be 6ff2 593e 176c 4c3e 34b7 82be
000003c0: cc84 86be b84e d8bc 768a 073e 672e e0ba
000003d0: 48fd 24be 4058 b23b 7c20 9dbe 0603 5dbe
000003e0: c5ed 57be 93bc 833e 6dd9 8d3e f216 e4bd
000003f0: ca17 2a3c 0566 143e a073 203d 3ede 22be
0.16280413 -0.1373003 -0.06446297 0.15373646 -0.3008442 0.19082992 -0.06760251 0.16771053
0.046875093 -0.042361207 0.09198638 0.023509372 0.11619149 -0.118441395 -0.02292901 -0.029037155
0.046166684 -0.0014436981 0.2742255 0.10044975 -0.123052455 -0.20083424 -0.055955317 -0.13905041
-0.10417563 0.015705286 0.18929674 0.17234933 -0.30871952 0.19597201 0.08489273 0.29662803
0.20966433 -0.29147103 -0.30319837 -0.15398683 0.28300962 -0.048853055 0.13643911 -0.14981744
0.3068077 -0.14099184 0.23721893 0.0074394513 -0.1696202 0.1631996 -0.17483926 0.09951023
-0.08962941 -0.039691687 -0.30395928 -0.15004867 0.17161787 -0.076214366 0.31175107 0.25254425
-0.012933344 -0.20919015 0.190514 0.09720645 -0.20732851 0.19328761 0.19329296 0.28162947
-0.18038423 -0.05061326 -0.0069977106 0.04636514 -0.23877114 -0.22424264 0.16976394 -0.079979256
0.15296508 0.019505922 0.10328314 0.07020003 0.11206051 0.16153353 -0.2910289 0.15801103
-0.2241468 -0.24529442 0.017269392 -0.05809258 0.18379302 -0.18090814 -0.2770868 0.22705366
-0.048144437 0.1778811 0.09595627 -0.24684983 0.06523923 0.07890986 -0.21494499 -0.15011276
0.10910963 0.061443385 -0.13424465 -0.10025309 0.28687596 -0.06209713 0.17944154 0.13928421
-0.20550707 -0.27062997 0.3022234 0.020906009 0.22056885 0.061143607 0.098135315 0.23123726
0.2993989 -0.21371864 0.041100606 0.23683998 0.22896229 0.20020494 -0.22964409 -0.23061718
-0.19123492 0.031945586 0.3127664 -0.2032155 0.1679108 -0.17266497 -0.29931104 -0.067337304
0.18387693 0.2960208 -0.1992941 0.06804919 0.2764196 0.21839313 0.1980459 0.22335373
0.19828536 0.08992561 -0.2149979 -0.2683675 -0.14817107 -0.047983754 -0.19494316 0.11360316
0.09895021 -0.07039583 0.11525869 0.10106126 0.19333254 0.2134992 -0.10909303 0.30070436
-0.039894246 -0.0065233093 -0.3003915 -0.20226893 -0.18729596 -0.13096027 0.22807637 -0.10659906
-0.23461042 0.120623365 0.099701226 0.20871747 -0.16689268 0.069353335 -0.11970938 -0.07048234
-0.2552594 -0.14654295 -0.10261963 0.12967332 0.05620074 0.08090919 0.31723356 0.30775762
0.22178224 0.013871395 -0.21888158 0.24490032 -0.08070016 -0.030569425 -0.27667442 -0.058278777
-0.20510675 0.2906736 -0.28101048 -0.24024679 -0.008460458 -0.17551786 0.11066579 -0.12836395
-0.15247802 0.020026788 0.23061566 -0.22345069 0.14998466 0.20821819 0.31382045 -0.22557972
0.07887053 -0.23140064 0.26735327 -0.122212194 0.18847597 0.009205119 -0.024739692 -0.012712915
0.051369242 0.14704922 0.044114042 0.08873654 -0.28570494 0.23206316 0.27531186 0.26056898
0.237424 -0.22874673 -0.11571029 0.27777916 -0.24350628 0.2814254 -0.25291994 -0.21839088
0.15489157 -0.22675265 -0.07852353 0.23809335 0.25332397 0.29683387 -0.067736484 -0.25504878
0.3088286 -0.06506686 -0.12958157 0.078696586 -0.22703114 0.21283887 0.19963108 -0.25530398
-0.2627319 -0.026404724 0.13236412 -0.0017103673 -0.16112244 0.005442649 -0.30688846 -0.21583185
-0.21086796 0.25729808 0.27704945 -0.11137189 0.010381648 0.14492042 0.03917277 -0.15905091

bias f4 [128]
00000000: 20aa 383c 5288 f2ba 35fc 643d 1044 3bbc
00000010: 929f 2f3e 86cd 1e3d 5f58 6a3e dabe 963d
00000020: 6bee f2bb a46f 4f3d 7733 5e3e cb18 573d
00000030: 366a 683e 3c47 abbc 20d6 4d3b 3bb2 8b3e
00000040: 52d4 96be d0c9 173d a3e3 983e 8849 1dbe
00000050: 79a2 7bbd 5e1f 80bc fd36 e83d 237f 003e
00000060: 5fea a83d 54da 043e 9b78 10be f1e9 0d3e
00000070: 04b5 d7bd ab55 503e c5b2 b1bd 1abd 87be
00000080: 8f06 e73c 3a5a 333e f190 e3bb de7d 923b
00000090: 06db a83b 3b7c 353e 3a5d 003d 45e6 8fbe
000000a0: 3f3e 5dbe 7c49 d53c e508 47bc d97e 9e3e
000000b0: 06ac 85bd 3188 7c3e ad05 87be 69b6 9cbe
000000c0: 111a c8bc d2e4 51be d375 b3bd a373 013d
000000d0: 09ef 89be a9cf 623e 7878 3ebe 780c 803e
000000e0: 3ea9 e23d c449 66bd 6816 8bbe 701d 663d
000000f0: a680 30be 79aa 8f3e dd83 8abe a4cf aebd
00000100: 2b1f 2dbe e5f4 4dbe 543c 2fbe 7359 dfbc
00000110: a6f0 be3c 1829 723d 7b37 2c3e 5a5a fbbd
00000120: 6487 4cbe 2572 84bd b771 9c3e 664a 11bd
00000130: ead2 86be df06 843e e1c0 9e3d e4aa 793d
00000140: 041e 6f3d 1daf 5d3e abdf 14be 985a 6c3e
00000150: e260 9f3e 8341 a3bd def7 523e 81bb 3b3e
00000160: 4df7 9a3e b1d1 93bd 1777 3abe a2de f6bd
00000170: cde7 56be 4ec1 803c a4b9 a03e 3995 a03e
00000180: 011f 703e e17b 113d 586a 5e3c f812 603e
00000190: 634f 4a3e 8a43 f5bc c254 adbd aad6 063e
000001a0: 3bcb 28bb c112 5ebe 7920 19be 3261 863e
000001b0: 503b 893e 7aa9 f3bd 64c5 7bbd d293 21be
000001c0: 7c5f c5bd 31c7 903e 15f6 90be d844 143e
000001d0: 974c 8ebe 921b 1abe e436 58bd fe3d a43c
000001e0: db63 49bd 0065 10be cc90 0cbe 138c 44be
000001f0: 0736 63be a0b0 48be 85d4 9f3e fdc7 11be
0.01127103 -0.0018503761 0.055904586 -0.011429802 0.17150715 0.03877022 0.22885273 0.07360621
-0.0074136755 0.05064358 0.2169932 0.05251388 0.22696766 -0.02090799 0.0031408146 0.27284417
-0.29458863 0.037057698 0.29861173 -0.15360081 -0.061434243 -0.015639957 0.11338613 0.12548499
0.08247828 0.1297391 -0.14108507 0.13858773 -0.10532573 0.2034518 -0.08676676 -0.2651146
0.02820137 0.17514887 -0.0069447686 0.004470571 0.0051530628 0.17723171 0.031338908 -0.2810537
-0.21605776 0.026036017 -0.012148117 0.30956152 -0.065269515 0.24661328 -0.26371518 -0.30607918
-0.024426492 -0.20497444 -0.087627076 0.03160442 -0.26940182 0.22149529 -0.18600643 0.25009513
0.11067437 -0.056222692 -0.27165532 0.056180418 -0.17236575 0.28059748 -0.2705373 -0.08535698
-0.16906421 -0.20112951 -0.17112857 -0.027264332 0.02330811 0.05912122 0.16818039 -0.122730926
-0.19973522 -0.06467084 0.30555508 -0.035471343 -0.2633279 0.25786492 0.077516325 0.06095399
0.058378235 0.21648832 -0.14538448 0.23081434 0.31128603 -0.0797148 0.20602366 0.18333246
0.302668 -0.0721773 -0.18209492 -0.120541826 -0.20986862 0.015717175 0.31391633 0.31363848
0.23449327 0.03551853 0.013575159 0.21882236 0.19756846 -0.029939432 -0.08463432 0.13167825
-0.00257559 -0.21686842 -0.14953794 0.2624603 0.26803064 -0.118975595 -0.061467543 -0.15779045
-0.09637353 0.2827697 -0.28312746 0.14479387 -0.27792808 -0.1504958 -0.052786723 0.020049091
-0.049167495 -0.14101028 -0.1372711 -0.19194059 -0.22188579 -0.19598627 0.31216827 -0.14236446

weight f4 [128, 128]
00000000: 86a8 9abd d229 753d f1c2 073d 0166 783d
00000010: 8206 b9bd a8d5 aebd 5099 85bd 7bc4 44bd
00000020: 6d0f 38bb 143f 173d 05be 503d 8390 9bbd
00000030: 2edc 083d 53d3 54bd 1a42 a13c b806 d63c
00000040: e861 4c3c 26e5 fd3c 9e64 d0bb c054 6b3d
00000050: 0fde 893c 8f18 9d3d 9e5c 913c 1b9c 46bd
00000060: 3d2d 5d3d 034e 563b 115a ac3d 39be 49bc
00000070: 2e93 ad3d e722 5ebd 405d 2b3d 7da5 8bbd
00000080: 7855 6e3d 7511 683c b895 473d b4c0 9bbd
00000090: 3fcd b8bd 0126 283d d1db 18bd 0f3d 0d3d
000000a0: 0902 5ebd d4e5 efbc fa42 22b9 d37e 593d
000000b0: 040c 413d 01db 18bc b8a9 dbbc 8898 33bb
000000c0: 6d55 313d 8eb0 9abd e586 e9bc dbd7 b1bd
000000d0: 4d12 283c 29c7 35bc d8aa 423d 2779 903d
000000e0: 57c7 9ebd b449 25bd 44c8 84bc 41b9 d0ba
000000f0: b2c0 b5bc f54a 62bd d192 14bd 7ae4 a1bb
00000100: d273 8c3d c82e ccbc b3f0 6b3d 1e87 95bd
00000110: 2685 123b 4ead 8ebd 2bc4 aabd 6346 d83b
00000120: 5217 2cbd 6b6c 823d eb57 8d3d b49a b3bd
00000130: f41d 19bc a8e3 83bc 2ea3 55bd 3e98 7ebd
00000140: 0c43 21bd 1014 213d 81e1 983c d2fc 583d
00000150: 7232 f3bb 9a19 303d 8879 813c 0637 b5bc
00000160: a615 b8bb eede a9bd eb8d a2bb a2f9 f1bc
00000170: 0d54 febc fdc4 14bd 3d60 afbc b1d1 86bd
00000180: 8ad5 ae3b 946a a9bb a733 d7bc dd5e 9b3d
00000190: 09a1 723d 9d13 c23c 90e5 0ebd f556 0b3c
000001a0: 68d6 79bd f924 7b3d 7186 a53d 4a26 6fbc
000001b0: aa63 873d 59df a43d a04f b3bb 3494 0bbd
000001c0: eeac a23a 2665 683c c781 acbd 7b75 bdbb
000001d0: 500c 11bd 2595 6f3d 6b87 9cbb b38c 693d
000001e0: fd5a 9a3d 1042 ebbc 8fe6 8b3c 8746 20bc
000001f0: bb50 1fbd 2e5e 51bd c2fb f33a 6d93 ce3c
00000200: e417 4dbc 8e0e 953c 17c9 823d 4460 2f3d
00000210: 35e6 1b3d b7c5 fb3c 3584 7bbd a3d3 58bd
00000220: 0175 6fbd b6b9 733d 2edd 9dbd e9f7 7ebd
00000230: 34fe 863d 5524 6c3d 3d02 9dbd 29f2 743d
00000240: 6446 94bc 5baa c93c e532 3abd c479 43bc
00000250: 1421 b43c 3536 923d 28ad 803d 3589 2abd
00000260: e847 4fbd 6206 87bb 7460 d93c e607 583d
00000270: 31f1 a9bd 69e5 2cbb cc23 1a3c 51b2 0fbd
00000280: 4ef2 9d3d 6c5d 99bc 1002 9dbd 4a58 4ebd
00000290: ae6c 233c c91b 66bd f4d4 d63c 652b b73d
000002a0: 04ec 3a3c 8146 6ebc 3b35 b83d 3c60 913d
000002b0: baa5 873d e462 443c 9732 b53b f984 81bd
000002c0: 6bcf 503c 6b45 bb3d 9b48 633c 3d8f 92bd
000002d0: 0161 543d 5467 a83d 127f a03d d498 473c
000002e0: 5831 d63c 4f44 993c c5d9 0dbd b440 02bc
000002f0: e1eb 923d dfb1 703c 1811 ae3d 8ea1 6fbd
00000300: 9840 08bc bae0 183c ea05 31bd 22ea 953d
00000310: 5e10 823d d60d 37bd aa51 ad3d 2293 b43d
00000320: 10bc 48bd 86eb 143a 5412 c43d 4cef 62bd
00000330: 430b 03bc 2eb5 55bd c4ae 943d f61c af3c
00000340: acbd 233d 2c06 8c3d 806e 8bbc a6b4 a3bd
00000350: 36a1 1b3c 5f16 1139 a30b 123d 0bac 473d
00000360: 3980 1ebd 62bc 05bd e101 803d 21a7 f03c
00000370: 9d16 bd3c 3ed8 353d e0d0 443d 5d01 7abd
00000380: 7a7f 8e3c a682 ee3b 5097 a4bd 5e3c e63c
00000390: bb0f 283c 8b89 8a3d 35ce 9cbd d1e3 b63d
000003a0: ad7f 14bd b902 6b3d caa6 8c3d a735 f2bb
000003b0: b679 2fbd d28d 28bc 1ab0 58bd c84e 8f3c
000003c0: 0636 193d 2628 b03c a9e7 4bbd da95 733d
000003d0: 79a2 ae3d 6313 b5bc 0cde 563d f900 dfbb
000003e0: 7508 183d e43c 80bd f7e2 8fbd 66f3 08bb
000003f0: f0ec 8cbd 1674 093d 54e2 b33d f3eb 33bc
-0.075516745 0.059854336 0.033144895 0.060644154 -0.090344444 -0.085368454 -0.06523383 -0.04803894
-0.0028085366 0.03692539 0.050962467 -0.07595923 0.033413105 -0.051959347 0.01968484 0.02612625
0.012474515 0.030993056 -0.0063596508 0.05745387 0.016829519 0.076707 0.017744359 -0.048488718
0.05399822 0.0032700307 0.08415616 -0.012313419 0.08475338 -0.054232504 0.041836977 -0.06818674
0.058186978 0.014164318 0.048726767 -0.076051146 -0.090235226 0.04105187 -0.03731901 0.03448206
-0.05420116 -0.029284395 -0.00015474475 0.053099465 0.0471306 -0.009329558 -0.026814327 -0.0027404148
0.04329436 -0.075532064 -0.028506706 -0.08683749 0.0102582695 -0.011094847 0.04752621 0.07054358
-0.07752865 -0.040353492 -0.016208775 -0.0015924351 -0.02218661 -0.055247266 -0.036272828 -0.0049405666
0.068580285 -0.02492465 0.057602596 -0.07301162 0.0022357195 -0.06966649 -0.08338197 0.0066001876
-0.042014427 0.06368335 0.06901535 -0.08769742 -0.00934552 -0.016099766 -0.052157573 -0.06215691
-0.03937058 0.039325774 0.018662216 0.052975483 -0.007421785 0.042993166 0.01580502 -0.022120964
-0.005617815 -0.082944736 -0.0049607656 -0.02953798 -0.031045938 -0.036320675 -0.021408195 -0.06582964
0.0053355144 -0.005170176 -0.026269747 0.07586453 0.059235606 0.023690993 -0.034886897 0.008504619
-0.06099549 0.061314557 0.08082283 -0.014596531 0.06610806 0.08050413 -0.0054721385 -0.034076884
0.0012411156 0.014184272 -0.084231906 -0.005781827 -0.035412133 0.058491845 -0.0047768853 0.057018947
0.07536886 -0.028718024 0.017077712 -0.00978244 -0.03889535 -0.051115207 0.0018614458 0.025216782
-0.012517903 0.018195417 0.06386011 0.042816415 0.03806134 0.030733926 -0.06140538 -0.052936208
-0.058461193 0.05950328 -0.07708202 -0.062248144 0.06591454 0.057651836 -0.076664425 0.059801254
-0.018099971 0.024617365 -0.045458693 -0.011930887 0.02198843 0.071392454 0.06283027 -0.041634757
-0.050605685 -0.004120634 0.02653525 0.052741908 -0.08297957 -0.0026381856 0.009407949 -0.035082165
0.077122316 -0.018721305 -0.07666409 -0.050377168 0.009974642 -0.05617884 0.02622459 0.08943824
0.01140881 -0.014543177 0.08994528 0.070984334 0.06623407 0.011986468 0.0055297124 -0.06324191
0.012744765 0.091441 0.013872291 -0.07156227 0.051850323 0.08222833 0.07836737 0.012182433
0.026146576 0.01870933 -0.03463151 -0.007949997 0.071738966 0.014690845 0.08499354 -0.05850368
-0.008316182 0.009330923 -0.04321853 0.07320048 0.06350778 -0.04469093 0.08462842 0.08817126
-0.049007475 0.00056808477 0.09573808 -0.055403993 -0.0079982905 -0.05217474 0.072598964 0.021376114
0.039975807 0.06837115 -0.017020464 -0.0799344 0.009498885 0.00013836611 0.03565563 0.048748057
-0.0386965 -0.03265036 0.062503584 0.029376568 0.023082072 0.044395678 0.04805076 -0.061036456
0.01739477 0.007278758 -0.08036673 0.028104957 0.010257657 0.067645155 -0.07656518 0.08930171
-0.036254574 0.057375643 0.0686775 -0.0073916498 -0.042840682 -0.010287719 -0.05290232 0.01749362
0.037405036 0.02150352 -0.049781475 0.05946908 0.08527083 -0.02210397 0.052457854 -0.006805536
0.03711744 -0.06261614 -0.07025712 -0.002089703 -0.0688113 0.033557974 0.08783403 -0.010981548

bias f4 [128]
00000000: e047 5c3d 9a37 503d cc09 98bc 8720 513d
00000010: eeab e0bc dc2b a8bc 141c a8bd 2dd4 3e3d
00000020: cab8 853d 3331 9dba 18b0 b3bd ef03 8ab9
00000030: 529d 71bd f629 4fbd 1976 babc f5de 403d
00000040: fa9f 583d 332b 9abd 37f9 4dbd b5e9 41bd
00000050: 2d0a 073d 6f95 02bb 1c32 45bc 5c89 d73b
00000060: 788e 91ba 09f6 93bd df53 b83c 8626 b83c
00000070: ea43 233c 8487 1f3d 4ed0 aa3c 8683 72bd
00000080: 57b6 b93d e492 413d 5717 a93d b540 633c
00000090: dead 753d b87f 7abc e2ab 143c ff0d 5d3d
000000a0: 53ca 3bbd 088b 98bd a364 883c e6e3 623d
000000b0: 111b ae3d a918 2fbc 2685 fbbc 97eb 87bd
000000c0: ad8b aa3d fb59 a1bb 541d 19bd 329f 65bd
000000d0: 7d61 d7bc 60db 973d 9cec 383d 0611 9abd
000000e0: e971 1b3d 8698 bdbc f913 a23d 4f47 15bd
000000f0: 55e5 89bb ff70 d53c 803c 99bc d25d 57bd
00000100: ca2c 2ebc 9f61 ad3d 6bb9 9dbd 0d0e 663d
00000110: bfd6 713d becf a53d 2602 9c3c ec3e 1dbc
00000120: 7935 76bd ac26 bd3d 9758 1dbb 5438 b3ba
00000130: c20b 903c c728 75bc f580 d3ba 0fe8 073d
00000140: 09bb 6e3d ea92 503d de79 babd 451c a8bc
00000150: 5dc0 5fbb 0553 123d aeda 77bd 1029 8abc
00000160: c9c4 20bd 75c4 7abd 58a7 003c 11ac 7e3d
00000170: 98ab b63c 4b3b 12bd c635 5bbb fd89 17bd
00000180: 1dfd b43d 8ad6 ea3c 58d5 69bd 92d9 a4bd
00000190: 11f4 3abd 6f45 76bd ada7 9e3c 2b52 33bd
000001a0: 715f abbd 9c30 d9bc 11d0 3ebd 9183 1ebd
000001b0: 0393 883d 1e9c efbb 82f4 82bd 42e7 5fbd
000001c0: 3a49 a73d 5666 f0bb 3bd6 14bd a10e 3ebc
000001d0: 7ecc 003d 4c82 913d 3b2c 9bbc c134 63bc
000001e0: 62b4 15bd 62d9 87bd 9f88 2e3d 710e 393c
000001f0: 6bbd 833b b4f1 2a3c 6793 783c 2790 9a3d
0.053779483 0.050834276 -0.018559359 0.05105641 -0.027425732 -0.020528726 -0.082084805 0.046589065
0.06529386 -0.0011992812 -0.087738216 -0.00026324342 -0.058987923 -0.050577126 -0.022761391 0.04708763
0.05288694 -0.07527771 -0.050286498 -0.04734202 0.03296869 -0.0019925495 -0.012035873 0.006577654
-0.0011105081 -0.07224662 0.02250093 0.022479307 0.009964922 0.038947597 0.02085128 -0.05920746
0.09067982 0.047259226 0.08256405 0.013870408 0.059980266 -0.01528924 0.009074183 0.053968426
-0.04584725 -0.07448393 0.01664955 0.055393122 0.08501256 -0.010687032 -0.030703139 -0.06636732
0.08327422 -0.0049240566 -0.037381485 -0.056060024 -0.026291603 0.07414889 0.045147523 -0.07522778
0.03795043 -0.023144018 0.07913966 -0.03644496 -0.0042082467 0.026054857 -0.018705606 -0.05257971
-0.010630796 0.08465885 -0.07701381 0.056165744 0.05904269 0.08096264 0.019043993 -0.009597521
-0.06010959 0.09235892 -0.0024009102 -0.0013673403 0.017583732 -0.014963335 -0.0016136455 0.033180293
0.05828384 0.05092136 -0.091052756 -0.020521292 -0.0034141757 0.035723705 -0.060511284 -0.016865283
-0.03925017 -0.061222512 0.007852398 0.062175814 0.02229862 -0.035701077 -0.00334488 -0.03699683
0.0883734 0.028666753 -0.057088226 -0.08049311 -0.045642916 -0.06012481 0.019367063 -0.043779533
-0.083678134 -0.026512437 -0.046585146 -0.03869969 0.06668665 -0.007312312 -0.063942924 -0.054663904
0.08168264 -0.007336418 -0.03633712 -0.0116001675 0.03144502 0.0710493 -0.01894199 -0.013867558
-0.03654898 -0.06633259 0.04261076 0.011294947 0.004020383 0.010433603 0.015171862 0.07547026

weight f4 [128, 128]
00000000: 1592 3b3c aa53 223d ab59 3c3b 021a 093d
00000010: 7f83 22bd 5f52 623d e690 4dbd ea89 6b3c
00000020: 11b1 4c3d 45e5 c6bc a317 2cbd 0e4f 333d
00000030: 9404 0bbc 9c2f debc bf20 8f3b 53fe d83c
00000040: 7124 563d 0b8b 1abd b87b 91bb 887b a83d
00000050: 4f05 8f3d 6f03 5abd b14e 7fbd 0487 baba
00000060: d0f9 22bd 341e 0fbd 0966 c7bb cb89 3fbd
00000070: 3370 57bd a325 02bd c929 d83c b299 8abd
00000080: 3cd7 a23d bacb 923d c71c e03c a99d 1abd
00000090: ccb5 c13c f621 97bd 7a64 213d b0fc 633d
000000a0: 3b57 613d 3e4a 823d c3a0 673d 52f3 babd
000000b0: 9507 45bd 9b74 c2bb 2831 3a3c 85f6 823d
000000c0: 0858 b2bd 8bc3 54bd d721 ee3c 8f2b 273d
000000d0: 775d 693c 0527 373d 3d73 aa3d 471f 9d3d
000000e0: fa46 9f3c 5245 97bd 10dd 9fbc 0a89 5dbd
000000f0: 69a1 67bd d271 863d a875 e43b 1c54 71bd
00000100: 9ccb 4d3d 04e8 e0bc b094 57bd 0908 60bb
00000110: 14fc 4ebd a6fb 53bd df02 4abd b6e9 70bd
00000120: 0f25 f9bc 8cd0 5b3d 38df e9bc 6bba a73d
00000130: 8866 413c e562 09bd ea95 43bc e971 3cbc
00000140: 8089 c83c 43bd 8c3d 505d 553c 870f bebd
00000150: 244c 3f3c 23ba c23c 63ef 86bd 3512 7dbd
00000160: 3f41 d93c 3044 b5bd 9b26 8ebd de8f 8f3d
00000170: 7183 15bc 3ad2 8ebc a8dc 1d3d e654 0c3d
00000180: 28e5 97bc b630 5e3c cbbe 833d 0cb3 9b3d
00000190: 0c83 2ebd efc2 e2bc 5388 693d 43e2 693d
000001a0: 0bd3 9ebb c41b 933c 5be6 7c3d ee9a 62bd
000001b0: e424 b83b 1019 403c 1196 b9bc b08b 3cbd
000001c0: f6d9 38bc 4648 a0bd 6a9f 8dbd c7b9 5abd
000001d0: 6f41 e7bc f3d0 6dbd 8b61 b03c e8df b1bd
000001e0: 5cd9 48bc 35c2 a1bd 470f 9b3c 857b e6bc
000001f0: 2acf a23b 1d74 9ebc 378d 9cbd df40 6e3d
00000200: 4cfc 84bd a7cc cc3c 9638 b13d caea 973d
00000210: 3eba af3d 5864 80bd 9395 793d a7f2 debc
00000220: 84f9 31bd 2dfe 89bd 464f b03d db56 213d
00000230: ec33 b23c 8d58 a43d cb05 29bd 24d5 22bd
00000240: 6563 10bd f71c 26bd f994 cd3c 3f95 ba3c
00000250: b1d8 9abb 0d7b f83c 5f1c a4bd 64f4 1b3d
00000260: f878 3abd 2508 943d c2ab 4bbd 4180 893d
00000270: 7f1b 20bd 19de d23c 0d3c 7e3b 664e 5fbc
00000280: 64ff 7e3d a180 173d b27c 433a 0980 c03b
00000290: e25e 58bd 15d6 ef3c 7e32 f4bc e25e 4f3d
000002a0: 63ea bbbd 2f7f 723d ad5c 66bd bd0c b6bd
000002b0: 2d33 673c a37f a93d 10f9 f5bc 355b a43d
000002c0: 2215 5b3d 22b7 c0bc 9e04 81bd 8e81 70bd
000002d0: ac88 8a3d 4f40 e03c cf31 2c3b df7e 0fbd
000002e0: bc0d a53d d529 863d 0916 8dbd 5210 86bd
000002f0: b195 92bd a6b1 c33c e6aa 23bd d25f b5bc
00000300: dc43 7abd 4298 89bd 4324 35bb 3f67 a8bd
00000310: f1bc f6bc e94d f33b 3f6a f23c d60e abbd
00000320: c849 243c 326d 9d3d 9875 25bd cd68 36bd
00000330: 0a86 eb3c a617 93bc 8558 33bd aa33 283d
00000340: 628e a9bd dcbc a0bd ce31 283d a511 1e3d
00000350: 1f86 623c de58 9e3d 3ca6 9ebd 74f2 893d
00000360: 6141 7cbb 5e93 7f3d dc21 2b3d 9930 f53c
00000370: 2335 afbd dcc0 40b7 0ad1 53bd ad45 0ebc
00000380: 7fc2 963d 1f17 5cbb fde1 18bd b705 08bd
00000390: ed54 c5bc d09e 013d c272 4a3c 3aaa 4a3c
000003a0: 58f5 8dbd 6aa0 9f3d eb52 d8bc d72f ff3c
000003b0: 041b 90bd 402b 303d 841a 073d 1169 823d
000003c0: 7bc4 3d3d bacd b3bd c9cb 03bd 4703 263d
000003d0: 805a 193d 5348 99bc 3662 433d 27b0 9b3d
000003e0: d76b af3c c635 823c 9eae a13d 9e02 933d
000003f0: 796a efbc 013a 3eba d5a3 3fbc 4f9a 253d
0.011448403 0.03963057 0.002873997 0.03347207 -0.039676186 0.055254336 -0.050187014 0.014376143
0.04997355 -0.024279246 -0.04201473 0.043776564 -0.008484978 -0.027122311 0.0043679173 0.026488459
0.052280847 -0.037730258 -0.0044397973 0.08226687 0.069834344 -0.05322593 -0.062330905 -0.0014230912
-0.03978902 -0.034940913 -0.0060851616 -0.04676227 -0.052597236 -0.031774174 0.026387112 -0.06767596
0.07951209 0.07167764 0.027357472 -0.037748013 0.023646258 -0.073795244 0.039402463 0.055660903
0.05501483 0.06361817 0.0565498 -0.09128441 -0.048102934 -0.0059343106 0.011364259 0.06394676
-0.08708197 -0.051944297 0.02906887 0.040813025 0.014243475 0.044714946 0.08322761 0.07671981
0.019443024 -0.07386269 -0.01951459 -0.05408577 -0.056550417 0.06564678 0.0069720335 -0.058918104
0.050243005 -0.027454384 -0.052632034 -0.0034184477 -0.05053337 -0.051753663 -0.049319144 -0.058816634
-0.030413179 0.053665683 -0.028548822 0.08189853 0.0118042305 -0.03354158 -0.011937598 -0.011501768
0.024479628 0.06872036 0.013022736 -0.09280305 0.011675868 0.023770398 -0.06588628 -0.06178494
0.02652037 -0.08850896 -0.06940957 0.07009862 -0.009125576 -0.017434228 0.038540512 0.034260653
-0.018541887 0.013561418 0.06432875 0.0760251 -0.042605445 -0.027680842 0.057014775 0.057100546
-0.0048469356 0.017957576 0.06174312 -0.055323534 0.005619632 0.011724725 -0.022654565 -0.046031654
-0.011282435 -0.07826285 -0.069151714 -0.053399827 -0.028229443 -0.058060598 0.021530887 -0.08685285
-0.012258854 -0.0789837 0.018928183 -0.02813507 0.0049685435 -0.019342477 -0.07644122 0.058167335
-0.06493434 0.02499993 0.08653371 0.07417829 0.08580445 -0.06269139 0.06093366 -0.027215315
-0.043450847 -0.06737933 0.0860887 0.039389472 0.021753274 0.08024702 -0.04126529 -0.039754048
-0.03525104 -0.040554967 0.02509545 0.022776244 -0.0047255387 0.030332113 -0.08013224 0.038074866
-0.04552552 0.07228116 -0.049724348 0.067139156 -0.039088722 0.02574067 0.0038793117 -0.0136295315
0.06225528 0.036987904 0.0007457241 0.005874638 -0.052824862 0.029276887 -0.029809233 0.050627597
-0.09175565 0.059203323 -0.056240726 -0.088891484 0.014111322 0.08276298 -0.030025989 0.08025209
0.05348695 -0.023524825 -0.06299709 -0.058717303 0.06764349 0.027374415 0.0026274805 -0.035033103
0.0805926 0.065509476 -0.068889685 -0.065460816 -0.071574576 0.02388842 -0.039957903 -0.022140417
-0.061099872 -0.06718494 -0.0027640022 -0.08222818 -0.030119391 0.007425059 0.029591678 -0.08352439
0.010027356 0.07686843 -0.04039535 -0.04453354 0.028750438 -0.017955612 -0.04378559 0.041064896
-0.082791105 -0.07848522 0.041063122 0.038591046 0.013825922 0.07731794 -0.077465504 0.067356974
-0.0038491117 0.0623964 0.041780338 0.0299304 -0.08555057 -1.1488995e-05 -0.051713027 -0.008683604
0.07361316 -0.0033583117 -0.037324894 -0.033208575 -0.024088347 0.031645596 0.012356462 0.012369687
-0.06931561 0.077942684 -0.026406726 0.031150742 -0.07036403 0.043009996 0.03298427 0.06367696
0.046329957 -0.087794736 -0.032176767 0.04053047 0.037439823 -0.018711245 0.047701083 0.07601958
0.021413727 0.015894782 0.07894634 0.071782336 -0.029225575 -0.0007256568 -0.011696775 0.040430363

bias f4 [128]
00000000: 79f4 36bd 9fe7 0cbd ff68 a3bc 7ca3 85bd
00000010: 98ad 9f3d 98c0 793d d62d 7f3b fcda 613c
00000020: 5473 7c3d a0f6 993d 9f73 9dbc b977 4abd
00000030: d780 623d dd85 5bbd 8020 543d 3ec7 8dbd
00000040: d18d 0dbd a2d3 0a3b 29f7 65bd f42c 0b3d
00000050: 5649 413b 8909 8a3c 4070 873d 6f59 3a3d
00000060: c920 89bd 4adb 46bd 2de3 963c 3db1 0fbd
00000070: e6b2 9a3d e2b2 b03d 3d29 2bbc 39bc 95bd
00000080: 79ef b6bd 4e78 76bd 4601 97bd a6a7 803d
00000090: 7a40 43bd 4f67 84bd 591b ac3d ec0c 97bd
000000a0: cbde 8b3d 1abd adbc 97bf 83bc dee7 343d
000000b0: e5e3 403d 29d4 f4bc 82b9 ab3d c30b c83c
000000c0: 4562 8c3d 61ff 913d 5d0c 46bd 3e60 2c3c
000000d0: 02d0 a2bd 7419 86bd e297 b73c 369d adbc
000000e0: 630f 79bd 80e7 0d3c 66bb 31bd 3ba4 92bd
000000f0: 5499 f83c b77b 19bc 0a3a 013d 7851 11bd
00000100: fe12 78bc 1acd 283d 56f4 75bd 7d57 3d3b
00000110: 96c2 b73d b993 a63c 474d f33c 30af 9ebd
00000120: aa46 263d ca2e a2bd 52b4 9b3d dc2c cf3c
00000130: 2c3c 6bbd cddf 2a3c a44d bc3d dd9e 6bbd
00000140: 0386 b63b e2b9 ab3d 7607 a6bb 2b2b 553d
00000150: 6a6d 6d3d 3151 9bbc ae52 b43d 186c a4bc
00000160: 9e32 bd3d ec6d 59bc b029 013d db2b a9bd
00000170: 6f91 ec3c eff9 b03b 3773 a2bd d873 08bd
00000180: 0ebc 843d 323e a2bd 8422 a63c 7d08 023c
00000190: 6749 533b 03b6 18bc 9283 2f3c ad57 a0bc
000001a0: 172d b6bd a3fe 9ebc 5d10 5d3d c2e5 afbd
000001b0: 7ccf 53bd 1605 93bd 62fb 5bbd d0f7 a8bc
000001c0: d4be 8b3d 5871 473d 1ba5 f73c a160 2c3d
000001d0: 7724 c1bd 1ba9 b0bd 1461 ae3d a5c9 8e3d
000001e0: b3c5 5e3d 61c0 a0bd b546 8bbd c850 a33d
000001f0: 05dc 77bd 6ed5 3fbc 7641 e33c b04c bb3d
-0.04466674 -0.03440058 -0.019947527 -0.06525323 0.07796782 0.060974687 0.0038937232 0.01378512
0.061633423 0.07517743 -0.019220171 -0.049430583 0.055298652 -0.05359446 0.051788807 -0.06922768
-0.034559075 0.0021183272 -0.056143913 0.033978418 0.0029493175 0.01685025 0.06613207 0.045495447
-0.066957064 -0.048548974 0.018418873 -0.035081137 0.075536534 0.08627869 -0.010446844 -0.07311291
-0.089323945 -0.060173325 -0.0737329 0.062819764 -0.04766891 -0.06465017 0.08403654 -0.073755115
0.06829604 -0.021208335 -0.016082568 0.04416644 0.047092337 -0.029886322 0.08384992 0.02441967
0.06854681 0.07128788 -0.048351634 0.010520993 -0.079498306 -0.065478235 0.02241129 -0.021193128
-0.06080569 0.008661151 -0.043391608 -0.07160231 0.03034655 -0.009367875 0.03154949 -0.035478085
-0.015141247 0.041211225 -0.06004747 0.0028891258 0.08972661 0.020334112 0.029699935 -0.07748258
0.040594734 -0.079190806 0.07602753 0.025289945 -0.05743043 0.010429335 0.09194496 -0.05752455
0.0055701747 0.08385064 -0.0050668074 0.05204312 0.057965674 -0.018959614 0.088048324 -0.020071074
0.0923817 -0.013270836 0.031533897 -0.08260318 0.028877942 0.005400888 -0.07932132 -0.033313602
0.06481181 -0.07922019 0.02028013 0.007936594 0.0032239796 -0.009320739 0.010712521 -0.019573057
-0.08895319 -0.01940853 0.053970683 -0.08588745 -0.051711544 -0.071787044 -0.053706534 -0.020625979
0.06823507 0.048692077 0.030230096 0.04208434 -0.09430783 -0.08626004 0.0851461 0.069720544
0.05438776 -0.07849193 -0.06800596 0.07974392 -0.06051256 -0.0117086 0.027741175 0.09145486

weight f4 [1, 128]
00000000: 6c9c 523c 50ec 343c 16b4 843c eb17 a4bb
00000010: 06c0 bab9 1d7e 663a f19f 1cbc 602c 203b
00000020: f5dd 23bc 9379 77bb 2732 393c 0c76 34bc
00000030: 4044 433a f729 253c 01f6 0a3b 63b1 ec3b
00000040: 3cb6 7c3c f5cd 1f3c b916 45bb bb5e bebb
00000050: 3093 003c 709d 96b7 67cf f2bb 546d 153c
00000060: 697e 58bc 5d4e 953b 6880 30bc c160 873b
00000070: 595a c03b 98eb abbc 2cf6 5c3c cba5 783b
00000080: 7dfb dc3b c3eb 8c3c e237 3f3c dfbc 5cbb
00000090: 31be d73b f99b 113c 0a32 4e3b 3e28 0dbc
000000a0: 9f1d bcbb e72b 3b3c 396e 28bb 4e2c a2ba
000000b0: be75 20bc 8579 cebb 0642 0dbc 79f1 49bc
000000c0: a258 71bc 443b 80bb 234c d13b 7960 61bc
000000d0: f9b6 08bc 6ef3 56bc 05c1 b43a 490e 753c
000000e0: c24c f8bb d77b a73b af51 c3bc ecbe b73c
000000f0: cff9 82bc 4f8f 603c 0db9 b4bb df05 213b
00000100: 899f 203d 6813 8dbb d9e2 023c 93e1 d7bb
00000110: 6ee5 63bb 3acc 8f3c a292 24bc 5474 23bb
00000120: f525 673c 45c6 3a3c d6c6 a1ba 89e4 043b
00000130: efb9 50bc 742f 30bb 2ff2 72bc 1e3a acbc
00000140: ad11 d53b c5c0 18bc 5e9d 91bc 2d91 9a3b
00000150: 5e75 493b 5a97 243c fadb d0bc 19da f53b
00000160: 24fb bdbb 0d05 cf3a e6e3 1e3c 92e1 783c
00000170: 9f00 1dbc 5756 f93b 70ae 86bb 11dc 383c
00000180: 0cbf 9ebc 8285 4e3c 0a0c a7bc b086 183c
00000190: ade0 07bb f1ee 62b9 47ab 333c 4d4e 873c
000001a0: b9cd 63bb 0b4f 60bc 652d 30bc 5ff4 203c
000001b0: 1f3a 85bc 8715 29bb cf30 8b3c e153 bf3c
000001c0: 0cc5 163b 4054 abbc 2ca8 9ebb 06e0 04bb
000001d0: f936 893c 34b2 7dbb dae9 5ebc 5625 19bc
000001e0: 0299 8b3c bb01 3a3c 9875 6d3b e06f a639
000001f0: e9ef 4a3c 84b3 5c3c 049b f43b ff17 983a
0.012854677 0.011042669 0.016199153 -0.005007734 -0.00035619753 0.0008792596 -0.009559617 0.0024440512
-0.010001649 -0.0037761673 0.011303461 -0.011014473 0.000744883 0.010080806 0.0021203759 0.0072232946
0.015424307 0.009753694 -0.0030073358 -0.0058096326 0.007847592 -1.7954706e-05 -0.007409978 0.009120304
-0.013213732 0.004556461 -0.010772802 0.004131407 0.0058701453 -0.020986363 0.013486426 0.0037940617
0.006743847 0.017202264 0.011671038 -0.0033681912 0.006583952 0.008887284 0.003146293 -0.0086155515
-0.005740836 0.011424041 -0.0025700463 -0.0012372823 -0.009793697 -0.0063011074 -0.008621698 -0.012325638
-0.014730604 -0.003913315 0.00638725 -0.013755911 -0.008344405 -0.013119562 0.0013790434 0.014957019
-0.0075775096 0.0051111984 -0.02384266 0.022429906 -0.015988259 0.013706042 -0.005515224 0.002457015
0.039214645 -0.004305292 0.007988655 -0.00658817 -0.0034774202 0.017553438 -0.010044726 -0.0024941163
0.014108171 0.01139981 -0.0012342583 0.002027782 -0.0127396425 -0.0026883753 -0.014828249 -0.021023806
0.0065023513 -0.009323304 -0.017775234 0.0047170133 0.0030740122 0.010045851 -0.025495518 0.007502806
-0.0057977606 0.0015794352 0.00969789 0.015190499 -0.009582668 0.0076091695 -0.00411015 0.011282937
-0.019378208 0.012605073 -0.020391483 0.009309456 -0.0020733282 -0.00021642052 0.010966129 0.016516829
-0.0034760071 -0.01369072 -0.01075301 0.009823888 -0.016263066 -0.0025800185 0.016991047 0.023355426
0.0023005633 -0.020914197 -0.004841825 -0.002027513 0.016749846 -0.0038710954 -0.013605559 -0.0093472805
0.017040733 0.011352952 0.0036233421 0.0003174534 0.012386301 0.013470534 0.0074647684 0.0011603831

weight f4 [3, 128]
00000000: 805a 2dbc 87cc 8b3b 1ea9 7a3b 2364 ff3b
00000010: 9cf3 2bbc 2ba8 743b fbc3 593c de0d b6ba
00000020: 9ed1 8b3b 38a6 3d3c a3ec a13b c647 bf3c
00000030: 730a 283c 3a28 4ab8 0b28 ebbb 8e12 c0bb
00000040: 4ba0 293b 9b54 8ebb 24ea dcbb 5a30 a9bb
00000050: 15b7 5b3a 166b 503b 4b03 6e3c 4eb4 3fbc
00000060: 84eb 41bc 1458 8c3b 3406 cf3b e9d9 b73b
00000070: 8884 5cbc 3a08 6abc caac 38bb f761 b4ba
00000080: eb5f 5f3b a14d e1bb 18f3 d33c 19be 2e3c
00000090: 5988 0f39 0489 a53b a753 113b a81a 42bc
000000a0: 1d3a 02bc 80be 903a 8e63 a13b 6105 003b
000000b0: bde1 acba bfa3 bf3c 391c 8b3c 8b0f c6bb
000000c0: 881a ba3a 687a 2cbb e2fc b4bb 34aa bc3c
000000d0: 3cd8 3b3c f5e9 893b a90a d53b a421 183c
000000e0: b977 9e3b c29d 97bb 6a34 6fbc f033 4ebb
000000f0: 5a67 3bba ba6d 53bc c76b 4abc ef18 e6b9
00000100: df4f 04bc e5f1 01bc 7956 f7bb eed9 5c3c
00000110: a7c5 b5ba 0e5c d9ba 8310 a43a d8c3 97bc
00000120: c9ea 443b 7325 103a 04aa 42bc 2cd5 7d3c
00000130: d939 9aba cd2d f53a cc80 9f3b d020 88ba
00000140: 26d8 fa3a 2512 23bb 7a91 423c cb1d db3b
00000150: 15ac 823c 3c0c febb 206a 0d3c 6bb7 43bc
00000160: f6f6 ce3b 26cc 66bc d5d3 8bba 3410 153c
00000170: 6436 95bb f55d 6dbc f311 773c 4fe3 27bc
00000180: 976c 3cbc 706f 0b3c 99b6 b0bb 9b9c 49bb
00000190: 8518 e7bb 29e4 c53a 4722 403c 32be fa3b
000001a0: b7d8 db3b 3c80 273c 955a 1ebc b623 153b
000001b0: def2 40bb c514 523b 9e3a c0bb 0f71 b93b
000001c0: 1338 ed3b 6cc6 a93b 6663 ac39 185a a23a
000001d0: adc5 333b caaa c33b 1e8f 13bb 1e06 f1bb
000001e0: 46d0 d33b 9e4a 013b a9d9 a1b9 b240 1cbb
000001f0: f8d7 63bc 2040 28bc 8726 833b 7830 95bb
00000200: 16df 153b efd0 b5bb 02d7 c0bb 87ea 6a3c
00000210: 88a3 f23b 16e4 f4bb 2bbb 4f3c 4cff 97bb
00000220: 81c0 8cbb 309f 343c a9d9 d6ba 403b 923c
00000230: 40a0 673a 60e0 b5bc 2301 313c b3fb 8a3c
00000240: c157 053b 8a80 6abb f937 6f3c f9a2 dbbb
00000250: 5ad3 f9bb 1ecf 893c 47e3 ca3b 2457 07ba
00000260: 1437 183a 366d 2bbb 5db5 da3b 44ba aabb
00000270: 2153 5e3c 1935 01bb ec8d 5e3c ae57 9dba
00000280: 05b2 1abc e2ca fcba 4e02 583c 3ad2 f2bb
00000290: 64d1 a3bb b260 3e3b 61ce 95ba 90cd 26bc
000002a0: 7e1a 1a3c b2d0 583c 0368 8f3b 6857 57bc
000002b0: 191f c43a 23a0 02bc ab4e 7dbb 727b 41bb
000002c0: 6e4e 61bc a4f9 f23b 52ec a0bb 62ad 053b
000002d0: b330 e23b 0dfd f63b 221b 863b 41ae bd3b
000002e0: 3f2d d2bb 5a26 533a 2fbb 19bb 18b9 6f3b
000002f0: 9c6e 753b 16ee fb3b ebdb 53bb 6517 20bc
00000300: c321 523c b621 493c f130 773a a4fd 07bc
00000310: 2c89 deba 0155 e43b 8b71 b4bb 5c52 2c3c
00000320: bd48 d9bb d2bc 9cbc 158f 523c 6736 2eba
00000330: 71e1 6a3b 0463 563b ee2c 7bbb a002 4abc
00000340: 6602 7a3c 3ad5 d939 043a 23bc bd77 09bb
00000350: 60fb 3f3c 214b 2f3b e0f9 173c cac1 0c39
00000360: 9c6b e63a 4c94 b0bc 45c3 e93b 844a b3bb
00000370: 9e81 aa3b 5aef 1b3c c4ca 5d3b 3df9 003c
00000380: af3a 0dbc b667 313c 37dd 6d3b 0f17 34bc
00000390: 1005 183b 9393 f23b e7aa 40bc 543d 063c
000003a0: 54ed 203b 20ba 96bb e1e6 293b 7e29 1dbb
000003b0: 281d 50ba c00c 883c 6d30 ad3c 998b 963b
000003c0: 3b37 103c 8c38 123c 1be8 c03b 2957 613c
000003d0: b34d 1039 c712 8f3b 4b64 43bc 6a73 183c
000003e0: 3cd0 ad3b 3713 51bc a867 8fba fd1d b0bb
000003f0: 9adf f4b9 bcbd fcbb 8f2b 9dbc b8a6 f73a
-0.010580659 0.004266325 0.0038247774 0.0077939196 -0.010495093 0.0037331681 0.013291354 -0.0013889631
0.0042669317 0.011575274 0.0049415394 0.023349654 0.010256398 -4.8198017e-05 -0.0071764044 -0.005861587
0.0025882896 -0.004343582 -0.006741779 -0.0051632347 0.00083814684 0.003180211 0.014527152 -0.011700703
-0.011835936 0.0042829607 0.006317878 0.0056106937 -0.013459332 -0.014284188 -0.0028179162 -0.0013762106
0.0034084271 -0.006875709 0.025872752 0.01066544 0.00013688336 0.005051734 0.0022175105 -0.011847176
-0.007948426 0.0011043102 0.004925198 0.0019534456 -0.0013189834 0.02339351 0.016981231 -0.0060443333
0.0014198581 -0.0026318077 -0.00552331 0.023030378 0.0114651285 0.004208798 0.006501515 0.009285364
0.0048360494 -0.0046269605 -0.014599899 -0.0031464063 -0.00071488845 -0.012904579 -0.012354798 -0.00043887596
-0.008075683 -0.007931207 -0.00754815 0.013479693 -0.0013868109 -0.001658322 0.0012517128 -0.018526003
0.003004717 0.00054987444 -0.011881355 0.015492719 -0.0011766508 0.0018705666 0.0048676487 -0.0010385755
0.0019137904 -0.002488264 0.011875505 0.006686901 0.015951196 -0.0077529233 0.008631259 -0.011945586
0.006316061 -0.014086759 -0.0010667989 0.009098101 -0.004553603 -0.014487733 0.015079963 -0.010247066
-0.011500499 0.0085104555 -0.005392861 -0.003076351 -0.0070524835 0.0015097904 0.011726922 0.0076520676
0.006709184 0.010223445 -0.009665151 0.002275688 -0.0029441635 0.0032055837 -0.0058663627 0.0056592296
0.0072393506 0.0051811244 0.00032880454 0.0012386469 0.0027431056 0.0059712874 -0.0022515724 -0.0073554656
0.006464037 0.0019728313 -0.00030870482 -0.0023842272 -0.013906471 -0.010269195 0.0040023956 -0.004552897
0.0022868565 -0.0055485885 -0.005885006 0.014338142 0.0074047484 -0.007473479 0.012678902 -0.004638588
-0.004295409 0.011024281 -0.0016391772 0.017850518 0.000883583 -0.022201717 0.010803494 0.016965723
0.0020346495 -0.0035782182 0.014600747 -0.0067027775 -0.007624072 0.016822394 0.0061916444 -0.0005162826
0.0005806547 -0.0026157624 0.006674452 -0.005210193 0.013569624 -0.0019715487 0.0135836415 -0.001200428
-0.009441857 -0.0019286538 0.013184143 -0.007410315 -0.0049993265 0.0029049334 -0.0011429304 -0.010180846
0.00940573 0.013233351 0.004376413 -0.013143398 0.0014962881 -0.00797275 -0.0038651626 -0.0029523042
-0.013751609 0.0074150134 -0.004910984 0.0020397534 0.006902778 0.00753749 0.00409259 0.005788595
-0.006414085 0.0008054726 -0.0023457517 0.003657883 0.0037449962 0.007688294 -0.0032327126 -0.009771203
0.012825432 0.012276104 0.0009429595 -0.008300219 -0.0016978136 0.006968141 -0.0055066994 0.010517683
-0.0066309855 -0.019133005 0.012851496 -0.000664568 0.003583994 0.0032712827 -0.003832634 -0.012329727
0.015259361 0.00041548332 -0.0099625625 -0.002097591 0.011717647 0.0026747661 0.009275883 0.00013423632
0.0017579678 -0.021555088 0.0071338736 -0.0054715294 0.00520344 0.009517515 0.0033842782 0.007871923
-0.008619948 0.010827949 0.0036295184 -0.010991826 0.0023196377 0.007402846 -0.011759496 0.008193333
0.002455552 -0.0045998245 0.0025924968 -0.002398103 -0.0007938915 0.016607642 0.021141255 0.004594278
0.0088022305 0.008924615 0.005887044 0.013753691 0.00013761855 0.004366252 -0.011925767 0.009304861
0.0053043645 -0.012760929 -0.0010940926 -0.0053746686 -0.00046705903 -0.007713048 -0.01918581 0.001889429

bias f4 [3]
00000000: 45eb a439 2a52 003b 44b1 c6ba
0.00031455807 0.0019580224 -0.001515903

weight f4 [1, 128]
00000000: b17e fd3b 52f3 af3c 65cb 523c b490 373c
00000010: ace5 e7bb 80d1 78bc 0b74 a5bb 2159 893c
00000020: a81b afbc 41bf a33b be5b 443c 7505 96bc
00000030: 67c5 c83c 7890 ed3b 2fd3 383c 6c7f e43b
00000040: e5ee fb3b 205a c73a 04c5 75bb fafb 5b3c
00000050: 875e cdbb bfbf 873c 01e0 10bc 83a6 793c
00000060: f57d 053b 64d5 b73b 0998 04bc 1647 4b3c
00000070: 7584 743a 1f4b 08bc 6e7b 2e3c fd99 903c
00000080: 6e02 583b 05fa e13c c370 45bc 8d85 2b3c
00000090: e67d 943c 9c1a de3b b94d 73bc df73 85bc
000000a0: f2a5 eb3a fd32 953b 3fae e83a 3927 653c
000000b0: 9ada 7abb ac5f 5cbc 28d3 a4bb 8096 29bc
000000c0: f02b fcbb 9967 44bc ab8a 2b3b 93d2 e5bb
000000d0: 2f40 85bc c86f 0d3c 631a 433c 0f4d a53b
000000e0: e72b 38bb 7758 dfbb 9019 3dbb 6580 063c
000000f0: ac3f 8dbc 3e84 95bc 28c1 bcbb a95d 2d3c
00000100: cdb7 ca3b 2345 8cbc ca92 e83b a21c 973b
00000110: 419c b9bb 6bce 843c e5cb cbbc fd42 21bc
00000120: 20dd 573b a418 07bb 75fe 2abc 5f1a 813c
00000130: ac0b 5c3c 56f2 26bc 19af 16bb 0faa a33b
00000140: ea73 e13b fe48 e0ba ac17 923b bc41 053b
00000150: 0390 f7ba f386 8fbb 0675 fdbb d1dd 313c
00000160: b261 1dbc 72d9 023c 9af3 4b3a b115 ac3c
00000170: 03d8 553a 4a27 393b 8c2d f43b 7249 7539
00000180: 7d1a 54bc aaf0 983a 743e a7bc 0b9f 3f3c
00000190: 66b4 94bc 74ed 27bc 6d52 513a a150 ac3c
000001a0: c9ad 903c 048f 9e3c fbeb 86bc 480e 5eb9
000001b0: b3d9 9aba 5fbb f9bb 7eb4 8f3c 30a6 d03b
000001c0: ca50 6eba 4762 9b3b b78b fabb b6f0 6dbc
000001d0: ac50 d43b bcc8 e03b 9edb 42bb 5b74 d3bb
000001e0: 68ca d83c 8547 bcbb 65d3 763c b023 e3bb
000001f0: 80cc 633b 6719 1f3c f0ed 723c 57e2 3cbc
0.00773605 0.021478329 0.012865876 0.0112039335 -0.0070769396 -0.015186667 -0.005049234 0.016766133
-0.021375492 0.0049971645 0.011984764 -0.018313149 0.024508191 0.007249888 0.011280819 0.0069731977
0.0076883906 0.0015209354 -0.0037501464 0.013426775 -0.006267372 0.016570924 -0.008842469 0.015237453
0.0020369266 0.005610155 -0.008092889 0.012407085 0.0009327599 -0.0083186915 0.010649545 0.017651552
0.0032960433 0.027585039 -0.01205081 0.010468853 0.01812644 0.0067780744 -0.0148500735 -0.016290603
0.0017978533 0.0045531974 0.0017752125 0.013986402 -0.003827727 -0.013450544 -0.0050300546 -0.010350823
-0.0076956674 -0.01198759 0.0026175182 -0.007013628 -0.016265957 0.008632608 0.011908147 0.0050445865
-0.002810234 -0.0068159658 -0.0028854348 0.008209323 -0.017242275 -0.018251535 -0.0057603307 0.010581412
0.0061864615 -0.01712281 0.0070975767 0.0046115676 -0.005664379 0.016211709 -0.024877498 -0.009842631
0.0032938197 -0.0020614052 -0.010436644 0.015759645 0.013430517 -0.010189613 -0.002299255 0.004994638
0.006880273 -0.0017111597 0.0044583883 0.002033337 -0.0018887523 -0.004380101 -0.0077348975 0.010856108
-0.009605812 0.007986413 0.0007780135 0.021006437 0.00081574934 0.0028252178 0.0074517187 0.00023392381
-0.012945768 0.0011668403 -0.020415522 0.011695634 -0.018152427 -0.010249484 0.00079849997 0.02103454
0.017660992 0.019355305 -0.016469946 -0.0002117689 -0.0011814147 -0.0076212133 0.01754212 0.0063674673
-0.0009091018 0.00474194 -0.00764605 -0.014522722 0.0064793434 0.006859867 -0.0029732953 -0.0064530796
0.026463702 -0.0057458305 0.015065049 -0.0069317445 0.0034759343 0.009710646 0.0148272365 -0.011528573

weight f4 [3, 128]
00000000: 6036 273c e9db 84bb 0981 34bc a8cb 68ba
00000010: 8608 2a3b 8d4f 91bc 2e06 df3b 89b7 753b
00000020: 54a2 f13a 344a 52bb fff6 ea3a 00ac 1fbc
00000030: ac92 d53b 855e 7d39 5de7 913a 2ebb 22bc
00000040: 4937 27bc cd15 7abb bb7e b438 9019 29bc
00000050: f2b6 6b3b c0cb 3e3a addb 783b 6e70 193c
00000060: 1c16 1a3b 2978 0f3c b86f 82bb d339 40bb
00000070: 029c c3bb 0fd5 c53b a227 bdbc 6d95 8d39
00000080: f770 3dbc 382a 49bc 4a99 ffb9 c849 81ba
00000090: 410c a53c 1031 3f3c 094f 8e3b 3348 193c
000000a0: 8a01 173c f473 1c3c 97d2 80bb 08d4 99bc
000000b0: f7ab 183c 317f 05bc 507a 9839 0c4d a3bc
000000c0: 8701 293c ad48 9ebb 372f 23ba 2d35 333c
000000d0: 56ae 8bbb c806 05bc 62c6 1cbc a5d4 b23a
000000e0: 6183 1e3b 9da8 993b 7657 4bbc 26e6 dd3b
000000f0: 51f8 1bbc e8f7 293c 81de 4dbc fdd9 963a
00000100: 756a 40bb b2bc 713b c6b9 583b 059a f5bb
00000110: 5ad0 1c3b 005c a93c 8ad5 6a3b 8f1b 42bc
00000120: e569 9abc ca5f adbb 8b58 3c3c d57e 903a
00000130: 7030 4b3c f6de 74bc 922d afbb 460f 973c
00000140: ba11 003c 3afd b539 c89f 27bc cea8 d73b
00000150: c674 98bb f92b b1bb 044b 403c ad13 1cbc
00000160: 5bca 223c 254b 4fbc 4b82 5a3b 0bea 99bb
00000170: 5282 3b3b ebb6 12bb c07f b0b9 4e48 11bc
00000180: 7cd2 f6b6 ca08 193c 2fa5 6ebc ae98 663c
00000190: 277a 0aba 79c5 9737 2e72 babb 7cee fb3a
000001a0: d7b3 673c b491 6dbc 9f95 883b 4f39 ce3b
000001b0: 28b4 65bc e8ec 15bb 49e3 bfba a50c 8abc
000001c0: ed57 ca3a 8608 0d3c 6942 c4bb 060a 1dbc
000001d0: 1f87 c4ba be14 ab3c d2b0 5538 f20b 6cbc
000001e0: 8631 c139 b583 bfb8 073f a33b b61c c0ba
000001f0: d89f 05bc 3e2f 273b 382a 423c 347d 373b
00000200: b519 50bb 9a23 843a 78ba ebba eb3f c039
00000210: d890 ddba 8f7b 00bc 2a4e e6ba 9499 27bc
00000220: a757 c33b bf8f acba b3f5 20bc 09c2 a4bb
00000230: 37da a83a f617 85bc d7e4 54bb bc75 27bc
00000240: c001 d43a 1ae0 353c ad43 63bb 1154 293c
00000250: e709 4f3b 5466 68bc 6422 013c 070d b13a
00000260: 95bc 713c f449 8abc 822b 313b e06d d9ba
00000270: e7ed 0bbc 1ac1 ddbb 9b0b 1f3b fb04 863b
00000280: c0a6 86bc e663 853a c083 5c3c 08d5 af3b
00000290: 0a65 3d3a 8af8 ab3b bac0 9539 aa8f 4a3b
000002a0: ec21 083c 0caa e43b 1e09 ecbb e583 8a3c
000002b0: 47b9 253c 12a6 1bbc 7fbe e83b 9286 5abc
000002c0: 9e51 cc3c 9f6a 243c f5ac 8a3c ef7d 503c
000002d0: 6ea2 1ebc fbbc 81ba ac71 923b 047f 113a
000002e0: eb87 e439 aa4c e53a f52f e03b 3db1 e43b
000002f0: 91ad 25bb 4b7a 0a3c 1ac0 b7bb 2629 613a
00000300: f5b9 7bbc aed6 f8bb 5c8d ef3b 2580 72bc
00000310: a3f9 563c a400 c13a a18e beb9 0f35 6f3a
00000320: 340d 333b de77 82bc 300a 96bb 6d52 5dbc
00000330: 17a7 cbbb e24c 48bb 2d3c 1bba f63c bdba
00000340: b6ca da3b 65b8 9ab9 89e4 b63b 0660 633b
00000350: a83d 6d3c 975e 313c c967 513c 4bba 4dbc
00000360: d717 643a 4074 33bb fb96 f3bb 8afb 0e3b
00000370: 4b74 963b bdad 1fbc 716f 983c 3ee3 323b
00000380: bb6b 61bb 728b 1abc 67f8 98bb c719 fabb
00000390: 7a5f aa3b 4dcc 9b3a f912 1cbb 8132 803c
000003a0: 69a0 1dbc cd86 fcbb 37b1 973b 9dd6 68bc
000003b0: 43bb 0e3c 04f8 973b 35d9 8c3b 6661 843c
000003c0: 211a 98ba 78a2 83bb bb53 ab3b d005 05bc
000003d0: 3dfc 2cbc 9f16 1ebc 5ef1 a4bc f542 283c
000003e0: 3bcc 95bb 1262 be3b a59e 96bc a72b ea3b
000003f0: 9ee5 fb3b a7b8 083b 3a55 2d3c 343b 013c
0.010205835 -0.0040545356 -0.0110170925 -0.0008880445 0.0025945022 -0.017738128 0.0068061566 0.0037493429
0.0018435218 -0.0032087686 0.0017926394 -0.009745598 0.006517729 0.00024163171 0.0011131574 -0.009932322
-0.010206052 -0.0038159967 8.606674e-05 -0.010321036 0.0035967198 0.0007278286 0.0037972734 0.009365184
0.0023511713 0.008756676 -0.003980603 -0.002933134 -0.0059695253 0.0060373615 -0.023090187 0.00027004947
-0.011562577 -0.012278132 -0.000487516 -0.0009863907 0.020147445 0.011669412 0.004342918 0.009355593
0.009216676 0.00954913 -0.0039313543 -0.018777862 0.009318343 -0.008148001 0.0002908283 -0.0199342
0.010315306 -0.004830441 -0.0006224992 0.010937971 -0.004262726 -0.008119293 -0.0095687825 0.0013643695
0.0024187195 0.0046892897 -0.012410989 0.0067718206 -0.009519652 0.010374047 -0.012565256 0.0011509057
-0.0029360328 0.0036886153 0.0033069714 -0.007495167 0.0023927898 0.020673752 0.0035832846 -0.011847391
-0.018849323 -0.00529096 0.01149572 0.0011024127 0.012401685 -0.014945736 -0.0053460086 0.0184399
0.007816726 0.0003471168 -0.010230966 0.0065814024 -0.0046525924 -0.0054068533 0.011736635 -0.009526175
0.009935941 -0.012652193 0.003334182 -0.0046970895 0.0028611613 -0.002238686 -0.00033664517 -0.008867336
-7.355875e-06 0.009340474 -0.01456575 0.014074488 -0.00052824843 1.8092558e-05 -0.005689881 0.0019220854
0.014141998 -0.01450007 0.004168227 0.006293453 -0.014020003 -0.0022876803 -0.001463988 -0.016851733
0.0015437581 0.008607989 -0.005989362 -0.009584909 -0.0014993883 0.020883914 5.0947834e-05 -0.014407145
0.00036848726 -9.132122e-05 0.0049818787 -0.0014656994 -0.0081557855 0.0025510336 0.011850886 0.002799821
-0.0031753604 0.0010081411 -0.0017984649 0.00036668716 -0.0016904129 -0.007841959 -0.0017570902 -0.010229487
0.0059613767 -0.0013165398 -0.009824204 -0.0050280136 0.0012882416 -0.016246777 -0.0032485032 -0.010220941
0.0016174838 0.011100793 -0.003467779 0.010334984 0.0031591596 -0.014184553 0.0078817345 0.0013507911
0.014754434 -0.016880967 0.002703399 -0.0016588531 -0.008540607 -0.0067674043 0.0024268392 0.004089949
-0.016436934 0.0010176867 0.013459146 0.0053659715 0.0007224834 0.005248134 0.00028563087 0.0030908384
0.008308869 0.006978279 -0.0072032353 0.016908595 0.010114974 -0.0095000435 0.007102787 -0.013337748
0.024941262 0.010035186 0.016928175 0.012725337 -0.009682281 -0.000989824 0.004469117 0.0005550238
0.00043588816 0.0017494161 0.0068416544 0.0069791363 -0.0025280456 0.0084520085 -0.005607617 0.00085892004
-0.01536416 -0.007593951 0.0073105525 -0.01480106 0.0131210415 0.0014724922 -0.0003634589 0.0009125033
0.0027321102 -0.015926298 -0.004578851 -0.013508421 -0.006214987 -0.0030563404 -0.00059217477 -0.0014437723
0.006676997 -0.00029510554 0.0055814427 0.0034694686 0.014480032 0.010825775 0.012781092 -0.012556623
0.0008701062 -0.0027382523 -0.0074337698 0.002181741 0.0045915 -0.009746012 0.018607827 0.0027296091
-0.0034396488 -0.00943266 -0.0046682837 -0.0076324674 0.00519937 0.0011886448 -0.002381502 0.015649082
-0.009620764 -0.007706499 0.00462928 -0.014211324 0.008711639 0.00463772 0.004298354 0.016159724
-0.0011604467 -0.0040171705 0.0052284873 -0.008119062 -0.010558185 -0.009648948 -0.020134624 0.01026987
-0.0045714653 0.0058100307 -0.018386194 0.007146317 0.0076872846 0.0020862014 0.010579402 0.00788765

bias f4 [3]
00000000: 603a 0b3a 4621 323a 497c 2cba
0.0005311128 0.0006795119 -0.0006579799
