TradeSimulator-v0_D3QN_-1/actor_00066360_056.000.pth (torch, 152106 bytes, 14 tensors)

state_avg f4 [10]
00000000: 3a0d 503d 6ccd 3339 a5ee b6ba 98da 3f3d
00000010: baca 2f3a 07e5 04bb 52e4 84bc 05f5 7e3d
00000020: 3a44 7d3a 8580 83bb
0.050793864 0.00017147296 -0.001395662 0.046839327 0.0006705929 -0.0020278112 -0.016222153 0.062245388
0.00096613506 -0.0040131235

state_std f4 [10]
00000000: 223b 773f 03d8 6e3f 4b3f 783f 1861 7b3f
00000010: e80a 753f 59c9 723f bdab 7f3f debf 753f
00000020: 2173 743f 6eec 723f
0.96574605 0.9329836 0.9697158 0.9819503 0.95719767 0.9483848 0.99871427 0.9599589
0.9548817 0.94892013

weight f4 [128, 10]
00000000: 1846 2a3e 00d6 d6bd e69a 89bd 5b3a 213e
00000010: b335 93be f24f 443e fc86 92bd 0abe 2e3e
00000020: 2389 363d 5397 3ebd fc20 ca3d 831b c63d
00000030: 33a3 023e 7d15 debd f3cf e7bc 8e77 06bd
00000040: 004f 233d 9834 103b 4d39 8f3e 881e e03d
00000050: 9461 f0bd 77b4 88be 3da1 69bd 18f9 12be
00000060: 8d15 d1bd 2b04 853b cf30 473e 974e 313e
00000070: 8d77 95be 3400 463e 712b b33d 5c6e 793e
00000080: e267 543e 7bd1 96be e22c 95be 19be 21be
00000090: 31ed 933e 3017 39bd 0e50 113e 3e1b 14be
000000a0: d6e4 9b3e 04d6 5ebe 1c91 673e 5e53 9b3c
000000b0: b20c 28be c833 2d3e 0438 39be 19dc e03d
000000c0: 41a4 bcbd 9966 25bd 156f a4be 80bb f9bd
000000d0: 58fe 2b3e 46b3 95bd 78b9 a13e 7702 823e
000000e0: 1976 5bbc f1e3 3fbe ba6a 433e 6df2 c03d
000000f0: 4543 4cbe 6a6d dd3d b329 443e d1d7 923e
00000100: 9118 35be 2a8b 4abd 1fba 28bc be54 263d
00000110: 3162 7abe f0e5 61be 87ea 2d3e 3f6f ffbd
00000120: 157d 173e 846b a53c 71b0 dc3d a97a 8a3d
00000130: 5f97 d73d f78a 293e 5e23 8ebe d70c 1e3e
00000140: 0b07 6cbe 8883 6cbe ef5b 8b3c b37e 57bd
00000150: 90f6 393e 6385 40be 41bc 8bbe e87a 743e
00000160: 8207 65bd f5e3 373e 829a c53d afc1 a9be
00000170: 0262 7a3d d831 a73d 1749 57be a1a4 14be
00000180: b4fd da3d 7b74 823d 2acc 09be 6530 d0bd
00000190: 1257 933e 031c 06be 11fd 333e e238 0b3e
000001a0: b688 47be c0eb 8abe 68fa 9b3e d4a4 9d3c
000001b0: 42af 623e c02a 623d da51 d23d 6e80 453e
000001c0: 01d0 953e 0a4b 59be 7acf 463d bd57 6a3e
000001d0: baef 6d3e 07c4 503e e179 56be 4c30 62be
000001e0: 5e0f 3bbe bdba 1bbd 222b 9d3e 950e 53be
000001f0: 86b0 2d3e 4167 23be 6567 9abe b6e9 86bd
00000200: 00ea 383e 390e 953e b26f 43be 553d 933d
00000210: db4c 8e3e a6af 5c3e d797 3d3e f265 653e
00000220: 69c7 493e afa9 cb3d 24fb 57be dc54 8abe
00000230: 4268 1bbe 8545 39bd aa82 49be 895a e83d
00000240: abd7 c23d 6010 60bd d66e ed3d 7f8c cd3d
00000250: 7bbb 3f3e a2c3 503e 6c69 d3bd fa7e 5e3e
00000260: 5fbf 2abd e90a b0bb 5820 95be a03c 44be
00000270: 3f46 43be 2b1a 0abe fb75 653e a16e e0bd
00000280: 64ac 7abe a094 173e 1a54 d53d 442a 593e
00000290: 1690 31be f411 893d aa34 edbd b8fa 75bd
000002a0: 413b 82be e7ee 13be 4e26 c6bd 07ff 913d
000002b0: 3abc 763d 049b a93d c6f6 9d3e d0a1 963e
000002c0: ff16 6d3e c89e 423c 0436 57be 169a 763e
000002d0: 6764 97bd 06d9 e0bd 3dc4 8abe 80d1 64bd
000002e0: ee09 49be 77e8 8d3e e167 94be 0282 77be
000002f0: 7fd0 f4bb 1e57 33be 41dc e23d d134 3ebe
00000300: fa93 15be 4a16 9a3c d468 673e b0fa 64be
00000310: 8ebd 1c3e 2b59 563e fe05 9e3e 1f14 66be
00000320: 2ab4 b63d 3f6e 28be 5056 8f3e 6bf6 debd
00000330: 6eb6 453e 0ef3 dabb cb6d c5bc 5b7d 13bb
00000340: 8d81 463d 8db1 1b3e d18b 313d a750 f63c
00000350: 570f 8abe bec8 733e cca5 873e 2a58 753e
00000360: 8034 7e3e 5414 71be 07d5 dabd 955e 8b3e
00000370: d10b 71be 34f6 573e 3f50 81be 098c 64be
00000380: 7e8d 173e cdc6 58be 5bb5 a5bd b75c 773e
00000390: 0c4e 803e 3faf 943e cb16 7dbd e4fe afbe
000003a0: 1763 9a3e 46a0 88bd df9d 00be 10e9 ad3d
000003b0: 37e7 6cbe cc26 5e3e 9297 4a3e 814a 83be
000003c0: 7ae5 85be 52a6 88bd 2872 003e a44a d63b
000003d0: dbb4 1abe b761 263c 2ea7 9ebe 3d54 62be
000003e0: b5ff 51be 1adf 773e 3e4e 8e3e 40a2 f3bd
000003f0: 8b5e fc3b 23dc 1b3e 0c5f 333d da04 23be
0.16628301 -0.10490036 -0.06718998 0.15744917 -0.28751907 0.19171122 -0.071546525 0.17064682
0.044564378 -0.046531033 0.098695725 0.09673216 0.12757568 -0.10843942 -0.0282974 -0.03282886
0.039870262 0.0022004005 0.27973405 0.109433234 -0.117373616 -0.26700184 -0.057038534 -0.14352834
-0.102091886 0.0040593348 0.19452213 0.17315136 -0.29192773 0.19336015 0.0874852 0.24358505
0.20742753 -0.29456696 -0.29135805 -0.15795173 0.288919 -0.04518813 0.14190695 -0.14463517
0.30448025 -0.21761328 0.22613949 0.018960651 -0.16411093 0.16914284 -0.18087775 0.1097948
-0.092110164 -0.040381048 -0.32116 -0.12193966 0.16796243 -0.07309584 0.31586814 0.25392506
-0.013394856 -0.18739296 0.19083682 0.09421239 -0.19947536 0.10811885 0.19156532 0.2868028
-0.17685153 -0.049449123 -0.010298281 0.04060816 -0.2445152 -0.2206037 0.16983996 -0.124723904
0.14793809 0.020192869 0.10775841 0.06761677 0.105269186 0.16556917 -0.27761358 0.15434586
-0.23049562 -0.2309705 0.01701161 -0.052611064 0.18160462 -0.18800883 -0.27292064 0.2387501
-0.055915363 0.17958052 0.09648611 -0.3315558 0.061128624 0.08163804 -0.21023975 -0.14515926
0.10692921 0.06369873 -0.13456789 -0.101654805 0.28777367 -0.13096623 0.17577006 0.13595918
-0.19485745 -0.27132988 0.30464482 0.019243635 0.22137168 0.05521655 0.10269518 0.19287273
0.29260257 -0.21220031 0.04853771 0.22885032 0.2323598 0.20387278 -0.2094493 -0.22088736
-0.18267581 -0.038019884 0.3069697 -0.20611031 0.1696187 -0.15957357 -0.3015701 -0.065875456
0.18058014 0.29112414 -0.19085577 0.071894325 0.2779301 0.2155138 0.18514954 0.2240217
0.19704975 0.09944474 -0.21091896 -0.27017868 -0.1517649 -0.045232315 -0.1967875 0.11345393
0.09513792 -0.054703116 0.11593406 0.10036563 0.18723862 0.20387128 -0.10322842 0.21728125
-0.041686412 -0.0053723943 -0.2912624 -0.19163752 -0.19069766 -0.13486545 0.22408287 -0.10958601
-0.24479824 0.1480279 0.10416432 0.2120753 -0.1734012 0.066928774 -0.115823105 -0.060053557
-0.25435832 -0.14446603 -0.09675275 0.07128721 0.0602381 0.0828152 0.30852336 0.29420328
0.23153304 0.011878677 -0.21016699 0.24082217 -0.07392197 -0.10978894 -0.27102843 -0.055863857
-0.19632694 0.2771642 -0.28985503 -0.24170688 -0.0074711437 -0.17513701 0.11077166 -0.18574835
-0.1460723 0.018809456 0.22598583 -0.22361255 0.15306684 0.20932452 0.30863947 -0.22468613
0.08921082 -0.16448306 0.2799554 -0.10886844 0.19307873 -0.0066818064 -0.024100205 -0.0022505138
0.048463393 0.15204449 0.04334623 0.030067755 -0.26964828 0.23807046 0.2649368 0.23959413
0.24824715 -0.23542911 -0.10685163 0.27220598 -0.23539664 0.21090013 -0.25256535 -0.22319044
0.14800069 -0.21169586 -0.080912314 0.24156462 0.25059545 0.29039952 -0.061789315 -0.34374154
0.30153725 -0.06671195 -0.12560223 0.08491719 -0.23135076 0.21694487 0.19784382 -0.2564278
-0.2615164 -0.06672348 0.12543547 0.0065396596 -0.15108053 0.010155133 -0.30986923 -0.22102447
-0.205077 0.242062 0.2779407 -0.11896181 0.0077017 0.15220694 0.043791816 -0.1591982

bias f4 [128]
00000000: a4d7 743c 32c8 2eba 2ac9 6b3d f518 213a
00000010: f303 3f3e 7a7c 253d 65ca 6b3e 8636 a53d
00000020: 7633 2cba 029e 693d c68f 683e 3c31 683d
00000030: bfd0 703e 1f08 acbc d9ec 363b c1b4 8e3e
00000040: df84 94be e31b 2c3d 0540 9d3e 09a1 1bbe
00000050: e1a3 57bd 94f1 2ebc 85dd ef3d 62d4 063e
00000060: 2100 b33d de99 073e 6d05 09be 3677 163e
00000070: 97ac d5bd 2b73 593e 6a9c a8bd 9efb 87be
00000080: a540 0d3d aa59 443e d59e 4dbb d585 783b
00000090: bf9d d33b ecae 3a3e b8c7 f83c 527d 8fbe
000000a0: bdbb 59be 820a f73c 8a52 00bc c64a a33e
000000b0: a901 77bd 6c5e 813e 1040 84be 2606 9dbe
000000c0: fc3f 9abc 8f2d 50be ce5c a9bd 9ae0 023d
000000d0: 0962 8cbe 1a02 743e 5e00 3bbe 1aa1 853e
000000e0: 835f e73d 0c31 51bd 9fe6 88be 798c 7a3d
000000f0: 0236 2abe 7eb3 933e 90b0 89be 1ec8 a7bd
00000100: 71b5 28be 45f6 4abe c341 28be 08db adbc
00000110: 8625 b73c 949d 903d 2b2f 313e b46a fdbd
00000120: a8b7 51be 997b 72bd b8c9 a03e 369d 09bd
00000130: b549 88be 068e 883e 75df a33d b58e 8e3d
00000140: 3ec1 7a3d dc49 643e 3c54 17be 8f0d 773e
00000150: 861e a43e abe0 99bd b0d0 5c3e 8731 413e
00000160: 5c2c 9e3e b3c6 88bd e9e0 2cbe 21e5 f0bd
00000170: 38fe 54be ef16 b83c d2d0 a43e c3c5 a33e
00000180: e220 773e c96c 0c3d abdc 8e3c 6abc 693e
00000190: b559 553e 986f 06bd d0ef a1bd 3967 093e
000001a0: ee1b a93b 9193 56be 6107 1cbe 9802 893e
000001b0: f242 8d3e cf36 e8bd 5241 63bd dd10 1cbe
000001c0: f879 bdbd 99dc 933e e60c 8ebe dafd 1b3e
000001d0: c282 90be 1e8a 1bbe 985e 3cbd d60b c83c
000001e0: f4bf 3bbd 3f98 0fbe cfd8 08be cc35 4abe
000001f0: 8b04 63be 1ddd 4cbe 4968 a53e 0be4 0dbe
0.014943991 -0.00066674047 0.057564892 0.00061453815 0.1865385 0.040401913 0.23026426 0.0806704
-0.00065689476 0.057035454 0.22711095 0.05668758 0.2351713 -0.020999966 0.0027912168 0.2787228
-0.29007623 0.042018782 0.30712906 -0.15198149 -0.05264652 -0.010677714 0.11712173 0.13166955
0.08740259 0.1324229 -0.13380976 0.14693913 -0.104333095 0.2123534 -0.082329586 -0.26559156
0.034485478 0.19174829 -0.003137519 0.0037921567 0.006458014 0.1823079 0.03036867 -0.280253
-0.21263023 0.030156378 -0.007832179 0.31892985 -0.060304318 0.2526735 -0.25830126 -0.30668753
-0.018829338 -0.20329879 -0.08269654 0.031952478 -0.27418545 0.23828927 -0.18261859 0.26099473
0.11297514 -0.051072165 -0.2673845 0.06116912 -0.16622165 0.2884788 -0.2689252 -0.08192466
-0.16475464 -0.19820507 -0.16431336 -0.021222606 0.02235676 0.07061306 0.1730315 -0.12373868
-0.20480216 -0.059199903 0.314039 -0.033597194 -0.26618734 0.26670855 0.080016054 0.06960813
0.061219446 0.222938 -0.14778227 0.24126266 0.32054538 -0.07513555 0.21563983 0.1886655
0.3089322 -0.06678524 -0.16882671 -0.11762453 -0.20800102 0.022471873 0.32190567 0.31986818
0.24133638 0.034283433 0.017439207 0.2282578 0.20835002 -0.032821268 -0.07907069 0.13418283
0.0051608 -0.2095473 -0.1523719 0.2675979 0.27590138 -0.11338579 -0.055482216 -0.15240808
-0.09251779 0.2887924 -0.27744216 0.15233555 -0.2822476 -0.15189406 -0.04598865 0.024419706
-0.045837358 -0.14022921 -0.13363956 -0.19747084 -0.22169702 -0.20006223 0.32306126 -0.13856523

weight f4 [128, 128]
00000000: f365 9fbd 157d 8c3d 0928 1d3d 0a94 8f3d
00000010: 9a6b b4bd c42e 9fbd a340 7cbd 32b4 4cbd
00000020: 8345 b2bb f03e 1f3d e60d 673d 7848 8bbd
00000030: 9bed 1f3d b8ad 30bd cb20 943c 029f 223d
00000040: 64c2 9d3c b956 1e3d 2ba5 5e3b 2046 533d
00000050: 1bef 9b3c f261 b03d 254d bf3c 470e 28bd
00000060: 7b73 643d fdfd 9db9 ac03 bd3d 9ea7 81bc
00000070: f498 a33d f846 61bd 0024 313d 374f 8abd
00000080: d2e2 713d f616 b83c 2f5c 783d d75c 90bd
00000090: 3365 aebd 28d4 3c3d bc6f edbc 99eb 1a3d
000000a0: 00bf 54bd 333e c0bc f480 af3c 2a6b 713d
000000b0: af6c 1b3d 1018 8d3a 2439 f3bc 4a35 03bc
000000c0: 407d 163d ff5e 8ebd d53a b9bc 70c1 aabd
000000d0: b4a8 263a 3032 cdbb 9f2b 543d 35cd a93d
000000e0: 6fd5 8bbd 8171 08bd bd48 0bbd c51a 9b3b
000000f0: 35d9 06bd 042b 49bd a29c 38bd 2172 09bc
00000100: fcb5 5e3d 5f79 9bbc e3ad 823d 377f 8cbd
00000110: 69f0 8b3b 2293 77bd b748 aabd a873 4d3c
00000120: 1b0e 25bd fc66 8a3d 5ed6 9d3d 5967 a2bd
00000130: 5cdf 12bc 1fd0 dcbb 36bf 2cbd bb14 3abd
00000140: 3e36 50bd c8c4 443d 94bf fa3b 4e58 853d
00000150: 243f 01bc f8ec 333d 7919 a73c 15af b4bc
00000160: 0efe e5bb 1ca4 b6bd 66b6 16bc acaa 88bc
00000170: 97f6 42bd 3f4c d7bc 23b0 c1bc cfc4 82bd
00000180: 422e 873c ae15 26bb 08e5 12bd e009 b33d
00000190: 8284 923d da1f 1b3d 5244 21bd aa8c a33b
000001a0: e9b7 67bd bd37 8d3d 3ae5 a33d 107a 4abc
000001b0: 2cea 843d 465a a73d 88ce 6bbb 0a55 f5bc
000001c0: 7126 08bc 981c 803c 8cf0 b1bd 2f97 d13b
000001d0: a0f3 21bd c40c 823d f96e 1fbc 7f66 813d
000001e0: 173b 833d 83ac cdbc eb3f 973c 5634 3abc
000001f0: 97b9 0abd bae1 35bd 71b3 ff3b 9ae9 1a3d
00000200: 9265 25bc 3bee 7b3c 7d9f 7e3d daa5 3b3d
00000210: 506d 263d 176c dd3c 4abe 75bd ec99 53bd
00000220: baea 77bd 779e 793d 40bb 98bd d669 7ebd
00000230: 047a 823d 6f9f 623d a1d2 a5bd dab4 7a3d
00000240: 88f5 c3bc 69f4 b33c 17c7 23bd c635 70bc
00000250: a6da 863c 8e19 903d 38b2 743d bad9 28bd
00000260: d779 59bd e139 91ba a9d3 eb3c d1ca 653d
00000270: 8e12 adbd db70 813a 9883 2f3c 66d1 31bd
00000280: 021a a23d b098 7ebc 5509 9abd 0dae 44bd
00000290: 1338 0f3c 6232 67bd 93b4 9a3c b0ac b03d
000002a0: 36af 503c 80a4 1fbc e0c7 bd3d 0576 973d
000002b0: 47b6 7e3d f8f3 843c 0887 e83b e432 7ebd
000002c0: 9eaa 733c 8cf7 c23d 1ffe 653c 453a 95bd
000002d0: 62e0 093d b352 ad3d 6029 a73d 1443 8a3c
000002e0: 5e58 ed3c 4eae b03c 3f46 0fbd 51c3 60bc
000002f0: a89f 8e3d 6e8e 943c c74e 9f3d 1ee4 89bd
00000300: 5e10 f8bb 0eba d53b ea7c 26bd b73a 973d
00000310: f689 803d 1389 2abd 8138 ac3d 7fa2 a33d
00000320: 5279 46bd f0d0 183b b6d0 c23d b87d 61bd
00000330: f9e5 61bc 2e3a 55bd fd91 8f3d 23bc 9f3c
00000340: 6b21 293d 62e9 923d f4ac 96bc 71bf 91bd
00000350: 9c1e 563c b81e 40bb 32f8 273d 9b69 3d3d
00000360: 8a20 17bd 617c fdbc 8f72 5d3d e8bd eb3c
00000370: 5094 ac3c 4633 463d b452 483d 3e3b 6dbd
00000380: f3d8 a13c 0c3c c93b 0016 a3bd 3dda 0b3d
00000390: 3729 4b3c 9ac3 8d3d 80b6 a8bd 6854 b73d
000003a0: 304c 23bd 7ca7 743d 2ec5 693d 35d6 6abb
000003b0: 6620 20bd 181b 22bc 2e54 60bd ffb5 763c
000003c0: cd54 143d 848b c93c f49c 6bbd 2b88 7b3d
000003d0: b947 953d 47bc b8bc 867f 313d 0760 1bbc
000003e0: 54f0 123d b21e 83bd 2d3a 93bd 46f8 e1bb
000003f0: a13b 8ebd 41e1 113d 2b78 bc3d d951 64bc
-0.07783117 0.06859795 0.03836826 0.07010658 -0.08809586 -0.07772592 -0.06158508 -0.049976535
-0.0054404153 0.03887838 0.05640974 -0.06800932 0.039044958 -0.04313442 0.018082043 0.039702423
0.019257732 0.038656924 0.003397296 0.05158055 0.019034913 0.086124316 0.023352215 -0.04102924
0.055774193 -0.0003013461 0.09229216 -0.015826996 0.07988158 -0.05499932 0.043247223 -0.0675339
0.059054203 0.022471886 0.060634788 -0.07048958 -0.08515396 0.046100765 -0.028983943 0.03782234
-0.051939964 -0.023467159 0.021423794 0.05894009 0.037945446 0.0010764617 -0.029690333 -0.008008311
0.03674054 -0.06951713 -0.022611061 -0.083376765 0.0006357536 -0.0062620863 0.051799413 0.08291093
-0.068278186 -0.03331137 -0.034004916 0.004733416 -0.03292199 -0.04911329 -0.04507125 -0.008389027
0.054372773 -0.018978773 0.063808225 -0.06860202 0.0042706025 -0.06044305 -0.083146505 0.012539782
-0.040296655 0.06757924 0.07706903 -0.07929868 -0.008964386 -0.006738677 -0.04217454 -0.045429926
-0.05083298 0.048039228 0.0076522324 0.065109834 -0.007888589 0.043927163 0.020397888 -0.022056142
-0.007018811 -0.0891802 -0.009198761 -0.016682945 -0.047598448 -0.026281474 -0.023643559 -0.063851945
0.01650155 -0.0025342512 -0.035862952 0.08742118 0.0715418 0.037872173 -0.039371796 0.0049911337
-0.056571875 0.06895397 0.08002706 -0.0123582035 0.06489977 0.08171515 -0.0035981257 -0.029947776
-0.008309946 0.015638635 -0.08688459 0.0063961963 -0.03953898 0.06350091 -0.009731048 0.06318378
0.06407755 -0.025106674 0.018463096 -0.011365017 -0.0338684 -0.044404723 0.0078033735 0.037820436
-0.010095017 0.015376623 0.06216382 0.045812465 0.040631592 0.02702908 -0.059995927 -0.051660463
-0.060526587 0.06094214 -0.0745759 -0.06211265 0.06370929 0.05532783 -0.08096815 0.06120763
-0.02392079 0.02196713 -0.03998479 -0.014661258 0.016461682 0.07036124 0.059740275 -0.041223265
-0.05309471 -0.0011079871 0.02878745 0.056101624 -0.08450805 0.0009875552 0.010712527 -0.04341259
0.07915117 -0.015539333 -0.07521311 -0.04801755 0.0087413965 -0.056444533 0.018884933 0.086266875
0.012737086 -0.00974381 0.09266639 0.07395557 0.062185552 0.016229615 0.007096175 -0.06206025
0.014872221 0.09519872 0.014037638 -0.07286505 0.033661254 0.08463039 0.081621885 0.016877688
0.0289728 0.02156749 -0.0349791 -0.013718442 0.06964046 0.018134322 0.077786975 -0.06732963
-0.0075703105 0.0065224236 -0.04064647 0.07384246 0.06276314 -0.04163463 0.08409215 0.07989978
-0.048455544 0.0023317896 0.09512465 -0.055051535 -0.01378774 -0.052057438 0.07010267 0.01949889
0.041291635 0.071734205 -0.018393017 -0.07116593 0.013068821 -0.0029315185 0.041008182 0.04624329
-0.036896266 -0.030943098 0.05406433 0.028777078 0.021066815 0.048388742 0.048906997 -0.057917826
0.01975677 0.0061411913 -0.079631805 0.034143675 0.012399963 0.06922074 -0.08237934 0.08951646
-0.03986758 0.059730038 0.05707281 -0.0035833244 -0.039093398 -0.009894155 -0.05476778 0.01505804
0.036213685 0.024602659 -0.05752273 0.061409157 0.07289071 -0.022550715 0.043334506 -0.009483344
0.035873726 -0.06402339 -0.071888305 -0.0068960516 -0.06944967 0.03561521 0.09202608 -0.01393553

bias f4 [128]
00000000: 186f 843d 4755 693d 9368 b4bc 84cb 473d
00000010: 84a6 f6bc f374 6bbc f7e8 a5bd a124 413d
00000020: b411 8d3d 1807 c13b acb1 b0bd b1c9 49bb
00000030: 62af 70bd 3d6c 34bd 7543 9cbc 25ad 3f3d
00000040: 6af3 6b3d c566 a4bd 9fc4 49bd ce52 31bd
00000050: 1901 f53c 7ac5 553a be7f 62bc 532d 4c3c
00000060: 126c 8f3b c4be 94bd 712b f23c 4918 be3c
00000070: 7621 833c e98c 3a3d ea60 ab3c 026d 5bbd
00000080: e595 c63d 69df 433d e3b8 b73d 255c a33c
00000090: ea0d 883d 46f4 e1bb 692e 9e3b ddb2 493d
000000a0: 3d9d 21bd dc85 a0bd 1448 b13c 1f31 7f3d
000000b0: 6f26 bc3d 6600 14bc 0a5d e3bc ebaf 6cbd
000000c0: 0e04 b93d a5fe eeb9 4130 03bd 0137 6dbd
000000d0: 3b87 a2bc 4866 a63d 7de5 293d 3616 98bd
000000e0: dcdf 363d c5f1 dbbc a7b6 b03d 00d9 e9bc
000000f0: f594 65ba 71ee f23c a560 4cbc 4e48 48bd
00000100: 0a96 dbba cc8b c13d 2d5b 90bd c43a 813d
00000110: d621 623d 7c87 b03d 548e c43c e9b2 a3bb
00000120: 3957 5ebd 293d cb3d 407b b83b b179 c53a
00000130: b323 ce3c 65ac 47bc cfa3 913b ebe2 e63c
00000140: 2a4d 823d 70ac 773d ef70 bebd 0056 70bc
00000150: 849e d4b9 9be8 2b3d 4d75 5bbd 7745 33bc
00000160: ca5c 23bd a7ae 60bd b148 7c3c 5f32 8a3d
00000170: 2e95 e43c c9c3 0dbd a7e8 99bb 567c f4bc
00000180: 4282 c13d af3f f63c 3a7b 57bd 55c4 98bd
00000190: 83f9 21bd 09d3 7fbd f846 d03c a5c2 12bd
000001a0: 5ace a7bd ed02 babc bdb1 23bd f637 08bd
000001b0: 45e1 963d 76f1 a7ba dcbe 71bd fee4 43bd
000001c0: 1b24 b63d 07f5 d7bb 21a7 efbc fbf6 16bc
000001d0: 98cc 193d 31be 9e3d 2081 59bc 72d3 e2bb
000001e0: 15c0 f5bc 66fd 7bbd 2c49 4e3d 51a6 833c
000001f0: 0b03 1a3c ee84 843c 9396 b43c 5241 a13d
0.06466502 0.056966092 -0.022022521 0.048778072 -0.030108698 -0.014371145 -0.08101075 0.047154073
0.06888142 0.005890738 -0.08627638 -0.0030790383 -0.058761008 -0.044048537 -0.019075135 0.046795983
0.057605185 -0.08027414 -0.049259778 -0.04329186 0.02990775 0.00081547315 -0.013824401 0.012461978
0.0043768967 -0.07262948 0.02956173 0.02320494 0.016007166 0.04554454 0.020920236 -0.053570755
0.09696559 0.047820482 0.08970811 0.019941399 0.06643279 -0.0068955747 0.00482731 0.049242843
-0.039456595 -0.07838032 0.021640815 0.062302705 0.09187018 -0.009033298 -0.027754325 -0.057784956
0.090339765 -0.00045584622 -0.03202844 -0.057913784 -0.019839874 0.08124977 0.041478623 -0.074261114
0.044647083 -0.026848683 0.08628588 -0.028545856 -0.0008757853 0.029654713 -0.012474214 -0.04889708
-0.0016753089 0.09450492 -0.070486404 0.06310037 0.05520805 0.086195916 0.023993649 -0.004995693
-0.0542824 0.09923775 0.005629927 0.0015066174 0.025163507 -0.012187098 0.0044445763 0.028184375
0.06362374 0.060467184 -0.09298884 -0.0146689415 -0.00040553894 0.041969877 -0.053578664 -0.010941855
-0.039883412 -0.05485406 0.01539819 0.06747889 0.027903166 -0.034610543 -0.004696924 -0.029844444
0.09448673 0.030059664 -0.052607752 -0.07459322 -0.039544594 -0.06245712 0.025424466 -0.03583016
-0.08193655 -0.022706473 -0.039964426 -0.033256494 0.073671855 -0.001281305 -0.05901991 -0.047825806
0.08893605 -0.006590489 -0.029254498 -0.009214158 0.03754863 0.0775112 -0.013275415 -0.006922179
-0.029998818 -0.061520956 0.05036275 0.016070517 0.00940014 0.016176667 0.022044456 0.07873787

weight f4 [128, 128]
00000000: 0279 12bb 6631 213d 149e 1b3b 500f 103d
00000010: ae53 1abd 96b3 543d 5837 70bd f475 573c
00000020: 9c80 5f3d ca98 a8bc 9d9a 15bd 98d4 483d
00000030: 5d13 23bc 61aa febc c7aa 37bb ed1e 083d
00000040: af12 6c3d f2f4 13bd e6aa 3c3b c616 bb3d
00000050: f616 8b3d 5beb 63bd 3f18 77bd a655 5cbb
00000060: c2fb 4bbd 61b3 e0bc c88f 02bc 7036 21bd
00000070: 35ac 5abd a020 14bd 411b f33c 03e8 8bbd
00000080: bc8b 9e3d 4340 a63d fc91 d03c 394a 35bd
00000090: 3b76 ae3c 0919 9abd 24fd 273d 7228 693d
000000a0: 875a 5e3d d24f 853d fe18 5d3d aa06 bdbd
000000b0: 5145 50bd 753e 2bbc a3ce 873c 3866 5a3d
000000c0: 6145 bebd 4957 60bd fdb5 173d 5413 453d
000000d0: dd27 163c f227 2a3d d00e aa3d 8832 ab3d
000000e0: 3e2e 9d3c d52b 9bbd e632 0abd 19cc 5fbd
000000f0: b270 6abd 1a67 833d d098 853b c95b 70bd
00000100: b7bb 343d 4a5a fcbc b468 57bd 008c 64bb
00000110: 8ac0 51bd d711 4ebd 7d17 56bd 8d03 84bd
00000120: 90d3 00bd 0428 513d 27dc 20bd 0c9d b83d
00000130: 0bc1 193c 87e8 c0bc 4b18 36bc 82c6 d5bb
00000140: 9e52 b13c 2175 6e3d 13ee bb3c bc3e c9bd
00000150: aa50 0b3c 8540 d43c ca90 89bd fa42 85bd
00000160: c1b0 f73c 1ff6 b8bd 7a34 94bd 7e2c 8a3d
00000170: 649a 26bc 0ef6 3abc 61d8 313d 22e5 f83c
00000180: 4683 a3bc e25a 963b d08f 723d d8ed a03d
00000190: 0cb5 1fbd 489c a8bc d3c7 633d fc6a 5b3d
000001a0: c751 723b bafa cc3c 0083 813d 5c6a 63bd
000001b0: ab82 503b d6e0 2c3c 8f27 b7bc d331 42bd
000001c0: 5be3 5cbc d9c6 abbd c918 8cbd fa4e 26bd
000001d0: 8fd1 d9bc 4406 76bd 9c75 a13c 1348 b7bd
000001e0: 49d4 8dbc 08a5 abbd e689 aa3c 2595 f0bc
000001f0: 4bdb f63a b844 b8bc 6bf6 9fbd e987 633d
00000200: 319d a3bd b530 c73c b4da b23d 9305 9e3d
00000210: 9c96 b73d 038c 86bd 82fa 593d 31c7 e4bc
00000220: 3926 1fbd 0c00 84bd a60f bd3d 0b86 3b3d
00000230: ac47 a73c 41a0 9b3d e9e8 4ebd 0eab 02bd
00000240: 8cc5 ecbc 6cb5 1abd 5a12 073d 1f8a f93c
00000250: cee0 e7bb a5c0 e43c 9df6 9dbd 7be1 0d3d
00000260: 8cae 5bbd e35e a43d 03e3 53bd 7477 9a3d
00000270: e05d 24bd 0530 b03c 4cb5 073c 76c4 6dbc
00000280: 1072 733d 6365 383d 3ee2 96ba 8b18 07bb
00000290: 430e 61bd 24b0 e63c 9e9e eabc 564c 5a3d
000002a0: ce69 bdbd 3f9f 7c3d 4ae3 73bd 4402 b9bd
000002b0: 43f4 373c 7f69 a13d dfe7 d7bc b4fd 8e3d
000002c0: 71f4 403d 0894 d6bc 5ce8 5bbd 5fa3 50bd
000002d0: 7820 7b3d ab73 c23c a212 683b a624 fcbc
000002e0: 53a3 a23d d784 823d f766 afbd 6622 87bd
000002f0: f067 94bd ba2d ba3c 3ad0 2fbd 0ef6 b6bc
00000300: a824 8abd 0b67 92bd e496 38bb d4e9 abbd
00000310: 8979 f9bc e2fe f23b 4620 d83c 6d41 b8bd
00000320: 2bb4 0b3c 265f 973d 6aae 57bd a5d8 13bd
00000330: c522 d23c 0641 edbb 2fee 35bd c0fb 3b3d
00000340: 6cac afbd 17b0 b5bd 677c 563d 071c 073d
00000350: 5f69 1f3c f3a1 a13d 5457 a1bd 9541 823d
00000360: 5b6d de3a 185a 763d 1aab 1d3d 6e86 d73c
00000370: cfbf b0bd 4f47 c33b 24c0 35bd 9cf9 56bc
00000380: 6d68 933d 5e45 6abc 7d3a 2cbd 009a 02bd
00000390: 71e0 adbc b8d5 1c3d b5c8 343c 394e fb3b
000003a0: 04df 76bd c477 ac3d d2ae cdbc f775 fa3c
000003b0: a4a3 95bd 62ca 2b3d f130 053d 8b0d 7f3d
000003c0: 08ce 313d d043 c0bd 77a9 03bd 0554 5f3d
000003d0: 4046 193d 3253 abbc 1167 3b3d bce3 953d
000003e0: 5895 683c 0fab 0f3c 0c05 a53d 1c5a 8a3d
000003f0: 4ceb 05bd fe6b 84bb 79b7 65bc c55f 103d
-0.0022349958 0.03935375 0.0023745345 0.035170853 -0.03767746 0.05192908 -0.05864653 0.013150681
0.05456601 -0.020580668 -0.036524404 0.04903087 -0.009953347 -0.031087102 -0.0028025375 0.033232618
0.057635006 -0.03612227 0.0028788387 0.09135203 0.06791489 -0.055644374 -0.060325857 -0.0033620386
-0.04980064 -0.027429285 -0.00796885 -0.039358556 -0.053386886 -0.036163926 0.029676082 -0.06831362
0.07741496 0.08117726 0.025460236 -0.044260237 0.021296611 -0.07524306 0.041012898 0.056923337
0.054285552 0.06509365 0.053978913 -0.09229787 -0.050847355 -0.010451903 0.016578024 0.05332014
-0.09290577 -0.05477074 0.037038792 0.048114136 0.009164778 0.041542 0.083036065 0.083592474
0.019187089 -0.0757672 -0.033739947 -0.054638002 -0.05723638 0.064161494 0.0040770546 -0.058681283
0.04412433 -0.030804772 -0.052590087 -0.0034873486 -0.05120901 -0.050309982 -0.052268494 -0.0644599
-0.03145176 0.051063552 -0.039272454 0.09014329 0.009384404 -0.023548378 -0.01111419 -0.006523908
0.02164584 0.05821717 0.022940671 -0.09826419 0.0085031185 0.025909672 -0.067170694 -0.065069154
0.03023565 -0.09031319 -0.072365716 0.067467675 -0.0101686455 -0.011411203 0.043419246 0.030382697
-0.019960057 0.004588471 0.05921918 0.07857865 -0.03899102 -0.020582333 0.05561049 0.053568825
0.0036975013 0.0250219 0.063238144 -0.055521354 0.0031816165 0.010551652 -0.02235773 -0.047410797
-0.01348194 -0.083875366 -0.06840665 -0.04060266 -0.026589183 -0.06006457 0.0197094 -0.08949294
-0.01731314 -0.083810866 0.020817708 -0.029367993 0.0018833665 -0.022493705 -0.078106724 0.055549536
-0.07988966 0.024315218 0.087331206 0.07715907 0.08964273 -0.06569674 0.05321742 -0.027927013
-0.03885481 -0.064453214 0.092315 0.04578213 0.020419918 0.075989254 -0.05051509 -0.03190141
-0.028902791 -0.037770674 0.032976486 0.03046137 -0.0070763594 0.027923891 -0.077130534 0.034638863
-0.053633258 0.08025911 -0.051730167 0.07542315 -0.04012859 0.021507272 0.008282971 -0.014512172
0.05943495 0.045018565 -0.0011511517 -0.0020613994 -0.05494524 0.028160162 -0.028640088 0.053295456
-0.09248696 0.061675306 -0.05954293 -0.09033635 0.01122767 0.0788145 -0.026355682 0.06981984
0.047108117 -0.026193634 -0.053688392 -0.050937053 0.06131026 0.023736795 0.0035411497 -0.030779194
0.07941308 0.063729934 -0.08564561 -0.06598358 -0.07246387 0.022726882 -0.04292319 -0.022334125
-0.06745273 -0.0714856 -0.002816611 -0.083942086 -0.03045346 0.0074156383 0.026382577 -0.08996854
0.008526842 0.07391195 -0.05265657 -0.03609528 0.025651345 -0.0072404174 -0.044416603 0.045894384
-0.08577809 -0.08871477 0.052364733 0.032985713 0.009729712 0.078922175 -0.07877985 0.06360165
0.0016969846 0.060144514 0.038493253 0.026309218 -0.086303346 0.0059594284 -0.044372693 -0.013121035
0.07197652 -0.014298765 -0.042047966 -0.031885147 -0.021225186 0.038289756 0.01103418 0.007669237
-0.060271278 0.08421281 -0.025107775 0.030573828 -0.073066026 0.041941054 0.032517377 0.062268775
0.043409377 -0.09387934 -0.032144036 0.054523487 0.03742051 -0.020913694 0.04575259 0.073188275
0.014195763 0.008768811 0.08057603 0.06755468 -0.0326951 -0.004041194 -0.014020794 0.035247583

bias f4 [128]
00000000: ff88 4cbd 75bd 25bd b0e6 d5bc 784f 93bd
00000010: 1164 ad3d abbe 8a3d e961 0d3c e5f3 e23b
00000020: 15c4 8a3d 0656 9a3d 9c6c d4bc a46d 33bd
00000030: e8b7 463d 354c 6ebd 95c8 413d 5518 98bd
00000040: 0e77 26bd 346f 8ebb ff41 52bd 4b52 ef3c
00000050: ef38 933a 4be3 233c 1e95 903d e3c8 1e3d
00000060: edb9 79bd 46ae 5bbd dd57 c63c 4ae6 29bd
00000070: 5004 943d 73e9 be3d 2dea 87bc d14b a2bd
00000080: 9594 c0bd 4fa9 87bd 4ef8 9cbd c999 7a3d
00000090: 3491 5fbd 141e 92bd 6213 b93d 0d9a 89bd
000000a0: de9f 8d3d 0710 e4bc 3d6b 72bc 5f0a 1f3d
000000b0: 04ca 573d e0df c2bc 64ad b53d c055 003d
000000c0: 258b 963d b23b 9d3d 1524 60bd b129 733c
000000d0: 8732 95bd 4eea 89bd 53ad 813c ea8e e0bc
000000e0: cb83 68bd ffb8 7e3c a9ae 18bd 6765 a0bd
000000f0: 4865 173d f1c9 d0bb 2949 1c3d e5dc 2cbd
00000100: 1d39 acbc 584a 433d ff4a 87bd 085e ae3b
00000110: 3883 c53d 897a 6e3c f0c4 123d 5a98 98bd
00000120: e094 113d 35d6 a9bd b6df a53d 0d21 9b3c
00000130: be43 76bd efde 803c 68e3 c83d 3d4c 5abd
00000140: 861a 9238 b913 b73d 843a 0b3b 667b 543d
00000150: 5ece 763d 503c afbc 011c bf3d 476e ccbc
00000160: 333a ca3d b578 8abc a0dc cc3c 17ce b6bd
00000170: 8eb5 123d f391 88ba 8132 acbd fce5 1bbd
00000180: e91b 933d c99f afbd 26e0 de3c e6a6 b43a
00000190: f88f 143c 435a 28bb e13a b03b fd71 d9bc
000001a0: 0ff8 c2bd 66c8 a6bc b74d 793d 5474 babd
000001b0: 355f 3bbd 5916 87bd 8964 76bd 9e6a d9bc
000001c0: 7968 7c3d 0a9d 643d f5c6 103d bdb0 483d
000001d0: dc30 cebd 87ad b6bd 3e10 bb3d a71c 9a3d
000001e0: 3e96 433d bb84 adbd 453e 97bd bfac ae3d
000001f0: fb4e 87bd 739d 97bc 6680 b13c c9cb c83d
-0.049935337 -0.040463883 -0.026110977 -0.07192892 0.08466352 0.06774648 0.008629301 0.006926047
0.06775681 0.07535939 -0.025930695 -0.043805733 0.04851523 -0.058178145 0.04731043 -0.07426516
-0.040640883 -0.0043467525 -0.05133247 0.029214045 0.0011232177 0.010002921 0.07059692 0.0387658
-0.06096833 -0.053632997 0.024211818 -0.041479386 0.07227385 0.09321871 -0.016591156 -0.07924617
-0.0940334 -0.0662409 -0.07664548 0.061181817 -0.054581836 -0.07134643 0.090369 -0.06718836
0.06915258 -0.027839674 -0.014796075 0.03882825 0.05268289 -0.023788393 0.08870962 0.031331778
0.073507585 0.076774016 -0.05472191 0.014841483 -0.07285028 -0.06734143 0.015829718 -0.027411897
-0.056766313 0.015547036 -0.037275944 -0.07831841 0.036961824 -0.0063717295 0.03815571 -0.04220285
-0.021023327 0.04767832 -0.06606101 0.005321268 0.096441686 0.014555582 0.035832345 -0.07450934
0.03554237 -0.0829281 0.0809931 0.018936658 -0.060123198 0.015731303 0.09808999 -0.053295363
6.966763e-05 0.08939309 0.0021244595 0.051875494 0.0602554 -0.021391064 0.09331513 -0.024954928
0.09874382 -0.01690326 0.025007546 -0.08926027 0.035817675 -0.0010419473 -0.0840807 -0.038061127
0.07183058 -0.085753985 0.027206492 0.001378265 0.009067528 -0.0025688566 0.0053781127 -0.026543612
-0.0951997 -0.02035923 0.06086513 -0.09104219 -0.045745093 -0.06596059 -0.06015447 -0.026540097
0.06162307 0.055813827 0.03534599 0.048996676 -0.10067913 -0.089198165 0.09133957 0.07524996
0.047750704 -0.08472582 -0.07384924 0.085290425 -0.06606861 -0.018507695 0.02166767 0.09804494

weight f4 [1, 128]
00000000: b229 8d3c ea97 873c f7c0 903c 0264 153a
00000010: d2a1 c7bb 0684 a5bb b64b 38bc 4953 833b
00000020: d967 90bc 509a 29bb 897e 5f3c cb46 78bc
00000030: 2489 283b 7112 6d3c 744f 91b9 760b 323c
00000040: 2fdb 9b3c 88cb 433c 5e07 5abc 51d4 6ebb
00000050: 1e2c a43b e6a8 833a 9692 40bc 5624 3f3c
00000060: 2f56 87bc d4dc ff3b 86a8 87bc e8cd 403c
00000070: 2780 9b3b 1a14 d4bc ea0b 7e3c 08b0 d23b
00000080: 5c6a 403c 514a b13c c04f 9d3c 28c8 efbb
00000090: 2381 813c 41b2 5d3c e000 4bba fb02 22bc
000000a0: c3cc 13bb a894 6c3c 50eb e1b9 2434 daba
000000b0: 3b21 e1bc f6ae e9bb 0640 4abc b796 6ebc
000000c0: d4cb 96bc cd7b 0bbc d448 143c 6a6f 82bc
000000d0: 74e6 25bc 2ed3 2abb f2a6 b33b 59a3 8d3c
000000e0: defe 6ebb 75c3 043b fc0c e8bc d821 d13c
000000f0: 8eae b3bc d7ae 723c b559 04bc 787b 793b
00000100: 9d54 2d3d dccb e4bb d7b8 1f3c cf08 e7bb
00000110: 10d4 e2bb c999 a83c f21f 88bc 3de2 793b
00000120: 080b 6f3c afc7 693c a2c5 06bc d088 933b
00000130: ff04 24bc 2d93 96bb 740a aabc 4be7 9fbc
00000140: 59de 0e3c 269d 69bc 9a56 abbc b6c4 e53a
00000150: 1222 9dbb 0cdb 493c 9f41 00bd 3158 4c3c
00000160: 231f 41bc b1b1 8d3b 70a7 013c c68e b63c
00000170: 64cc 52bc 94ca 223c 43b6 16ba a592 943c
00000180: c92e cdbc 2b5b 793c 7b40 c2bc 1d8c 543c
00000190: 5c88 94bb 53e8 25bb 12e1 783c 4cfd ab3c
000001a0: 74b5 993b b9b6 98bc cf6e 87bc f873 6d3c
000001b0: c66e 86bc 3dc0 babb 6f55 b93c d208 db3c
000001c0: 1e10 e03b d3b9 cfbc 43c2 e8bb 9f6c aebb
000001d0: 409a c73c ae8b 7b3a 25ef 8cbc 863c 8cbc
000001e0: 2dc5 993c 1639 803c 8f97 0c3c 6903 d2bb
000001f0: 2fce 853c d17a 933c 67fb 033c 1e7b 86bb
0.017231796 0.01655193 0.017670138 0.0005698801 -0.0060922885 -0.005051139 -0.01124852 0.004007731
-0.017627643 -0.002587933 0.013641008 -0.015153597 0.0025716508 0.014469729 -0.00027715752 0.01086699
0.019025413 0.011950381 -0.013307421 -0.0036442468 0.005010142 0.0010044842 -0.011753699 0.011666378
-0.016520588 0.007808307 -0.01655985 0.011767842 0.0047455016 -0.025888491 0.01550577 0.006429676
0.011744108 0.021641882 0.019203067 -0.0073175617 0.015808647 0.013531269 -0.0007743966 -0.009888406
-0.0022552467 0.014439739 -0.00043090666 -0.0016647619 -0.027481666 -0.0071314527 -0.012344366 -0.0145623
-0.01840774 -0.008513403 0.009050567 -0.015922267 -0.010125745 -0.0026065814 0.005482548 0.017289804
-0.003646783 0.0020258103 -0.028326504 0.025528833 -0.02193382 0.014812193 -0.008078028 0.0038067978
0.04231702 -0.0069823097 0.009748659 -0.0070506106 -0.0069222525 0.020581143 -0.016616795 0.0038129233
0.014590032 0.0142688 -0.00822583 0.0045023933 -0.010010957 -0.0045951814 -0.020756938 -0.019519469
0.008720004 -0.0142586585 -0.020915318 0.0017529938 -0.0047953213 0.012320291 -0.03131258 0.012472198
-0.011787209 0.004324161 0.007913455 0.022284877 -0.012866113 0.009935994 -0.0005749205 0.018136332
-0.025046723 0.01521949 -0.023712387 0.012972859 -0.004532857 -0.0025315478 0.01519038 0.020994805
0.0046908204 -0.018641816 -0.01653233 0.014492981 -0.016410243 -0.005699186 0.022623746 0.026737604
0.006837859 -0.025357163 -0.007103236 -0.0053230072 0.024365544 0.0009595704 -0.017203877 -0.017118704
0.018770779 0.01565222 0.008581056 -0.006409098 0.016333668 0.0180029 0.008055544 -0.004104032

weight f4 [3, 128]
00000000: cb72 37bc b37f 983b a465 593b c1ed c33b
00000010: d09e 31bc 7507 6d3b b147 513c c64c cdba
00000020: c015 993b da63 293c d69e a53b 195f c73c
00000030: 2bab 103c a01a d9ba bc4e cdbb 0ce0 e0bb
00000040: cfc5 e83a abd3 9cbb 568c 05bb 406b 21bb
00000050: 7674 0a3c abe4 9a3b 7ee3 733c befa 49bc
00000060: 809b 5abc a15c b83b 39a2 003c 594f 8c3b
00000070: 48a8 2fbc 29c6 4cbc cb40 5abb 3330 baba
00000080: b841 a73b 94dc fcbb 370d 8e3c 4e5a 703c
00000090: 32e2 b8ba e15a 873b 3700 ab3a acbb 88bc
000000a0: f70f 8abb 51e9 8539 f26b b83b d71d a63a
000000b0: 0490 12bb e007 c63c 82e5 8e3c 7e79 d8bb
000000c0: d325 e13a 5fb3 76bb dc85 99bb 73c5 a33c
000000d0: 0fba 3a3c f276 113b 4194 c93b 283a 223c
000000e0: 0413 5f3b f274 4fbb a69d 51bc b6dd 26bb
000000f0: e15c f839 7831 30bc de16 40bc e5ef 44b9
00000100: b4a8 bbbb f5f8 f6bb ee42 6cbb b90b 513c
00000110: e3cf dbba 7c26 06bb f791 963a 8a8c 55bc
00000120: c6b1 3e3b fa71 c039 6240 3cbc 8835 6f3c
00000130: d712 93ba 2aa5 633a 9b5f 9a3b 23fc 72bb
00000140: bb09 d33a 638b 90ba 5a29 3b3c aa96 fa3a
00000150: 2fe5 9a3c ae14 eabb 094c 183c 352c 3fbc
00000160: f10a f33b ac36 76bc 4122 e63a b3e2 0f3c
00000170: e969 71bb 19e6 56bc 75b8 5e3c 1fab 07bc
00000180: 74ee 39bc d12a 0f3c 21e0 96bb 2ff4 88bb
00000190: 6f1b e4bb 1adf 173b ed05 543c 0e08 053c
000001a0: 9812 083c c437 303c da60 10bc 7824 593b
000001b0: f709 45bb 55ca 913b e54c 04bc ab0c 803b
000001c0: 00c4 363b e6bf a23b 59ce d538 934e d23a
000001d0: 105a 6e3b 85ed ce3b 73f9 b2ba a1a5 81bb
000001e0: dc43 b53b eb06 3d39 8237 5bba 3e93 32bb
000001f0: ac9c 7ebc c9ac 3dbc 657f 7e3b db0e 2dbb
00000200: f874 263b 5ef6 80bb d518 92bb 9f83 583c
00000210: fa04 043c 2154 e1bb 9185 453c 6f34 83bb
00000220: ce06 63bb 3972 383c 7f2a b3ba e945 973c
00000230: 409c c43a a160 b4bc 4dfd 4c3c 9f5e 853c
00000240: 9c69 193b b5cd 5bbb 6ff7 913c d554 b6bb
00000250: 86d2 d1bb 0411 7e3c f9c7 cb3b 96f7 5c38
00000260: 5924 b239 3f97 3dbb 0e12 e43b 6670 f9bb
00000270: d383 403c 49a4 e1ba d29c 6b3c 8992 80ba
00000280: 379a 13bc 9d9e c7ba 418d 2f3c 7331 c9bb
00000290: 47a3 a1bb f0ee 5a3b 7b14 6eba 6b7a 24bc
000002a0: 051a 013c ea7c 5b3c 7905 e03a 3728 35bc
000002b0: 3018 c73b 9fe2 1dbc f099 6dbb 24be 78bb
000002c0: 4137 74bc 18f8 053c 2c88 5dbb 2f36 a0b9
000002d0: e861 c73b 57ea bf3b 31e0 ad3b ad5a fb3b
000002e0: 3a34 eabb 603f 7839 9149 a1ba 2923 653b
000002f0: 7ec0 8a3b a3c1 0a3c fbe6 84bb c73a 0ebc
00000300: 2a05 603c 5af4 493c dacb 363b b10c 21bc
00000310: 8dd8 1abb f9d1 e43b 202e d6bb df7d e93b
00000320: 151d 95bb 3ebd 99bc 36ce 663c 28f6 f338
00000330: 13db 8d3b 0894 d73a 6dbf 33bb e69b 4abc
00000340: aef0 2b3c ca77 4f3a bd98 22bc 0a78 823a
00000350: db55 6a3c c2f9 413b a0e7 213c f97a 173a
00000360: b980 553a 584b a5bc 1aa7 f83b bafa cdbb
00000370: a2ff 9e3b 4e36 193c f974 683b 019c f93b
00000380: 41ac 07bc 4763 363c 1f7a 5e3b 0e08 37bc
00000390: 590d ab3a 325a cf3b afb1 46bc 1db6 033c
000003a0: 1d01 1e3a f743 14bb d87d 633b 0ae7 b3ba
000003b0: e2b6 13bb 46d5 783c 2a31 a13c 0c9f 9a3b
000003c0: e294 f73b e8ed 123c fb91 903b 3dd4 5d3c
000003d0: f524 1eba 19fc dab8 d887 46bc 9737 263c
000003e0: a49f b63b e09d 53bc bdb1 b2ba fb1e 79bb
000003f0: db34 10ba d726 e0bb f3dc 91bc d92d 153b
-0.011196802 0.004653895 0.0033172155 0.00597927 -0.0108410865 0.0036167775 0.01277344 -0.0015663139
0.0046717823 0.010338748 0.005054335 0.024337338 0.008829872 -0.0016563721 -0.0062654894 -0.006862646
0.0017759147 -0.004785975 -0.0020377836 -0.0024630576 0.008450618 0.0047269664 0.014885781 -0.012327848
-0.013342738 0.0056262766 0.007851177 0.00428192 -0.010721274 -0.012498417 -0.003330278 -0.0014205038
0.00510427 -0.0077167246 0.017340286 0.014669968 -0.0014105497 0.0041307067 0.0013046329 -0.016691051
-0.004213329 0.0002554157 0.0056281025 0.0012673688 -0.0022363672 0.024173677 0.017443422 -0.00660628
0.001717741 -0.0037643535 -0.0046851467 0.019991612 0.011396899 0.002219614 0.0061517064 0.009901561
0.0034038434 -0.0031655398 -0.012793934 -0.002546174 0.00047371446 -0.010753982 -0.011724202 -0.00018781384
-0.005726898 -0.007537002 -0.0036050635 0.012759143 -0.0016770329 -0.0020469716 0.0011487593 -0.013033995
0.002909766 0.00036706013 -0.011489959 0.014600165 -0.0011220825 0.0008683974 0.004711104 -0.0037076555
0.0016100922 -0.0011027869 0.011423433 0.0019118388 0.018908111 -0.0071435785 0.009295472 -0.011668255
0.007417076 -0.015027683 0.0017557816 0.008782077 -0.003683681 -0.013116383 0.013593783 -0.008280545
-0.011348356 0.008738236 -0.004604355 -0.0041794996 -0.006961278 0.002317375 0.012940866 0.008119596
0.008305214 0.010755483 -0.008812154 0.003313331 -0.0030065754 0.0044491687 -0.008074974 0.00390776
0.0027887821 0.0049667237 0.00010195067 0.0016045145 0.00363696 0.0063149356 -0.0013654664 -0.003956512
0.005531771 0.00018027022 -0.00083624583 -0.0027248408 -0.015540283 -0.01157684 0.0038833257 -0.002640656
0.0025399309 -0.0039356193 -0.0044585266 0.013214975 0.008057827 -0.006876484 0.0120557705 -0.0040040533
-0.0034641507 0.011257702 -0.0013669281 0.018465953 0.0015000179 -0.022018733 0.0125115635 0.01628047
0.0023408895 -0.003353936 0.01781818 -0.005564312 -0.00640327 0.0155069865 0.006218907 5.268267e-05
0.00033977887 -0.002892926 0.00696016 -0.007612276 0.011750179 -0.0017215098 0.014380651 -0.0009809296
-0.009008936 -0.0015229766 0.01071483 -0.006139928 -0.0049327943 0.0033406578 -0.00090820313 -0.010038952
0.007879739 0.013396481 0.0017091475 -0.011056951 0.0060758814 -0.00963655 -0.0036255084 -0.003795513
-0.014905752 0.008176826 -0.0033803089 -0.00030557948 0.0060846694 0.005856793 0.0053062667 0.0076707215
-0.007147339 0.00023674732 -0.001230525 0.0034963584 0.0042343726 0.008469018 -0.0040558553 -0.008681006
0.013673106 0.012326324 0.00278925 -0.009829686 -0.002362761 0.0069830385 -0.0065362602 0.0071256007
-0.004550586 -0.018766996 0.01408725 0.00011632993 0.004329094 0.0016447315 -0.002742733 -0.012366271
0.010494394 0.00079142733 -0.009924111 0.0009953987 0.014302696 0.002959833 0.009881884 0.0005778517
0.00081444863 -0.020177528 0.0075882794 -0.0062859925 0.004852251 0.009351326 0.0035470112 0.007617474
-0.008280815 0.011132068 0.0033947302 -0.011171354 0.0013050243 0.006327891 -0.012127324 0.008039025
0.00060273876 -0.0022623518 0.003471246 -0.0013725471 -0.0022539427 0.015187567 0.019676764 0.004718667
0.00755559 0.008967854 0.0044119335 0.013539371 -0.00060327287 -0.00010442007 -0.012117349 0.01014509
0.00557323 -0.012916058 -0.0013633292 -0.003801285 -0.000550104 -0.0068405676 -0.017805552 0.0022762923

bias f4 [3]
00000000: 9dfb 893a 75ad 363b ece4 2bbb
0.0010527257 0.0027874385 -0.0026228977

weight f4 [1, 128]
00000000: 031e 423c 170b cf3c 460e 733c 2a6b 843c
00000010: e5da 4abc dbda a9bc 23da cebb 526e 963c
00000020: bf37 e6bc d7be c53b 4877 633c 6ade b0bc
00000030: 9d59 d63c 305f 383c e488 133c 8ba5 253c
00000040: a760 353c f806 a43b e8f1 49bc fb05 723c
00000050: 3f42 1bbc 81c8 8c3c eed8 58bc d47f 8c3c
00000060: 378e beba 2a6e 103c 6330 68bc 1bfc 9e3c
00000070: 12cc 9bba d768 54bc a4c6 4f3c 0ed7 a93c
00000080: 8180 053c 23f2 003d c270 adbb edb4 e13b
00000090: 8678 d83c 8fbf 443c c8ea 97bc d3be 8fbc
000000a0: 3370 9a3b 0402 f13b 022f 5e3b 72ec 503c
000000b0: d94c abbc 2740 69bc 4cc2 0fbc c05e 5cbc
000000c0: d461 35bc e61d 85bc db98 b93b 4d6f 29bc
000000d0: dd2e 95bc 4644 963c 5197 893c 94c9 f33b
000000e0: 31bb 453a cdbd 36bc 629f 04bc ee10 373c
000000f0: 4d3d babc f262 85bc 4d92 0fbc 9d91 423c
00000100: e614 1b3c 4e85 9fbc f50c 303c e5ff 603b
00000110: 34d0 16bc 6952 9f3c 05c9 e8bc cfe8 57bb
00000120: 0331 963b de80 873a e1cf 8cbc d5fd 923c
00000130: ffd8 813c 9a03 59bc 179d efbb d3ad d03b
00000140: b754 233c 7075 d1bb 4604 0e3b 7153 a139
00000150: 2fb9 34bc 6fd0 19bb f46c 5fbc fe4b 7d3c
00000160: f19f 86bc ae7e 293c 0010 a7ba 5a48 e73c
00000170: 3888 30bb 6718 943b cf8c 343c 8fd2 003c
00000180: 36b8 96bc 60ad 803b 0587 c3bc f409 773c
00000190: c156 a8bc bd5d 56bc 0df8 af3b 2600 d13c
000001a0: 02b0 c73c 94fe 623c aea0 b1bc 2876 a53b
000001b0: c580 0ebb 19ab 33bc 3152 be3c 606c 1f3c
000001c0: 6832 713b 4bb2 94b9 afaa 31bc 9cc4 90bc
000001d0: f227 573c d9ba 3b3c 7b2a d3bb 46db 4cbc
000001e0: 1cdf e33c c45a b4ba 02a3 a23c e431 4abc
000001f0: fa55 e83b dc6f 703c 4993 7e3c 8664 86bc
0.011847976 0.025273843 0.014834946 0.016164381 -0.01238129 -0.020734241 -0.006312625 0.018363152
-0.028102754 0.006034713 0.013883419 -0.02159043 0.026165778 0.011253163 0.009004805 0.010110269
0.011070407 0.0050057136 -0.012325741 0.014771934 -0.0094762435 0.017185451 -0.013235314 0.017150797
-0.0014538233 0.008815328 -0.014171693 0.019407323 -0.0011886379 -0.012964449 0.012681637 0.020732429
0.0081483135 0.03148092 -0.005292983 0.006888023 0.026424658 0.012008562 -0.01854457 -0.017547047
0.004713082 0.0073549766 0.003390253 0.012751685 -0.020910667 -0.0142364865 -0.008774351 -0.013450325
-0.011070687 -0.016249608 0.0056639737 -0.010341478 -0.018210823 0.018343102 0.016795786 0.0074398015
0.00075428473 -0.0111536505 -0.00809464 0.01117347 -0.022734309 -0.016282532 -0.008762908 0.011875537
0.009465432 -0.019472744 0.010745277 0.0034332213 -0.009204913 0.019448476 -0.028416166 -0.0032945161
0.0045834794 0.0010338088 -0.017188968 0.017943302 0.015850542 -0.013245488 -0.0073124277 0.0063683777
0.009968928 -0.0063921735 0.0021670028 0.00030770482 -0.011030479 -0.0023470183 -0.013636816 0.0154600125
-0.016433688 0.010345144 -0.0012745857 0.028232742 -0.0026936661 0.0045195105 0.0110198995 0.007862701
-0.018398385 0.003926918 -0.023868093 0.015078057 -0.02054918 -0.013083872 0.005370146 0.025512766
0.02437592 0.0138546415 -0.021683063 0.0050494857 -0.0021744233 -0.010966086 0.023232551 0.009730428
0.0036803726 -0.00028361598 -0.010843917 -0.017671876 0.013132082 0.011458122 -0.006444273 -0.012503451
0.027816348 -0.001375996 0.019853119 -0.012340996 0.0070903273 0.014675107 0.015538045 -0.016405355

weight f4 [3, 128]
00000000: 801d 1d3c 3c48 d1ba 59c7 3fbc 232c 17bb
00000010: ee21 2b3b 8b05 84bc 6779 f33b bdc4 2c3b
00000020: d095 be3a 59a0 9fbb 37ec 793a 42ed 1bbc
00000030: e3d1 a73b e01e 20ba adda 963a d9ec 35bc
00000040: c9ed 37bc 7281 bdbb a37e ee39 992c 0abc
00000050: e333 d53b c406 5339 8510 883b df39 213c
00000060: 31c7 e63a 260a 0b3c 8583 88bb a51d 4fbb
00000070: 1146 7abb 2efd db3b 324d bdbc 9013 55ba
00000080: a367 34bc 5a16 3ebc 86d1 b8bb 5b63 d339
00000090: 5939 953c 751e 3f3c 84d5 733b 72bb 953b
000000a0: d69a 0f3c cd7f 073c ff6d 40bb 77e6 96bc
000000b0: b0c9 d13b 3f7b 00bc 25b1 f93a 3295 9cbc
000000c0: a8e1 203c db5b 95bb 4a19 64ba 819f 233c
000000d0: b2b1 88bb a3bf 2abc 639f 0cbc bfa4 113b
000000e0: 31a2 0c3b 460b c13b fc7c 1ebc a09d ca3b
000000f0: e3a2 0fbc 92ff 173c 5e76 39bc 57a5 973a
00000100: 1200 0cbb 11e0 9c3b 9a32 6c3b 760c dabb
00000110: 88d1 223b 6070 a43c b323 b63a c54a 4fbc
00000120: 663e 93bc c5bb babb 2434 3e3c 7233 8739
00000130: a6be 413c d551 75bc b695 b9bb 50cd 8d3c
00000140: b392 0f3c 2049 a03a 11c5 36bc aa20 5a3b
00000150: 761a b4ba 8d24 b8bb 944c 473c 3c3a 16bc
00000160: 2e8f 313c 4712 4bbc a929 f83b 5847 a5bb
00000170: a3cc 5d3b 121d 2cbb 6b75 9cba 790b b5bb
00000180: 860f 273a 0fa2 1e3c 9488 61bc 195e 533c
00000190: 0ee1 cdb8 f0fc 6839 1e24 96bb 2310 4d3b
000001a0: 7796 5f3c 91e4 6abc 1225 9c3b 55dc d73b
000001b0: 8129 55bc 6d40 8ebb 5de5 36bb 3f23 8cbc
000001c0: f598 443a f4a0 0b3c c064 b6bb ff09 14bc
000001d0: 7ab0 08ba 5494 9f3c 30ff 3d3a 807a 68bc
000001e0: 8d92 bdb9 8835 e5ba 9aad 9c3b ef2f 09bb
000001f0: 7b62 16bc 7bc5 ac3a f75a 413c 9f13 843b
00000200: fa29 3ebb b958 f33a 4a07 b0ba 6526 bfb9
00000210: 8ae2 10bb e68a 16bc 1914 3ebb 146e 21bc
00000220: 9bc1 ba3b f710 a7ba 4cf1 ffbb d143 adbb
00000230: 0602 ef3a 5d47 7fbc e9c4 55ba 8fd8 21bc
00000240: a441 f33a 3972 3a3c bb21 c5ba 2947 3b3c
00000250: 8ac8 053c 0650 4ebc 909b 003c 03a3 ff3a
00000260: 5d50 5f3c 5f0a 83bc 76ad 7f3b 5d07 68bb
00000270: 6bf1 debb 36e2 cdbb 824b 683b a75b 933b
00000280: 3d64 78bc 255f f13a 9dd4 f23b 9cb9 c93b
00000290: 02a1 48ba aca8 a03b d5a4 ccb9 072f 913a
000002a0: 1d9e 263c 5e97 eb3b 6ead 11bc d553 923c
000002b0: 3de5 633c 627e 27bc af58 d73b 0087 5fbc
000002c0: 7f54 c93c 11f8 153c deea 903c 9287 2e3c
000002d0: 69fa 39bc f7fb 8cbb 3861 a03b 4f02 053b
000002e0: a4f6 01ba 72af 223b 7123 013c 3e6f 003c
000002f0: 9851 20bb 9865 203c b79f acbb 3570 083b
00000300: ff2d 56bc 8d5f 0dbc 0d2f 0f3c fc4d 76bc
00000310: 4867 513c 99a9 d53a 6b56 31bb f7b8 d83a
00000320: 0eb9 493b 1ae5 76bc 19fc 9ebb aa67 51bc
00000330: 6961 aabb 7370 5dbb 0fdb 9bba 28b8 edba
00000340: 5abb 1a3b c180 5839 0f36 883b 3868 1c3b
00000350: 4523 873c 8b4a 3f3c 76f1 503c 9385 54bc
00000360: d193 7c3a 6433 0abb ac13 b4bb 48ac ca3a
00000370: e6a5 9a3b 779f 04bc 3923 993c 36b1 423b
00000380: 46c2 76bb cf26 14bc 620d 9cbb 835f fabb
00000390: d028 8d3b bc8b 9b3a 3797 1339 3676 7c3c
000003a0: afd0 09bc 601f cdbb ebf0 aa3b 9417 56bc
000003b0: da5c 053c 22fe 9c3b 5a82 793b 144b 823c
000003c0: 8734 09bb 7881 5fbb e47f 793b c53d 08bc
000003d0: 9073 19bc 6957 40bc 4061 a5bc 5d0f 373c
000003e0: 5958 6bbb 096e a93b 1a28 94bc 0fee e33b
000003f0: 28dd 013c d3a0 863a 3288 3d3c 3ca1 003c
0.009589553 -0.0015966962 -0.011705243 -0.002306708 0.0026112753 -0.016115924 0.007430244 0.0026362382
0.0014540497 -0.00487141 0.0009533795 -0.009517016 0.005121456 -0.00061081164 0.0011509262 -0.011103832
-0.011226126 -0.0057832533 0.0004548925 -0.0084334845 0.0065064295 0.00020125048 0.00415236 0.009840458
0.0017606971 0.008486306 -0.004166069 -0.0031603363 -0.0038188735 0.006713531 -0.023108099 -0.000812822
-0.011011037 -0.011602009 -0.0056402115 0.00040319082 0.018215822 0.011664976 0.0037206123 0.0045694644
0.008764943 0.008270216 -0.0029362438 -0.018420441 0.006402217 -0.007841884 0.0019049986 -0.01911411
0.009819426 -0.004558069 -0.0008701278 0.009986759 -0.0041715736 -0.010421666 -0.008582923 0.002222344
0.0021458978 0.0058912365 -0.009673353 0.006183341 -0.008766863 0.009277241 -0.011319725 0.0011569661
-0.0021362347 0.004787453 0.0036040903 -0.0066543175 0.0024844129 0.020073116 0.0013896137 -0.012652104
-0.01797409 -0.0056986534 0.011609111 0.00025787536 0.011825239 -0.014973124 -0.005663599 0.017309815
0.008763003 0.0012228824 -0.011155383 0.003328363 -0.0013740796 -0.0056195916 0.012164254 -0.009169158
0.010837359 -0.012394494 0.0075733257 -0.005043905 0.0033843897 -0.0026262444 -0.0011936849 -0.0055250493
0.00063728576 0.0096821925 -0.013765473 0.012900853 -9.8170814e-05 0.0002221947 -0.004581942 0.0031290136
0.013646713 -0.014336721 0.0047651613 0.006587545 -0.013010384 -0.0043411762 -0.0027907707 -0.01710665
0.0007499599 0.008522261 -0.0055662096 -0.009035586 -0.00052142853 0.019479908 0.0007247804 -0.0141893625
-0.00036158078 -0.0017487267 0.004781437 -0.0020933112 -0.009178753 0.0013181412 0.011801473 0.0040306593
-0.002901672 0.001856587 -0.0013429907 -0.00036458965 -0.0022107684 -0.009188389 -0.0029003678 -0.009852905
0.005699349 -0.0012746145 -0.0078107473 -0.0052876254 0.0018234856 -0.015580979 -0.0008154647 -0.009878292
0.0018558991 0.011379772 -0.001503996 0.01143054 0.008165488 -0.012592321 0.007849589 0.0019503537
0.01363 -0.015996156 0.0039013303 -0.003540478 -0.0068036816 -0.00628307 0.0035445397 0.00449701
-0.015160617 0.0018415196 0.0074105994 0.0061561596 -0.00076533866 0.0049029198 -0.00039032722 0.0011076637
0.010169533 0.0071896752 -0.0088914465 0.01786224 0.013909635 -0.010223003 0.006571851 -0.013643026
0.024576424 0.009153382 0.017690118 0.01065244 -0.011351206 -0.0043024975 0.004894402 0.0020295565
-0.0004957712 0.0024823812 0.007881985 0.007839022 -0.0024462696 0.009789847 -0.005268063 0.0020818834
-0.01307249 -0.008628738 0.008739245 -0.015033241 0.012780972 0.0016301154 -0.0027059566 0.0016534616
0.0030780467 -0.0150692705 -0.0048518297 -0.012781063 -0.0051996005 -0.0033788949 -0.0011890846 -0.0018136548
0.0023610205 0.0002064733 0.004156835 0.002386583 0.01649631 0.011675487 0.012752881 -0.0129713
0.00096350635 -0.002108776 -0.005495509 0.0015462721 0.0047194837 -0.00809466 0.018693553 0.0029707677
-0.0037652417 -0.009042456 -0.0047623375 -0.0076407804 0.0043078437 0.0011867206 0.00014075344 0.015409043
-0.00841157 -0.0062598437 0.005216708 -0.013067145 0.008139813 0.004791037 0.003807208 0.01590494
-0.002093585 -0.003410427 0.0038070614 -0.008315508 -0.009365931 -0.01173959 -0.020187974 0.0111730965
-0.0035910814 0.005170588 -0.018085528 0.006955869 0.007926263 0.0010271318 0.011568116 0.007850941

bias f4 [3]
00000000: f2bb a83a f891 a43a 2379 d2ba
0.0012873395 0.0012555709 -0.001605783
