TradeSimulator-v0_D3QN_-1/actor_00464520.pth (torch, 151866 bytes, 14 tensors)

state_avg f4 [10]
0	0x3e9b0560	0.30277538
1	0x3a8f1225	0.0010915442
2	0xbc041826	-0.008062398
3	0x3e89192a	0.2677701
4	0x3b7bb084	0.0038404772
5	0xbc3e1f20	-0.0116041005
6	0xbdbdfbc3	-0.09276535
7	0x3eb66b34	0.35628664
8	0x3bb4c338	0.005516436
9	0xbcbc3b68	-0.022977546

state_std f4 [10]
0	0x3f4a11bc	0.7893331
1	0x3f1dd48a	0.61652434
2	0x3f539bf1	0.8265982
3	0x3f65a270	0.89700985
4	0x3f414674	0.7549813
5	0x3f3456a9	0.7044473
6	0x3f7e1f29	0.99266297
7	0x3f4556c0	0.77085495
8	0x3f3de02f	0.741702
9	0x3f3524a8	0.7075906

weight f4 [128, 10]
0	0x3e308060	0.17236471
1	0x3d51a5d8	0.05118355
2	0xbd4729ad	-0.04862373
3	0x3e3578f9	0.17721929
4	0xbe9a231b	-0.30104908
5	0x3e5c56ad	0.21517439
6	0xbdace028	-0.08441192
7	0x3e317e34	0.17333299
8	0x3d28cc3e	0.041210406
9	0xbd01eeba	-0.031721808
10	0x3dc248b2	0.09486522
11	0x3ed9294f	0.42414328
12	0x3e04bf84	0.12963682
13	0xbdf485f1	-0.1193961
14	0xbd3770b1	-0.044785205
15	0xbd12a719	-0.035803888
16	0x3d35f97e	0.044427387
17	0x38658148	5.4718257e-05
18	0x3e860859	0.26178244
19	0x3df08707	0.117445044
20	0xbdee3914	-0.116319805
21	0xbef5dfad	-0.48022214
22	0xbd84f865	-0.0649269
23	0xbe1159bc	-0.14194387
24	0xbde4f683	-0.11179831
25	0x3b22d6e7	0.002484733
26	0x3e45498c	0.19266337
27	0x3e33a227	0.17542325
28	0xbe8978e5	-0.26850048
29	0x3e3a1dc1	0.18175413
30	0x3da9e510	0.08295643
31	0xb8cbf54e	-9.725486e-05
32	0x3e672b14	0.22575027
33	0xbe99a456	-0.3000819
34	0xbe782ff1	-0.24237038
35	0xbe197ceb	-0.14989059
36	0x3e949dcb	0.29026636
37	0xbd665426	-0.056232594
38	0x3e070625	0.13185938
39	0xbde1b029	-0.11019928
40	0x3e9ccf09	0.30626705
41	0xbf002976	-0.50063264
42	0x3e5e2e86	0.21697435
43	0x3c9f80db	0.019470623
44	0xbe1f7d0f	-0.1557505
45	0x3e240a92	0.16019657
46	0xbe3db5c8	-0.18526375
47	0x3de35c41	0.111015804
48	0xbdae2cb6	-0.08504622
49	0xbd250f5a	-0.040297844
50	0xbea7fd49	-0.3281043
51	0xbe97fcd6	-0.29685086
52	0x3e2c366a	0.16817632
53	0xbdd187cf	-0.102309816
54	0x3ea132a9	0.31483963
55	0x3e53fbb3	0.20701484
56	0xbcfb7e7a	-0.030699957
57	0xbe2e2ab3	-0.17008476
58	0x3e413928	0.1886946
59	0x3d9ad2b4	0.0755972
60	0xbe4b4118	-0.1984905
61	0xbe493157	-0.19647728
62	0x3e39b6d0	0.18136144
63	0x3e9b950b	0.30387148
64	0xbe2f124b	-0.17096822
65	0xbd81223c	-0.06305358
66	0xbc088e1d	-0.008334664
67	0x3d38ada7	0.045087483
68	0xbe6154f7	-0.22005068
69	0xbe487c01	-0.19578554
70	0x3e3c2d59	0.18376674
71	0xbec92bec	-0.39291322
72	0x3e12043d	0.1425943
73	0x3cb4d2ab	0.02207311
74	0x3dc5c834	0.09657326
75	0x3d4ed58f	0.050496634
76	0x3dcda68e	0.100415334
77	0x3e2f9a66	0.17148742
78	0xbe861d69	-0.26194313
79	0x3e0caf54	0.13738757
80	0xbe74f32c	-0.23920888
81	0xbe63225b	-0.22181074
82	0x3cd6accd	0.026205445
83	0xbd58f704	-0.052969947
84	0x3e3f3820	0.18673754
85	0xbe4c65ab	-0.19960658
86	0xbe87c7be	-0.2651958
87	0x3e743ead	0.23852034
88	0xbd66ffe3	-0.056396376
89	0x3e4a09a6	0.19730243
90	0x3dc965f0	0.09833896
91	0xbf27a85b	-0.65491265
92	0x3d80863e	0.06275605
93	0x3d9e1607	0.07719045
94	0xbe587f70	-0.21142364
95	0xbe1bb4df	-0.15205716
96	0x3ddbe4b2	0.107369795
97	0x3d8afc75	0.067864336
98	0xbe12026e	-0.1425874
99	0xbdc5ab93	-0.09651866
100	0x3e956caf	0.29184482
101	0xbeab328a	-0.33436996
102	0x3e368a61	0.17826225
103	0x3e00f648	0.12593949
104	0xbe33a6bd	-0.17544074
105	0xbe83f7ff	-0.25775144
106	0x3e9c367a	0.30510312
107	0x3c8d22db	0.017228534
108	0x3e52e286	0.20594224
109	0x3d354bc1	0.044261698
110	0x3dc469de	0.09590505
111	0xbd92c6b3	-0.07166805
112	0x3e923389	0.28554943
113	0xbe53c337	-0.20679937
114	0x3d4c36b6	0.049856864
115	0x3e62f5ae	0.22164032
116	0x3e774699	0.24148025
117	0x3e55b11f	0.20868348
118	0xbe3707b1	-0.17874028
119	0xbe4da55c	-0.20082611
120	0xbe3e2bd6	-0.1857141
121	0xbe8f51cf	-0.27992103
122	0x3e96684f	0.29376456
123	0xbe5277b2	-0.20553473
124	0x3e2742da	0.16334096
125	0xbe1814f7	-0.14851747
126	0xbe971cac	-0.29514062
127	0xbd834746	-0.06410079
128	0x3e2e1563	0.17000346
129	0x3e908000	0.28222656
130	0xbe3e0905	-0.18558128
131	0x3e356dd8	0.17717683
132	0x3e82e153	0.25562534
133	0x3e525a97	0.2054237
134	0x3e4ff006	0.20306405
135	0x3e7c4e51	0.2463925
136	0x3e54e633	0.20790939
137	0x3ddb6d2c	0.10714182
138	0xbe335ec1	-0.17516614
139	0xbe7ff37a	-0.24995223
140	0xbe0dda37	-0.13852774
141	0xbd2c0d39	-0.042004798
142	0xbe43aa14	-0.19107848
143	0x3e01c2ea	0.1267201
144	0x3da4532f	0.080236785
145	0xbd6c7bc7	-0.05773523
146	0x3deb9491	0.11502946
147	0x3db1e2c5	0.08685831
148	0x3e428e77	0.18999659
149	0x3e29a7f6	0.16567978
150	0xbde1c4bf	-0.110238545
151	0xbdc7f3b9	-0.09763283
152	0xbd3f08f2	-0.04663939
153	0xbc22524e	-0.009907318
154	0xbe8eec1b	-0.2791451
155	0xbe3787bc	-0.17922872
156	0xbe4c2f14	-0.19939834
157	0xbe12f8a8	-0.14352667
158	0x3e5b6f98	0.21429288
159	0xbdd27d21	-0.10277773
160	0xbe7c672b	-0.2464873
161	0x3dad80f1	0.08471859
162	0x3dc5fa0b	0.096668325
163	0x3e45c25d	0.19312425
164	0xbe22f52d	-0.1591384
165	0x3d66c98b	0.05634455
166	0xbdcda802	-0.100418106
167	0xbd97ca73	-0.07411661
168	0xbe846fbd	-0.258665
169	0xbe1e37be	-0.15450951
170	0xbdb66ebc	-0.0890784
171	0xbe00b192	-0.12567738
172	0x3d803e48	0.06261879
173	0x3dab0648	0.083508074
174	0x3e9fd8d0	0.31220102
175	0x3e89d055	0.26916757
176	0x3e7f8b11	0.24955393
177	0x3c0a52a5	0.008442556
178	0xbe496af7	-0.1966971
179	0x3e5a806c	0.21338052
180	0xbd9d62e3	-0.07684877
181	0xbed32860	-0.4124174
182	0xbe80a2b1	-0.25124124
183	0xbd7b108f	-0.06129509
184	0xbe397760	-0.18111944
185	0x3e6c87d3	0.23098688
186	0xbe9a86b0	-0.30180883
187	0xbe81e730	-0.25371695
188	0xbbf53b02	-0.007483841
189	0xbe28ccad	-0.16484328
190	0x3df0e34f	0.11762106
191	0xbe54dee6	-0.20788154
192	0xbe190607	-0.14943705
193	0x3c8b1192	0.016976152
194	0x3e5d176e	0.21590969
195	0xbe4ba02d	-0.19885321
196	0x3e24283b	0.16030972
197	0x3e52604f	0.20544551
198	0x3e8da545	0.27665153
199	0xbe79abb3	-0.24381904
200	0x3dc2e713	0.0951673
201	0x3ddb3c9e	0.10704921
202	0x3e8f34d1	0.27969983
203	0xbdd42df9	-0.10360331
204	0x3e4cb0ca	0.19989315
205	0xbbf7febd	-0.007568209
206	0xbc935012	-0.017982516
207	0x3b12d1f3	0.0022402972
208	0x3d5607d1	0.052253548
209	0x3e17d02a	0.14825502
210	0x3d5cc80f	0.05390173
211	0xbe6bc5a0	-0.23024607
212	0xbe7f93b7	-0.24958692
213	0x3e801d42	0.25022322
214	0x3e6c55a6	0.23079547
215	0x3e59bf56	0.21264395
216	0x3e828364	0.25490868
217	0xbe685bc9	-0.22691263
218	0xbde56fb1	-0.11202944
219	0x3e8ae9ca	0.27131492
220	0xbe6de1e7	-0.23230706
221	0xbcdc4a5b	-0.026890924
222	0xbe7e0157	-0.24805199
223	0xbe71e15c	-0.23621124
224	0x3e1b92ae	0.15192673
225	0xbe49459b	-0.19655459
226	0xbdad59b2	-0.08464374
227	0x3e78ad5f	0.24284886
228	0x3e867c56	0.26266736
229	0x3e8edc90	0.2790265
230	0xbd3e8270	-0.046511114
231	0xbf329688	-0.6976094
232	0x3e9273d8	0.28604007
233	0xbd7796c7	-0.060446527
234	0xbde61fd4	-0.112365395
235	0x3da64f3a	0.0812058
236	0xbe6d02d1	-0.23145606
237	0x3e6dbce9	0.23216595
238	0x3e3e6f3d	0.18597122
239	0xbe84a301	-0.25905612
240	0xbe8a4a99	-0.27010038
241	0xbe14b11e	-0.1452069
242	0x3dd918d3	0.10600438
243	0x3c49817d	0.012298939
244	0xbdfd0887	-0.12355142
245	0x3cf98975	0.030461052
246	0xbe9f9236	-0.31166238
247	0xbe5c6c9a	-0.21525803
248	0xbe684f0d	-0.22686405
249	0x3e5c498f	0.21512435
250	0x3e9156be	0.28386492
251	0xbeaf81a6	-0.342786
252	0x3c112fa2	0.008861454
253	0x3e17e914	0.14835006
254	0x3d13ab3c	0.036051974
255	0xbe22eb3d	-0.15910049

bias f4 [128]
0	0x3d0cb653	0.034353565
1	0xbbf6a83d	-0.00752738
2	0x3d7d17f4	0.06179042
3	0xbb2773b0	-0.0025551133
4	0x3e41803c	0.18896574
5	0xba8c87ab	-0.0010721585
6	0x3e6d6a43	0.23185067
7	0x3dbac59a	0.09119721
8	0x3c08675f	0.008325427
9	0x3d718a9b	0.058970075
10	0x3e70d99c	0.23520511
11	0x3d844c8d	0.064599134
12	0x3e6fbe32	0.23412398
13	0xbc66e96c	-0.014093738
14	0x3bbec252	0.0058215046
15	0x3e8d02c7	0.2754118
16	0xbe9c3bda	-0.30514413
17	0x3d4a0c8f	0.049328383
18	0x3e9a6b9d	0.30160227
19	0xbe16e572	-0.14735964
20	0xbd383001	-0.044967655
21	0xbad99280	-0.0016599447
22	0x3df1652a	0.11786874
23	0x3e17b867	0.14816438
24	0x3db202eb	0.08691963
25	0x3e0790e4	0.13238865
26	0xbe00a84a	-0.12564197
27	0x3e19ddee	0.15026066
28	0xbdc4cf9b	-0.0960991
29	0x3e62fd55	0.22166951
30	0xbd9b8db7	-0.07595389
31	0xbe8a963c	-0.27067745
32	0x3d2a57ff	0.041587826
33	0x3e489bb2	0.19590643
34	0xbb9c7469	-0.0047746194
35	0xbc178b01	-0.00924945
36	0x3be395bb	0.0069453395
37	0x3e3ac77a	0.18240157
38	0x3ca10f11	0.019660505
39	0xbe9d67df	-0.3074331
40	0xbe6ee3d9	-0.23329104
41	0x3d0e7530	0.034779727
42	0xbbfe5226	-0.0077612577
43	0x3ea913fa	0.33023053
44	0xbd33f25f	-0.043932315
45	0x3e798168	0.24365771
46	0xbe7bd3d5	-0.24592526
47	0xbe9b7e1a	-0.30369645
48	0xbc3f8169	-0.011688569
49	0xbe642eff	-0.22283553
50	0xbdbaf2cc	-0.09128341
51	0x3cfddc72	0.030988906
52	0xbe83cebe	-0.2574367
53	0x3e747cf9	0.23875798
54	0xbe338a16	-0.17533144
55	0x3e86767c	0.2626227
56	0x3dd1e6c7	0.102490954
57	0xbd351e5d	-0.04421841
58	0xbe86eaf7	-0.2635114
59	0x3d384e88	0.04499677
60	0xbe2a8148	-0.1665088
61	0x3e949286	0.2901804
62	0xbe858ea6	-0.26085395
63	0xbdb26853	-0.087113045
64	0xbe1bfa3c	-0.15232176
65	0xbe440f75	-0.19146521
66	0xbe4a534b	-0.19758336
67	0xbc82d895	-0.015972415
68	0x3c96346b	0.018335542
69	0x3da28fec	0.07937607
70	0x3e32d9ff	0.17465971
71	0xbde6f011	-0.11276258
72	0xbe623d0c	-0.220936
73	0xbd84598b	-0.064623915
74	0x3ea328bf	0.31867024
75	0xbd24e77a	-0.040259816
76	0xbe8c5f41	-0.27416423
77	0x3e87a3f8	0.26492286
78	0x3d88c4bd	0.0667815
79	0x3da2c71b	0.079481326
80	0x3d873410	0.06601727
81	0x3e6a3ceb	0.22874801
82	0xbe138790	-0.14407182
83	0x3e7fd43a	0.24983302
84	0x3ea5d12a	0.32386142
85	0xbd8f3f96	-0.0699455
86	0x3e63abd0	0.2223351
87	0x3e492870	0.19644332
88	0x3ea296f3	0.3175579
89	0xbd858194	-0.06518856
90	0xbe4f02ac	-0.20215863
91	0xbddb23d3	-0.10700192
92	0xbe507ef6	-0.20360932
93	0x3cd5e8f9	0.026112067
94	0x3ea739f6	0.32661408
95	0x3ea73774	0.32659495
96	0x3e71f210	0.23627496
97	0x3d318807	0.043342616
98	0x3cc9df9b	0.024642756
99	0x3e541953	0.20712785
100	0x3e535069	0.20636143
101	0xbd00cb3d	-0.031443823
102	0xbdac2d25	-0.08407048
103	0x3e0cf9c5	0.13767155
104	0x3ca4bd84	0.0201099
105	0xbe5198a0	-0.20468378
106	0xbe2115fa	-0.1573104
107	0x3e8ab5d6	0.27091855
108	0x3e8f3d52	0.2797647
109	0xbde24826	-0.110489175
110	0xbd6d8770	-0.05799049
111	0xbe221c2f	-0.15831064
112	0xbdcc2406	-0.099678084
113	0x3e9adf41	0.30248454
114	0xbea47752	-0.32122284
115	0x3e1bb581	0.15205957
116	0xbe9559e2	-0.29170138
117	0xbe123019	-0.1427616
118	0xbd4a2d92	-0.049359865
119	0x3cafe143	0.021469718
120	0xbd15f9bc	-0.03661512
121	0xbe1f1024	-0.15533501
122	0xbe07a98d	-0.13248272
123	0xbe51bb59	-0.20481624
124	0xbe637708	-0.22213376
125	0xbe4b23e0	-0.19837904
126	0x3ea78a29	0.32722595
127	0xbe0477c3	-0.1293631

weight f4 [128, 128]
0	0xbdb1fb2d	-0.08690486
1	0x3d8ab831	0.06773413
2	0x3d24f674	0.0402741
3	0x3d8db85c	0.069199294
4	0xbdaf3a1d	-0.08556006
5	0xbd9ff8d7	-0.07811134
6	0xbd806e42	-0.0627103
7	0xbd4ef548	-0.050526887
8	0xbc731fba	-0.014839107
9	0x3d41c228	0.047304302
10	0x3d6592a9	0.05604807
11	0xbd82e3e9	-0.06391127
12	0x3d03ee42	0.032209642
13	0xbd144a25	-0.036203522
14	0x3c0c4fe6	0.008563971
15	0x3d28ffa3	0.04125942
16	0x3ca5ffa8	0.020263508
17	0x3cecc897	0.028904242
18	0xba0e0de5	-0.00054189406
19	0x3d6cdf4f	0.05783015
20	0x3ca26216	0.019822162
21	0x3da2f0a2	0.07956053
22	0x3c6f38be	0.014600931
23	0xbd1d0d1f	-0.03834259
24	0x3d3dad2c	0.046307728
25	0x3b28f857	0.0025782788
26	0x3dc2761e	0.09495185
27	0xbc64a8e1	-0.0139562795
28	0x3d9ff8a5	0.07811097
29	0xbd5fa6bb	-0.054602366
30	0x3d2453bb	0.040118914
31	0xbd774c29	-0.060375366
32	0x3d611fd1	0.054961983
33	0x3cb6d175	0.022316674
34	0x3d83b634	0.06431237
35	0xbd9cfba0	-0.07665181
36	0xbdb78346	-0.08960585
37	0x3d267ba3	0.040645253
38	0xbcaedcf6	-0.021345597
39	0x3d1255ac	0.035726234
40	0xbd49c807	-0.049263027
41	0xbcc6cd73	-0.024267888
42	0x3cab4203	0.0209055
43	0x3d58b49c	0.052906618
44	0x3d0b9c1b	0.03408442
45	0x3b90bb4b	0.0044168583
46	0xbcfd165e	-0.030894455
47	0x3ca76468	0.02043362
48	0x3cd65754	0.026164688
49	0xbd82d3ce	-0.06388055
50	0xbc9c8c9c	-0.019110017
51	0xbdb75b07	-0.08952909
52	0x3bdf4569	0.0068136943
53	0xbc097e26	-0.008391893
54	0x3d52586d	0.05135386
55	0x3dae1aae	0.085011825
56	0xbd8edeb3	-0.0697607
57	0xbcf3c590	-0.029757291
58	0xbd71da5b	-0.05904613
59	0xbabeb81c	-0.0014550718
60	0xbd3375e5	-0.043813605
61	0xbd77ad06	-0.060467742
62	0xbd10b25c	-0.035326347
63	0xbbf51759	-0.00747959
64	0x3d55d699	0.05220661
65	0xbcb709c5	-0.022343526
66	0x3d7f0120	0.062256932
67	0xbd8bdc2e	-0.06829105
68	0x3bed07aa	0.0072335796
69	0xbd603029	-0.05473343
70	0xbdb908da	-0.090348914
71	0x3c488b38	0.012240224
72	0xbd2857a9	-0.041099224
73	0x3d871d69	0.065974064
74	0x3d8179d9	0.06322069
75	0xbd9c9a25	-0.07646588
76	0x3b008ed8	0.0019616392
77	0xbbd34cef	-0.00644838
78	0xbd31aed5	-0.043379623
79	0xbd2f61ef	-0.042818006
80	0xbd428d4a	-0.047498025
81	0x3d4590e4	0.04823388
82	0x3c0b9c12	0.008521097
83	0x3d8b46a6	0.068005845
84	0xbc2593f3	-0.010106075
85	0x3d31ed56	0.04343923
86	0x3c6cb7f7	0.0144481575
87	0xbc9c1206	-0.019051563
88	0xbc8517e1	-0.016246738
89	0xbdb78beb	-0.08962234
90	0xbc9c6c52	-0.01909462
91	0xbcdda60d	-0.027056718
92	0xbd45306e	-0.04814189
93	0xbcf43591	-0.029810699
94	0xbd2a4329	-0.041567955
95	0xbd875bcf	-0.06609308
96	0x3c33085f	0.010927289
97	0xbb044677	-0.0020183602
98	0xbcf124c9	-0.029436486
99	0x3db7a6af	0.08967339
100	0x3d92e85c	0.07173225
101	0x3d2da2e7	0.042391684
102	0xbd44d5fe	-0.04805564
103	0xbb7fe9d4	-0.0039049285
104	0xbda17932	-0.07884444
105	0x3d73b286	0.059496425
106	0x3d956a40	0.07295656
107	0xbc40684b	-0.011743615
108	0x3d76a145	0.060212392
109	0x3d98be53	0.074581765
110	0xbc5bed94	-0.013423342
111	0xbd149ce2	-0.036282428
112	0xbc2584b2	-0.010102438
113	0x3c37cda0	0.011218458
114	0xbd95bcba	-0.07311387
115	0x3c1f032a	0.009705344
116	0xbcdac974	-0.026707388
117	0x3d84029d	0.06445811
118	0xbd1223a9	-0.03567854
119	0x3d8ce44a	0.0687948
120	0x3d6ba1f2	0.05752749
121	0xbccb3c85	-0.024809131
122	0x3d0ba48f	0.034092482
123	0xbc7914ea	-0.01520274
124	0xbd01e724	-0.031714574
125	0xbd1b6704	-0.03794004
126	0x3ba12fc8	0.004919026
127	0x3cd2f8ba	0.025753368
128	0xbc36ae08	-0.011149891
129	0x3c5425f9	0.0129485065
130	0x3d774789	0.060370956
131	0x3d21afc5	0.039474268
132	0x3d2eee99	0.042708013
133	0x3cf41683	0.02979589
134	0xbd7c6007	-0.061615016
135	0xbd534c53	-0.05158646
136	0xbd777bf9	-0.060420964
137	0x3d82d918	0.063890636
138	0xbd99b1a1	-0.07504583
139	0xbd7c3fb3	-0.061584186
140	0x3d6b406a	0.057434477
141	0x3d5b24cb	0.053501885
142	0xbda28191	-0.07934869
143	0x3d625917	0.055260744
144	0xbcc05ca7	-0.02348168
145	0x3c94c457	0.018160028
146	0xbd44b206	-0.04802134
147	0xbc5b7d01	-0.0133965025
148	0x3c8d39d6	0.017239492
149	0x3d886363	0.066595815
150	0x3d657242	0.056017168
151	0xbd29803a	-0.041382052
152	0xbd6cef34	-0.05784531
153	0x3a9a37d3	0.0011765904
154	0x3ce63487	0.028101219
155	0x3d6e79e1	0.0582217
156	0xbdad3002	-0.084564224
157	0x3b1f2e7b	0.002428918
158	0x3c425cc5	0.011862938
159	0xbd335503	-0.043782245
160	0x3d9e03e4	0.07715586
161	0xbc64ca28	-0.013964213
162	0xbd9e6202	-0.07733537
163	0xbd4101d0	-0.04712087
164	0x3b9851df	0.0046484317
165	0xbd652e20	-0.05595219
166	0x3cbc46dd	0.022983009
167	0x3d9b6a76	0.07588665
168	0x3c3311d2	0.010929542
169	0xbc3d00b3	-0.011535811
170	0x3dbea0c0	0.093080044
171	0x3d95ad9d	0.07308505
172	0x3d81c7f7	0.063369684
173	0x3c6bc994	0.014391322
174	0x3c2182cd	0.0098578455
175	0xbd79d0bc	-0.06099008
176	0x3c7d3efc	0.015456911
177	0x3dc46c91	0.0959102
178	0x3c3d131a	0.011540199
179	0xbd93fc85	-0.07225899
180	0x3d10b9f5	0.035333592
181	0x3daa5ec2	0.08318855
182	0x3da624e9	0.08112509
183	0x3c5931d8	0.013256513
184	0x3cc463d3	0.023973381
185	0x3caa3f42	0.020782117
186	0xbd137ce8	-0.03600779
187	0xbc36f33f	-0.011166393
188	0x3d859484	0.06522468
189	0x3c95f2b4	0.018304206
190	0x3da952de	0.08267759
191	0xbd84ccbd	-0.06484363
192	0xbc117188	-0.008877166
193	0x3b55553f	0.0032552031
194	0xbd2e6fe8	-0.04258719
195	0x3d9424e8	0.07233602
196	0x3d835c74	0.064141184
197	0xbd2b34af	-0.04179829
198	0x3da98104	0.08276561
199	0x3d97d855	0.07414309
200	0xbd494755	-0.049140293
201	0x3ab8504c	0.0014062016
202	0x3dba7467	0.09104233
203	0xbd62d644	-0.05538012
204	0xbbe7c13b	-0.0070725954
205	0xbd69b6e2	-0.057059176
206	0x3d9276c8	0.07151562
207	0x3cafe489	0.021471279
208	0x3d2a6dfd	0.0416088
209	0x3d9514d2	0.07279362
210	0xbc8621d1	-0.016373547
211	0xbd900416	-0.07032029
212	0x3c57c931	0.013170526
213	0xbb00c0a7	-0.001964608
214	0x3d25f5f1	0.04051775
215	0x3d4323cd	0.047641564
216	0xbd137c3b	-0.036007147
217	0xbcfc5aa5	-0.030804941
218	0x3d66cf72	0.05635018
219	0x3ce8a1cb	0.028397461
220	0x3cb00dd1	0.021490963
221	0x3d505a65	0.050867457
222	0x3d38a323	0.045077454
223	0xbd6adbf2	-0.057338662
224	0x3c898f31	0.016791912
225	0x3ba91fa6	0.0051612435
226	0xbda1d07f	-0.079010956
227	0x3ce32857	0.027729196
228	0x3c0daf04	0.008647684
229	0x3d92aeff	0.07162284
230	0xbdb3d5da	-0.08781023
231	0x3db59d2b	0.08867868
232	0xbd27500b	-0.04084782
233	0x3d3f76c1	0.046744112
234	0x3d6cadae	0.05778282
235	0xbb6fc973	-0.003658858
236	0xbd26370d	-0.040579844
237	0xbc3f273b	-0.011667068
238	0xbd7076c9	-0.058707032
239	0x3c579d48	0.013160057
240	0x3d105f1d	0.035246957
241	0x3cc27fa6	0.023742508
242	0xbd4d6d54	-0.05015309
243	0x3d7cd7d1	0.061729256
244	0x3d9a418a	0.07532032
245	0xbcd18c89	-0.025579708
246	0x3d3b9ef3	0.045805883
247	0xbc061f25	-0.008186136
248	0x3d122169	0.035676394
249	0xbd8a453a	-0.06751485
250	0xbd8f7cbe	-0.070062146
251	0xbc6c54c7	-0.014424509
252	0xbd8a5f16	-0.067564175
253	0x3d139064	0.036026374
254	0x3db93da6	0.09044962
255	0xbc91ab3a	-0.017781842

bias f4 [128]
0	0x3d871bb4	0.06597081
1	0x3d7123ce	0.058872037
2	0xbcb52b4c	-0.022115372
3	0x3d3e44e6	0.046452425
4	0xbcf026f8	-0.029315457
5	0xbc3acf18	-0.011401914
6	0xbda3deda	-0.0800149
7	0x3d3bd7a5	0.04585995
8	0x3d863606	0.06553273
9	0x3c16563d	0.009175834
10	0xbdb36949	-0.08760316
11	0xbb5e6c01	-0.0033938887
12	0xbd70436b	-0.058658045
13	0xbd29df71	-0.041472856
14	0xbc6971bd	-0.014248309
15	0x3d2a0e8d	0.041517783
16	0x3d49b2bc	0.04924272
17	0xbda8081e	-0.08204673
18	0xbd4d55dc	-0.05013071
19	0xbd48c4cc	-0.049015805
20	0x3cec9849	0.028881209
21	0x3b008645	0.001961128
22	0xbc8b69d0	-0.017018229
23	0x3c4c68db	0.012476171
24	0x3bb74f43	0.0055941655
25	0xbd9cf08a	-0.07663067
26	0x3d03dcb8	0.032192916
27	0x3ca50515	0.020144025
28	0x3c919f49	0.017776148
29	0x3d4a479f	0.04938471
30	0x3c9e7eff	0.019347666
31	0xbd560e09	-0.05225948
32	0x3dd202a6	0.102544114
33	0x3d3bf7a8	0.04589048
34	0x3dbb8534	0.09156266
35	0x3c8f33a5	0.01748068
36	0x3d8bd251	0.06827224
37	0xbb93cb81	-0.0045103435
38	0x3a7ca385	0.00096374034
39	0x3d4b3ab4	0.04961653
40	0xbd18ff44	-0.037352815
41	0xbda23946	-0.0792108
42	0x3ccb533b	0.02481996
43	0x3d856dde	0.06515096
44	0x3dc0285a	0.093826964
45	0xbbeec05a	-0.0072861137
46	0xbcd22672	-0.025653098
47	0xbd619583	-0.055074226
48	0x3dc069dd	0.09395192
49	0x3b032247	0.0020009445
50	0xbd280c4d	-0.041027356
51	0xbd720c62	-0.05909384
52	0xbca649f1	-0.02029893
53	0x3dad81bb	0.0847201
54	0x3d2ffb8a	0.042964496
55	0xbd914fb1	-0.07095278
56	0x3d42c289	0.047548804
57	0xbcda9934	-0.026684381
58	0x3dba53b9	0.09098
59	0xbcd5c8fa	-0.02609681
60	0x3b0645fd	0.0020488494
61	0x3d0238b8	0.031792372
62	0xbc1285f7	-0.0089430725
63	0xbd3b4530	-0.04572028
64	0xbaafc785	-0.0013410902
65	0x3dc9676c	0.09834179
66	0xbd8a859d	-0.06763766
67	0x3d86ab71	0.065756686
68	0x3d539206	0.05165293
69	0x3db63eab	0.08898672
70	0x3cd55a60	0.02604407
71	0xbabd7f7f	-0.0014457552
72	0xbd4fca8a	-0.050730266
73	0x3dcea0d5	0.1008927
74	0x3c265055	0.010150989
75	0x3a9bda9a	0.001189071
76	0x3ceb1d37	0.028700454
77	0xbc6da360	-0.014504284
78	0x3c10b21d	0.008831528
79	0x3ccdb745	0.025111804
80	0x3d8aec74	0.06783381
81	0x3d80f08c	0.06295881
82	0xbdbf5e8c	-0.09344205
83	0xbc55e75e	-0.0130556505
84	0x3ab678ca	0.0013921496
85	0x3d32befe	0.043639176
86	0xbd525768	-0.05135289
87	0xbc47b3f4	-0.0121889
88	0xbd28fb97	-0.04125556
89	0xbd614e94	-0.05500658
90	0x3c95352f	0.018213836
91	0x3d8f236b	0.06989177
92	0x3cfc325a	0.030785728
93	0xbd1bebda	-0.038066722
94	0xbb037d18	-0.0020063575
95	0xbce358c5	-0.02775229
96	0x3dc79ff8	0.097473085
97	0x3d04b14d	0.03239565
98	0xbd56b9e7	-0.052423384
99	0xbd964521	-0.07337404
100	0xbd11ad84	-0.035565868
101	0xbd8acd28	-0.06777412
102	0x3cec451f	0.028841553
103	0xbd0fc888	-0.03510335
104	0xbdb0f436	-0.086403295
105	0xbcb2ea27	-0.021840168
106	0xbd1a62c5	-0.03769185
107	0xbcedc8b6	-0.02902637
108	0x3d9e8f22	0.07742144
109	0x3a1b8df3	0.0005933933
110	0xbd692d8e	-0.05692821
111	0xbd3a0180	-0.045411587
112	0x3dba10d3	0.0908524
113	0xbbc738a9	-0.0060797525
114	0xbcd924b8	-0.026506767
115	0xbcba4387	-0.022737278
116	0x3d242bdf	0.0400809
117	0x3da33c26	0.07970457
118	0xbc3be4e2	-0.011468144
119	0xbb6b0fb0	-0.0035867505
120	0xbcde81cd	-0.027161503
121	0xbd734a5d	-0.05939709
122	0x3d5c3263	0.05375899
123	0x3c972377	0.018449528
124	0x3c4031fa	0.011730665
125	0x3ca50c86	0.020147573
126	0x3ccb6038	0.024826154
127	0x3da5ddd1	0.08098949

weight f4 [128, 128]
0	0x39ecca42	0.00045164122
1	0x3d2aa1f2	0.04165835
2	0x3c1f8fc3	0.009738865
3	0x3cfe4a86	0.031041395
4	0xbd898e02	-0.06716539
5	0x3d5b87b6	0.05359622
6	0xbd79aa96	-0.0609537
7	0x3c41215b	0.011787738
8	0x3dab4549	0.083628245
9	0xbc9bd6dd	-0.019023353
10	0xbd1fb433	-0.03899021
11	0x3d4ca048	0.049957544
12	0xbd8c68ab	-0.06855901
13	0xbd07872e	-0.0330879
14	0xbc2dcd4c	-0.010608029
15	0x3d117d37	0.035519805
16	0x3d8ca5f6	0.06867592
17	0xbd1006bf	-0.035162684
18	0x3c51c4c5	0.012803261
19	0x3df55291	0.11978639
20	0x3d91552d	0.07096324
21	0xbd65e94b	-0.05613069
22	0xbd1ddf27	-0.038542893
23	0xbbf29e67	-0.007404137
24	0xbd6097eb	-0.05483238
25	0xbcf105d1	-0.029421719
26	0xbbfd4cad	-0.0077300877
27	0xbd0591eb	-0.03260986
28	0xbd5850ed	-0.05281155
29	0xbd1197f5	-0.03554531
30	0x3cf6a39f	0.030107317
31	0xbd8bbb63	-0.068228506
32	0x3d9dbf4c	0.077025026
33	0x3db27247	0.08713203
34	0x3cc6472b	0.024203857
35	0xbd2723f8	-0.040805787
36	0x3ca6dfc7	0.020370377
37	0xbd9b86ad	-0.07594047
38	0x3d34176e	0.043967657
39	0x3d66cf28	0.056349903
40	0x3d61e441	0.05514932
41	0x3d865ba2	0.06560446
42	0x3d5042d2	0.050844975
43	0xbdbada1a	-0.09123631
44	0xbd56f017	-0.05247506
45	0xbc61f187	-0.013790495
46	0x3c899343	0.016793853
47	0x3d6099c6	0.05483415
48	0xbdbc6629	-0.09199173
49	0xbd6130b9	-0.054978106
50	0x3d2b02ac	0.041750595
51	0x3d67ad6a	0.056561865
52	0x3a8bfcaf	0.0010680164
53	0x3d28e67e	0.04123544
54	0x3d9ecfce	0.07754479
55	0x3da395fa	0.0798759
56	0x3ca57db1	0.020201536
57	0xbd9e314c	-0.077242464
58	0xbd0b966c	-0.034079
59	0xbd5510e6	-0.05201807
60	0xbd65a550	-0.056065857
61	0x3d8133bf	0.06308698
62	0x3b9b9adb	0.004748685
63	0xbd64059e	-0.05566942
64	0x3d1e7d38	0.038693637
65	0xbd0158eb	-0.03157894
66	0xbd50ca7f	-0.050974365
67	0xbb8cfca6	-0.004302579
68	0xbd36ec96	-0.04465922
69	0xbd5b1bb1	-0.053493205
70	0xbd4c8e98	-0.049940675
71	0xbd82c19b	-0.063845836
72	0xbcf790d1	-0.030220421
73	0x3d4d539f	0.050128575
74	0xbd3cf908	-0.046135932
75	0x3dc124de	0.0943086
76	0x3c41ea77	0.011835686
77	0xbca4e816	-0.020130198
78	0xbbdfeba0	-0.0068335086
79	0xbbf0bfc1	-0.0073470776
80	0x3ca46c4e	0.020071175
81	0x3d6d2627	0.057897713
82	0x3cbdf53e	0.02318823
83	0xbdc2f2de	-0.095189795
84	0x3c17ed60	0.009272903
85	0x3ccd7d84	0.025084265
86	0xbd890629	-0.06690628
87	0xbd864866	-0.06556778
88	0x3d1f4ee7	0.038893607
89	0xbdb8c562	-0.09022023
90	0xbd90d9a0	-0.07072759
91	0x3d8f4d65	0.06997184
92	0xbc02175f	-0.007940142
93	0xbc4b6306	-0.012413746
94	0x3d647326	0.055773877
95	0x3cfafad2	0.030637179
96	0xbca458fa	-0.020061959
97	0x3b558a47	0.003258364
98	0x3d63bd04	0.05560018
99	0x3d9df1ce	0.07712136
100	0xbd1b8ff5	-0.037979085
101	0xbbafe1b1	-0.0053674807
102	0x3d6122ed	0.05496495
103	0x3d689326	0.056780957
104	0x3c2826e5	0.010263179
105	0x3cc954bb	0.024576535
106	0x3d855c46	0.065117404
107	0xbd64b20c	-0.05583386
108	0x3a6b0c29	0.00089663506
109	0x3c49396f	0.01228176
110	0xbc9906a1	-0.018679919
111	0xbd3ce0cb	-0.046112817
112	0xbc50e918	-0.012750886
113	0xbdd3f57d	-0.103495575
114	0xbd8a144e	-0.06742154
115	0xbd382974	-0.044961408
116	0xbce26461	-0.027635755
117	0xbd76f0ac	-0.060288116
118	0x3cb42c0f	0.021993665
119	0xbdb9ff96	-0.09081952
120	0xbc9d5c6f	-0.019209115
121	0xbdb57426	-0.08860044
122	0x3c8e63cd	0.017381573
123	0xbcc6fdf2	-0.024291012
124	0x3b065e78	0.0020503085
125	0xbcbe1922	-0.023205344
126	0xbd9eb955	-0.07750193
127	0x3d7ba7ea	0.061439432
128	0xbd9e8069	-0.07739336
129	0x3cd588a4	0.026066132
130	0x3dc6e6c2	0.09711982
131	0x3d95742d	0.072975494
132	0x3d8f76ba	0.07005067
133	0xbd82dab3	-0.0638937
134	0x3d493744	0.04912497
135	0xbcec84e1	-0.028871955
136	0xbbb3fb83	-0.005492629
137	0xbd827655	-0.06370226
138	0x3dbb4f60	0.09145999
139	0x3d467975	0.048455674
140	0xbd205849	-0.039146695
141	0x3d99fae7	0.07518559
142	0xbd61eb05	-0.055155773
143	0xbcdb140d	-0.02674296
144	0xbbfce716	-0.0077179773
145	0xbd0e1e23	-0.03469671
146	0x3d2fd77e	0.04293012
147	0x3d751d83	0.059842598
148	0xbbd67348	-0.0065445043
149	0x3ce51947	0.027966155
150	0xbd69e311	-0.057101313
151	0x3cf2dd7e	0.029646631
152	0xbd71f920	-0.059075475
153	0x3da29d8a	0.079402044
154	0xbd52d083	-0.051468384
155	0x3dae571d	0.08512709
156	0xbd241dd3	-0.040067505
157	0x3cb45c8d	0.022016788
158	0x3c13bc18	0.009017013
159	0xbc67ab66	-0.014139986
160	0x3d6ef299	0.058336828
161	0x3d5ba20e	0.053621344
162	0xbb0101c4	-0.001968489
163	0x3975c411	0.00023438061
164	0xbd630603	-0.055425655
165	0x3cea9ed0	0.02864018
166	0xbcccd888	-0.025005594
167	0x3d6a1d7c	0.057157025
168	0xbdba1657	-0.09086292
169	0x3d8607f8	0.06544489
170	0xbd83d3d9	-0.06436891
171	0xbdb87e8c	-0.09008512
172	0x3c1854c8	0.009297557
173	0x3d9c12ae	0.0762075
174	0xbcc7008c	-0.024292253
175	0x3d8f9efe	0.07012747
176	0x3d41a0a9	0.047272358
177	0xbcd93658	-0.026515171
178	0xbd2e52b6	-0.042559348
179	0xbd1bb74c	-0.038016602
180	0x3d52ad11	0.05143458
181	0x3cc2cb58	0.023778602
182	0x3ab6789c	0.0013921442
183	0xbd0e4e4e	-0.034742646
184	0x3da6c387	0.08142763
185	0x3d7d845d	0.06189381
186	0xbdb361da	-0.08758898
187	0xbd7b8894	-0.061409548
188	0xbd930cf0	-0.07180202
189	0x3cacc45a	0.021089721
190	0xbd30c6d6	-0.043158375
191	0xbc9be92c	-0.019032083
192	0xbd9529f6	-0.07283394
193	0xbd95c844	-0.07313588
194	0xbaffd28b	-0.0019517703
195	0xbdaec1c2	-0.0853305
196	0xbcc24598	-0.023714826
197	0x3b80b4ec	0.0039278176
198	0x3ce88a58	0.02838628
199	0xbdb7b536	-0.0897011
200	0x3c16b63d	0.009198722
201	0x3d9357f0	0.07194507
202	0xbd80ca39	-0.06288571
203	0xbd16e5c2	-0.036840208
204	0x3ce3873a	0.027774442
205	0xbb757eed	-0.0037459687
206	0xbd29338c	-0.041308925
207	0x3d3e766b	0.04649965
208	0xbdb38032	-0.08764686
209	0xbdb3b98e	-0.08775626
210	0x3d52f9db	0.051507812
211	0x3d0ba01f	0.03408825
212	0x3c305685	0.010762815
213	0x3d9eaa58	0.07747334
214	0xbda011cf	-0.07815897
215	0x3d82c796	0.06385724
216	0x3c4cbbf1	0.012495981
217	0x3d7c12a0	0.0615412
218	0x3d25a122	0.04043687
219	0x3cdde40d	0.027086282
220	0xbdaabf8e	-0.083373174
221	0x3b85cf79	0.0040835706
222	0xbd01a133	-0.031647872
223	0xbc59450a	-0.013261089
224	0x3d92f44c	0.07175502
225	0xbc9228cf	-0.017841725
226	0xbd3b4f97	-0.0457302
227	0xbd0a5498	-0.03377208
228	0xbcaccdd8	-0.021094248
229	0x3d58a655	0.052893
230	0x3c32f445	0.010922496
231	0x3c203818	0.009778999
232	0xbd58fa65	-0.05297317
233	0x3db0ecb4	0.086388975
234	0xbcbc2a66	-0.022969436
235	0x3cfa9b1d	0.030591542
236	0xbd9b1137	-0.07571643
237	0x3d340f8b	0.043960135
238	0x3d08c0ff	0.03338718
239	0x3d843f65	0.06457404
240	0x3d364bd9	0.044505928
241	0xbdf04dc8	-0.117335856
242	0xbcf3ee6a	-0.02977677
243	0x3d64592a	0.055749096
244	0x3d0a3720	0.033743978
245	0xbcabc7bb	-0.020969262
246	0x3d40d1ae	0.047074966
247	0x3d92d912	0.07170309
248	0x3c1ad526	0.009450233
249	0x3bb72477	0.0055890637
250	0x3da2c623	0.07947948
251	0x3d91ff87	0.07128816
252	0xbd07fda6	-0.033200882
253	0xbb537fd5	-0.0032272239
254	0xbc629697	-0.013829849
255	0x3d1efd44	0.03881575

bias f4 [128]
0	0xbd53c638	-0.051702708
1	0xbd30869b	-0.04309712
2	0xbce73ffa	-0.028228749
3	0xbd98ae4b	-0.07455119
4	0x3db23a69	0.08702547
5	0x3d8fdfa6	0.070250794
6	0x3c2560c8	0.010093875
7	0x3b84d1af	0.0040533165
8	0x3d8f650a	0.070016935
9	0x3d9be170	0.07611358
10	0xbcea10cb	-0.02857246
11	0xbd2b4c08	-0.041820556
12	0x3d3af1c8	0.045640737
13	0xbd7503ee	-0.0598182
14	0x3d431625	0.04762854
15	0xbd9b89f7	-0.07594674
16	0xbd2edce6	-0.042691134
17	0xbbe2e335	-0.006924058
18	0xbd4a653e	-0.04941296
19	0x3ce0c01a	0.027435351
20	0x3b52185c	0.0032057976
21	0x3be194b5	0.0068841823
22	0x3d93dadc	0.072194785
23	0x3d14c3bb	0.036319476
24	0xbd714c99	-0.05891094
25	0xbd62ebf5	-0.055400807
26	0x3cd6c3d3	0.026216423
27	0xbd332145	-0.0437329
28	0x3d90edf9	0.0707664
29	0x3dc435bc	0.095805615
30	0xbc9b2f09	-0.018943327
31	0xbda6a1ce	-0.081363305
32	0xbdc40f15	-0.09573189
33	0xbd8c54dd	-0.06852124
34	0xbda29d35	-0.07940141
35	0x3d7c637e	0.06161832
36	0xbd6be02f	-0.057586845
37	0xbd96e6cd	-0.073682405
38	0x3dbdce4d	0.092678644
39	0xbd822442	-0.06354572
40	0x3d8fae23	0.07015636
41	0xbcfccbd5	-0.030858913
42	0xbc8cb160	-0.017174423
43	0x3d1c9493	0.03822763
44	0x3d60a7d4	0.054847553
45	0xbcaff138	-0.021477327
46	0x3db939e4	0.09044245
47	0x3d0b0826	0.033943318
48	0x3d9a0869	0.07521135
49	0x3da14bda	0.07875796
50	0xbd6a0e3e	-0.05714249
51	0x3c86daf6	0.01646183
52	0xbd8fec67	-0.07027512
53	0xbd8e3bb5	-0.06944982
54	0x3c5700bc	0.013122734
55	0xbcf2d379	-0.029641854
56	0xbd6510b2	-0.055924125
57	0x3c909256	0.017647903
58	0xbd10462c	-0.03522317
59	0xbda55176	-0.08072178
60	0x3d218d2b	0.03944127
61	0xbb9a7c0d	-0.004714495
62	0x3d2511ec	0.040300295
63	0xbd38c091	-0.04510552
64	0xbcbd97b0	-0.02314362
65	0x3d4cce01	0.050001148
66	0xbd8bf02e	-0.0683292
67	0x3ba93d66	0.00516479
68	0x3dca323f	0.09872865
69	0x3c4d941e	0.012547521
70	0x3d1dd0f1	0.03852934
71	0xbd9b95de	-0.07596944
72	0x3d0ad427	0.03389373
73	0xbdac7ddd	-0.08422444
74	0x3da9b4d2	0.08286442
75	0x3c837d45	0.016050944
76	0xbd7b1cb4	-0.06130667
77	0x3c90896d	0.017643655
78	0x3dcd3f5a	0.10021849
79	0xbd5213bc	-0.05128835
80	0xbb8a15bf	-0.004214018
81	0x3dbaae6e	0.09115301
82	0x3b9688da	0.0045939507
83	0x3d5868ad	0.0528342
84	0x3d7d3c92	0.061825342
85	0xbcb15dd7	-0.021651192
86	0x3dc2e2a9	0.09515888
87	0xbcdac2a8	-0.026704147
88	0x3dcef245	0.10104803
89	0xbc950caa	-0.018194515
90	0x3cc6edf8	0.024283394
91	0xbdbbf0a6	-0.091767594
92	0x3d1bf16a	0.038072027
93	0xbb4cc3c4	-0.0031244615
94	0xbdb0ca36	-0.08632319
95	0xbd24a007	-0.040191676
96	0x3d98d0bf	0.0746169
97	0xbdb3f261	-0.087864645
98	0x3cf5cd6b	0.030005177
99	0xba8a3061	-0.0010542982
100	0x3c36df57	0.011161647
101	0xb9876c4e	-0.000258299
102	0x3b615c8e	0.0034387442
103	0xbcf18c00	-0.029485703
104	0xbdc8549d	-0.09781764
105	0xbcadb6e5	-0.021205375
106	0x3d823032	0.06356849
107	0xbdbedca9	-0.09319431
108	0xbd33f22b	-0.04393212
109	0xbd825d21	-0.06365419
110	0xbd8022eb	-0.0625666
111	0xbcea3e66	-0.028594207
112	0x3d75594b	0.05989961
113	0x3d6f9526	0.05849185
114	0x3d180fe8	0.037124544
115	0x3d53c0cc	0.051697537
116	0xbdd2f93d	-0.10301445
117	0xbdbbc20a	-0.091678694
118	0x3dc0fa8e	0.094227895
119	0x3d9e71bd	0.077365376
120	0x3d391dfd	0.045194615
121	0xbdb0eac8	-0.08638531
122	0xbd9b9d79	-0.07598395
123	0x3db2ebbc	0.08736369
124	0xbd8b2c64	-0.06795576
125	0xbcab8acf	-0.020940213
126	0x3c9fee36	0.019522768
127	0x3dcd7807	0.10032659

weight f4 [1, 128]
0	0x3c8f9685	0.017527828
1	0x3c80bbad	0.01571449
2	0x3c949f57	0.018142385
3	0x3a7ebe07	0.00097176473
4	0xbc049807	-0.008092887
5	0xbc00d744	-0.007863823
6	0xbc2eedcf	-0.010676815
7	0x3b8d94cb	0.004320716
8	0xbc986f1b	-0.018607667
9	0xbb464725	-0.0030254808
10	0x3c5fb356	0.013653597
11	0xbc739a21	-0.01486829
12	0x3ad5d365	0.0016313611
13	0x3c7db64d	0.015485358
14	0xbb19ccf9	-0.002346812
15	0x3c36f6da	0.011167252
16	0x3c9a49f6	0.018834095
17	0x3c36fd0d	0.01116873
18	0xbc7c925e	-0.015415756
19	0xbb96326c	-0.0045836475
20	0xbaf0de67	-0.0018376828
21	0x3a55acaa	0.0008151034
22	0xbc54e1ad	-0.012993258
23	0x3c4c20e1	0.012459011
24	0xbc785be1	-0.015158624
25	0x3c050512	0.008118885
26	0xbc9e6bb1	-0.01933846
27	0x3c6d0013	0.01446535
28	0x3b5bb728	0.0033525918
29	0xbcd6dc51	-0.026228102
30	0x3c8731e2	0.016503278
31	0x3bfcf3b3	0.007719481
32	0x3c170a79	0.0092188055
33	0x3cca0c3e	0.02466404
34	0x3cc98558	0.024599716
35	0xbc0aff00	-0.008483648
36	0x3c8a020d	0.016846681
37	0x3c694fa7	0.014240182
38	0xbb11ba57	-0.0022236311
39	0xbc477d03	-0.012175801
40	0xbb6184b1	-0.0034411366
41	0x3c81c228	0.015839651
42	0x3a61838b	0.000860267
43	0xbb1e0236	-0.0024110205
44	0xbcef0f3b	-0.029182067
45	0xbbe44ad7	-0.0069669294
46	0xbc4af719	-0.012388014
47	0xbc6cd134	-0.014454175
48	0xbc9c9606	-0.019114505
49	0xbc12985f	-0.008947461
50	0x3c0f1aa9	0.008734384
51	0xbc637108	-0.013881929
52	0xbc0772d3	-0.008267122
53	0x3b6b55da	0.0035909326
54	0x3beef8e9	0.007292856
55	0x3c8dc02b	0.017303547
56	0xbaf1135a	-0.0018392608
57	0xb98dbbef	-0.00027033637
58	0xbce21092	-0.027595792
59	0x3cd2776d	0.025691712
60	0xbcb6ed75	-0.022330025
61	0x3c8861a8	0.016648129
62	0xbc055258	-0.008137308
63	0x3bb461f8	0.005504843
64	0x3d33bf37	0.04388353
65	0xbbf7697f	-0.007550418
66	0x3c330160	0.010925621
67	0xbbd4b7c7	-0.0064916345
68	0xbbfc5e89	-0.007701699
69	0x3c9cae12	0.019125972
70	0xbc7a469a	-0.015275622
71	0x3c759be3	0.01499078
72	0x3c697f10	0.0142514855
73	0x3c6680aa	0.014068762
74	0xbc072a58	-0.008249842
75	0x3bb79bd8	0.005603295
76	0xbc167e92	-0.00918545
77	0xbb8868e4	-0.0041628946
78	0xbca2b2ea	-0.019860703
79	0xbc96e42c	-0.018419348
80	0x3beada7d	0.007167159
81	0xbc75bfd9	-0.014999353
82	0xbca81db4	-0.020521976
83	0xbbcf7246	-0.006330761
84	0xbbc3d40d	-0.005976206
85	0x3c4f9efa	0.01267218
86	0xbd0008b6	-0.031258307
87	0x3c50ee85	0.01275218
88	0xbc7b8895	-0.015352388
89	0x3b5b8960	0.003349863
90	0x3bf82ff7	0.007574077
91	0x3cc1a845	0.023639807
92	0xbc5eda24	-0.013601813
93	0x3c30ed31	0.010798738
94	0xb9ce66bd	-0.00039367928
95	0x3c9b3955	0.018948236
96	0xbcd68822	-0.02618796
97	0x3c7eabac	0.015543859
98	0xbcbfda72	-0.023419593
99	0x3c59e066	0.01329813
100	0xbb88a77e	-0.0041703572
101	0xbb06026b	-0.0020448219
102	0x3c7f3323	0.015576157
103	0x3ca9e6ce	0.020739939
104	0x3bc760b7	0.0060845274
105	0xbc8f92fa	-0.017526139
106	0xbc8c65e2	-0.017138425
107	0x3c9158b4	0.017742492
108	0xbc83a483	-0.016069656
109	0xbbd0e949	-0.006375466
110	0x3cc316d8	0.023814604
111	0x3cdfc988	0.027317777
112	0x3c0d91de	0.0086407345
113	0xbccb527b	-0.024819603
114	0xbbda4121	-0.006660596
115	0xbbc0dbea	-0.005885591
116	0x3cd8577f	0.026408909
117	0x3b532814	0.0032219933
118	0xbc90fbac	-0.017698132
119	0xbcade822	-0.021228854
120	0x3c96b5d1	0.018397244
121	0x3c8c31d5	0.017113606
122	0x3c14b85c	0.009077158
123	0xbbfca651	-0.007710256
124	0x3c83afc9	0.016075032
125	0x3c8f820c	0.017518066
126	0x3c11474a	0.008867094
127	0xbbba6dd8	-0.005689364

weight f4 [3, 128]
0	0xbc43aeb0	-0.011943504
1	0x3c07abf6	0.008280745
2	0x3b401825	0.0029311266
3	0x3bc5e137	0.0060388106
4	0xbc0a22b4	-0.008431125
5	0x3af39b18	0.001858565
6	0x3c4c8712	0.012483375
7	0xbac9d918	-0.0015399782
8	0x3bccf5af	0.0062548737
9	0x3c1b4555	0.009476979
10	0x3bc34ac8	0.0059598424
11	0x3cba738f	0.02276018
12	0x3c1a9e8a	0.009437213
13	0xba9ea13d	-0.0012102496
14	0xbbfbdebe	-0.007686465
15	0xbba1bf8d	-0.0049361647
16	0x3b350376	0.002762047
17	0xbb1baddd	-0.0023754754
18	0xbac80a5f	-0.001526188
19	0xbb0ec437	-0.0021784434
20	0x3c4ecb7a	0.012621755
21	0x3ba1f6a6	0.004942733
22	0x3c6ce5ca	0.014459083
23	0xbc553bea	-0.013014773
24	0xbc589f62	-0.013221594
25	0x3bc1bb87	0.0059122476
26	0x3c048427	0.008088148
27	0x3b8a12cf	0.004213668
28	0xbbfcd72c	-0.00771608
29	0xbc4a25e0	-0.012338132
30	0xbb8949b3	-0.004189694
31	0xbb482f20	-0.0030545667
32	0x3bce39c8	0.006293509
33	0xbbf3ba26	-0.007437962
34	0x3c870d5b	0.01648586
35	0x3c7e0028	0.015502967
36	0xbafc83e5	-0.0019265382
37	0x3b3c8903	0.0028768189
38	0x3aeb02ee	0.001792995
39	0xbc69aaa5	-0.014261876
40	0xbb845e24	-0.0040395427
41	0xba4e577d	-0.0007871313
42	0x3b9e4b87	0.004830781
43	0x3b2d8934	0.0026479485
44	0xbb69fdd6	-0.0035704277
45	0x3cb5e49b	0.022203734
46	0x3c510fd7	0.012760124
47	0xbba214e6	-0.004946339
48	0x3b01124b	0.0019694741
49	0xbb95d8b6	-0.004572953
50	0xbb751b46	-0.003740029
51	0x3c767e62	0.01504478
52	0x3c27fcee	0.010253174
53	0x3c0a997b	0.008459444
54	0x3bdf77ec	0.0068197157
55	0x3c3ca90a	0.011514911
56	0x39d4cd61	0.0004058881
57	0xbb1e87d3	-0.0024189844
58	0xbc49899f	-0.012300878
59	0xbb30f25b	-0.0026999924
60	0x38f7c4f3	0.000118145625
61	0xbc53c230	-0.012924716
62	0xbc368985	-0.011141186
63	0xbaade4b0	-0.0013267007
64	0xbb4f4d9c	-0.0031631952
65	0xbbc8608c	-0.006115025
66	0xbb4b9191	-0.0031062106
67	0x3c5df84b	0.013547967
68	0xbad1b39e	-0.0015998965
69	0xb8ef750d	-0.000114182105
70	0x39d147d6	0.00039917108
71	0xbc08be9a	-0.008346224
72	0x3adfe48f	0.0017081666
73	0x391a9e23	0.00014745495
74	0xbc4d5fc9	-0.012535044
75	0x3c753cee	0.01496814
76	0xbaa59da4	-0.0012635482
77	0x3a8e7029	0.0010867167
78	0x3b254597	0.002521848
79	0xbbd284e3	-0.0064245327
80	0x3b350125	0.002761909
81	0xba384937	-0.0007029953
82	0x3c1d23c1	0.009591044
83	0x3b03264d	0.0020011843
84	0x3c8cdbb7	0.017194612
85	0xbbee4e58	-0.007272523
86	0x3c11f75d	0.008909074
87	0xbc26f882	-0.010191085
88	0x3c0531f4	0.0081295855
89	0xbc6180fa	-0.013763661
90	0x3ba25e49	0.0049550873
91	0x3bf0e73d	0.0073517845
92	0xbb34f09d	-0.0027609237
93	0xbc64d069	-0.0139657045
94	0x3c5747d1	0.013139681
95	0xbc136b3a	-0.008997733
96	0xbc3e9865	-0.011633013
97	0x3c045141	0.008076013
98	0xbb9e167d	-0.004824458
99	0xbbaacd03	-0.0052124276
100	0xbbfec13c	-0.0077745
101	0x3b62cf0d	0.0034608275
102	0x3c49d426	0.012318647
103	0x3c123bcd	0.00892539
104	0x3bf9a2f0	0.0076183006
105	0x3c4e9ae2	0.012610169
106	0xbc0f480f	-0.008745207
107	0x3bf07bff	0.0073390002
108	0xbabe0903	-0.0014498535
109	0x3b60a62f	0.003427874
110	0xbc0c97a4	-0.008581076
111	0x3b526104	0.0032101283
112	0x3b347c0e	0.0027539763
113	0x3b822b9c	0.003972484
114	0xba85f131	-0.0010218975
115	0x3af09c8a	0.0018357199
116	0x3b8ececb	0.0043581477
117	0x3ba3e968	0.0050021894
118	0xb95985bc	-0.00020744553
119	0xbbb38463	-0.005478428
120	0x3bb7f0dc	0.0056134295
121	0xba84d607	-0.0010134586
122	0xba1add37	-0.00059075974
123	0xbb693735	-0.0035585884
124	0xbc650988	-0.013979323
125	0xbc415628	-0.011800326
126	0x3b80c423	0.0039296313
127	0xbb2d22fe	-0.0026418562
128	0x3b485ed7	0.0030574107
129	0xbb88385b	-0.0041571087
130	0xbb96a71f	-0.004597559
131	0x3c6296e9	0.013829925
132	0x3c2882b8	0.010285072
133	0xbbe613eb	-0.0070214174
134	0x3c53ebed	0.012934667
135	0xbb83308f	-0.0040035914
136	0xbb8f7b05	-0.0043786787
137	0x3c0d54b0	0.008626148
138	0xbae5ffa4	-0.00175475
139	0x3c8e7d45	0.017393718
140	0x3b105dd4	0.0022028582
141	0xbcb4e57a	-0.02208208
142	0x3c18744c	0.009305071
143	0x3c77cd71	0.015124665
144	0x3b29982d	0.0025878057
145	0xbb89ae50	-0.004201688
146	0x3c5787d7	0.013154945
147	0xbba4104c	-0.0050068256
148	0xbb98c4ab	-0.0046621165
149	0x3c78daf1	0.015188918
150	0x3bbef632	0.0058276886
151	0xba8cee76	-0.0010752219
152	0xba993817	-0.001168969
153	0xbb92f341	-0.0044845645
154	0x3bec7150	0.0072156563
155	0xbbd2ec95	-0.006436894
156	0x3c4d4891	0.012529508
157	0xbacd65da	-0.0015670613
158	0x3c5bbe56	0.013412079
159	0xbb4e75b8	-0.0031503271
160	0xbbbd93c9	-0.0057854396
161	0xbb1a6a45	-0.0023561877
162	0x3c4e3ff3	0.012588489
163	0xbbb0e520	-0.0053984076
164	0xbb74046d	-0.0037234083
165	0x3b893942	0.004187734
166	0x39d3c982	0.0004039519
167	0xbbe7223b	-0.007053641
168	0x3bad18c7	0.0052824947
169	0x3c4eb283	0.012615803
170	0x39f3ba89	0.0004648755
171	0xbc2ea038	-0.010658316
172	0x3ba367c2	0.004986734
173	0xbc19b3e2	-0.009381266
174	0xbbae0e35	-0.005311752
175	0xbb7342da	-0.0037118704
176	0xbc7c5b0b	-0.015402566
177	0x3be4801f	0.006973281
178	0xbb275efc	-0.0025538793
179	0xbb32a72b	-0.0027260284
180	0x3b7790ba	0.0037775473
181	0x3c5e2b3b	0.013560112
182	0x3c058b41	0.0081508765
183	0x3c0910d2	0.008365827
184	0xbc3826b2	-0.011239694
185	0xb94e9b12	-0.00019703459
186	0xba741087	-0.0009310324
187	0x3b3a64e5	0.0028441485
188	0x3b30ff0d	0.002700749
189	0x3bbcbb74	0.005759651
190	0xbb6f90cd	-0.0036554814
191	0xbc3c0936	-0.011476805
192	0x3c8319b6	0.01600347
193	0x3c4e6d61	0.01259932
194	0x3bd15dc3	0.006389351
195	0xbc049d5e	-0.00809416
196	0xbb384168	-0.0028115157
197	0x3c0197a8	0.007909693
198	0xbc0fc191	-0.008774177
199	0x399eb440	0.00030270405
200	0xbb834221	-0.004005686
201	0xbc92b733	-0.017909622
202	0x3c347cc4	0.011016075
203	0x3a402f94	0.00073313084
204	0x3b708c53	0.0036704734
205	0x3a3fc50c	0.0007315434
206	0xbb87c8ca	-0.004143809
207	0xbc6e43c4	-0.014542524
208	0x3c57c923	0.013170513
209	0x3a03cffd	0.0005028246
210	0xbc110d13	-0.008853215
211	0x3b166a28	0.0022951458
212	0x3c4e0dc3	0.012576523
213	0x3ab9ba01	0.0014169813
214	0x3bf6cd1d	0.0075317756
215	0x389e3909	7.544651e-05
216	0x3b1e28d6	0.0024133227
217	0xbc9893a7	-0.018625094
218	0x3c005f52	0.007835226
219	0xbbbe5e46	-0.005809578
220	0x3b8960d7	0.0041924524
221	0x3bbaba99	0.0056985137
222	0x3b8b9f36	0.004260923
223	0x3c2c7dc3	0.010528031
224	0xbc107ee2	-0.008819314
225	0x3c2dc4df	0.01060602
226	0x3b33bba1	0.0027425068
227	0xbc2add08	-0.0104286745
228	0x3a1983d2	0.00058561296
229	0x3b6cc02e	0.003612529
230	0xbc36dedc	-0.011161532
231	0x3be50117	0.0069886553
232	0x3b761746	0.0037550493
233	0xba86bd85	-0.001027987
234	0x3af55af1	0.0018719119
235	0x3acbb658	0.0015542014
236	0xbb097d13	-0.002097909
237	0x3c390a3c	0.011293944
238	0x3c9ea636	0.019366365
239	0x3bb76e7c	0.0055978876
240	0x3c1e15f4	0.009648789
241	0x3bea8987	0.007157508
242	0x3b23729a	0.0024940134
243	0x3c58def6	0.013236752
244	0xbb05efe0	-0.0020437166
245	0x3a8962f2	0.0010481759
246	0xbc3c1778	-0.011480205
247	0x3c083026	0.008312261
248	0x3bad4c17	0.0052886116
249	0xbc551363	-0.01300511
250	0xba4932fe	-0.000767514
251	0xbbb1f6ea	-0.005431046
252	0x3a5c82df	0.00084118353
253	0xbbab12f1	-0.005220764
254	0xbc8b9810	-0.017040282
255	0x3ad4a190	0.0016222466

bias f4 [3]
0	0x3ad04b00	0.0015891492
1	0x3b635877	0.003469018
2	0xbb5a77da	-0.0033335597

weight f4 [1, 128]
0	0x3c4d84f2	0.012543904
1	0x3cc99bb5	0.02461038
2	0x3c6f80c8	0.014618106
3	0x3c848e29	0.016181068
4	0xbc5b4ca2	-0.01338497
5	0xbcc7dd60	-0.024397552
6	0xbbb03d5b	-0.005378408
7	0x3c93a5a2	0.018023316
8	0xbce335f2	-0.027735684
9	0x3b888178	0.0041658245
10	0x3c5972b9	0.013271981
11	0xbcaf70bd	-0.021416062
12	0x3cc6e078	0.024276957
13	0x3c519608	0.012792118
14	0x3b812560	0.003941223
15	0x3c3065ad	0.010766429
16	0x3c23945b	0.009984101
17	0x3bab9b3d	0.0052370117
18	0xbc63d909	-0.013906726
19	0x3c2e63de	0.010643927
20	0xbc725b57	-0.014792285
21	0x3c849ade	0.016187128
22	0xbc721050	-0.014774397
23	0x3c882fe4	0.016624399
24	0xbac7c41a	-0.0015240938
25	0x3c081b1e	0.0083072465
26	0xbc896778	-0.01677297
27	0x3cbf0bfa	0.02332114
28	0xbb2390e3	-0.0024958185
29	0xbc5db188	-0.013531096
30	0x3c60f608	0.013730533
31	0x3ca4763c	0.02007591
32	0x3bfc05d6	0.0076911254
33	0x3d068c41	0.0328486
34	0xb9ba43df	-0.00035527252
35	0x3b8fafaa	0.0043849545
36	0x3cdf1831	0.027233215
37	0x3c6355e5	0.013875459
38	0xbca5ba5f	-0.02023047
39	0xbcaa63cd	-0.020799542
40	0x3abf1128	0.0014577257
41	0x3bfbc71c	0.007683648
42	0x3ba85456	0.0051370068
43	0x3c3413e6	0.010991072
44	0xbcd1370a	-0.02553894
45	0xbc591b41	-0.013251127
46	0xbc31e299	-0.010857248
47	0xbc668916	-0.01407077
48	0xbc4e7e23	-0.0126033155
49	0xbc85f628	-0.016352728
50	0x3babcd56	0.005242984
51	0xbc25cef3	-0.010120141
52	0xbc8aa88d	-0.016926074
53	0x3c5831bf	0.013195454
54	0x3c9fcf68	0.019508079
55	0x3c090c77	0.008364788
56	0x3bcd27b3	0.006260836
57	0xbc6629a9	-0.0140480185
58	0xbbfac8be	-0.007653325
59	0x3c52ae89	0.012858995
60	0xbcb1995c	-0.021679573
61	0xbc4793cc	-0.012181234
62	0xbc1f7228	-0.009731807
63	0x3c4803be	0.012207923
64	0x3c407466	0.011746502
65	0xbca1d1a1	-0.01975328
66	0x3c631dd5	0.013862093
67	0x3b22784f	0.0024790948
68	0xbc1f7c8c	-0.009734284
69	0x3c9953ac	0.018716656
70	0xbcb32b4c	-0.021871231
71	0x3c3f1300	0.011662245
72	0x3b8eb454	0.004354993
73	0x3acdc925	0.0015700205
74	0xbc8b2038	-0.016983137
75	0x3c9dee4a	0.019278664
76	0x3c7f3e11	0.015578763
77	0xbc34aca1	-0.011027486
78	0xbbf67164	-0.0075208414
79	0x3bd69c28	0.006549377
80	0x3c70c827	0.014696158
81	0xbbe3179d	-0.006930305
82	0x3b4ce3f3	0.0031263798
83	0xbb7c477b	-0.0038494754
84	0xbc7b65d6	-0.015344104
85	0xbab33ae1	-0.0013674163
86	0xbc6c7dee	-0.014434321
87	0x3c611a81	0.013739229
88	0xbca524be	-0.020159122
89	0x3c10dbfe	0.008841513
90	0xba074a66	-0.00051609275
91	0x3cec8a8d	0.02887466
92	0xbb753a61	-0.003741883
93	0x3bbf1fbe	0.0058326414
94	0x3c2dfd0f	0.010619416
95	0x3c1d6483	0.009606483
96	0xbca85aa7	-0.020551039
97	0x3b86690a	0.004101877
98	0xbcc2597c	-0.02372431
99	0x3c78ce8a	0.0151859615
100	0xbc9b9e17	-0.018996282
101	0xbc4e703d	-0.012600002
102	0x3c0337f5	0.008008947
103	0x3cd52110	0.026016742
104	0x3cc53628	0.024073675
105	0x3c48aef3	0.012248742
106	0xbcbba4f6	-0.022905808
107	0x3c265753	0.010152656
108	0xbb39c233	-0.0028344512
109	0xbc31a6f3	-0.010843026
110	0x3ccf503a	0.02530681
111	0x3c185bfc	0.0092992745
112	0x3bd848ee	0.006600491
113	0xbac92707	-0.0015346714
114	0xbc39b246	-0.011334008
115	0xbc9240c8	-0.017853156
116	0x3c6bb9ed	0.01438759
117	0x3c96f300	0.018426418
118	0xbbe8d822	-0.007105843
119	0xbc90e062	-0.017685119
120	0x3cda77b9	0.026668416
121	0x39b53446	0.00034561957
122	0x3ca7eae9	0.020497756
123	0xbc39d095	-0.011341234
124	0x3be6d9b5	0.0070449957
125	0x3c81082b	0.015750965
126	0x3c7f2f5c	0.015575256
127	0xbc9946db	-0.018710544
