TradeSimulator-v0_D3QN_-1/actor_00075840_074.853.pth (torch, 152106 bytes, 14 tensors)

state_avg f4 [10]
00000000: 942a 6d3d 5ea1 4d39 046d cfba 5657 5a3d
00000010: 0dd0 473a e634 17bb fc57 97bc 1cfe 903d
00000020: 8907 903a 9a7f 95bb
0.057901934 0.00019610437 -0.0015825336 0.053305946 0.00076222495 -0.0023072301 -0.018474571 0.070797175
0.0010988574 -0.0045623304

state_std f4 [10]
00000000: 7cfc 753f 857d 6c3f 072f 773f 46bc 7a3f
00000010: a589 733f bdf8 703f bf9f 7f3f 1456 743f
00000020: 37dd 723f 5720 713f
0.96088386 0.9237903 0.96556133 0.9794353 0.95131904 0.94129544 0.9985313 0.95443845
0.948688 0.9418997

weight f4 [128, 10]
00000000: 6ade 293e e1ff c0bd f943 89bd 9cdc 213e
00000010: 2672 92be 1647 453e b85a 94bd cbd4 2e3e
00000020: c8a4 353d 95c1 42bd 6bd5 c83d 8a86 e23d
00000030: bda0 033e 5d43 debd 325b f0bc c5b7 0abd
00000040: a795 223d 332a cd3a 0f82 8f3e acfa e13d
00000050: 859f efbd 359d 8ebe 2b1b 6cbd 8103 13be
00000060: e209 d1bd db70 623b 0f57 473e c797 313e
00000070: 63f8 94be a157 453e d103 b53d be1d 6e3e
00000080: 8c61 543e 3826 97be 881d 94be fa9c 21be
00000090: 2ce5 933e 51aa 36bd b52d 113e 4b2e 13be
000000a0: 1baf 9b3e 67a0 6ebe 9b9d 663e 2843 9f3c
000000b0: 89ad 27be 7f28 2e3e 8852 39be 1b18 e03d
000000c0: 8b13 bdbd ddfa 1fbd 748e a4be bb1b fabd
000000d0: 5278 2b3e d8a1 96bd a442 a23e 8598 823e
000000e0: 909d 57bc 2846 3fbe 3cdb 433e 096e c23d
000000f0: 316c 4cbe 976f bc3d 1eba 433e 8cf4 923e
00000100: 4940 34be eb6e 4abd 2034 26bc 7b46 243d
00000110: f8d8 7abe 4d60 61be db3c 2e3e 4261 0cbe
00000120: c8fe 163e 0a70 a63c d8ef dd3d 3c05 893d
00000130: cae0 d63d 9cad 293e 50c3 8dbe 6283 1d3e
00000140: ee5a 6dbe f424 65be a330 913c 4d6c 5abd
00000150: 88e1 3a3e 0702 43be 1088 8bbe 5553 743e
00000160: 18f2 69bd 0764 393e c0fd c43d c7bf b0be
00000170: 80ac 773d faef a53d f595 57be 1241 14be
00000180: bb24 da3d 9b88 823d 2b06 0abe 1c39 cfbd
00000190: b98d 933e 45d7 14be c0eb 333e 7395 0a3e
000001a0: 3f03 46be cb94 8abe 81e0 9b3e f0e8 9a3c
000001b0: 0aa8 613e 199c 5f3d 2ab8 d13d a8d0 3c3e
000001c0: 1c18 963e fa5e 58be 87c6 473d c2ec 693e
000001d0: 8533 6e3e b5bf 503e daf6 53be dd99 60be
000001e0: 1ef2 3abe 84f9 53bd bd1d 9d3e 185d 53be
000001f0: 9faa 2d3e 63b9 22be d632 9abe 74a2 87bd
00000200: 7ed5 383e 18ea 943e 889f 42be 2baf 8c3d
00000210: fb5e 8e3e a260 5c3e 6478 3d3e 0487 673e
00000220: 1b49 4a3e e161 ce3d d433 56be 2079 8abe
00000230: f6cd 1bbe b2bf 19bd 095c 49be 7edd e83d
00000240: 9dcd c03d 05cb 5fbd 2efc ea3d 0528 cd3d
00000250: 8e37 3f3e bb64 503e a9ac d3bd f8d0 4d3e
00000260: 1f9b 2bbd 4c8d bbbb 8a49 94be 2524 44be
00000270: 8ecb 43be c4ee 0abe 82be 643e 03ff e0bd
00000280: d640 7bbe f455 173e 0f0b d53d c356 583e
00000290: c2cb 31be a181 883d de93 ebbd fe6d 77bd
000002a0: cce4 81be b466 11be aa2a c5bd 00cb 773d
000002b0: fe63 773d 0e6f aa3d 9f78 9d3e f486 963e
000002c0: c6b6 6d3e 19d9 423c 9eb0 56be f253 763e
000002d0: 6667 97bd 3f8c 00be 1b4e 8abe b897 65bd
000002e0: df43 48be 2d5d 8c3e 81b0 94be ecfa 77be
000002f0: eead fdbb 62f4 32be bb28 e33d d5ad 42be
00000300: c4e3 15be 3f4d 9d3c 7715 673e 84bb 64be
00000310: 6b70 1c3e 4f91 563e 41ed 9d3e 3e57 66be
00000320: a53b b83d 4215 1bbe 6c94 8f3e 60e2 dcbd
00000330: 16d7 463e e697 15bc 004d c1bc c326 a5ba
00000340: 2430 453d ee2e 1c3e 30ab 323d cf2b 9a3c
00000350: c343 89be 72cb 743e b7d1 863e 6422 733e
00000360: 21d4 7e3e ee90 70be 41b8 d9bd d4a5 8b3e
00000370: faba 70be 1470 4a3e 609b 81be 8830 65be
00000380: 38d7 163e 1541 58be f090 a5bd e35f 773e
00000390: 7dad 803e 7647 943e d403 7bbd 4ca8 b8be
000003a0: 8534 9a3e ad4f 88bd a535 00be c09c ae3d
000003b0: 5e2b 6dbe c9ae 5e3e 6831 4a3e af81 83be
000003c0: f18d 85be e267 95bd 3e87 003e 7289 ec3b
000003d0: ae86 1abe a808 2b3c 0a0c 9fbe e10b 62be
000003e0: fd35 53be 5e40 753e 4542 8e3e 5e30 00be
000003f0: fdef fa3b 9806 1c3e 5815 363d aed0 23be
0.1658875 -0.09423805 -0.06702418 0.15806812 -0.28602713 0.19265398 -0.07243866 0.17073362
0.0443466 -0.047547895 0.09806331 0.110608175 0.12854286 -0.10852692 -0.02934036 -0.033866663
0.0396935 0.0015652835 0.28028914 0.1103414 -0.11700348 -0.27854314 -0.057643097 -0.14356805
-0.10206963 0.003455213 0.19466804 0.17343055 -0.29095754 0.19271709 0.088386185 0.23253533
0.20740336 -0.29521346 -0.2892878 -0.15782538 0.28885782 -0.04459602 0.14177592 -0.14373128
0.30407032 -0.23303376 0.22521059 0.019441202 -0.16374792 0.17007636 -0.1809789 0.10942098
-0.09232243 -0.0390576 -0.32139933 -0.122123204 0.16745117 -0.07355088 0.31691468 0.25506988
-0.013160124 -0.18679106 0.191266 0.09493644 -0.19963147 0.092009716 0.19113967 0.287022
-0.17602648 -0.049422186 -0.0101442635 0.040106278 -0.2449683 -0.22009392 0.17015402 -0.13708976
0.14745629 0.020317096 0.10836762 0.066904515 0.10492094 0.16570133 -0.27688074 0.1538215
-0.23179218 -0.22377378 0.017723387 -0.05332594 0.18250096 -0.19043742 -0.27252245 0.23859914
-0.057115644 0.18104564 0.096187115 -0.34521315 0.060467243 0.081024125 -0.21053298 -0.14477947
0.10651537 0.06373712 -0.13478915 -0.101183146 0.28819063 -0.14535244 0.175704 0.13533573
-0.19337176 -0.27066645 0.3044472 0.018909901 0.22036758 0.054592226 0.10240205 0.18438971
0.2931527 -0.2112998 0.048773315 0.22844222 0.2326184 0.2038563 -0.20699635 -0.21933694
-0.18256423 -0.05175163 0.3068675 -0.20640981 0.16959618 -0.15891032 -0.3011691 -0.06622782
0.18050191 0.2908485 -0.19006169 0.06869348 0.2780684 0.21521237 0.18502957 0.22610098
0.1975445 0.10077263 -0.20918208 -0.27045536 -0.15215287 -0.03753633 -0.19664015 0.11370371
0.094142176 -0.054636974 0.11473881 0.10017399 0.18673536 0.20350926 -0.10335667 0.20099247
-0.041895982 -0.005723631 -0.28962356 -0.19154413 -0.19120619 -0.13567644 0.22338298 -0.109861396
-0.24536452 0.14778882 0.104025 0.21126847 -0.17362884 0.0666535 -0.11502813 -0.06040763
-0.2536987 -0.14199334 -0.09627278 0.06049633 0.060398094 0.08321963 0.3075609 0.29399836
0.23214254 0.01189258 -0.20965812 0.2405546 -0.073927686 -0.125535 -0.27012715 -0.056052893
-0.19557141 0.27414837 -0.29040912 -0.24216813 -0.0077416813 -0.17476037 0.11091753 -0.19011624
-0.14637667 0.019201873 0.22566782 -0.22337157 0.15277259 0.20953868 0.30845073 -0.22494218
0.08995751 -0.15144828 0.28042924 -0.10785365 0.19417986 -0.009130454 -0.023596287 -0.0012600053
0.048141614 0.15252277 0.04362029 0.018819718 -0.2680951 0.23905733 0.26331875 0.23743588
0.24885608 -0.23492786 -0.10630847 0.27274954 -0.23508826 0.19769317 -0.25313854 -0.22381794
0.14730537 -0.21118577 -0.08084285 0.24157672 0.2513236 0.2896077 -0.061282948 -0.360659
0.30118194 -0.06655822 -0.12520464 0.085259914 -0.23161075 0.21746363 0.1974541 -0.25684878
-0.26084855 -0.07295205 0.12551591 0.007218533 -0.15090439 0.0104390755 -0.31063873 -0.22074844
-0.20626064 0.23950335 0.27784935 -0.1251845 0.0076580034 0.1523689 0.04445395 -0.15997574

bias f4 [128]
00000000: cc85 733c d51f b6ba 4533 6c3d dcdd ca3a
00000010: 1af3 3e3e 06c2 213d f18b 6b3e 3cc6 a53d
00000020: 0976 beb9 7da4 683d 2def 683e 0f3f 673d
00000030: c5d8 703e e113 a6bc 6b24 283b e799 8e3e
00000040: 3ffd 94be d52e 2d3d 9539 9d3e c274 1bbe
00000050: c7ee 53bd f3a3 2abc 071a f03d 0d54 073e
00000060: f61f b43d cb6f 073e 679d 08be 1faf 163e
00000070: c978 d4bd 3cd2 593e 5f6a a8bd e226 88be
00000080: e868 0f3d b41d 453e 78fe 4dbb 541d 633b
00000090: 38c1 db3b 939e 3a3e 3772 f23c b5c6 8fbe
000000a0: 99c5 5abe 1a8a f73c 2131 febb 8986 a33e
000000b0: 4acb 73bd 02fc 803e b612 84be d8c4 9cbe
000000c0: d396 97bc 9668 4fbe 250f a9bd 1047 033d
000000d0: 303b 8cbe 9a40 743e 72f2 3abe dedd 853e
000000e0: 80eb e63d cef8 50bd 02d7 88be 0a41 793d
000000f0: 728c 2abe f3c2 933e 4160 89be 4ed2 a7bd
00000100: 3346 28be 1de4 4abe c381 28be 3373 acbc
00000110: f354 b33c e727 923d 5248 313e 16a1 fbbd
00000120: 0fcd 52be f6d0 71bd c5fa a03e 11d2 0abd
00000130: 1445 88be 40af 883e 2b11 a33d 9d52 903d
00000140: f467 7b3d 792c 643e 5257 17be d437 783e
00000150: 3647 a43e 366c 99bd 772c 5d3e 2f4d 413e
00000160: c952 9e3e f460 88bd 73b8 2cbe 4016 efbd
00000170: 4ef9 54be 315f bb3c 8c05 a53e 8fea a33e
00000180: 35f5 773e 5d11 0d3d fd3a 8e3c 6b36 6a3e
00000190: 9e2b 563e 13d1 07bd 4f76 a0bd e3ac 093e
000001a0: ce52 bd3b 3490 55be 7b61 19be 760b 893e
000001b0: 764b 8d3e 5829 e8bd 1875 63bd 6ebe 1cbe
000001c0: a6e8 bfbd ace4 933e 8ddd 8ebe f6d5 1b3e
000001d0: a190 90be 2cdc 1abe 123b 3cbd 253b c83c
000001e0: db69 39bd 1cb7 0fbe f3d6 08be 59fd 4abe
000001f0: 8f1c 63be bebd 4cbe d69c a53e 2075 0dbe
0.014863443 -0.0013894985 0.057666082 0.0015477496 0.18647423 0.039491676 0.23002602 0.08094451
-0.00036327567 0.056797493 0.22747488 0.05645662 0.23520191 -0.02027315 0.0025656472 0.27851793
-0.2909946 0.04228099 0.30707994 -0.15181258 -0.051741388 -0.010415065 0.11723714 0.13215657
0.087951586 0.1322624 -0.13341294 0.14715241 -0.103746004 0.21271604 -0.08223414 -0.26592165
0.035012156 0.19249612 -0.0031432193 0.0034654932 0.006706383 0.18224554 0.029595478 -0.2808129
-0.2136444 0.03021722 -0.0077573215 0.3193858 -0.059520043 0.25192267 -0.25795525 -0.3061893
-0.018504536 -0.2025474 -0.08254842 0.032050192 -0.27388906 0.23852769 -0.18256548 0.26145834
0.11275387 -0.05101853 -0.26726538 0.06085304 -0.16655138 0.28859672 -0.26831248 -0.08194409
-0.16433029 -0.19813581 -0.1645575 -0.021051025 0.021891093 0.07136517 0.17312744 -0.12286584
-0.20586036 -0.05903717 0.31441322 -0.03389174 -0.26615202 0.26696205 0.07962259 0.07047007
0.061378434 0.2228259 -0.14779404 0.24240047 0.3208558 -0.07491343 0.21598993 0.188771
0.30922535 -0.06659117 -0.16867237 -0.11674166 -0.20798227 0.02287254 0.32230794 0.32014892
0.24214633 0.034440387 0.017362112 0.22872321 0.20915076 -0.033158373 -0.078350656 0.13444857
0.0057776934 -0.2085579 -0.14978592 0.26766557 0.27596635 -0.11336011 -0.05553159 -0.15307018
-0.09370546 0.288854 -0.27903405 0.15218338 -0.28235343 -0.15123051 -0.04595477 0.024442265
-0.045266967 -0.14034694 -0.13363247 -0.19823207 -0.22178863 -0.19994256 0.3234622 -0.13814211

weight f4 [128, 128]
00000000: 228e 9fbd c1a4 8d3d ea68 1e3d ac88 903d
00000010: b0ae b3bd 5887 9ebd f699 7abd 0fb7 4cbd
00000020: cc28 cbbb 6ca1 213d 8e23 693d 001c 8abd
00000030: 549b 203d 2bc6 31bd 743f 933c b7f6 263d
00000040: b28c 9e3c 7f6f 1d3d 0e59 683b 4d4e 513d
00000050: 8323 9c3c 6b6a b03d eb3f bd3c c770 25bd
00000060: 1a54 653d 01b6 28b9 52c4 bd3d 153a 80bc
00000070: 1181 a33d 58fe 5ebd 0870 303d da6e 8bbd
00000080: 6cdd 703d 106d bc3c 14da 7d3d 4422 90bd
00000090: 32cc acbd a253 3c3d 30fd e7bc e07c 1b3d
000000a0: f0da 50bd d645 bfbc 90b8 b73c 8dbb 713d
000000b0: 2007 163d 6dd3 cd3a 9412 efbc d4d0 08bc
000000c0: 1729 133d 39ff 8dbd 276d b1bc e8ee a8bd
000000d0: 9fbb 1bba 236c c5bb 7927 543d 3725 ab3d
000000e0: ec0f 8bbd 6d37 07bd 1281 12bd 4a02 8c3b
000000f0: f290 08bd 9781 49bd d226 3cbd 425a 07bc
00000100: 8344 593d b7a6 9dbc a6a8 823d f06b 8cbd
00000110: f504 913b 76b2 74bd a638 abbd cea1 593c
00000120: 4fb2 24bd 5965 8a3d 88a0 9d3d 200d a1bd
00000130: bde0 09bc f2db c5bb 9532 29bd 1509 37bd
00000140: a51d 52bd 6b1e 473d ac29 e43b 0a3e 863d
00000150: 90fe 03bc 6d6e 363d 075b a73c 74ce b0bc
00000160: f1dd f1bb f7d3 b6bd 28da 1abc e8f0 87bc
00000170: ae47 46bd adf2 d5bc bcbb c5bc 05fc 81bd
00000180: 84a9 863c a496 11bb eef8 13bd 81ea b33d
00000190: 962a 933d 8eb4 1d3d e266 21bd c9e2 9b3b
000001a0: fe09 69bd a4ef 8b3d a570 a33d 9457 48bc
000001b0: fa98 843d d91f a63d 4aec 6ebb aa5e f4bc
000001c0: 437f 0cbc 670c 813c 83ac b0bd 2b04 ed3b
000001d0: c8d5 1fbd 002d 833d 7622 2ebc 4021 823d
000001e0: c589 823d 04c2 cfbc 03c5 a03c 8bb6 3cbc
000001f0: b572 08bd 602d 33bd e9b1 013c e694 1e3d
00000200: b39e 24bc b1b7 713c badf 7d3d 1b19 3a3d
00000210: 380c 273d 0029 dc3c 9804 76bd 591a 53bd
00000220: a021 79bd 44a9 793d 2ed7 98bd 9b9a 7dbd
00000230: 9fcb 813d 10d1 623d 91b6 a5bd 9668 793d
00000240: 70f3 c1bc 9463 b23c 931c 25bd 83f5 72bc
00000250: e6f6 833c 6b46 8f3d d651 743d 5c6e 29bd
00000260: 439e 5abd a417 81ba e716 ec3c b358 663d
00000270: 447b adbd 09b2 9b3a 667a 2e3c fafe 31bd
00000280: cee0 a13d 695e 7dbc 53d9 99bd 6b68 44bd
00000290: 4f0b 163c 4241 68bd 5c0e 983c ccff ae3d
000002a0: b71e 5b3c 7cb5 1ebc 151b be3d bc44 973d
000002b0: bc04 7d3d 0869 843c 70bf f73b 5c4d 7dbd
000002c0: 40ff 733c 63ea c23d 45e1 693c be23 95bd
000002d0: f709 043d 751b ad3d 9ff1 a63d 0f62 8a3c
000002e0: ae25 ec3c a18c b13c e990 0fbd 4274 66bc
000002f0: 26f4 8d3d 0bdd 943c 5a64 9f3d 7f35 8abd
00000300: 8a50 f8bb d3e8 d73b 7d87 26bd 1624 973d
00000310: a5a9 803d 20f7 28bd 94b4 ab3d 6d2b a33d
00000320: 350a 47bd 1420 0a3b ed08 c23d 9f22 61bd
00000330: 918f 64bc 9bf3 55bd c176 8f3d e403 9e3c
00000340: 121a 293d 4119 933d be2b 94bc 8c85 91bd
00000350: de95 573c 4a91 33bb e86b 283d 041d 3d3d
00000360: 7524 17bd d95c fdbc b34d 5c3d 6e65 eb3c
00000370: 5dfe ac3c 3f67 463d a084 473d 63e0 6cbd
00000380: 732e 9e3c 2fd4 ce3b d10b a3bd be92 0b3d
00000390: f7b7 443c f4b2 8d3d bae8 a8bd 1425 b73d
000003a0: 1ed3 24bd 7692 713d 9759 653d fe65 68bb
000003b0: 2ab6 1fbd e64a 27bc 78e9 60bd 1eb7 6f3c
000003c0: f042 143d 901a ca3c 73b1 69bd ef3f 7c3d
000003d0: 44e4 943d 1a80 babc 7af2 2e3d 4c62 1cbc
000003e0: 0b57 123d 5bd8 83bd c33d 93bd a3a1 f1bb
000003f0: 3644 8ebd 572f 133d fba9 bc3d 67d8 69bc
-0.077907816 0.0691619 0.038674273 0.07057318 -0.08773553 -0.077406585 -0.061181985 -0.049979266
-0.0061999317 0.039460585 0.056918673 -0.06743622 0.039210632 -0.04340188 0.017974593 0.04076263
0.019354198 0.03843641 0.0035453471 0.051100064 0.019059902 0.086140476 0.023101768 -0.040390756
0.05598841 -0.0001608953 0.09265961 -0.015652696 0.07983602 -0.05444178 0.04307559 -0.06808253
0.058804914 0.023001224 0.061975554 -0.07037786 -0.08437385 0.045978196 -0.028318971 0.037960887
-0.050990045 -0.02334873 0.022426873 0.059016753 0.03662789 0.0015703269 -0.029183663 -0.00835057
0.03592786 -0.069334455 -0.021658493 -0.08248693 -0.00059407385 -0.006024854 0.051795457 0.083567075
-0.06790146 -0.033011843 -0.035767622 0.004272734 -0.033341356 -0.049195852 -0.04593546 -0.008261265
0.053043853 -0.019244535 0.063798234 -0.06856525 0.0044256398 -0.059740506 -0.08360414 0.013283206
-0.04020911 0.06757612 0.076966345 -0.078638315 -0.008415398 -0.0060381824 -0.041308004 -0.044686396
-0.051297802 0.048612993 0.0069629755 0.06554802 -0.008056298 0.044538904 0.020429147 -0.02158282
-0.007381194 -0.08927148 -0.009451427 -0.016594365 -0.048408203 -0.026116693 -0.02413737 -0.06346897
0.016438253 -0.0022215033 -0.03612607 0.087849624 0.07185857 0.03850227 -0.039404757 0.0047572595
-0.056894295 0.06832817 0.079804696 -0.0122279115 0.064744905 0.08111543 -0.0036456757 -0.029830296
-0.008575263 0.015752984 -0.08626654 0.007233163 -0.039022237 0.064050674 -0.010628333 0.06353998
0.06373934 -0.025361069 0.019625193 -0.011518131 -0.03331252 -0.043744445 0.007915952 0.03871622
-0.0100476025 0.014753268 0.06198094 0.0454341 0.040783137 0.02687502 -0.060062975 -0.0515388
-0.060823083 0.06095244 -0.07462917 -0.06191502 0.06337666 0.05537516 -0.080914624 0.060890757
-0.02367565 0.021775998 -0.040310454 -0.014829042 0.016108941 0.06995853 0.059648357 -0.041365013
-0.053373586 -0.0009848964 0.028819514 0.056236934 -0.08470777 0.001187862 0.010649299 -0.043456055
0.07904206 -0.015464404 -0.075121544 -0.047951143 0.00915797 -0.05670286 0.018561535 0.08544883
0.013374022 -0.009686824 0.09282509 0.07386157 0.061772093 0.016163364 0.007560663 -0.061841354
0.014892399 0.09517362 0.0142749 -0.07282208 0.032236066 0.08452503 0.08151554 0.016892461
0.02882656 0.021673502 -0.035050306 -0.014065804 0.06931333 0.018171808 0.077828124 -0.06748485
-0.0075779604 0.006589034 -0.040656555 0.0737993 0.06282357 -0.0412513 0.08384052 0.07967267
-0.04859372 0.002107625 0.09474359 -0.054964658 -0.0139502445 -0.052234273 0.070050724 0.019288965
0.04128463 0.07182551 -0.018087264 -0.0710555 0.01315829 -0.0027399831 0.041118532 0.04617025
-0.036900003 -0.030928062 0.053785037 0.028734889 0.021117384 0.048438307 0.048710465 -0.05783118
0.019309258 0.0063119153 -0.07961238 0.03407549 0.012006751 0.06918898 -0.08247514 0.08942619
-0.0402404 0.058977567 0.055993643 -0.0035461183 -0.038992085 -0.010210728 -0.054910153 0.014631061
0.03619665 0.02467087 -0.057053994 0.06158441 0.07270101 -0.022766162 0.042711712 -0.00954492
0.035727542 -0.06437751 -0.071895145 -0.007374005 -0.06946604 0.03593382 0.09212109 -0.014272786

bias f4 [128]
00000000: 9d8a 853d 81fe 693d a4f9 b4bc c5ee 463d
00000010: b803 f4bc 92ca 68bc 04b4 a5bd 7e55 423d
00000020: c3d6 8d3d 70c2 c73b f6d4 b0bd 6418 5dbb
00000030: 99c0 70bd 1722 33bd 0270 9abc cb5d 3d3d
00000040: f4f9 6e3d 5610 a5bd 1fd2 49bd 194b 32bd
00000050: 8405 f43c d53b 5f3a 2df8 5fbc 49b4 4e3c
00000060: 75fb 8f3b c41a 95bd 47e6 f33c 8a5a bd3c
00000070: b86e 843c 4c6b 3b3d 5035 aa3c 04c0 5abd
00000080: 0220 c73d c35a 433d 421a b83d f393 a23c
00000090: ea50 883d 0aa6 e3bb 5612 8d3b 62fd 483d
000000a0: d9e7 20bd fd13 a1bd 601e b23c 451c 803d
000000b0: 9485 bc3d ce1f 13bc 3380 e1bc fff1 6bbd
000000c0: 2569 b93d 149f c9b9 e3a9 03bd b465 6dbd
000000d0: f5c8 a2bc 0ce1 a63d 71a2 293d 0f42 97bd
000000e0: 8d9d 373d 02e6 ddbc fe63 b13d bbd0 e7bc
000000f0: 880a 3fba 8e1a f43c ef3e 48bc 6d9f 47bd
00000100: fc5f d0ba d133 c23d 90f5 8fbd 66fa 813d
00000110: f48b 623d 3c11 b13d 9ed9 c53c ee46 99bb
00000120: f38b 5dbd 609b cb3d df4f be3b 96f4 293b
00000130: f50e d03c 9f15 46bc bf0c 9f3b 91c0 df3c
00000140: b0c6 823d bd59 793d 0417 bfbd 8b53 72bc
00000150: acad 7fb9 f0c2 2c3d 9eb1 5abd 450c 30bc
00000160: 62f2 24bd 6a24 60bd 74ac 7f3c b37f 8a3d
00000170: 3cfd e53c bb5b 0ebd 0044 88bb cded f2bc
00000180: 64c3 c13d 5d31 f73c 3d0e 58bd 9269 98bd
00000190: 6c30 21bd 3d55 7ebd c962 d13c 1b9b 12bd
000001a0: c9b1 a7bd 18f6 b7bc 6723 23bd 0ea7 07bd
000001b0: 5444 973d a195 98ba e22a 71bd 861b 43bd
000001c0: 0093 b63d 7628 dcbb c4bf edbc 9239 1bbc
000001d0: fca1 1a3d 781a 9f3d 750f 57bc d517 d9bb
000001e0: 122b f2bc 44df 7bbd 9e69 4f3d d4f0 853c
000001f0: 2196 1d3c 18ee 853c 3f3d b63c 689d a13d
0.06520579 0.05712748 -0.022091694 0.048567552 -0.02978693 -0.014208453 -0.08090976 0.047444813
0.06925728 0.006096177 -0.08634369 -0.0033736462 -0.058777425 -0.043733682 -0.018852238 0.046232026
0.058343843 -0.080597565 -0.049272653 -0.04352865 0.029787786 0.00085156906 -0.01367001 0.0126162255
0.0043939897 -0.07280496 0.02977289 0.023114461 0.016166076 0.045756623 0.020777375 -0.053405777
0.09722902 0.04769398 0.08989383 0.019845938 0.06656058 -0.0069472836 0.0043051643 0.04906977
-0.039283607 -0.078651406 0.021743 0.06255392 0.092051655 -0.008979751 -0.02752695 -0.057603832
0.09053258 -0.0003845623 -0.03214444 -0.05795832 -0.019871214 0.08148393 0.04141468 -0.073856466
0.044827987 -0.027087215 0.0866165 -0.028297773 -0.0007287641 0.029797819 -0.012222036 -0.048736025
-0.0015897746 0.094825394 -0.07029259 0.06346588 0.05530925 0.08645865 0.02415162 -0.004677645
-0.054088544 0.09941745 0.005807861 0.0025933138 0.025397757 -0.012090116 0.0048538144 0.027313503
0.06385553 0.060876597 -0.09330562 -0.014790426 -0.00024383393 0.042178094 -0.053392045 -0.010745113
-0.040270217 -0.054722227 0.015605081 0.06762638 0.028074853 -0.03475545 -0.004158497 -0.029654408
0.09461096 0.030174905 -0.052747954 -0.07442011 -0.03935282 -0.06209301 0.0255598 -0.03579245
-0.08188207 -0.022456214 -0.039828684 -0.0331183 0.073860794 -0.0011641273 -0.058878787 -0.04763367
0.08914757 -0.0067186905 -0.029022105 -0.009474175 0.037752137 0.077687204 -0.013126244 -0.0066251555
-0.029561553 -0.06149222 0.050637834 0.016350187 0.009618313 0.016348884 0.022246001 0.07891351

weight f4 [128, 128]
00000000: ea47 0fbb 1a36 223d 38d3 613b 00de 0e3d
00000010: 010b 1fbd fe16 553d f469 71bd c6f2 533c
00000020: 4fc7 653d eb31 a7bc 073e 14bd 539d 493d
00000030: 9192 2fbc 658f 00bd beee 56bb 6cce 093d
00000040: 3767 703d ad42 13bd 0545 6b3b 3c78 c03d
00000050: 7405 8b3d 4d1b 64bd 2313 71bd 6cc4 83bb
00000060: 606a 4cbd b7a9 dfbc acb5 03bc ac11 1fbd
00000070: f6a3 5abd 2b1a 14bd 4bf4 f23c 11f3 8bbd
00000080: f48b 9e3d a11b a73d 5036 d03c 529b 35bd
00000090: 63cd ad3c bcce 99bd 7a77 283d dbf4 673d
000000a0: aad1 5e3d 4606 853d 3dcd 5b3d 05c6 bcbd
000000b0: d68c 50bd a6ef 30bc 9f29 873c 9c09 583d
000000c0: d56b bebd faf0 60bd 0b34 143d b202 493d
000000d0: 544f 0f3c 9b30 2a3d e880 a93d 1e7b ab3d
000000e0: 736b 9e3c 2f6b 9bbd e540 0dbd bfbc 5ebd
000000f0: 8457 6abd 083a 833d abb9 843b 08d7 6fbd
00000100: ad9c 353d 7581 fcbc 8d3a 57bd f7ab 6cbb
00000110: c732 51bd 8b73 4dbd 9d45 56bd 730e 84bd
00000120: 49a5 00bd 12ed 503d c41e 22bd ee33 b83d
00000130: d27b 1a3c 550a bfbc 3676 2ebc 5666 c2bb
00000140: 78c7 b03c 7c40 6d3d 0c75 c13c 3123 c9bd
00000150: 3878 0e3c 284c d63c 1f87 89bd 3540 85bd
00000160: 7088 fb3c ac1d b9bd 77f5 93bd 865f 8a3d
00000170: 296a 24bc 0f5c 34bc 2f2b 383d 58c7 f83c
00000180: 7471 a3bc f947 873b e4e6 713d b53a a03d
00000190: 3145 20bd ca79 97bc 2003 643d c839 5c3d
000001a0: 9191 ad3b 9f82 cc3c 0dcd 813d 193a 63bd
000001b0: faf8 4a3b 3d05 2d3c f340 b8bc b48c 41bd
000001c0: 2bcd 5dbc 09f3 abbd 0bc1 8bbd 2658 26bd
000001d0: f4db d9bc 79f0 75bd 1d31 a23c 1b76 b7bd
000001e0: 1f29 8fbc e86d acbd bc95 a83c b8f5 efbc
000001f0: 673a d23a fc3c b8bc 7c11 a0bd 1a99 643d
00000200: 9eaf a3bd 2a50 c93c d140 b53d d677 9d3d
00000210: 07cc b53d 6861 86bd 9351 583d 6174 e6bc
00000220: bd29 18bd 14b8 83bd c0e8 bd3d 1387 3c3d
00000230: 954c a13c 060d 9b3d 6612 50bd 92a2 00bd
00000240: 6e72 e1bc b2dc 19bd cbf5 093d dc11 073d
00000250: 03ae e9bb 3896 e43c 2980 9abd 76e3 0a3d
00000260: cf7a 5bbd b1b4 a43d 3a3c 54bd 72e7 9b3d
00000270: 1a57 24bd a931 b03c d138 073c 8a16 6ebc
00000280: 865a 733d 5080 3a3d 328c 9dba 72c4 00bb
00000290: eb64 61bd ca1e e83c 4f82 e9bc 0472 593d
000002a0: fc2e bdbd ba55 7c3d 525b 75bd 0dc4 b8bd
000002b0: 6f9c 363c 07bb a03d 83de d8bc a4c1 8d3d
000002c0: 5b95 403d c9eb d7bc 961e 5fbd da29 4cbd
000002d0: d511 793d e23e c23c da1c 573b 4044 fcbc
000002e0: 88e8 a23d 6856 823d 3cd1 b0bd 888d 86bd
000002f0: c06c 94bd 8796 b93c 48da 2fbd a2c3 b5bc
00000300: d2aa 89bd 2ca6 92bd 230c 38bb 4e68 acbd
00000310: 94be f8bc 67b2 f33b da89 d73c 1a6d b8bd
00000320: 295c 0c3c f334 973d 4cec 58bd 79a1 14bd
00000330: 517e d23c a3c1 e3bb 1c69 34bd edd3 3d3d
00000340: 3ec5 afbd b1df b5bd 1d54 593d 6c38 073d
00000350: b2ec 223c 2222 a23d c54b a1bd 263e 823d
00000360: 58cb 183b e21d 763d e630 1e3d dff5 d73c
00000370: 1066 b0bd 6722 ce3b 83ce 2dbd af96 57bc
00000380: f15c 933d ed61 72bc 3ef5 2cbd 1ff3 03bd
00000390: afd5 aebc 776d 253d 1bc8 343c 18a9 003c
000003a0: 942e 70bd 9d83 ac3d 2d2e ccbc 6bbb fa3c
000003b0: bcc9 95bd cef9 2b3d 8940 043d 3e94 7f3d
000003c0: 3092 313d efae c0bd 0c0e 03bd 66aa 5f3d
000003d0: 48f4 183d fa46 abbc c5b1 3b3d d6ab 953d
000003e0: c64f 643c c7f0 093c c6b4 a43d 924b 8a3d
000003f0: e836 07bd 4ee3 81bb 2653 66bc becf 103d
-0.0021862932 0.039602377 0.0034458172 0.034879684 -0.038828854 0.05202388 -0.058938935 0.0129363
0.05609828 -0.020409545 -0.036191966 0.0492223 -0.0107160965 -0.03138675 -0.003279611 0.033644125
0.058692183 -0.03595226 0.0035899293 0.09397933 0.067881495 -0.0556901 -0.05885614 -0.004021218
-0.049906135 -0.027302606 -0.008038919 -0.038835213 -0.05337902 -0.03615777 0.029657504 -0.068334706
0.07741538 0.08159567 0.025416523 -0.044337578 0.0212161 -0.075101346 0.041129567 0.056629997
0.05439917 0.06495337 0.053662527 -0.09217457 -0.05091556 -0.010799324 0.016499339 0.05274354
-0.09297911 -0.054917313 0.036182445 0.049074836 0.008746941 0.04155026 0.0827654 0.08373092
0.019338345 -0.07588803 -0.034485716 -0.05437922 -0.057212368 0.06407553 0.0040504537 -0.05855468
0.04433887 -0.030823449 -0.052546073 -0.0036113241 -0.051073816 -0.05015902 -0.052312482 -0.064480685
-0.03140763 0.051007338 -0.03958012 0.0899428 0.009428935 -0.023320356 -0.010648301 -0.0059326096
0.02157949 0.057922825 0.023615383 -0.09821165 0.008695655 0.026159361 -0.067152254 -0.06506387
0.030704707 -0.090388626 -0.07224553 0.06756501 -0.010035076 -0.011008277 0.044963058 0.030368492
-0.01995156 0.004128453 0.059058085 0.078236975 -0.039128486 -0.01849069 0.055667043 0.053766042
0.005296894 0.024964629 0.063379385 -0.055475328 0.0030971156 0.010560331 -0.022491908 -0.047253326
-0.013537685 -0.08395965 -0.068239294 -0.04061141 -0.02659414 -0.060043786 0.01979881 -0.08958074
-0.017475663 -0.084194005 0.020579211 -0.029291973 0.0016039134 -0.022490017 -0.07815835 0.05581007
-0.07992481 0.024574358 0.088502534 0.076888725 0.08876806 -0.065615475 0.05281217 -0.028131666
-0.03714918 -0.064315945 0.09272909 0.046027254 0.019689837 0.075708434 -0.050798796 -0.03140504
-0.027520385 -0.037563987 0.033681672 0.032976016 -0.0071313395 0.027903661 -0.07543976 0.03390833
-0.053583916 0.08042277 -0.05181525 0.07612504 -0.04012213 0.021508055 0.008253292 -0.014531741
0.0594125 0.045532525 -0.0012019931 -0.001964834 -0.055027883 0.028334994 -0.028504519 0.05308725
-0.09237477 0.061605193 -0.059901543 -0.09021769 0.011145695 0.07848173 -0.02647329 0.069217
0.047017436 -0.026357548 -0.05447253 -0.0498446 0.06080802 0.023711625 0.0032823593 -0.030794263
0.07954508 0.06364137 -0.08633658 -0.06569964 -0.07247305 0.022654785 -0.04293278 -0.022188012
-0.067220345 -0.07160601 -0.0028083406 -0.08418332 -0.030364312 0.0074370387 0.02631085 -0.090051845
0.008566895 0.07383146 -0.052959725 -0.036286805 0.025694998 -0.0069505735 -0.044045553 0.046344686
-0.08582543 -0.088805564 0.053058732 0.033012792 0.009944128 0.079166666 -0.0787578 0.0635951
0.0023314562 0.060087092 0.038620852 0.026362358 -0.08613217 0.006290722 -0.042433273 -0.013158484
0.071954615 -0.014793855 -0.04222607 -0.03221428 -0.021342127 0.040387597 0.011034037 0.007852815
-0.05863817 0.08423541 -0.024924362 0.030606946 -0.073138684 0.04198628 0.032288108 0.062397234
0.043352306 -0.09408366 -0.031995818 0.054605864 0.03734234 -0.020907868 0.04582383 0.07308166
0.013935035 0.008419222 0.08042292 0.06752695 -0.033011347 -0.0039638644 -0.01405791 0.03535437

bias f4 [128]
00000000: fc1f 4dbd 0b7a 26bd 3b4a d7bc 35b2 93bd
00000010: 8aca ad3d 4621 8b3d 8980 0f3c 4cf6 db3b
00000020: ca1c 8b3d c071 9a3d 2b14 d6bc 67cd 32bd
00000030: d7e6 453d 50dd 6ebd afc9 413d 095e 98bd
00000040: 3523 27bd d44f 95bb 4dad 51bd 9f38 ee3c
00000050: 0157 a33a 9355 203c 38d8 903d 6500 1e3d
00000060: a9f6 78bd 6455 5cbd 1aa5 c73c 0d9c 2abd
00000070: c6c4 933d 4652 bf3d ed55 89bc 61a2 a2bd
00000080: 04e1 c0bd 5601 88bd 336f 9dbd bfcc 7a3d
00000090: c679 60bd 2f80 92bd 516e b93d 922b 89bd
000000a0: b7be 8d3d 7be0 e5bc 34b1 74bc 79c9 1e3d
000000b0: e373 583d fe83 c1bc bbf2 b53d 242e 013d
000000c0: cad3 963d 5f8f 9d3d 12f0 60bd fa41 753c
000000d0: afce 94bd 8f2e 8abd 3420 803c fc06 e2bc
000000e0: 700d 68bd 8aaf 803c e6fb 17bd edc9 a0bd
000000f0: b729 183d 8dbd ccbb 6a10 1d3d 42c2 2dbd
00000100: 0296 adbc d007 443d 79a7 87bd b5b5 ad3b
00000110: 29e8 c53d ece1 6b3c c77f 133d 70b2 98bd
00000120: 8002 113d cb16 aabd c62b a63d e261 993c
00000130: 14ab 76bd d51b 823c d13b c93d 5ec2 59bd
00000140: f3f5 45b9 a861 b73d 4b0a 1a3b 1db4 543d
00000150: 6a4e 773d 1653 afbc d468 bf3d 548f cdbc
00000160: 4694 ca3d 2e62 8bbc 882c cc3c 1b31 b7bd
00000170: 678c 133d 6548 a0ba 328c acbd 5684 1cbd
00000180: 9b89 933d 1b04 b0bd c799 e03c 27d5 9a3a
00000190: a83c 173c 0b24 1cbb dce8 aa3b 032d dbbc
000001a0: 935a c3bd 0be8 a6bc 4321 7a3d 26ca babd
000001b0: 5bab 3abd 1abb 86bd 8a1d 77bd 47b8 dabc
000001c0: 11d5 7b3d e67b 653d 5761 113d a08a 493d
000001d0: a790 cebd 7609 b7bd be7a bb3d 1673 9a3d
000001e0: 05ce 423d 5bd9 adbd 3795 97bd 75fe ae3d
000001f0: 739c 87bd a428 99bc bc0e b03c 5829 c93d
-0.05007933 -0.040643733 -0.026280513 -0.07211725 0.08485897 0.06793456 0.0087586725 0.0067127105
0.067926005 0.07541227 -0.026132664 -0.04365292 0.04831585 -0.05831653 0.04731148 -0.07439811
-0.04080506 -0.0045566354 -0.051190663 0.029079733 0.0012461842 0.0097860275 0.070724905 0.038574595
-0.06078211 -0.053792372 0.024370719 -0.041652728 0.07215266 0.09341864 -0.016764605 -0.079411276
-0.09417918 -0.0664088 -0.07687225 0.061230417 -0.054803632 -0.07153355 0.09054244 -0.066977635
0.069211416 -0.028061142 -0.014934827 0.038766358 0.052844893 -0.02362251 0.08884188 0.031538144
0.07364614 0.076933615 -0.05491645 0.014969343 -0.07265984 -0.067471616 0.015640356 -0.027591221
-0.05665344 0.015708704 -0.037105463 -0.07851014 0.037149157 -0.006248182 0.03834573 -0.042421587
-0.021189693 0.047859013 -0.0662374 0.005301202 0.09663422 0.014397126 0.03601053 -0.07455909
0.035402775 -0.08305129 0.08113818 0.018723432 -0.060221747 0.015882412 0.09825862 -0.05316388
-0.00018879007 0.08954173 0.002350467 0.051929582 0.060377516 -0.021401923 0.09346166 -0.025092758
0.09891562 -0.01701459 0.024923578 -0.08944913 0.03602257 -0.0012228607 -0.08425178 -0.038212143
0.072039805 -0.08594533 0.027417077 0.0011812792 0.00923077 -0.0023825194 0.0052157473 -0.026754862
-0.0953876 -0.020374319 0.061066877 -0.09120588 -0.045573574 -0.065786555 -0.060330905 -0.026699198
0.061482493 0.056026362 0.03549322 0.04920447 -0.10086184 -0.089373514 0.091542706 0.07541482
0.047559757 -0.08488723 -0.07401507 0.085446276 -0.06621637 -0.018696137 0.0214914 0.09822339

weight f4 [1, 128]
00000000: 52c2 8d3c 7655 883c 600a 913c c555 333a
00000010: 9c6a ccbb 9515 aebb d08c 36bc aa25 813b
00000020: 5abc 91bc ffce 28bb 8e25 603c fe64 78bc
00000030: 75ea 243b d67d 6e3c 0e13 f6b9 f244 343c
00000040: 6a7d 9c3c 6fc9 433c 3537 5cbc 7c37 72bb
00000050: 0a6f 8a3b 3b7b 8a3a ed11 43bc 610f 403c
00000060: f5d6 86bc dada 003c 533f 8abc fe89 433c
00000070: 92b3 9d3b 6bf7 d4bc 15c9 7e3c 0a6b d33b
00000080: 81d3 3e3c 7422 b33c 827c a13c bd43 f3bb
00000090: 677c 843c 1786 5f3c ae42 6cba f923 25bc
000000a0: b758 14bb 503d 6f3c f660 acb9 0855 f4ba
000000b0: 9204 e4bc 7955 e8bb 53ea 4bbc 6f8d 6dbc
000000c0: 3408 97bc 93b7 0cbc 4d07 133c 7961 80bc
000000d0: f0d9 24bc c6ac 4bbb a57c b53b 6553 8d3c
000000e0: 2811 70bb 7eb3 033b 3473 e8bc a7bf d13c
000000f0: 9965 b4bc dd05 723c df5c 04bc 53bf 7d3b
00000100: 67be 2d3d c3fa e8bb 5216 1e3c ff98 e4bb
00000110: 581d e5bb e662 a93c bde0 86bc 2796 953b
00000120: ac09 6e3c 77ba 693c c8a1 08bc 5c87 973b
00000130: 435f 24bc 6560 97bb 2f0b abbc a973 a0bc
00000140: 2aa5 103c f254 6bbc bfd6 abbc c386 d03a
00000150: fcb6 aebb e4c3 4a3c a175 00bd 823c 4c3c
00000160: 43eb 43bc 7e8b 8f3b d6fc 003c 6cde b83c
00000170: 86f1 53bc 9fe8 243c d086 0aba c879 963c
00000180: ba7b cebc 15c6 793c c350 c2bc e75b 553c
00000190: 65ad 94bb c9c3 25bb 78a8 7d3c 4777 ac3c
000001a0: fda7 9d3b 075f 99bc db49 88bc e519 6f3c
000001b0: dabf 85bc 2f55 b9bb 9ebf ba3c b27a db3c
000001c0: 6d2e e83b 836e cfbc cf60 e6bb adcc aebb
000001d0: 9c08 c93c 0f7c 923a 643a 8dbc 1570 8ebc
000001e0: 1c8a 993c cb7c 813c 99d1 0d3c f72c d5bb
000001f0: a3e0 853c 2831 943c 8dd8 043c bfa5 8dbb
0.017304573 0.016642313 0.017705142 0.0006841089 -0.0062382948 -0.0053126314 -0.011141971 0.0039412575
-0.017790008 -0.0025758145 0.013680829 -0.015160797 0.0025164161 0.014556369 -0.00046934973 0.011002766
0.01910277 0.011949881 -0.013440897 -0.003695934 0.0042246627 0.001056529 -0.011906129 0.011722417
-0.016459921 0.007864678 -0.016875898 0.011934755 0.004812666 -0.025996884 0.015550871 0.006451969
0.011647106 0.021867014 0.01971269 -0.0074238465 0.0161726 0.013642809 -0.00090126216 -0.010079377
-0.0022635886 0.01460202 -0.00032878638 -0.0018641064 -0.02783421 -0.0070902673 -0.012446004 -0.014499052
-0.018436529 -0.008588689 0.008973909 -0.015671479 -0.010061726 -0.0031078323 0.0055385404 0.01725168
-0.003663132 0.0020096 -0.028375246 0.025604082 -0.022021102 0.014771906 -0.008078783 0.0038718774
0.04241791 -0.0071099713 0.009648876 -0.0069762464 -0.0069920234 0.020677041 -0.016464585 0.0045650187
0.014528673 0.014265648 -0.008339353 0.0046242904 -0.010032478 -0.0046196454 -0.020879356 -0.019586401
0.008828441 -0.014363514 -0.020976422 0.0015909303 -0.005331872 0.0123758055 -0.03136218 0.012465598
-0.011957946 0.0043806424 0.007872781 0.022566997 -0.012936002 0.010065227 -0.0005284371 0.018368617
-0.025205482 0.01524498 -0.02372015 0.0130223995 -0.004537272 -0.00252937 0.015482061 0.02105297
0.0048112855 -0.01872207 -0.01663678 0.014593576 -0.016326834 -0.0056559066 0.022796448 0.026791904
0.0070856125 -0.02532125 -0.0070305835 -0.005334458 0.024540238 0.0011175888 -0.017239757 -0.01738743
0.018742613 0.015806576 0.008655929 -0.0065056044 0.016342467 0.018089846 0.00810827 -0.004322737

weight f4 [3, 128]
00000000: 14cf 37bc 3489 9a3b d0a6 563b bf24 c23b
00000010: d2a5 30bc dd4b 7e3b 5c18 4f3c af67 bcba
00000020: 34de a23b 4d0a 293c 6578 a43b c5b5 c63c
00000030: a6df 113c 18e0 dcba 00de cabb 1f42 e1bb
00000040: 135d e93a 7b86 9bbb b8fd fbba e83d 1abb
00000050: 94da 1a3c bf9c a03b fccb 733c 39cb 4bbc
00000060: 51de 5cbc 0a1f be3b b155 033c f3dd 933b
00000070: 8ee8 2ebc f2c1 4bbc ebcb 60bb a68a bdba
00000080: c936 aa3b 3466 01bc 7b6d 8c3c 979a 733c
00000090: dba0 d9ba d5d3 833b 05e8 a43a c7cc 89bc
000000a0: bf75 84bb 67f5 9239 f15f ba3b a0a1 b33a
000000b0: fc2f 3ebb b26d c53c 2c5a 8e3c 606d dabb
000000c0: a162 db3a 6fb5 80bb e22b 96bb bd8e a03c
000000d0: 94d7 3b3c 9c3c 2d3b 257e cb3b 20de 223c
000000e0: ccea 553b 7ac1 5abb 626f 52bc 5199 24bb
000000f0: 62ed 133a c238 2ebc a5ca 40bc 2769 7eb9
00000100: 33b1 bcbb ebc6 f5bb 0875 53bb ee61 4d3c
00000110: 58d2 e0ba fcf5 06bb f81e 8e3a 4801 54bc
00000120: 032b 433b b8f8 d939 dde6 3bbc b5c0 6e3c
00000130: 7378 86ba 5e7d 493a ea7e 9b3b 8515 7cbb
00000140: d230 d83a a3f7 8aba 5fdd 3b3c a7bf c63a
00000150: e89d 9e3c 1e78 e9bb f127 193c 0eee 3bbc
00000160: 9b52 f23b 9dab 77bc 86a7 f13a 303a 0d3c
00000170: 0703 6fbb 3dff 54bc 55a9 5d3c e64b 05bc
00000180: 1315 39bc 0003 103c 0d74 98bb e2a0 8abb
00000190: 4ce1 e4bb e064 1c3b 9046 513c 0030 073c
000001a0: 2fba 083c a8af 2f3c 88f3 0fbc 3853 6f3b
000001b0: e26d 4abb ea2d 8d3b cbbf 06bc 88b0 793b
000001c0: 285e 213b 331c 9a3b 33ee 6e38 79a6 cd3a
000001d0: e527 6b3b d169 c93b 5060 aeba 2357 86bb
000001e0: 616c b53b 91ec 6a38 dd79 63ba 4f26 3bbb
000001f0: 74c8 7dbc 6e7d 3ebc 1eb3 793b ce85 21bb
00000200: 032f 293b 8ca7 7ebb e107 91bb 17df 573c
00000210: fe9a 053c 747e d7bb e11c 453c bbd1 81bb
00000220: 2dab 5ebb ab9b 373c 44d3 bcba a4d4 963c
00000230: 031a c93a a175 b4bc c0fa 4d3c b42e 843c
00000240: a870 183b 303a 5bbb a9e6 913c 6893 b2bb
00000250: 09bd c7bb a8f7 7b3c 6385 cd3b d27d 9638
00000260: b498 8b39 77d9 44bb 6cbd e83b e39a fbbb
00000270: 09b4 3d3c 3c40 daba aa4a 6c3c 1744 86ba
00000280: 7012 12bc 4861 caba 30bb 2e3c 6f13 cabb
00000290: 9851 a5bb 73ec 633b 9380 5cba 4e2c 25bc
000002a0: 7ac0 013c b7cf 5a3c c722 d83a b77f 32bc
000002b0: 9f18 c63b ca18 1fbc 086b 6abb ac1a 7ebb
000002c0: 3a8f 76bc 67a6 073c 330e 53bb 941b 15ba
000002d0: 9cdd c33b fae2 d53b 97d5 af3b 7bba ff3b
000002e0: abf0 e6bb a248 8939 b166 97ba ed95 613b
000002f0: df85 8b3b 5a8b 0b3c 6483 86bb 117b 0ebc
00000300: 0325 603c 4b22 4c3c cd11 3b3b 2c3b 22bc
00000310: 0ce7 1bbb 9092 e33b 3769 debb acb3 d53b
00000320: 2d92 91bb 0997 99bc 8a00 663c 696a 1439
00000330: 43a3 8f3b 4a6b c23a 0c2e 2fbb 274e 4bbc
00000340: 356d 243c cb72 583a 9af2 22bc 4aad ba3a
00000350: 5066 6e3c 6c8d 3d3b 3eba 213c c36a 243a
00000360: 349d 463a 95e0 a4bc 2d6e f83b fd5d d1bb
00000370: 98ac 9e3b 453b 163c 786c 6b3b 3aea f53b
00000380: 8fc2 07bc d198 363c 85cc 5a3b 8ae5 36bc
00000390: b896 a13a 652e cb3b d3fd 48bc de13 043c
000003a0: 9c54 393a 4707 11bb d618 633b 36e7 aaba
000003b0: 5b4b 1abb ecc1 743c 9a67 a03c 2a5c 9a3b
000003c0: d9d5 f83b 9ad5 123c 9ac5 8a3b 692e 5d3c
000003d0: 840b 24ba d7b9 4db9 c328 47bc be49 263c
000003e0: 64fe b73b ac72 54bc 8ec7 b0ba 7ada 76bb
000003f0: ce4a 0eba f2c8 debb dd42 91bc 2971 1a3b
-0.011218805 0.004716063 0.0032753237 0.0059247906 -0.010781722 0.0038802542 0.012640085 -0.0014374162
0.0049703363 0.010317397 0.005019235 0.024256596 0.00890342 -0.0016851453 -0.0061910152 -0.0068743373
0.0017804228 -0.004746256 -0.0019225394 -0.0023535434 0.009451527 0.004901498 0.014880177 -0.012438589
-0.013480739 0.00580204 0.008016036 0.0045125424 -0.010675563 -0.012436377 -0.0034301232 -0.0014460876
0.005194519 -0.007897902 0.017142048 0.0148684 -0.0016603725 0.004023055 0.0012581354 -0.016821278
-0.0040423567 0.0002803013 0.0056877066 0.0013704784 -0.00290203 0.024100158 0.017376982 -0.0066658705
0.0016737768 -0.0039278786 -0.004582868 0.019599313 0.011464972 0.002643383 0.006210106 0.009940654
0.003264117 -0.0033379481 -0.012843939 -0.0025115798 0.0005642978 -0.010633649 -0.011767064 -0.000242625
-0.0057584285 -0.0075005195 -0.00322658 0.012535555 -0.0017152531 -0.0020593395 0.001084297 -0.012939759
0.0029780276 0.00041574775 -0.011468616 0.014572312 -0.0010259285 0.00076862227 0.004745354 -0.0038464975
0.0016494042 -0.0010602366 0.011466353 0.0015163318 0.019362405 -0.007124915 0.009347902 -0.011470331
0.0073951012 -0.015116599 0.0018436767 0.00861983 -0.003647031 -0.013000307 0.013529141 -0.008135771
-0.011296528 0.008789778 -0.004652506 -0.0042306045 -0.0069848653 0.0023863837 0.012773171 0.00825119
0.008345171 0.010723032 -0.00878609 0.0036518108 -0.003088825 0.004308452 -0.008224438 0.0038099606
0.0024622772 0.0047030686 5.6965462e-05 0.0015689872 0.0035881933 0.0061466475 -0.001330385 -0.004099743
0.0055366014 5.6010267e-05 -0.0008677522 -0.002855677 -0.015489686 -0.011626584 0.0038101147 -0.0024646404
0.0025815375 -0.003885719 -0.004425988 0.013175747 0.008154629 -0.0065763537 0.012030811 -0.0039617694
-0.003397654 0.011206548 -0.0014406224 0.018411942 0.0015342835 -0.022028746 0.0125719905 0.016135551
0.0023260508 -0.003345143 0.017810183 -0.005449701 -0.006095533 0.01537887 0.0062720045 7.175993e-05
0.0002662592 -0.0030036846 0.007102659 -0.007678376 0.011578568 -0.0016651223 0.014422098 -0.0010243681
-0.008915529 -0.0015440369 0.010664746 -0.0061668674 -0.005045127 0.0034778386 -0.0008411493 -0.010081364
0.007919425 0.013355187 0.0016489857 -0.010894707 0.0060454155 -0.0097105 -0.0035769362 -0.0038773222
-0.015048796 0.0082794195 -0.0032204508 -0.00056880084 0.0059773456 0.006527302 0.005366038 0.0078042126
-0.007047733 0.00026184792 -0.001155099 0.0034421638 0.004257902 0.008517111 -0.0041050185 -0.0086963335
0.013680699 0.012459348 0.0028544546 -0.009901803 -0.0023788838 0.006944962 -0.006787445 0.0065216627
-0.0044424743 -0.018748777 0.014038214 0.00014154021 0.004383476 0.0014833 -0.0026730327 -0.01240877
0.010035803 0.00082568516 -0.009945536 0.0014242318 0.01455076 0.0028923405 0.009871064 0.0006272012
0.00075765257 -0.02012662 0.0075814934 -0.006389378 0.004842352 0.009169404 0.0035922807 0.0075047286
-0.0082861325 0.011144833 0.0033386063 -0.011163125 0.0012328243 0.006200599 -0.012267548 0.008061377
0.0007069798 -0.0022129582 0.0034652255 -0.0013038877 -0.002354345 0.014938813 0.019580651 0.004710694
0.007593852 0.008962059 0.0042349817 0.013499835 -0.00062578195 -0.00019619554 -0.012155714 0.010149417
0.0056150425 -0.012966793 -0.0013487206 -0.0037666843 -0.0005428017 -0.006798857 -0.017732078 0.0023565984

bias f4 [3]
00000000: ff01 8e3a d703 3c3b 6f39 30bb
0.0010834335 0.0028688812 -0.0026889702

weight f4 [1, 128]
00000000: f4f0 423c 5dbf ce3c 9893 743c 4ffd 843c
00000010: 57cf 4bbc 107a abbc 317d ccbb c8d1 953c
00000020: 6947 e6bc 36eb c43b 5e77 623c 328a b0bc
00000030: 99b1 d53c 84b2 383c 2c1d 113c 0b32 263c
00000040: b956 363c 2c55 a83b e302 4abc 9520 6f3c
00000050: 55d1 27bc 5a9f 8c3c 8862 5bbc bd6d 8c3c
00000060: 0c0e c4ba 7659 113c cb8e 6dbc 5381 a03c
00000070: d364 adba b046 55bc 4837 503c 0071 aa3c
00000080: 5d6d 043c e950 013d 57b5 9bbb b988 de3b
00000090: 5fa7 db3c 9c5b 473c 47cc 98bc 7287 92bc
000000a0: 08ec 963b 7486 f43b 192c 643b b657 4e3c
000000b0: f915 aebc 3881 68bc 7cf8 10bc 8260 5dbc
000000c0: 0890 36bc bc4a 85bc 7803 ba3b f2e8 27bc
000000d0: 4fe4 94bc 5103 913c f79f 8b3c bb12 f63b
000000e0: 1fbd 703a ec2f 38bc 4526 05bc f964 383c
000000f0: 596f babc 07ea 83bc 546d 10bc 9aa1 433c
00000100: 7b11 1d3c 2e28 a0bc d6e4 313c 0ba5 613b
00000110: 2dca 17bc d561 a03c a3f4 e4bc 8acb 24bb
00000120: 6e23 983b 0b68 873a bf09 8dbc 89e3 933c
00000130: 4955 813c fb53 58bc 4807 f3bb 9a2b d43b
00000140: f309 283c 3cc7 d3bb e802 133b 645b 1539
00000150: 762e 3ebc b4c4 14bb 4230 60bc 7fe6 7c3c
00000160: cc67 88bc 1fb0 293c 5760 b5ba 4c32 e93c
00000170: cf0c 37bb 7025 963b f8c6 343c fe8f 053c
00000180: f795 97bc 76db 813b 2c87 c3bc b07e 773c
00000190: b717 a8bc 8ec2 57bc 76a7 b73b 9c57 d13c
000001a0: 81ac c73c 3ec7 603c 256a b2bc 5064 ab3b
000001b0: d0ae 0dbb 3559 34bc 5576 bf3c e6c9 203c
000001c0: ab1d 803b 3516 a0b9 5efc 30bc acdb 90bc
000001d0: 3ca3 583c 252b 3f3c 2c57 d4bb 09f7 4fbc
000001e0: fc86 e33c 820a a2ba 4f0d a33c c89e 4abc
000001f0: 1752 e73b 2c33 723c bbb5 7f3c 7a1e 88bc
0.011898268 0.025237733 0.014927767 0.016234068 -0.01243957 -0.020932227 -0.00624051 0.018288508
-0.028110223 0.0060094846 0.013822405 -0.021550272 0.026085662 0.01127303 0.008857053 0.010143767
0.011129075 0.0051371064 -0.01232979 0.0145951705 -0.01024278 0.017165828 -0.013390191 0.017142171
-0.00149578 0.008871427 -0.0144993765 0.019592917 -0.00132289 -0.0130173415 0.012708493 0.020805836
0.008082715 0.031571303 -0.004751842 0.006791201 0.026813207 0.0121678375 -0.018652095 -0.017886851
0.004605774 0.007462317 0.0034816323 0.012594154 -0.021250712 -0.014190964 -0.008848306 -0.013511779
-0.011142738 -0.016270988 0.005676683 -0.01024841 -0.018175272 0.017701777 0.01704405 0.007509557
0.00091834547 -0.011241894 -0.0081268 0.0112545425 -0.022758173 -0.016102804 -0.008815128 0.011940384
0.009586687 -0.01955041 0.010857781 0.0034430649 -0.009264511 0.0195779 -0.027948683 -0.0025145733
0.0046428954 0.001033069 -0.017216561 0.018052833 0.015787737 -0.013203616 -0.0074166395 0.0064749243
0.010256278 -0.0064629596 0.0022432152 0.00014243793 -0.011607757 -0.0022700252 -0.013683381 0.015435814
-0.016651057 0.010356932 -0.0013837916 0.028466366 -0.0027931219 0.0045820996 0.011033766 0.008152006
-0.018504126 0.0039629294 -0.023868166 0.015105888 -0.02051912 -0.013168944 0.0056046797 0.02555447
0.024374248 0.013719378 -0.02177913 0.005230464 -0.002161909 -0.011007597 0.023371855 0.009813761
0.0039097867 -0.00030534124 -0.0108023565 -0.017682873 0.013222512 0.011668001 -0.0064801183 -0.012693175
0.027774327 -0.0012362751 0.019903807 -0.012366958 0.0070593464 0.014782708 0.015607293 -0.016616095

weight f4 [3, 128]
00000000: e766 1c3c 6070 afba 2ced 40bc 5e4f 19bb
00000010: 5a9d 293b 2c1d 81bc 1997 f33b b7a3 2c3b
00000020: 39d9 c63a 2fac a1bb e4ad 783a 5e19 1dbc
00000030: 7444 a93b 8e51 0fba 43fc 973a 1858 35bc
00000040: f973 37bc 390e bebb 30b4 c939 889c 07bc
00000050: 405e e33b 2950 ae39 758f 883b 905b 203c
00000060: 1021 e53a 1b8d 0c3c 38f8 86bb 8554 47bb
00000070: ea3f 69bb 441e db3b 94a3 bdbc 7187 6cba
00000080: 7bb1 33bc 4e01 3ebc 9a48 bebb 92dc 083a
00000090: 1258 923c 1770 3e3c a04b 723b bd85 8d3b
000000a0: 6402 0e3c 2a90 073c 5c14 38bb 6864 96bc
000000b0: ea23 c13b 2565 01bc 641f 013b 9bcf 9bbc
000000c0: d858 203c 7e4e 99bb ce44 67ba bebb 203c
000000d0: 84e4 85bb 4a4b 27bc 33e5 09bc b4c9 143b
000000e0: 56a7 093b b651 ba3b f08b 1ebc 724e c83b
000000f0: 6d02 0fbc 5ed6 143c 8166 38bc a115 923a
00000100: 00ae 15bb 68e8 9d3b a414 6b3b a1dc dabb
00000110: 5cd6 203b fb9a a43c 1647 733a 5007 59bc
00000120: 6620 93bc 4e7d b9bb 7c76 3d3c 27d0 8739
00000130: 21d3 423c 306d 77bc ca20 babb 1fb3 8c3c
00000140: 8d88 103c 03fd a03a 9b27 37bc 0849 5a3b
00000150: f337 47ba e60f babb 3899 473c 7683 13bc
00000160: a752 313c 1488 4abc 14c7 fd3b 336f a7bb
00000170: 80b4 623b 7de8 27bb 0c9d 9eba 52bf a9bb
00000180: 6460 343a 3bb0 1f3c 44b4 61bc 45fc 513c
00000190: 21cb e7b8 8151 8039 c1e6 97bb 76dc 533b
000001a0: 1a34 5e3c e006 6bbc e82a 9f3b dcd5 e03b
000001b0: f55c 55bc 987e 95bb 475b 3dbb 3f98 8bbc
000001c0: 1d5d 3c3a a82f 083c 8100 b7bb caec 13bc
000001d0: 827b e3b9 b29f 9d3c e9f4 483a b974 6cbc
000001e0: df3a d3b9 a3b4 f7ba 6cb7 9b3b 86ac 11bb
000001f0: aa90 14bc bfdd aa3a a800 403c 2c08 8b3b
00000200: 61f5 3abb c161 0a3b e804 b6ba 7062 c5b9
00000210: 4a63 13bb c5b2 13bc 271a 40bb c259 20bc
00000220: 8211 b83b 1e92 a9ba ddde fdbb 1676 b1bb
00000230: 6340 f93a ae46 7ebc 1bc8 46ba cc85 22bc
00000240: 0345 f23a 5042 393c 274e deba e9ad 3e3c
00000250: c060 0d3c 5891 4dbc 964d 013c 57ba 023b
00000260: 9e6e 5e3c 5943 83bc 9d61 843b 0227 6dbb
00000270: fd7d dabb 4b52 cdbb 68db 6a3b 740e 903b
00000280: 96ab 76bc 05e8 fa3a 67ba ea3b 9d69 ca3b
00000290: 1d74 77ba 4014 a23b e691 cdb9 cab3 8f3a
000002a0: cfe5 293c da3d ec3b a90f 12bc ac0a 933c
000002b0: 04fb 623c eb3a 28bc 3c00 d83b 1d34 5fbc
000002c0: 998b c83c 51ee 153c 0d57 913c aa70 2b3c
000002d0: 5999 3bbc 5a80 76bb 75d5 9c3b 3e1d 093b
000002e0: 31d6 03ba 8488 2c3b 5819 023c 214c 003c
000002f0: f4db 21bb e519 1f3c e6b8 abbb 3902 063b
00000300: 8e9c 55bc 2d53 0cbc 955b 0e3c 3ab1 76bc
00000310: e567 513c 5adc cc3a f0ee 59bb d77a a73a
00000320: c151 483b 1d1f 76bc dc84 a2bb 69fe 50bc
00000330: 8948 a6bb 0f96 69bb 08b9 9bba e283 01bb
00000340: b731 f43a 924f 6239 ccc0 823b 6946 353b
00000350: 9df6 893c 9d49 3e3c a386 503c 4a26 53bc
00000360: a86f 7a3a 3650 07bb 88c8 b2bb e0d6 c03a
00000370: 82b1 9b3b d82d 05bc ea97 993c d1e4 3c3b
00000380: dea7 79bb 0b1c 14bc cc1f 9ebb 0cd2 f9bb
00000390: ffa8 8a3b 9b81 9c3a 0501 0939 9d5b 7d3c
000003a0: 6130 07bc 41eb cabb 026e aa3b 755e 55bc
000003b0: 1ce6 043c 1b9b 983b 7d29 773b 52da 813c
000003c0: e223 09bb c023 5ebb 4f9b 6f3b 63f0 08bc
000003d0: c1d1 17bc f38a 42bc 6287 a5bc 7f4e 353c
000003e0: a9c9 67bb 83da a63b c0d5 93bc 903b e13b
000003f0: 8183 023c b26b 843a d879 3d3c 52cd 013c
0.009546018 -0.0013384931 -0.011775296 -0.0023393254 0.0025881142 -0.01576098 0.0074337837 0.00263427
0.0015170939 -0.004933856 0.0009486361 -0.009588568 0.005165631 -0.00054671697 0.0011595566 -0.0110683665
-0.011197084 -0.0058000353 0.00038471958 -0.008277066 0.0069387257 0.0003324759 0.004167492 0.009787455
0.0017481167 0.008578564 -0.0041189454 -0.0030415368 -0.0035591074 0.0066869576 -0.02314929 -0.0009022868
-0.010967608 -0.011596991 -0.0058069946 0.0005220856 0.01786426 0.011623404 0.0036971346 0.0043189214
0.008667562 0.0082741175 -0.0028088307 -0.018358424 0.005894174 -0.00789765 0.0019702548 -0.019019892
0.009786807 -0.0046785465 -0.00088222034 0.009810386 -0.004086079 -0.010210821 -0.008416462 0.0022703232
0.002100428 0.0056860102 -0.009676918 0.006112867 -0.008728606 0.009084312 -0.011254908 0.0011145362
-0.0022839308 0.0048189647 0.0035870457 -0.006679133 0.002454183 0.020093432 0.0009280307 -0.013246372
-0.017959785 -0.0056606894 0.011563893 0.00025904292 0.011891157 -0.015101716 -0.0056801783 0.017175255
0.008821619 0.0012282435 -0.011178876 0.003330769 -0.00075995846 -0.005678165 0.012182526 -0.009003511
0.0108229285 -0.012361545 0.007744679 -0.0051096915 0.003459245 -0.0025620752 -0.0012101247 -0.005180278
0.00068808184 0.009746606 -0.013775889 0.012816493 -0.00011052774 0.00024474788 -0.0046356623 0.003232745
0.013562227 -0.014344901 0.0048574097 0.0068614315 -0.013022651 -0.0045622103 -0.0028893517 -0.01704037
0.0007185506 0.008312143 -0.005584777 -0.009028623 -0.00043388834 0.019241188 0.0007665889 -0.014432126
-0.00040288919 -0.0018898438 0.00475209 -0.0022228076 -0.009067694 0.0013036056 0.011718906 0.0042429175
-0.0028527605 0.0021115395 -0.001388696 -0.0003764811 -0.00224896 -0.00901479 -0.0029312463 -0.009787025
0.0056173215 -0.0012937223 -0.0077475146 -0.0054156883 0.0019016381 -0.015519781 -0.00075829186 -0.009919595
0.0018483702 0.011307314 -0.0016960547 0.011638143 0.008629024 -0.01254686 0.007892033 0.0019947493
0.013576178 -0.016023325 0.0040399567 -0.003618658 -0.006667851 -0.0062659136 0.0035836343 0.004396254
-0.015055558 0.0019142634 0.007163334 0.006177141 -0.00094396045 0.0049462616 -0.0003920935 0.0010963615
0.010369732 0.0072095217 -0.0089148665 0.017949425 0.013853792 -0.010267953 0.006591825 -0.013623265
0.024480628 0.009151057 0.017741704 0.010463873 -0.011450135 -0.0037613125 0.0047861882 0.002092197
-0.00050291704 0.0026326487 0.007940613 0.007830651 -0.0024697753 0.009710764 -0.0052405475 0.0020448102
-0.013037814 -0.0085647525 0.008688827 -0.015056903 0.012781118 0.0015629635 -0.003325399 0.0012777698
0.0030566307 -0.015022066 -0.0049596857 -0.012755969 -0.005074565 -0.003564242 -0.0011880705 -0.0019762446
0.0018630539 0.00021582682 0.0039902683 0.0027660376 0.016841227 0.01161423 0.012727412 -0.012887547
0.0009553381 -0.0020647175 -0.005456034 0.0014712475 0.004751385 -0.008128606 0.018749196 0.0028822909
-0.0038094441 -0.009039889 -0.004825568 -0.0076239165 0.0042315717 0.0011940481 0.00013065718 0.015463737
-0.0082512805 -0.006192595 0.0052011022 -0.013023009 0.008111503 0.004657162 0.0037713938 0.015851174
-0.002092593 -0.003389582 0.0036561077 -0.008358094 -0.009266318 -0.011873948 -0.020206157 0.011066078
-0.0035368002 0.0050919666 -0.01804626 0.0068735555 0.007965923 0.0010102896 0.011564694 0.007922487

bias f4 [3]
00000000: 8547 ad3a 0b6d ad3a 106d daba
0.0013220167 0.001323135 -0.0016664583
