TradeSimulator-v0_D3QN_-1/actor_00237000.pth (torch, 151866 bytes, 14 tensors)

state_avg f4 [10]
000000 b5 d6 2e 3e 34 9b 1d 3a ae c0 95 bb 8a b1 1c 3e
       0.17074092 0.0006012202 -0.0045700883 0.15302101
000010 4d 75 0f 3b b0 5e d9 bb 51 58 59 bd fa 74 50 3e
       0.0021889985 -0.006633602 -0.05306274 0.20357123
000020 88 c5 4e 3b 03 fe 56 bc
       0.0031550843 -0.013122085

state_std f4 [10]
000000 a6 e3 61 3f c1 e7 47 3f 44 a3 66 3f 75 ed 70 3f
       0.8823799 0.78088003 0.90092874 0.9411233
000010 e7 29 5c 3f 5d c6 54 3f 41 ec 7e 3f e8 79 5e 3f
       0.8600144 0.8311518 0.99579245 0.86904764
000020 4f 38 5a 3f db 3b 55 3f
       0.8524217 0.8329446

weight f4 [128, 10]
000000 77 7b 28 3e 66 18 8a bd 92 19 73 bd 35 ae 29 3e
       0.16453348 -0.06742935 -0.059350558 0.16570361
000010 cf 7e 92 be ba 00 5c 3e 21 12 ac bd 46 6a 31 3e
       -0.28612372 0.21484652 -0.08401895 0.17325696
000020 0c ba 18 3d 12 83 40 bd 5a 2d c1 3d 75 bf a4 3e
       0.037286803 -0.047 0.09432478 0.3217732
000030 c8 d7 02 3e bb cf ea bd 86 72 1e bd 8d ee 25 bd
       0.12777627 -0.11465403 -0.038683437 -0.040510703
000040 46 91 2b 3d 94 27 1f ba f4 3e 8d 3e 20 56 ed 3d
       0.04188659 -0.0006071266 0.27587092 0.11588693
000050 16 af ef bd ec db e2 be 4a 6d 81 bd 47 af 11 be
       -0.11703317 -0.44308412 -0.06319673 -0.14227019
000060 55 81 d3 bd 39 57 9d 3b 58 25 46 3e 2e 90 34 3e
       -0.103274025 0.0048016575 0.19350183 0.17633125
000070 ad 01 8f be f9 c2 3f 3e 9e e6 b6 3d 96 89 8b 3d
       -0.27930966 0.1872672 0.089307055 0.06813352
000080 db fa 60 3e 2b 2e 98 be d5 38 84 be 3d ca 1c be
       0.21970694 -0.29722723 -0.2582461 -0.15311523
000090 e3 dd 94 3e 95 5f 4a bd 8e ea 0a 3e 4b 49 04 be
       0.29075536 -0.04940756 0.13566038 -0.12918584
0000a0 1f 23 9b 3e 70 a0 eb be 30 be 61 3e 1c f1 ae 3c
       0.30300233 -0.46020842 0.22045207 0.021355204
0000b0 16 cc 22 be 85 ed 2a 3e e9 aa 3c be 2c d5 e0 3d
       -0.15898165 0.16692169 -0.18424572 0.10978159
0000c0 3d 35 b4 bd 3b fe 12 bd d5 84 a4 be 6e ae 21 be
       -0.08799217 -0.035886984 -0.32132593 -0.15789196
0000d0 1c aa 29 3e 79 0c ba bd c5 40 a0 3e 0d 8b 71 3e
       0.16568798 -0.0908441 0.31299415 0.235882
0000e0 3d 63 44 bc 1e 70 44 be 7f 28 45 3e 65 88 b1 3d
       -0.011986551 -0.19183394 0.1925373 0.08668593
0000f0 14 ae 4e be bb f0 0a be ae d6 42 3e 45 60 94 3e
       -0.20183593 -0.13568394 0.19027206 0.28979698
000100 73 c1 33 be fa c9 6b bd 70 e4 02 bc e5 0f 1f 3d
       -0.17554264 -0.057565667 -0.007989034 0.038833518
000110 31 e4 72 be 24 40 57 be af b5 33 3e cb 11 aa be
       -0.2371986 -0.21020561 0.17549776 -0.332167
000120 1a 2f 14 3e 85 5a b7 3c c9 bc db 3d 26 c8 69 3d
       0.14471093 0.02238203 0.10729367 0.057075642
000130 60 b2 d0 3d cf 66 2d 3e 73 26 88 be fb 95 11 3e
       0.10190272 0.1693375 -0.26591834 0.1421737
000140 32 60 73 be 61 7e 32 be fc 01 b2 3c 3f 6e 69 bd
       -0.23767164 -0.17431022 0.021729462 -0.056989904
000150 f6 91 3f 3e 36 42 54 be f1 04 8a be 10 c6 72 3e
       0.18708023 -0.20728382 -0.26956895 0.23708367
000160 b5 c8 81 bd d2 de 43 3e 12 bb bf 3d 93 6f 0b bf
       -0.0633711 0.19127968 0.09361853 -0.54467124
000170 cd 2f 7c 3d 3d 1f a7 3d 6f 98 5d be 44 e9 14 be
       0.061569024 0.08160255 -0.2164018 -0.14542109
000180 e4 b8 d9 3d c6 f9 80 3d 43 b6 13 be c5 d3 c9 bd
       0.10630968 0.062976405 -0.14424996 -0.09854845
000190 cb 8e 94 3e 01 14 a7 be 8f f0 37 3e cb 1b 07 3e
       0.29015192 -0.3263245 0.1796286 0.13194196
0001a0 68 0b 38 be 1d 7d 86 be b7 33 9b 3e 7d fc 82 3c
       -0.17973101 -0.2626733 0.30312893 0.015989536
0001b0 cc 1f 5a 3e 98 08 4c 3d 79 44 c8 3d 2e e7 20 bc
       0.21301192 0.049812883 0.09778685 -0.0098207425
0001c0 28 bc 95 3e c7 9e 53 be 1d 0c 4a 3d 20 c9 69 3e
       0.29245114 -0.20666037 0.04932796 0.2283063
0001d0 5b 60 71 3e 78 f0 53 3e b2 85 42 be 3d c2 54 be
       0.23571913 0.206972 -0.18996313 -0.20777221
0001e0 76 9d 39 be 94 6b 73 be 9f 3d 99 3e 67 1c 54 be
       -0.18126473 -0.23771507 0.29929826 -0.2071396
0001f0 07 0d 2b 3e 16 13 1a be cf 28 99 be e9 68 85 bd
       0.16704188 -0.15046343 -0.29913947 -0.06514151
000200 36 a4 34 3e bb bc 93 3e d5 28 40 be 6b 7a 52 3d
       0.17640767 0.28854927 -0.18765576 0.051386278
000210 22 15 88 3e 77 cd 54 3e df 0b 3f 3e 72 63 7c 3e
       0.26578623 0.20781504 0.18656872 0.2464731
000220 c4 47 50 3e 4f 36 d7 3d 1d ba 3f be fd 96 86 be
       0.20339876 0.105084054 -0.1872334 -0.2628707
000230 e6 ef 15 be 48 a7 a6 39 d0 4d 43 be 34 96 ee 3d
       -0.14642295 0.00031786622 -0.19072652 0.11649743
000240 21 30 ae 3d 17 9d 83 bd 83 d7 e2 3d cc 0f c5 3d
       0.085052736 -0.06426447 0.11076262 0.09622154
000250 7d 95 41 3e 46 eb 3e 3e 83 14 de bd 32 1b 06 bd
       0.18904682 0.18644437 -0.10843756 -0.03274078
000260 db c8 32 bd f8 b1 1b bc 1c 1c 8e be 08 04 41 be
       -0.043648582 -0.00950288 -0.2775582 -0.18849194
000270 a9 30 47 be ea cd 13 be b7 40 62 3e bd 60 e3 bd
       -0.19452156 -0.14434019 0.22094999 -0.11102436
000280 fb c0 7e be a6 4a 06 3e 84 a7 d0 3d 3c e3 4a 3e
       -0.24878304 0.13114414 0.10188201 0.19813246
000290 65 b7 25 be 0a 31 5d 3d 0d 2b cc bd ce 57 9f bd
       -0.1618324 0.054001845 -0.09969149 -0.07780419
0002a0 29 af 7c be 87 30 19 be 79 c3 ba bd d1 35 b8 bd
       -0.24676193 -0.14959918 -0.09119315 -0.0899464
0002b0 e6 69 83 3d db 38 ad 3d d9 43 9d 3e a4 46 92 3e
       0.06416683 0.0845811 0.30715826 0.2856952
0002c0 6f b9 75 3e c8 52 51 3c db cf 50 be 90 24 72 3e
       0.23996519 0.012776084 -0.2039179 0.2364676
0002d0 8b 81 98 bd 0b e1 b3 be 30 ca 85 be 0e 55 6f bd
       -0.07446583 -0.35132632 -0.2613082 -0.058430724
0002e0 fb b8 3d be 43 61 7b 3e e2 6d 97 be 24 49 7e be
       -0.18527596 0.24548821 -0.2957602 -0.24832588
0002f0 4e 3e 3d bc 94 83 2f be 17 48 e2 3d 09 25 4e be
       -0.011550499 -0.17140037 0.11048906 -0.20131315
000300 c1 cc 17 be d3 fe 8f 3c 01 b1 65 3e e3 88 57 be
       -0.14824201 0.017577564 0.22430803 -0.21048312
000310 d8 8f 1c 3e c0 04 53 3e 75 61 99 3e 92 bf 6d be
       0.15289247 0.2060728 0.29957166 -0.2321761
000320 ca 7c ba 3d 9d 01 21 3d ff 53 8f 3e 39 fa d7 bd
       0.09105833 0.03930818 0.2799377 -0.10545773
000330 08 22 4f 3e 75 06 96 bc b2 83 bd bc c7 7e 0f 3b
       0.20227826 -0.018313626 -0.023134086 0.0021895634
000340 25 15 33 3d 16 68 18 3e 62 be 4f 3d 0f 82 10 be
       0.043721337 0.14883456 0.050718673 -0.14112113
000350 37 c7 81 be da 05 7c 3e 65 24 79 3e de 6b 62 3e
       -0.253473 0.24611607 0.2433029 0.2211146
000360 15 d0 81 3e dc d5 69 be 54 b2 d5 bd ad ee 8f 3e
       0.25354066 -0.22835487 -0.10434404 0.28111783
000370 85 12 6d be 7a 18 95 3c ef 0d 80 be f9 bf 6b be
       -0.23151596 0.018200148 -0.2501063 -0.2302245
000380 c0 31 1a 3e b6 53 53 be a5 4d ac bd 19 e1 77 3e
       0.1505804 -0.20637402 -0.08413247 0.24206962
000390 e4 10 86 3e 75 d7 8f 3e 9d 50 69 bd 52 60 1b bf
       0.26184762 0.28094068 -0.056961644 -0.6069385
0003a0 ec 37 98 3e a0 66 83 bd bf 8d f3 bd b8 f4 ac 3d
       0.29730165 -0.064160585 -0.1189227 0.08445114
0003b0 bf 54 6c be 38 75 63 3e e3 7a 43 3e 99 95 84 be
       -0.23079203 0.22212684 0.19089846 -0.25895384
0003c0 0c 14 85 be 39 89 27 be e1 a2 ef 3d fa 26 20 3c
       -0.25991857 -0.1636094 0.117009886 0.009774918
0003d0 f6 fe 16 be d2 35 7e 3c bb 10 a2 be 0e 0f 5f be
       -0.14745697 0.015515761 -0.3165339 -0.21783087
0003e0 ff 84 60 be e4 30 66 3e 5a 16 8e 3e a0 ed 9a be
       -0.21925734 0.22479588 0.27751428 -0.30259418
0003f0 89 8a 16 3c 63 81 1a 3e 76 79 26 3d b3 d4 28 be
       0.009188303 0.1508842 0.040643178 -0.16487388

bias f4 [128]
000000 3c c4 9d 3c 57 9d ae bb ff 6d 72 3d 21 b5 26 3a
       0.01925861 -0.005328815 0.05918693 0.0006359388
000010 96 24 40 3e cc 25 ae 3c 56 10 68 3e 27 a0 ad 3d
       0.18763956 0.021258257 0.22662482 0.08477812
000020 f9 f5 82 3b 53 04 68 3d 9a cf 6b 3e 04 d5 71 3d
       0.0039966074 0.05664475 0.23028412 0.05904104
000030 c4 59 73 3e 19 4b 8d bc 11 d3 34 3b 67 a0 8b 3e
       0.23764712 -0.017247723 0.0027591626 0.27270815
000040 f8 8b 9b be ac 2a 3b 3d ba 19 9c 3e a9 ee 1b be
       -0.30380225 0.045694992 0.30488378 -0.1522776
000050 bb 7a 43 bd de 08 b7 bb 62 e1 f4 3d 05 20 0c 3e
       -0.047724467 -0.005585774 0.11957051 0.1368409
000060 08 f4 b7 3d ab 6c 06 3e 18 8d 04 be 92 01 17 3e
       0.08982092 0.13127391 -0.12944448 0.14746693
000070 55 0f cf bd 54 d3 5c 3e 90 42 a3 bd 1d 76 89 be
       -0.10110346 0.2156499 -0.0797168 -0.26847926
000080 29 96 18 3d c3 cb 48 3e e7 e9 4a bb aa 07 fd ba
       0.03725258 0.19608979 -0.003096217 -0.0019304652
000090 d1 4e f7 3b d9 98 38 3e 7d 58 c9 3c 6b 79 96 be
       0.0075472374 0.18027057 0.024578327 -0.2938951
0000a0 51 d3 60 be ec d5 f7 3c 7e dd 26 bc ac a8 a5 3e
       -0.21955611 0.030253373 -0.010184644 0.3235525
0000b0 2f a1 47 bd 8d 33 7d 3e 00 32 82 be 9c a9 9a be
       -0.0487377 0.24726696 -0.25428772 -0.30207527
0000c0 65 c6 87 bc 84 8f 51 be b3 b2 a5 bd 1e 7f 06 3d
       -0.016574094 -0.20464903 -0.08090725 0.032836072
0000d0 ee d4 87 be 95 0b 74 3e c5 00 37 be 5f 5a 86 3e
       -0.2652964 0.23832543 -0.17871387 0.26240823
0000e0 c5 6d e0 3d 60 6a 43 bd c2 b5 89 be f3 78 5a 3d
       0.10958437 -0.04770887 -0.26896483 0.053338002
0000f0 49 1e 2b be b0 13 93 3e 52 d0 85 be 54 00 a8 bd
       -0.16710772 0.28725958 -0.26135498 -0.082031876
000100 55 5a 24 be 94 37 48 be 9b fe 38 be 84 d1 87 bc
       -0.16050084 -0.19552451 -0.18065874 -0.016579397
000110 a0 4d ce 3c 82 ce 9a 3d f5 27 30 3e 8f a9 eb bd
       0.025183499 0.075589195 0.17202742 -0.1150695
000120 0f 65 5c be ef f9 72 bd 1e b4 a1 3e c5 e0 1b bd
       -0.21522926 -0.059320386 0.3158273 -0.038056154
000130 3b c1 8b be fc 6a 87 3e d6 c5 91 3d b0 66 a2 3d
       -0.2729586 0.2644881 0.07117812 0.07929742
000140 ce e3 7b 3d 32 8f 66 3e 45 36 18 be df 81 80 3e
       0.06149655 0.22515562 -0.14864452 0.25099084
000150 7d 03 a5 3e 00 1f 9a bd fa 7e 5f 3e 2a f1 42 3e
       0.32229224 -0.07525444 0.21825781 0.1903731
000160 bf 0c a0 3e 54 74 89 bd b7 13 39 be e3 ff e5 bd
       0.31259724 -0.06711641 -0.18073927 -0.11230447
000170 90 e7 56 be 09 4b c3 3c 1a 36 a6 3e af f0 a4 3e
       -0.20986772 0.02383949 0.3246315 0.32214877
000180 88 93 7a 3e 08 97 13 3d ee 2a b4 3c ef e8 64 3e
       0.24470341 0.036032706 0.021993127 0.22354482
000190 08 7c 5a 3e af 03 02 bd 03 3d 96 bd f2 5d 09 3e
       0.21336377 -0.031741794 -0.07335856 0.13414744
0001a0 ec a7 53 3c 06 df 4e be 4f c1 14 be 2d c4 88 3e
       0.012918454 -0.20202264 -0.14526866 0.2671217
0001b0 0e 84 8d 3e ce f9 e4 bd f7 a3 6d bd d2 3b 1c be
       0.27639812 -0.11180459 -0.058017697 -0.15257195
0001c0 77 8e ce bd 18 be 96 3e b3 63 9a be 90 cb 16 3e
       -0.10085767 0.29441905 -0.3015419 0.1472609
0001d0 f3 4f 90 be 1d 38 15 be 2e 5a 3f bd b0 eb c5 3c
       -0.28185996 -0.14572187 -0.04671686 0.024160236
0001e0 32 03 27 bd 57 9b 14 be c5 80 0a be 70 04 53 be
       -0.04077453 -0.14512382 -0.13525684 -0.20607162
0001f0 38 53 64 be c7 de 46 be e0 1c a7 3e a5 5d 0b be
       -0.2229737 -0.1942092 0.32639217 -0.13609941

weight f4 [128, 128]
000000 93 65 a6 bd 35 1a 8b 3d 0d d1 22 3d e5 b9 8e 3d
       -0.081248425 0.06792108 0.039750148 0.0696905
000010 6e de ae bd 20 90 98 bd b9 4d 7f bd 95 e2 49 bd
       -0.08538519 -0.07449365 -0.06232998 -0.04928835
000020 91 6a 36 bc d6 e0 2f 3d f7 58 68 3d a0 2d 83 bd
       -0.011133806 0.04293903 0.05672547 -0.06405187
000030 e3 6d 16 3d 2b 9e 3d bd d5 c3 69 3c 19 95 28 3d
       0.03672589 -0.04629342 0.014267881 0.041157816
000040 84 3e 82 3c ca 2c 16 3d 1c 66 3a 3b 84 20 48 3d
       0.01589895 0.036663808 0.002844221 0.048859134
000050 fd cb a4 3c 8b ab ab 3d 42 84 90 3c ce 02 25 bd
       0.0201168 0.083823286 0.01764119 -0.040285878
000060 95 5b 5a 3d 10 4e 1a 3a b0 f6 bd 3d a7 a4 56 bc
       0.053309996 0.0005886266 0.092755675 -0.01310078
000070 4e fb a2 3d 90 0f 5e bd 58 dd 2b 3d 22 f3 8b bd
       0.07958089 -0.05421406 0.041959137 -0.06833483
000080 1f 28 6b 3d 08 02 c1 3c 68 cf 87 3d b5 f4 94 bd
       0.05741131 0.023560539 0.066313565 -0.07273237
000090 9f ec b1 bd 84 6f 31 3d 0a 84 c3 bc 62 39 21 3d
       -0.0868771 0.04331924 -0.023866672 0.039361365
0000a0 02 e1 48 bd 14 49 c1 bc 9a c8 b6 3c 2b 5a 65 3d
       -0.04904271 -0.023594417 0.022312451 0.055994194
0000b0 f0 99 17 3d 70 51 3b 3b c0 e9 f5 bc b9 0f e2 b9
       0.03701204 0.0028582476 -0.030018687 -0.00043117793
0000c0 fe ef f8 3c 6f 8c 86 bd f6 d2 94 bc 70 4c a5 bd
       0.030387875 -0.06569754 -0.018167 -0.0807122
0000d0 6b 9b 9c ba 94 50 e3 bb e2 5f 57 3d 48 35 ae 3d
       -0.0011948174 -0.006937096 0.052581675 0.08506256
0000e0 df 18 8a bd ab 20 04 bd 82 96 4a bd 56 ea 15 3b
       -0.06743025 -0.032257717 -0.04945994 0.002287527
0000f0 cb 14 1e bd 38 13 5c bd 9a 8c 1e bd ad d9 d9 bb
       -0.03859405 -0.053729266 -0.038708307 -0.0066482634
000100 24 52 49 3d 7f 5b c1 bc 1c d3 83 3d d9 c7 8c bd
       0.0491506 -0.023603199 0.0643675 -0.068740554
000110 46 5c b5 3b 15 33 6b bd da c6 bb bd 7a 0b 41 3c
       0.0055346815 -0.057421762 -0.09168787 0.011782521
000120 11 f6 20 bd c1 95 8a 3d 4b 07 8c 3d 10 ed 9b bd
       -0.039297167 0.067668445 0.068373285 -0.076135755
000130 e1 f2 5f bb 70 3a 99 bb 28 39 2b bd 98 e6 28 bd
       -0.0034171867 -0.0046761557 -0.041802555 -0.041235536
000140 38 f5 50 bd d4 01 4b 3d 20 b5 e6 3b 06 62 8c 3d
       -0.05101511 0.04956229 0.0070406348 0.06854634
000150 54 7d 07 bc c1 a5 3a 3d fd db 9a 3c 45 98 a0 bc
       -0.008269627 0.04556823 0.018903727 -0.019603858
000160 aa 81 32 bc 86 2d b7 bd 48 54 45 bc 20 a0 b2 bc
       -0.010895172 -0.0894423 -0.01204402 -0.02180487
000170 8e 08 52 bd 91 42 db bc e4 f0 02 bd ca a8 84 bd
       -0.05127769 -0.02676514 -0.031968012 -0.064775065
000180 cb 92 66 3c dd ea 15 bb ab f7 01 bd d2 e9 b7 3d
       0.014073084 -0.0022875585 -0.031730335 0.089801446
000190 ac a8 95 3d e9 eb 27 3d 13 a4 2c bd fa 56 99 3a
       0.07307562 0.040996466 -0.04214866 0.0011698895
0001a0 97 85 83 bd 15 2c 73 3d d5 db 9e 3d 33 7d 4d bc
       -0.064219646 0.05936821 0.077567734 -0.012542057
0001b0 41 62 83 3d fb eb 9d 3d 20 df 16 bc 64 aa fc bc
       0.06415225 0.07711025 -0.009208471 -0.030842967
0001c0 3d ae 1e bc 40 a8 5b 3c ca 76 b6 bd 5e 41 1e 3c
       -0.009685096 0.013406813 -0.08909376 0.009659139
0001d0 c7 0d 10 bd 34 59 83 3d 8a 7c a8 bc 61 81 8b 3d
       -0.03516939 0.064134985 -0.020567197 0.068117864
0001e0 28 a4 6d 3d 35 1a dd bc d4 51 d3 3c ca 92 67 bc
       0.05801788 -0.026990036 0.025795855 -0.014134118
0001f0 9a 63 01 bd 0d ef 1d bd 27 4f f8 3b 85 56 00 3d
       -0.031589128 -0.038558055 0.007577795 0.03133251
000200 31 48 2c bc 71 93 3f 3c 7b 63 79 3d 2e 9c 29 3d
       -0.010515259 0.011692868 0.060885888 0.04140871
000210 7f b4 2c 3d 54 66 fd 3c d2 8d 79 bd 9e 0a 53 bd
       0.042164322 0.030932583 -0.060926266 -0.051523797
000220 0c 4b 7b bd fd 64 80 3d c4 2c 98 bd 60 17 7a bd
       -0.061350867 0.06269262 -0.07430413 -0.06105745
000230 51 52 77 3d 62 b7 5a 3d d1 aa a3 bd 94 37 69 3d
       0.060381237 0.053397544 -0.07991565 0.05693777
000240 f0 4f a4 bc dd d1 a7 3c e0 f2 36 bd 0d aa 5f bc
       -0.020057648 0.020485813 -0.044665217 -0.013651383
000250 8b 69 85 3c f3 86 88 3d 9e ba 6d 3d f0 76 29 bd
       0.016285678 0.066663645 0.0580393 -0.041373193
000260 84 f3 64 bd cd 8c 58 38 39 1b f1 3c 30 92 6b 3d
       -0.055896297 5.1629544e-05 0.029431926 0.057512462
000270 f2 83 ae bd 64 27 1d 3b 73 68 36 3c 50 71 2f bd
       -0.0852126 0.0023979777 0.011133301 -0.042832673
000280 aa 4f a1 3d 21 8d 74 bc 77 ea 9a bd 93 31 41 bd
       0.07876523 -0.014926226 -0.07564252 -0.04716642
000290 a8 fa f7 3b f7 a7 69 bd 6b 0f a1 3c fa 6d a2 3d
       0.0075677224 -0.05704495 0.019660672 0.079311326
0002a0 ef 4e 4f 3c 8f 7c 2b bc 6e 0f bf 3d cc 99 97 3d
       0.012653097 -0.010466709 0.09329115 0.07402381
0002b0 b3 ec 7a 3d 5a a8 76 3c fa 5c 15 3c d4 41 78 bd
       0.06126089 0.015054787 0.009116406 -0.060609654
0002c0 17 90 7a 3c bf a5 c5 3d cd 98 52 3c 00 f5 95 bd
       0.015293143 0.09650754 0.012853813 -0.07322121
0002d0 1b 90 0c 3d f1 fe aa 3d 9d 3a a7 3d 97 fa 7b 3c
       0.034317117 0.083494075 0.081654765 0.0153795695
0002e0 58 d7 d4 3c ff 61 b3 3c 52 de 12 bd be 51 49 bc
       0.02598159 0.021897314 -0.035856552 -0.012287555
0002f0 c7 4c 89 3d c1 2c 96 3c 22 9b a3 3d 99 a0 83 bd
       0.06704097 0.018331887 0.079885736 -0.06427116
000300 e7 2f 0d bc fe 4b 81 3b 68 6e 23 bd 84 16 98 3d
       -0.008617378 0.0039458266 -0.039900213 0.074261695
000310 4a 77 84 3d 13 74 24 bd 80 63 a9 3d c3 ff 9b 3d
       0.06468065 -0.04014976 0.08270931 0.07617142
000320 23 d6 45 bd 9e 2a 90 3a d9 3f bd 3d dd 07 61 bd
       -0.04829992 0.0010999029 0.092406936 -0.05493914
000330 dc 9c 2e bc 0e b2 5e bd 00 3e 93 3d 91 b7 aa 3c
       -0.010657515 -0.054369025 0.0718956 0.020839484
000340 81 44 27 3d d2 dc 94 3d 16 37 80 bc 21 35 8f bd
       0.040836815 0.07268681 -0.015651267 -0.069925554
000350 84 fb 61 3c ad 1b 61 ba a9 42 29 3d be ba 3e 3d
       0.013792876 -0.0008587193 0.041323338 0.04656481
000360 37 e7 14 bd 30 a2 fb bc ef 99 5d 3d 29 d6 e6 3c
       -0.036353316 -0.030716985 0.05410188 0.028178291
000370 6e 72 b1 3c 4d 46 4d 3d f6 b1 3c 3d e8 96 6b bd
       0.02166101 0.050115872 0.046068154 -0.057516962
000380 dd 2d 93 3c 21 12 d4 3b 58 f8 a2 bd e1 0f 03 3d
       0.017966205 0.0064718877 -0.07957524 0.031997565
000390 f3 0c 38 3c d7 61 91 3d f1 9a af bd 89 75 b5 3d
       0.011233556 0.070987396 -0.085744746 0.08860309
0003a0 78 83 2b bd c5 65 48 3d e9 41 64 3d 1a 3c 7e bb
       -0.041873425 0.04892518 0.05572692 -0.0038793148
0003b0 eb 54 21 bd b0 5d 3d bc c7 8b 69 bd a0 24 55 3c
       -0.039387625 -0.011557981 -0.057018068 0.01300922
0003c0 38 e6 13 3d 71 d7 c3 3c 35 9f 4f bd 48 ca 7e 3d
       0.036108226 0.023906441 -0.05068894 0.06220463
0003d0 1c 76 97 3d d4 cc c6 bc 16 50 38 3d 23 2f 08 bc
       0.073955745 -0.024267592 0.04499825 -0.0083120195
0003e0 9f 40 10 3d 1f 20 8a bd 63 e0 8f bd a9 a3 52 bc
       0.035217877 -0.06744408 -0.0702522 -0.012856402
0003f0 72 d9 8a bd aa 53 1d 3d 13 be bc 3d 03 a2 81 bc
       -0.06779756 0.038409866 0.09215941 -0.015824324

bias f4 [128]
000000 87 88 88 3d 3a 41 6c 3d 83 94 b8 bc 1a 18 3e 3d
       0.066666655 0.057679392 -0.022531753 0.046409704
000010 35 97 f3 bc ac 21 59 bc 31 4d a5 bd e1 fa 3f 3d
       -0.029735187 -0.013252657 -0.08071364 0.046870116
000020 62 f9 89 3d ed a1 e6 3b d1 08 b1 bd 6c d7 65 bb
       0.06737019 0.007038346 -0.0864426 -0.0035071028
000030 87 ec 6b bd 10 4c 2f bd 20 29 7e bc cd f8 2d 3d
       -0.057598617 -0.04279715 -0.015512735 0.042473603
000040 72 f0 61 3d 3d 13 a7 bd 49 2f 4d bd ba 4e 3e bd
       0.055160947 -0.08157966 -0.050093923 -0.0464618
000050 5e 1b f1 3c 73 a1 94 3a b9 af 74 bc 12 fb 54 3c
       0.029431995 0.001133962 -0.014934474 0.012999313
000060 fe 96 b5 3b 9b 5c 96 bd 18 b9 fa 3c ae 94 b1 3c
       0.0055416813 -0.07341882 0.030605838 0.021677341
000070 e6 91 88 3c d6 43 41 3d 44 ed a6 3c 08 5f 59 bd
       0.016671132 0.047183834 0.020376809 -0.053069144
000080 16 fa ca 3d 5e f5 3e 3d f0 40 b9 3d 0b f6 9c 3c
       0.09910981 0.04662072 0.09045589 0.019160291
000090 d4 94 89 3d 21 a1 c5 bb 73 a8 55 3b b7 f0 49 3d
       0.0671784 -0.006031171 0.0032601624 0.04930183
0000a0 f2 4b 1e bd 44 9a a1 bd 47 c1 b9 3c 0e 37 81 3d
       -0.038646646 -0.07890752 0.02267517 0.06309329
0000b0 c1 b1 bd 3d c2 c4 08 bc 0e f1 dd bc 43 da 66 bd
       0.092624195 -0.008347692 -0.027092483 -0.056360494
0000c0 d2 ab bb 3d 3e 8b 4a 38 7b ab 0a bd 06 ad 6e bd
       0.091636315 4.8290232e-05 -0.033854943 -0.058270477
0000d0 92 c5 a4 bc e2 d8 a8 3d 11 4e 2b 3d 44 c2 92 bd
       -0.02011374 0.08244492 0.041822497 -0.071659595
0000e0 6c 06 3b 3d 12 d6 ec bc 13 4e b6 3d 83 f5 de bc
       0.04566042 -0.02891067 0.0890161 -0.027216678
0000f0 39 c6 6d 3a be 5d ff 3c 2a b0 36 bc 51 2d 41 bd
       0.000907037 0.03117263 -0.011150399 -0.047162358
000100 9a 03 ac b7 23 3f c6 3d f7 fd 8d bd 7d 91 83 3d
       -2.0505675e-05 0.09680011 -0.069332056 0.06424234
000110 d9 22 5b 3d 51 3a b3 3d da 5a cd 3c 0d 9c 42 bb
       0.05350003 0.08751357 0.025067735 -0.0029695064
000120 b5 95 58 bd fb 1f cb 3d 76 f3 1a 3c 92 a8 9a 3b
       -0.052877147 0.09918209 0.00945746 0.004719802
000130 16 34 d8 3c c8 9f 53 bc 84 4e e3 3b c1 25 dd 3c
       0.026392024 -0.012916513 0.00693685 0.026995542
000140 f8 7e 88 3d df e6 7e 3d de 73 be bd 5d e8 62 bc
       0.06664842 0.062231895 -0.09299444 -0.013849345
000150 3d 01 3d b9 fa 8a 2b 3d c1 b7 57 bd 98 f6 2f bc
       -0.00018024906 0.041880585 -0.052665476 -0.010739945
000160 c1 bb 28 bd 42 99 5d bd ea 57 85 3c 8e d8 8b 3d
       -0.04119468 -0.054101236 0.016277272 0.06828414
000170 81 f1 ed 3c 1d 70 13 bd f6 60 80 ba 8a 54 ee bc
       0.029045822 -0.03599559 -0.0009794522 -0.029093046
000180 1d ec c2 3d 26 86 00 3d a2 83 5c bd 40 84 97 bd
       0.09517691 0.031377934 -0.053836472 -0.073982716
000190 49 af 1d bd 4e 0f 82 bd 4d 1b db 3c 95 0a 13 bd
       -0.038497243 -0.063505754 0.026746416 -0.035898764
0001a0 df b6 ac bd a1 99 aa bc 8a 14 22 bd 86 be 02 bd
       -0.084333174 -0.02082521 -0.03957037 -0.03191998
0001b0 45 18 9a 3d 4d fd 36 ba 1f 74 70 bd 38 8c 3f bd
       0.0752416 -0.0006980494 -0.05870449 -0.046764582
0001c0 e6 3d b8 3d b3 fb f7 bb 4b c7 e3 bc 30 d3 96 bc
       0.08996181 -0.0075678467 -0.027804991 -0.018411249
0001d0 bb 80 1c 3d 9f 6f a0 3d a6 3d 4f bc 92 4a b2 bb
       0.038208704 0.0783379 -0.0126489755 -0.0054410184
0001e0 64 08 df bc 71 f3 77 bd 73 7d 55 3d 91 88 8e 3c
       -0.02722568 -0.0605349 0.05212159 0.017399104
0001f0 f8 3e 2d 3c 58 af 90 3c a9 33 c1 3c 31 7b a4 3d
       0.010574095 0.017661735 0.023584204 0.080313094

weight f4 [128, 128]
000000 47 50 37 ba 51 46 27 3d 02 b8 22 3c d8 31 02 3d
       -0.0006992858 0.040838543 0.009931566 0.031785816
000010 37 d8 66 bd 21 2e 58 3d 64 d0 70 bd d9 bb 43 3c
       -0.056358542 0.052778367 -0.058792487 0.011946642
000020 76 55 9f 3d 7b 5b a0 bc 1b 12 19 bd 9b ff 4b 3d
       0.07779972 -0.019574871 -0.037370782 0.04980431
000030 82 1e 09 bd 26 8e 05 bd 30 38 9a bb ca ea 11 3d
       -0.03347636 -0.032606266 -0.004706405 0.035624303
000040 8b a9 85 3d a0 a5 0e bd b5 41 4a 3c fe 8c ea 3d
       0.065264784 -0.03482592 0.012344767 0.114526734
000050 2f 72 8e 3d ff 89 66 bd 1c e9 34 bd dd 69 e5 bb
       0.069553725 -0.056283947 -0.044167623 -0.0070011453
000060 87 07 5f bd 9e 6c f1 bc ab 58 fd bb 3d 26 12 bd
       -0.054450538 -0.029470738 -0.0077315173 -0.035680998
000070 2d a6 5a bd 0a 94 13 bd 7a 54 f8 3c 83 83 8c bd
       -0.053381134 -0.036029853 0.030313719 -0.06861021
000080 aa a5 9e 3d c8 67 b1 3d f5 e4 ca 3c a0 82 2e bd
       0.07746442 0.08662373 0.024767378 -0.042605042
000090 bc 95 a7 3c d2 e6 9a bd 82 8f 2c 3d 11 05 65 3d
       0.020457141 -0.07563557 0.042129047 0.055913035
0000a0 4a aa 5f 3d c2 1b 84 3d 20 a3 56 3d c0 65 ba bd
       0.05460576 0.06450607 0.052401662 -0.091014385
0000b0 95 a6 53 bd d9 d6 4f bc bf 06 8e 3c 06 c8 5b 3d
       -0.051672537 -0.012685501 0.017337201 0.053657554
0000c0 2f 92 bd bd 80 6a 62 bd b7 25 06 3d c2 89 62 3d
       -0.09256398 -0.055277348 0.03275081 0.055307157
0000d0 2d 57 8e 3b d3 b6 29 3d b8 d9 a3 3d 9e 77 a3 3d
       0.0043438883 0.04143412 0.08000511 0.079817995
0000e0 b1 84 a3 3c b7 49 9d bd 19 b6 12 bd 16 29 54 bd
       0.019960733 -0.076800756 -0.035818193 -0.051796995
0000f0 f3 2b 64 bd 84 ea 81 3d 1c 06 95 3b 06 82 6b bd
       -0.055705976 0.063435584 0.0045478474 -0.057497047
000100 48 66 2c 3d 2b 78 fa bc 42 77 51 bd d4 06 8b bb
       0.04208973 -0.030574879 -0.051139124 -0.0042427573
000110 2f 5a 42 bd 7e 04 4e bd 6c 97 52 bd b7 7d 83 bd
       -0.047449287 -0.050297253 -0.05141394 -0.064204626
000120 1a f4 fe bc 47 89 4f 3d e2 1d 38 bd 08 43 bc 3d
       -0.031122256 0.050668027 -0.044950373 0.09192473
000130 71 8b 2a 3c 56 46 c0 bc 8b 00 f4 bb 1f 0a 9f bb
       0.010409222 -0.023471039 -0.007446354 -0.0048535015
000140 aa bb ab 3c bd 6b 6d 3d db d1 c6 3c fd aa c7 bd
       0.020963509 0.057964075 0.024269989 -0.0974941
000150 bb c5 2b 3c 1e 60 d0 3c 72 65 89 bd 02 16 85 bd
       0.010484154 0.025436457 -0.06708802 -0.06498338
000160 80 13 11 3d 6c e7 b9 bd da f0 91 bd 10 5c 8d 3d
       0.035418987 -0.09077343 -0.07126017 0.06902325
000170 99 4a 16 bc b4 1f 47 bc 98 be 6b 3d c3 28 fa 3c
       -0.009173059 -0.012153555 0.05755481 0.030537015
000180 8c 4a a2 bc 19 27 54 3b a9 f2 6a 3d 19 eb 9c 3d
       -0.019810937 0.0032371937 0.057360325 0.07662029
000190 1f b9 1f bd 43 57 d0 bb f9 8f 62 3d b9 a8 64 3d
       -0.038994905 -0.0063580587 0.055313084 0.05582497
0001a0 81 96 31 3c 3d b7 c2 3c 1a ea 84 3d 93 21 66 bd
       0.010839106 0.023769015 0.06489964 -0.056184363
0001b0 e2 8a e5 3a fa 80 37 3c 91 40 a9 bc fa ab 3f bd
       0.0017512704 0.011200184 -0.02066067 -0.04679487
0001c0 27 6d 57 bc be 0d b1 bd 3a bf 8a bd 55 4a 33 bd
       -0.013148583 -0.08645199 -0.06774755 -0.04377206
0001d0 21 f9 db bc 19 b0 76 bd 24 09 a9 3c 42 07 b9 bd
       -0.026852192 -0.060226534 0.020634241 -0.090345874
0001e0 2a aa 9e bc 38 87 b3 bd 6d d9 93 3c 3d b2 df bc
       -0.01936825 -0.08766025 0.018048013 -0.02730667
0001f0 8a be e5 3a ea 0c b9 bc cb 9f 9f bd df 2e 75 3d
       0.0017528099 -0.022589166 -0.0779415 0.059859153
000200 10 1c a1 bd 90 75 d2 3c 2b 83 c2 3d 2b 1a 98 3d
       -0.078666806 0.025690824 0.094976746 0.07426866
000210 75 64 a0 3d 63 93 84 bd 6f 55 58 3d 16 58 ec bc
       0.07831661 -0.06473424 0.05281585 -0.028850596
000220 a4 60 49 bc ec 33 83 bd b4 78 bc 3d 27 e7 42 3d
       -0.012291107 -0.06406388 0.0920271 0.047583725
000230 f3 29 4c bb bc 0a 99 3d 68 f7 51 bd 53 fb e5 bc
       -0.0031152933 0.074727505 -0.051261336 -0.028073942
000240 26 fe 81 bc 4a fe 10 bd 96 f6 2e 3d 3f 10 5a 3d
       -0.015868258 -0.03539876 0.04271563 0.05323815
000250 65 68 d1 bb 37 4a e3 3c 64 ee 72 bd e8 e3 f8 3c
       -0.0063906186 0.02774535 -0.05930938 0.030382112
000260 e4 94 6b bd 66 c3 a2 3d 09 c7 52 bd 12 2b a7 3d
       -0.05751504 0.079474255 -0.051459346 0.08162512
000270 a6 9f 24 bd 59 8d b0 3c 23 fb 19 3c fd bd 6f bc
       -0.040191315 0.021551775 0.009398255 -0.014632699
000280 ac a7 71 3d 32 91 57 3d 7f 53 cd ba fe 31 39 ba
       0.058997795 0.052628703 -0.0015665143 -0.00070646394
000290 eb 9b 62 bd fd 65 e8 3c 88 21 dd bc 89 cb 5f 3d
       -0.055324476 0.028368944 -0.026993528 0.054637466
0002a0 46 f7 bb bd 24 ca 80 3d a0 ec 7e bd 96 38 b7 bd
       -0.09178023 0.06288555 -0.062237382 -0.0894634
0002b0 29 71 28 3c 4e e5 9e 3d aa 7b ce bc ae fc 8e 3d
       0.010280886 0.0775858 -0.025205452 0.069817886
0002c0 83 d8 40 3d 80 cb da bc 25 23 5b bd bf ba 2a bd
       0.04708148 -0.026708364 -0.053500313 -0.041682
0002d0 82 7a 63 3d 9e a6 c2 3c 88 e5 e1 3a 14 dc 0c bd
       0.055536754 0.02376109 0.0017234543 -0.03438957
0002e0 37 e4 a4 3d a8 ce 80 3d 12 ff b5 bd 25 4a 80 bd
       0.08051341 0.062894166 -0.088865414 -0.06264142
0002f0 3a 07 93 bd 32 18 b4 3c 62 35 2e bd de fe ab bc
       -0.07179113 0.021984193 -0.04253138 -0.020995554
000300 0a cf 8e bd 75 1f 93 bd f3 4b fe ba c2 1d ae bd
       -0.06973083 -0.07183734 -0.0019401297 -0.085017696
000310 4f 5e db bc 09 22 df 3b 4c c0 de 3c ad ee b7 bd
       -0.026778368 0.006809477 0.027191304 -0.08981071
000320 1a 23 0e 3c 81 90 95 3d 90 cf 75 bd f1 6d 18 bd
       0.008675361 0.073029526 -0.0600124 -0.037214223
000330 31 ae d8 3c b8 51 de bb 7b 0a 2b bd 7a b8 43 3d
       0.026450248 -0.006784644 -0.04175804 0.047783352
000340 4d 23 b1 bd 56 64 b2 bd 2d 46 5f 3d 78 82 05 3d
       -0.08649311 -0.08710544 0.054510284 0.032595128
000350 79 76 37 3c 34 df a0 3d 0a cf a0 bd 8e ed 82 3d
       0.01119768 0.078550726 -0.078519896 0.06392966
000360 9f e1 18 3c 70 a5 77 3d 80 b2 22 3d 9c 8c dd 3c
       0.009331136 0.060460508 0.039721012 0.027044587
000370 6a ee ad bd 89 dd 85 3b 04 45 f3 bc 47 9f 57 bc
       -0.084927395 0.004085247 -0.029695995 -0.013160533
000380 3e 67 93 3d 0a 68 88 bc 68 1b 33 bd 01 84 09 bd
       0.07197426 -0.016651172 -0.04372731 -0.033573154
000390 23 55 ae bc 8b 75 56 3d eb e1 37 3c 9f 7e 12 3c
       -0.02128083 0.05235819 0.011223297 0.008941322
0003a0 ca 97 52 bd 21 f8 ac 3d fb 80 c3 bc 66 19 f7 3c
       -0.05141429 0.08445764 -0.023865214 0.030163478
0003b0 48 5a 98 bd 4f df 2f 3d d2 16 04 3d cc b1 81 3d
       -0.07439095 0.042937573 0.032248326 0.0633274
0003c0 3d a6 33 3d 6a eb c8 bd 04 4e fd bc 10 6e 59 3d
       0.04385971 -0.09810527 -0.03092099 0.05308348
0003d0 41 b8 11 3d 56 31 ac bc be 66 3d 3d 72 21 94 3d
       0.03557611 -0.021019619 0.04624056 0.07232942
0003e0 4b 5f 33 3c 95 b3 cf 3b 6b ba a2 3d 3d c8 8d 3d
       0.010948013 0.0063385465 0.07945713 0.06922958
0003f0 8b d1 07 bd f3 0b 44 bb fa 00 63 bc 78 a1 1c 3d
       -0.03315882 -0.002991435 -0.013855213 0.038239926

bias f4 [128]
000000 c7 16 4f bd 03 fb 29 bd d5 8e dc bc 94 95 95 bd
       -0.05055883 -0.04149915 -0.026923576 -0.073039204
000010 17 73 af 3d fb c0 8c 3d 64 38 15 3c 4e ed b8 3b
       0.085668735 0.068727456 0.009107683 0.0056435233
000020 03 83 8c 3d d4 70 9a 3d 42 9b dd bc 0a 83 30 bd
       0.06860926 0.075410515 -0.027051572 -0.04309372
000030 cc b5 41 3d 13 9b 70 bd 57 c0 40 3d a5 3c 99 bd
       0.047292516 -0.05874164 0.04705843 -0.0748227
000040 94 98 29 bd 75 c6 bc bb 53 98 4f bd 4f 3b ea 3c
       -0.041405275 -0.0057609626 -0.050682377 0.028592734
000050 4b de f0 3a 5e d3 0a 3c 6f a5 91 3d 7f a5 1a 3d
       0.0018376795 0.008473245 0.07111632 0.037755486
000060 a2 2c 76 bd 1e 8b 5e bd 5b 58 cc 3c 5e 7f 2d bd
       -0.06010116 -0.05433189 0.024944475 -0.042357795
000070 b5 73 91 3d a5 1c c1 3d be c1 8f bc df f7 a3 bd
       0.071021475 0.09429292 -0.017548438 -0.08006262
000080 0b d5 c1 bd 36 72 89 bd f9 66 9f bd 16 2f 7a 3d
       -0.09464463 -0.06711237 -0.07783312 0.06108006
000090 7e e3 64 bd d9 0c 94 bd b6 f4 ba 3d 58 ca 85 bd
       -0.055881016 -0.07229013 0.09128706 -0.06532735
0000a0 4b f8 8d 3d 3f 7c f0 bc 5d ed 80 bc f8 83 1c 3d
       0.06932124 -0.02935612 -0.015738184 0.038211793
0000b0 c7 28 5b 3d 6e 58 bb bc b5 d5 b6 3d 4b f9 04 3d
       0.053505685 -0.022869315 0.0892748 0.032464307
0000c0 fc be 97 3d 60 c2 9e 3d 59 a3 65 bd 96 bc 7b 3c
       0.07409474 0.07751918 -0.056063984 0.015364787
0000d0 0a 15 93 bd 90 3f 8b bd 56 a9 71 3c 32 bd e7 bc
       -0.07181747 -0.06799233 0.0147498455 -0.028288458
0000e0 f1 27 64 bd ce 3b 86 3c 24 69 15 bd 3a 65 a2 bd
       -0.055702154 0.016385939 -0.036477223 -0.07929464
0000f0 f9 74 1b 3d b0 80 9b bb 74 fa 1f 3d 6c 9f 32 bd
       0.03795335 -0.0047455654 0.03905721 -0.043609068
000100 cb b9 b2 bc a1 16 47 3d 53 16 89 bd e9 56 a5 3b
       -0.021817109 0.048605565 -0.06693711 0.005045761
000110 19 7a c7 3d a9 5e 62 3c c6 07 17 3d 3d 2e 99 bd
       0.09740085 0.013816514 0.036872648 -0.074795224
000120 a0 38 0f 3d 95 af aa bd 89 36 a7 3d 08 de 8f 3c
       0.03496611 -0.08334271 0.08164699 0.017561927
000130 fb a3 77 bd 3d 8d 86 3c f0 87 ca 3d b7 8f 57 bd
       -0.06045912 0.01642477 0.09889209 -0.05262729
000140 62 3d 08 bb 87 5c b8 3d 39 6e 60 3b 8b e7 54 3d
       -0.002078854 0.09002023 0.0034245385 0.05197863
000150 86 bf 78 3d 6d 86 b1 bc 5e 71 c0 3d 22 60 d1 bc
       0.060729526 -0.021670545 0.09396623 -0.025558535
000160 c4 10 cc 3d 61 a5 8d bc 58 a4 c6 3c bc e1 b8 bd
       0.09964135 -0.017290773 0.024248287 -0.090274304
000170 4a b5 16 3d 9e 8a f9 ba 2f 13 af bd 72 01 1f bd
       0.036793984 -0.0019038504 -0.08548581 -0.038819738
000180 6e 8c 95 3d 47 72 b1 bd a5 ae e8 3c 45 66 bd 39
       0.073021755 -0.08664375 0.02840359 0.00036125086
000190 a9 99 21 3c db e3 d6 ba ef 85 98 3b e6 df e3 bc
       0.009863296 -0.001639481 0.004654638 -0.027816724
0001a0 ea 28 c5 bd 29 d5 a7 bc 80 f1 7d 3d 33 18 bc bd
       -0.09626944 -0.020487385 0.06199789 -0.09184303
0001b0 00 6f 38 bd f2 3e 85 bd bf 45 7a bd ec ad df bc
       -0.045027733 -0.065061465 -0.06110167 -0.027304612
0001c0 a4 20 7a 3d 54 84 69 3d a2 5f 13 3d ac 7b 4d 3d
       0.061066285 0.057010964 0.035979874 0.05016677
0001d0 19 1d d0 bd d4 ca b8 bd 89 0a be 3d ef bc 9b 3d
       -0.101618 -0.090230614 0.09279353 0.076043956
0001e0 82 4d 3f 3d 98 c0 ae bd 7c ea 98 bd a2 3b b0 3d
       0.046704777 -0.08532828 -0.07466599 0.08605124
0001f0 8d b2 88 bd 1d 9c 9f bc 56 8f aa 3c dc 9d ca 3d
       -0.06674681 -0.01948362 0.020820301 0.098933905

weight f4 [1, 128]
000000 bb 78 90 3c ca b5 80 3c da fc 93 3c 8e 8b 29 3a
       0.017635694 0.015711684 0.018064905 0.00064676336
000010 06 b0 e3 bb 04 a3 d2 bb 58 bc 2e bc 9c 16 6d 3b
       -0.006948474 -0.0064281244 -0.010665022 0.0036176806
000020 ec 04 95 bc 2a ad 1e bb 7f dd 5a 3c 2b d8 78 bc
       -0.018190823 -0.00242121 0.013358473 -0.015188257
000030 76 7e 08 3b be cf 78 3c ec 10 a2 ba ed 59 38 3c
       0.002082733 0.015186248 -0.0012364662 0.011251909
000040 13 65 9a 3c ca 73 3c 3c bb 10 72 bc de f0 81 bb
       0.018847024 0.011502216 -0.014774497 -0.003965481
000050 ca d6 8c ba 37 9b ef 3a 1c 47 51 bc 0a 29 4c 3c
       -0.0010745164 0.001828051 -0.012773301 0.012460956
000060 f4 84 80 bc 01 ef 01 3c c5 1f 95 bc a5 68 5c 3c
       -0.015688397 0.007930518 -0.018203625 0.013452684
000070 b7 fc 80 3b 0c 69 d6 bc e2 b6 81 3c af 1d d6 3b
       0.003936376 -0.026173137 0.015834276 0.0065343003
000080 c6 62 26 3c 90 03 bf 3c dd 1d ac 3c 7c dc 02 bc
       0.010155385 0.023317128 0.021010334 -0.007987138
000090 22 bd 89 3c 0c 52 6c 3c a6 d8 cd ba 9f 7a 2e bc
       0.016813818 0.014423858 -0.0015704825 -0.010649352
0000a0 4f 84 2d bb 9d 23 7b 3c 60 9b 1d ba 53 ee 20 bb
       -0.0026476567 0.015328315 -0.00060122274 -0.0024556115
0000b0 ca 07 e6 bc de 69 e5 bb c3 f4 4b bc 16 bb 68 bc
       -0.028079886 -0.0070011457 -0.012448492 -0.014204761
0000c0 06 ef 97 bc 95 e6 0a bc a1 fc 0d 3c 0a 3a 67 bc
       -0.018546592 -0.008477827 0.008666188 -0.014112959
0000d0 17 6e 1b bc 1d 16 50 ba db 59 c8 3b 70 64 90 3c
       -0.009486697 -0.00079378654 0.006114227 0.017626017
0000e0 4d b1 6a bb 52 ed 07 3a c6 bb e2 bc 10 b0 d1 3c
       -0.0035811246 0.0005185205 -0.027677428 0.025596648
0000f0 db 04 b7 bc d7 1a 73 3c 09 d0 04 bc ef 88 9d 3b
       -0.022341182 0.014837942 -0.00810624 0.0048075835
000100 ae f6 32 3d a4 de f3 bb 1e 28 26 3c f9 4a e5 bb
       0.043692283 -0.0074423123 0.010141401 -0.006997463
000110 70 78 f0 bb 30 0c a6 3c f0 b4 80 bc 4b 1e 33 3c
       -0.007338576 0.020269483 -0.015711278 0.010932515
000120 2a 59 68 3c 3c 0b 67 3c 4f 50 0a bc 98 e5 a4 3b
       0.014181415 0.0141018 -0.008441999 0.0050322525
000130 bc f9 21 bc d3 5a 7c bb 7d 57 a5 bc ea fd a1 bc
       -0.0098862015 -0.0038506284 -0.02018332 -0.019774396
000140 7f ce ea 3b dd b8 72 bc 0e 77 ac bc cf 11 dd ba
       0.0071657295 -0.014814583 -0.021052863 -0.0016866269
000150 a5 db da bb 80 4d 4e 3c fc 23 00 bd c8 3f 48 3c
       -0.0066790157 0.01259172 -0.031284317 0.012222238
000160 8e df 5e bc 29 30 8b 3b d9 aa f1 3b 3f 0d bf 3c
       -0.013603104 0.0042476845 0.007375103 0.023321746
000170 d1 ba 57 bc 32 d2 2d 3c e9 eb a4 b9 53 c8 97 3c
       -0.013167099 0.0106091965 -0.00031456284 0.01852814
000180 d4 83 d0 bc 2a 3b 7d 3c f9 75 c1 bc 4e d4 59 3c
       -0.025453486 0.015456 -0.023615824 0.013295246
000190 7f 04 94 bb b0 80 12 bb 5b 3c 87 3c 3d 51 ae 3c
       -0.0045171375 -0.0022354536 0.016508272 0.021278972
0001a0 99 4b a3 3b fa 57 97 bc 3d 48 8b bc 62 00 83 3c
       0.004983377 -0.018474568 -0.01700222 0.015991393
0001b0 9e aa 82 bc a1 aa d3 bb 93 6f bf 3c a6 32 db 3c
       -0.015950497 -0.0064595495 0.023368632 0.02675755
0001c0 21 6b 00 3c b0 6f cc bc 43 76 d5 bb 03 9d b4 bb
       0.0078380415 -0.0249556 -0.006514342 -0.0055118813
0001d0 6d fd cd 3c b7 9e 98 39 3e c5 8d bc 95 0b 99 bc
       0.025145257 0.0002910995 -0.017305966 -0.01868228
0001e0 cf 8a 99 3c 67 2f 87 3c 8a 8f 11 3c 66 1e da bb
       0.018742947 0.016502095 0.00888432 -0.006656456
0001f0 c5 e8 84 3c d3 74 95 3c 40 a7 0e 3c cf ad a6 bb
       0.016224274 0.018244183 0.008706868 -0.0050866376

weight f4 [3, 128]
000000 f2 fe 3e bc 4f 97 fe 3b 16 a1 1c 3b 12 38 c5 3b
       -0.011657463 0.0077695022 0.0023899726 0.006018647
000010 80 42 27 bc 6b e4 00 3b 73 32 56 3c 40 c4 b4 ba
       -0.010208726 0.0019667398 0.0130735515 -0.0013791397
000020 6e 48 d2 3b f6 f2 11 3c a2 00 b5 3b 7a 37 c2 3c
       0.0064173257 0.008908024 0.005523757 0.023708094
000030 5c 20 19 3c 0b 01 70 ba df 98 e6 bb 98 c2 c4 bb
       0.009346094 -0.0009155429 -0.0070372666 -0.0060046427
000040 43 55 0a 3b f5 7b 8c bb 29 23 25 bb e7 7d 2c bb
       0.002110795 -0.0042872378 -0.002519796 -0.002632016
000050 86 fa 49 3c 00 c3 ad 3b ea 20 71 3c 8d 87 55 bc
       0.012327796 0.005302787 0.01471732 -0.013032806
000060 3d e8 6c bc 25 a5 c3 3b 96 ce 06 3c 7e d4 a7 3b
       -0.014459667 0.0059706145 0.008227965 0.0051217666
000070 01 67 0c bc 42 a9 4c bc ff ee 80 bb 2d 9e 10 bb
       -0.00856948 -0.012491526 -0.0039347406 -0.0022066936
000080 47 b5 be 3b f1 cd 03 bc 34 53 9d 3c a2 11 7d 3c
       0.00581995 -0.008044706 0.019204713 0.0154460985
000090 6b da a5 ba 3c 3f 46 3b f9 c6 b0 3a 9b 4a 84 bc
       -0.0012653595 0.0030250093 0.0013487033 -0.016148856
0000a0 e7 11 7c bb 18 f8 5a 39 1f 86 d9 3b 6f d4 ce 3a
       -0.003846282 0.00020882522 0.006638303 0.0015779863
0000b0 0b 64 ce bb 51 84 c1 3c bc fa 70 3c 65 6a be bb
       -0.006298547 0.023622664 0.014708217 -0.005811023
0000c0 7a 33 ee 3a ff ef 9c bb 89 f0 96 bb 58 7f 8d 3c
       0.00181733 -0.004789352 -0.0046063107 0.017272636
0000d0 33 35 3c 3c cf 89 c0 3b e5 2c dc 3b 56 89 25 3c
       0.011487293 0.005875803 0.006719219 0.010103544
0000e0 e4 f4 e1 b7 b8 cc 81 bb f1 3e 56 bc 9e a5 20 bb
       -2.6936126e-05 -0.003961172 -0.01307653 -0.0024512778
0000f0 d5 1f 06 3a a0 33 41 bc 06 c1 34 bc 49 ee c3 ba
       0.00051164377 -0.0117920935 -0.0110323485 -0.0014948334
000100 c4 d0 95 bb f3 ec e8 bb a4 56 61 bb 2c 83 52 3c
       -0.004572006 -0.0071083247 -0.0034383917 0.012848657
000110 4b d9 e3 ba 47 f7 01 bb 7f 95 40 ba 65 5e 42 bc
       -0.0017383484 -0.0019831227 -0.00073464954 -0.011863326
000120 7f f0 23 3b 4a cb d9 39 fd a9 51 bc 6d 61 72 3c
       0.0025015173 0.00041540927 -0.012796876 0.014793736
000130 a0 12 70 ba 33 b9 32 3a 5a c2 4f 3b aa e1 c2 bb
       -0.0009158049 0.0006817758 0.0031701536 -0.0059473114
000140 27 5c 4a 3b 2b 89 6d ba cf 7f 2d 3c 87 39 35 3b
       0.003087768 -0.0009061272 0.010589554 0.0027652697
000150 55 6c a1 3c 7c 59 f4 bb 88 3c 13 3c 94 7c 30 bc
       0.019704977 -0.0074569564 0.0089866 -0.010771889
000160 e1 7c e7 3b af 31 7a bc 55 14 8c 3b 35 c5 06 3c
       0.0070644473 -0.015270635 0.0042748847 0.008225729
000170 ca 84 44 bb 84 65 5a bc e0 a8 5b 3c 69 4f cc bb
       -0.0029986375 -0.013329867 0.013406962 -0.0062350524
000180 61 98 40 bc a3 d1 07 3c 87 31 93 bb f8 4d 99 bb
       -0.01175508 0.008289727 -0.004491988 -0.004678484
000190 91 a5 e7 bb ba 72 5a 3b f8 5b 53 3c c5 c3 15 3c
       -0.0070692976 0.0033332543 0.012900345 0.009140913
0001a0 e4 d2 10 3c 42 15 3f 3c 22 47 14 bc 1e b0 e0 3b
       0.008839343 0.011662783 -0.0090501625 0.0068569323
0001b0 36 3b 06 bb 98 c6 30 3b e0 1a 08 bc 53 58 7e 3b
       -0.002048207 0.002697384 -0.008307189 0.003880997
0001c0 99 cb 58 3b 1c d9 80 3b 4b ea 02 ba 3f 1a e8 3a
       0.0033080338 0.0039321315 -0.0004994019 0.0017708017
0001d0 7c 49 88 3b 55 18 dc 3b 83 99 20 ba 70 51 d0 bb
       0.0041591506 0.006716768 -0.00061263907 -0.0063573644
0001e0 0e eb b2 3b da c4 2a ba 1a e9 15 ba e6 26 93 bb
       0.0054601496 -0.00065143185 -0.0005718634 -0.004490721
0001f0 f0 cc 73 bc 27 e6 4b bc 3f 51 55 3b f2 f3 35 bb
       -0.014880404 -0.012445009 0.0032549647 -0.002776381
000200 43 e1 2c 3b f1 04 45 bb 5e 76 94 bb 0f a2 61 3c
       0.0026379384 -0.003006276 -0.004530712 0.013771548
000210 58 fd 14 3c 08 b7 f2 bb 36 4d 4d 3c 81 c1 6b bb
       0.009093605 -0.007407073 0.012530616 -0.0035973492
000220 d4 c1 7f bb d3 18 20 3c 6b 86 69 ba 4e ad 90 3c
       -0.0039025443 0.009771544 -0.00089082745 0.017660763
000230 1a ee 11 3b 84 02 b7 bc 2e d9 32 3c 34 3f 81 3c
       0.0022267164 -0.022340067 0.0109160375 0.015777208
000240 aa c6 27 3b e6 b5 66 bb fb 53 80 3c 45 d8 bd bb
       0.002560059 -0.0035203635 0.015665045 -0.0057936036
000250 a0 98 a8 bb 4b d3 67 3c 4f 05 d7 3b 32 d7 d6 b9
       -0.0051451474 0.014149497 0.006561912 -0.00040977594
000260 a5 df 03 ba 39 5c 78 bb 02 db f5 3b f2 f8 03 bc
       -0.0005030579 -0.0037896766 0.0075029144 -0.008054959
000270 b0 68 3f 3c 2b 17 d7 ba be 26 6e 3c c8 0e e0 ba
       0.011682674 -0.0016410103 0.014535604 -0.0017094249
000280 48 24 e8 bb 9c 34 af ba 5e cb 4c 3c 9e 6b db bb
       -0.007084403 -0.0013367119 0.012499658 -0.0066961786
000290 af d6 b0 bb d9 12 7a 3b c9 73 52 b9 98 93 00 bc
       -0.005396686 0.0038158207 -0.00020070294 -0.007847689
0002a0 e4 79 e9 3b 28 70 58 3c 47 a1 ae 3a f8 c2 33 bc
       0.007125126 0.013210334 0.0013323211 -0.010971777
0002b0 25 06 87 3b 97 ac 1e bc 6b 7c a0 bb f1 fb 7b bb
       0.0041206055 -0.009684703 -0.0048976443 -0.003844973
0002c0 7b a1 77 bc 67 b5 07 3c 38 e4 39 bb bd 6d 13 bb
       -0.015114184 0.008282996 -0.0028364789 -0.002249583
0002d0 b3 ce 98 3b 05 10 2d 3c 6b 2f bc 3b 4f 62 03 3c
       0.0046633123 0.010562901 0.0057429573 0.008019044
0002e0 08 dc 09 bc e0 bc 2f 3a 2f 48 96 ba 61 ac 50 3b
       -0.008414276 0.0006703865 -0.0011465604 0.0031841027
0002f0 dd 5c 56 3b 7a 0c cf 3b 5c 0a 7a bb 20 0f 2b bc
       0.003270916 0.006318626 -0.0038153147 -0.010440618
000300 c1 3f 6e 3c d0 8d 54 3c 2a 09 6a 3b 37 d2 16 bc
       0.014541567 0.012973264 0.0035711029 -0.009205393
000310 26 61 14 bb 6e 20 f0 3b ca 16 0c bc 88 02 9d 3a
       -0.0022640913 0.0073280847 -0.008550355 0.0011978904
000320 e3 4e 84 bb 48 37 97 bc 6f 7d 4c 3c 46 2a c0 b7
       -0.0040377243 -0.018458977 0.012481078 -2.2907869e-05
000330 2d cb 85 3b db cf 70 b9 85 96 6b bb e3 01 65 bc
       0.0040830583 -0.00022965616 -0.003594787 -0.013977501
000340 be 37 49 3c 54 66 4f 3a 05 13 25 bc 03 ff 89 3b
       0.012281356 0.00079116714 -0.010075335 0.004211308
000350 8d 7d 67 3c d7 b7 0b 3b 70 3d 0c 3c a6 11 b2 39
       0.014129055 0.0021319294 0.00855957 0.00033963955
000360 c1 eb b6 3a 8d f5 a1 bc b6 42 10 3c 95 3d c0 bb
       0.0013955758 -0.019770408 0.008804968 -0.005866716
000370 cf b2 94 3b d4 05 de 3b 48 5c 81 3b d7 5e 12 3c
       0.004537917 0.006775597 0.0039477684 0.008933744
000380 76 7d 0c bc 54 e0 2e 3c b4 6c 3f 3b 42 2a 36 bc
       -0.008574834 0.010673601 0.002920908 -0.0111184735
000390 4f 30 8c 3a 3e 4e a4 3b da d0 50 bc 30 6b fa 3b
       0.001069555 0.00501421 -0.012745107 0.0076421723
0003a0 9e d6 3e 3b 19 e3 d4 ba fb cf 25 3b 81 d0 1e 3a
       0.002911962 -0.0016241997 0.0025300968 0.0006058291
0003b0 c0 12 01 bb 83 35 60 3c 0e 94 9f 3c 3b 6c 99 3b
       -0.0019695014 0.013684633 0.019479778 0.0046820915
0003c0 d3 a5 0d 3c 8c 98 09 3c 0a ba 17 3b 77 7a 57 3c
       0.008645493 0.008398186 0.002315166 0.0131517565
0003d0 ba 8d 2f ba 3d ab 3b b9 63 0b 47 bc 95 42 16 3c
       -0.0006696839 -0.00017897501 -0.012148711 0.009171148
0003e0 28 69 b2 3b 70 6b 55 bc 17 c7 15 ba a9 1c ac bb
       0.0054446645 -0.013026103 -0.00057135656 -0.00525244
0003f0 5f eb b8 b9 b9 7c e3 bb 3f a0 91 bc c4 69 d8 3a
       -0.0003527058 -0.0069423583 -0.017776607 0.0016511013

bias f4 [3]
000000 12 68 84 3a 5c ba 41 3b 48 62 30 bb
       0.0010101816 0.0029560542 -0.002691405

weight f4 [1, 128]
000000 d7 98 4b 3c 77 3e c5 3c f2 aa 76 3c ff 4f 83 3c
       0.012426577 0.024077637 0.015055405 0.016029356
000010 30 e6 4e bc c5 48 b9 bc b8 ca b6 bb dc 89 92 3c
       -0.012628123 -0.022617707 -0.005578365 0.017888002
000020 25 c7 df bc eb 4d b7 3b e0 19 59 3c d3 60 b1 bc
       -0.02731664 0.0055940053 0.013250798 -0.021652615
000030 ed 2d ce 3c ec 3a 40 3c 26 ac e1 3b d1 db 26 3c
       0.025168383 0.011732798 0.006886977 0.010184244
000040 f3 b8 2b 3c 4d 54 a7 3b 5b bd 5d bc 99 7e 55 3c
       0.010481107 0.005106485 -0.013533915 0.0130306715
000050 6c 73 6f bc d9 6c 8c 3c 99 8e 6a bc 79 26 8d 3c
       -0.014614921 0.017141746 -0.0143162245 0.01723026
000060 41 a9 f0 ba 2c d1 0c 3c e0 d4 83 bc 5c 58 b3 3c
       -0.0018360988 0.008594792 -0.016092718 0.021892719
000070 46 8e 33 bb 48 83 55 bc 04 61 56 3c fb 66 a7 3c
       -0.0027398034 -0.013031788 0.013084654 0.020434847
000080 43 40 f8 3b 82 29 04 3d b5 a4 59 bb 76 8e bc 3b
       0.00757602 0.032266147 -0.0033209745 0.0057542874
000090 62 d9 e3 3c f9 19 59 3c fc 25 9f bc 1b 15 a3 bc
       0.027813617 0.013250821 -0.019427292 -0.019907525
0000a0 7b ec 58 3b e4 00 fd 3b 23 43 64 3b e0 44 40 3c
       0.0033099938 0.0077210534 0.0034830056 0.011735171
0000b0 1e cf bc bc a8 3e 61 bc 16 ce 1b bc 8c a0 5f bc
       -0.02304798 -0.013747849 -0.009509584 -0.013649117
0000c0 11 7c 40 bc a4 a9 84 bc d8 37 b6 3b 64 08 21 bc
       -0.01174833 -0.016194172 0.0055608563 -0.009828661
0000d0 94 af 93 bc 25 84 73 3c ce 90 96 3c 1e a1 08 3c
       -0.018028058 0.014863049 0.018379595 0.008339195
0000e0 e4 e7 4f 3b 6c 03 4f bc ef 39 e8 bb 73 fc 42 3c
       0.003172391 -0.012635093 -0.0070869843 0.011901009
0000f0 84 fa b6 bc e6 32 6d bc 81 f3 18 bc 0d 36 4e 3c
       -0.022336252 -0.014477467 -0.0093354 0.012586129
000100 51 17 32 3c d9 bd 9f bc 08 5c 52 3c 18 15 2f 3b
       0.010869817 -0.019499706 0.012839325 0.0026715454
000110 d0 2a 1a bc ea 49 9e 3c b3 4c c7 bc e5 f7 b1 3b
       -0.009409621 0.019322354 -0.024328565 0.0054311627
000120 33 de 98 3b 13 ef ab 3a 6e f4 89 bc 68 9d 97 3c
       0.00466516 0.0013117514 -0.016840186 0.018507674
000130 f1 ad 7d 3c 6f 7e 3c bc 77 00 e8 bb 88 48 e0 3b
       0.015483365 -0.0115047535 -0.0070801335 0.006844584
000140 0c 39 46 3c 10 3e dc bb ae ab 2e 3b 78 73 29 bb
       0.012098562 -0.0067212656 0.0026652622 -0.0025856178
000150 ee 29 6b bc da a8 db ba b6 fc 61 bc 09 5b 6d 3c
       -0.014353259 -0.0016758696 -0.013793161 0.0144870365
000160 db 67 95 bc 6c 9c 21 3c 81 99 b9 ba 78 1c ec 3c
       -0.018237999 0.009863954 -0.0014160128 0.028822169
000170 0a c3 56 bb d7 8e a8 3b 3a a6 31 3c 2c 4a 0e 3c
       -0.003277006 0.005143981 0.010842854 0.008684676
000180 15 03 9e bc 8d 35 87 3b 53 42 c3 bc a7 3d 7b 3c
       -0.019288579 0.004126257 -0.023835337 0.015334523
000190 65 57 a4 bc d0 0e 54 bc 64 db ef 3b 3e fb d3 3c
       -0.020061204 -0.012942985 0.0073198546 0.025876638
0001a0 88 3f c0 3c c7 9f 4c 3c 27 41 b7 bc 65 51 02 3c
       0.023467794 0.012489266 -0.022369934 0.007953976
0001b0 64 fb 1c bb 3b 23 3d bc 93 bc c5 3c 03 39 1e 3c
       -0.0023953551 -0.011544044 0.02413777 0.009657147
0001c0 2c 9c a9 3b 22 96 03 ba 2d 32 2e bc 9c 56 91 bc
       0.005176088 -0.0005019625 -0.01063208 -0.017741494
0001d0 79 54 5a 3c 48 05 5f 3c 68 67 d9 bb 7f fa 6f bc
       0.013325804 0.013612099 -0.0066346414 -0.014647125
0001e0 a7 66 e1 3c 83 c5 e9 b9 de 0f a5 3c c2 31 41 bc
       0.027514769 -0.0004458838 0.020149168 -0.011791648
0001f0 26 d7 e1 3b b8 87 7d 3c 66 3f 81 3c 25 2f 91 bc
       0.006892103 0.015474252 0.015777301 -0.017722676
