TradeSimulator-v0_D3QN_-1/cri.pth (torch, 150856 bytes, 14 tensors)

state_avg f4 [10]
000000 2b 27 c5 3e 40 a9 b7 3a df 12 29 bc 89 7c ae 3e
       0.38506445 0.0014012232 -0.010319441 0.34079388
000010 19 1a a0 3b c5 2c 72 bc 11 be f1 bd ec 39 e8 3e
       0.0048859236 -0.014781182 -0.118038304 0.4535669
000020 c2 0c e6 3b 72 a7 ef bc
       0.007020564 -0.029254649

state_std f4 [10]
000000 6f bf 3b 3f 3a 04 03 3f 35 7c 47 3f 4c 76 5e 3f
       0.7333898 0.51178324 0.779239 0.86899257
000010 39 25 30 3f 60 af 1f 3f e7 9c 7d 3f 7b 57 35 3f
       0.688068 0.62376976 0.9906754 0.7083661
000020 8f d1 2b 3f 9a b3 20 3f
       0.67116636 0.6277405

weight f4 [128, 10]
000000 99 67 36 3e 09 30 30 3e 0a 01 1c bd fe c8 3c 3e
       0.17812957 0.17205824 -0.03808693 0.18436047
000010 98 a0 98 be 08 f9 51 3e e6 98 be bd 7c 9e 35 3e
       -0.29810023 0.20505154 -0.09306507 0.17736238
000020 e8 fe 54 3d 73 85 14 bd 27 0c c3 3d 23 b3 e2 3e
       0.05200091 -0.03626008 0.09523802 0.44277295
000030 df c0 05 3e 2d 44 fb bd 5d 79 53 bd e6 d6 04 bd
       0.13061856 -0.12268863 -0.051629413 -0.032431506
000040 9b 6c 44 3d 36 b6 18 39 6a ae 7f 3e 80 6d ed 3d
       0.047955137 0.00014563728 0.24968877 0.11593151
000050 9d a5 e5 bd 6d b5 e3 be f5 49 81 bd 03 b4 0e be
       -0.11213229 -0.44474354 -0.06312934 -0.13935857
000060 87 af e6 bd 9d e8 ba ba 8b 07 43 3e 3c 66 38 3e
       -0.11263948 -0.0014259998 0.19045846 0.1800775
000070 ac c1 88 be e3 06 35 3e aa a1 9a 3d 0b 09 56 bb
       -0.2671026 0.17678408 0.07550366 -0.0032659199
000080 e2 82 62 3e 9f cb 9a be ff 8b 72 be c6 03 0f be
       0.2212024 -0.30233476 -0.23686217 -0.13966283
000090 9f 4b 96 3e 8d 06 7e bd f3 b6 ff 3d 50 44 cf bd
       0.2935457 -0.062017966 0.12486067 -0.101204515
0000a0 9e 4f 9d 3e a9 ff de be aa 0c 5e 3e db ec 9d 3c
       0.30724806 -0.43554428 0.21684518 0.01927798
0000b0 ec 19 1a be 9d d9 24 3e 88 19 3e be 78 49 e7 3d
       -0.15048951 0.16098638 -0.18564427 0.1129331
0000c0 8d 56 aa bd e6 4d 39 bd 68 8e a9 be 1c 74 e5 be
       -0.083172895 -0.045240305 -0.3311646 -0.44815147
0000d0 43 c3 37 3e 9b 66 c6 bd 95 ef a0 3e ae 25 3d 3e
       0.1794558 -0.09687539 0.31432787 0.18471405
0000e0 f8 3e 3a bd 11 97 24 be b7 7a 3d 3e f8 bf a4 3d
       -0.045470208 -0.16073252 0.18503843 0.08044428
0000f0 60 00 46 be 0f 24 1e be 7d 26 31 3e 91 99 a1 3e
       -0.1933608 -0.15443443 0.17299838 0.31562474
000100 f6 b8 29 be 6c 68 89 bd d7 8f 3a bc 38 6e 41 3d
       -0.16574463 -0.0670937 -0.011386833 0.047224253
000110 6a ba 55 be e8 ae 3c be 46 a7 41 3e 24 de c1 be
       -0.20871893 -0.18426096 0.18911466 -0.37864792
000120 05 1a 0d 3e 1a d5 b8 3c 2d 7e bb 3d 56 ab 55 3d
       0.13779457 0.022562552 0.091549255 0.05216535
000130 9e 04 d0 3d cc ea 2c 3e 94 56 86 be 2c 69 12 3e
       0.10157131 0.16886443 -0.2623793 0.14297932
000140 96 74 7a be af f9 96 be f3 29 e8 3c 44 d8 54 bd
       -0.24458537 -0.29487368 0.028340315 -0.05196406
000150 e2 cd 3e 3e 09 86 43 be a7 e8 87 be 7f f0 70 3e
       0.18633226 -0.19094099 -0.26544687 0.23529242
000160 c6 1b 59 bd f7 ee 46 3e 02 20 d9 3d d0 f3 27 bf
       -0.053005002 0.19427095 0.10601808 -0.65606403
000170 c5 82 7d 3d 0d 55 95 3d f5 a5 53 be dd 3b 21 be
       0.06189229 0.07291613 -0.20668776 -0.15745492
000180 e8 c8 d9 3d 21 a0 8e 3d 86 88 0e be 6f 0c c6 bd
       0.10634023 0.06964136 -0.13919267 -0.0967034
000190 1b 0c 96 3e 31 a5 94 be 64 c1 35 3e 64 33 f9 3d
       0.2930611 -0.2903228 0.17749554 0.12168005
0001a0 c7 21 2f be 46 aa 80 be 19 30 9d 3e 75 b8 a3 3c
       -0.17102729 -0.25129908 0.30700758 0.019985417
0001b0 c8 a6 52 3e ad ae 2c 3d 87 71 c3 3d dd 23 40 bd
       0.20571434 0.04215877 0.09543138 -0.046909202
0001c0 fa a5 8e 3e 9b 90 54 be 53 17 46 3d 3f 50 63 3e
       0.27861005 -0.20758288 0.048362087 0.2219858
0001d0 8b c2 7c 3e 39 ff 55 3e f0 02 2f be 0a 90 48 be
       0.24683587 0.20898141 -0.17090964 -0.19586197
0001e0 b3 73 44 be b5 7e 82 be 0a 2d 95 3e 6c dd 52 be
       -0.19184761 -0.25487295 0.29135925 -0.20592278
0001f0 7b dc 1f 3e 2e 7f 12 be df ae 96 be 48 86 83 bd
       0.1561145 -0.14306328 -0.2943029 -0.064220965
000200 e2 55 25 3e e2 b1 90 3e 7a 6e 3c be 20 c9 83 3e
       0.16146043 0.28260714 -0.18401518 0.25739384
000210 f9 2b 83 3e 3d 30 54 3e 04 52 54 3e 71 8a 70 3e
       0.25619486 0.20721526 0.20734411 0.23490311
000220 ee 0c 59 3e 89 a6 d9 3d 75 b3 2d be fc 1e 75 be
       0.21196339 0.10627467 -0.16962989 -0.23937601
000230 92 43 08 be 82 ac e8 bd a4 77 44 be 30 d9 08 3e
       -0.13307026 -0.11361028 -0.19186264 0.133641
000240 14 4a ab 3d 20 ef 62 bd e9 ee fb 3d d9 30 aa 3d
       0.08363739 -0.05540383 0.12301428 0.08310098
000250 25 27 3f 3e fb 22 18 3e 4d 93 e2 bd e3 d0 6a bd
       0.18667276 0.14857094 -0.11063252 -0.057328116
000260 34 31 48 bd 9c a0 17 bc 3c 51 8e be 39 84 32 be
       -0.04887505 -0.009254601 -0.27796352 -0.17433251
000270 6d df 52 be 80 14 0f be ed 06 56 3e 9b be c4 bd
       -0.20593043 -0.13972664 0.2090108 -0.096066676
000280 99 43 80 be ec 64 1c bb aa 1d be 3d dc 00 3d 3e
       -0.25051573 -0.0023863865 0.09283002 0.18457359
000290 9f ec 1b be a9 9c 69 3d d2 d5 b9 bd 1d 41 97 bd
       -0.15226983 0.05703417 -0.09073986 -0.07385466
0002a0 8b 6d 84 be 5f 92 1c be 32 19 a9 bd 29 e7 e6 bd
       -0.25864825 -0.15290211 -0.08256759 -0.11274559
0002b0 25 2e 7e 3d c3 81 ac 3d 1b 6c a1 3e e9 b4 86 3e
       0.062055726 0.084231876 0.3152779 0.26309898
0002c0 9a 90 81 3e 67 67 ad 3b 24 de 3f be ba 76 42 3e
       0.25305635 0.0052918675 -0.18737084 0.18990603
0002d0 79 11 9e bd ec e4 ba be cb 48 7d be e4 0b 89 bd
       -0.077181764 -0.3650278 -0.247348 -0.06691721
0002e0 4c 09 3b be 20 a3 61 3e ce 23 9c be 02 4c 81 be
       -0.18265265 0.22034883 -0.30496067 -0.25253302
0002f0 d4 57 58 bb af ed 25 be 85 91 ff 3d 32 ac 37 be
       -0.0033011334 -0.1620395 0.124789275 -0.17936781
000300 20 75 19 be 4d 1e c7 3c 1e 7d 57 3e ef f8 49 be
       -0.14986086 0.02430644 0.21043822 -0.19723867
000310 84 d2 27 3e ef 81 57 3e 46 d7 85 3e 64 e9 82 be
       0.16388899 0.2104566 0.26140803 -0.25568688
000320 88 d5 c9 3d 57 42 cb 3d 1f 22 8e 3e 4b 34 d8 bd
       0.09855181 0.09924763 0.27760407 -0.10556849
000330 87 ee 45 3e 33 94 74 bb a8 37 81 bc fc 37 5d 3a
       0.19329272 -0.003731978 -0.01577361 0.0008438823
000340 60 7a 5e 3d 11 81 16 3e ef f0 69 3d 4d 56 8a be
       0.054315925 0.14697672 0.057114538 -0.27018967
000350 ad 77 7b be 0d 2e 7c 3e 48 d4 67 3e d1 e6 50 3e
       -0.24557371 0.24626942 0.22639573 0.2040055
000360 ea 8c 82 3e f8 9d 6c be 25 5b e7 bd 06 73 88 3e
       0.25498134 -0.23107135 -0.11296681 0.26650256
000370 ad 2e 6e be 91 64 67 3a a7 2f 7e be ae c3 79 be
       -0.23259993 0.0008826936 -0.24822865 -0.24391052
000380 4c 5b 15 3e ad f5 40 be 0f 98 aa bd 55 55 78 3e
       0.14585608 -0.18843718 -0.08329784 0.24251302
000390 c8 dd 84 3e 38 fe 8b 3e f8 54 1e bd fb 01 30 bf
       0.25950456 0.2734239 -0.03865525 -0.6875302
0003a0 59 98 8e 3e 21 b7 6c bd 33 c4 df bd 41 c3 9d 3d
       0.27850607 -0.057791833 -0.10926094 0.07703257
0003b0 cb c1 6f be 94 38 74 3e 8a ce 3b 3e 10 63 82 be
       -0.2341377 0.23849708 0.18340507 -0.25466204
0003c0 15 59 8c be 3a 1e ab bd ff 2b cc 3d 64 7b 62 3c
       -0.27411714 -0.08355375 0.09969329 0.013823364
0003d0 df eb e3 bd 18 b3 d0 3c 8a 36 9a be 44 f5 62 be
       -0.11128973 0.025476024 -0.30119735 -0.22163874
0003e0 8a b2 69 be 53 91 51 3e 61 c6 91 3e 71 06 92 be
       -0.22822013 0.20465593 0.28471664 -0.2852054
0003f0 0d cf 17 3c 45 32 1a 3e 68 e9 11 3d ac 03 21 be
       0.009265673 0.15058239 0.035622984 -0.15724057

bias f4 [128]
000000 af 66 50 3d c1 5b 1d bc ac 90 85 3d 56 f4 0f bc
       0.050879177 -0.009604395 0.065217346 -0.008786282
000010 e5 ee 44 3e a8 36 55 bc 5f 66 75 3e ee 9e bf 3d
       0.19231756 -0.013013519 0.23964833 0.09356485
000020 53 0b 88 3b ec 83 81 3d 2a 51 77 3e ea 6a 85 3d
       0.0041517406 0.0632399 0.24152055 0.06514533
000030 21 c0 69 3e ea 05 2d bc 90 59 ec 3b 4e f1 8e 3e
       0.22827198 -0.010560492 0.007212825 0.27918476
000040 44 07 9f be 2e 0b 5a 3d e4 c4 9a 3e 45 04 0e be
       -0.3106023 0.053233318 0.3022834 -0.13868816
000050 b9 22 33 bd c5 cb 18 bb 65 c2 e9 3d 51 5d 21 3e
       -0.043734286 -0.0023314815 0.11414031 0.15758254
000060 73 b0 b0 3d bd ae 0c 3e 10 8c fd bd 7e 66 1c 3e
       0.08627405 0.13738532 -0.123802304 0.15273473
000070 71 fb b8 bd 87 60 68 3e 33 29 96 bd 4a 6a 8b be
       -0.09032334 0.22693072 -0.07332077 -0.2722953
000080 31 eb 38 3d 1f 8f 48 3e e3 51 05 bc 79 bd 39 bc
       0.04514617 0.19585846 -0.008137199 -0.011336678
000090 1d 42 24 3b bf 35 3b 3e 45 96 96 3c b3 49 a3 be
       0.002506382 0.18282221 0.018382201 -0.31892166
0000a0 1a 26 7a be ec 1c 28 3d 0a 24 00 bc d9 3e ac 3e
       -0.24428597 0.041043207 -0.007821092 0.336417
0000b0 43 0c 27 bd 04 a6 77 3e dd 1c 77 be 4d 00 99 be
       -0.040783178 0.24184424 -0.24132104 -0.29883042
0000c0 7e 9c 07 bc 98 0e 73 be aa 5d d2 bd a6 d0 cc 3c
       -0.008277057 -0.23736036 -0.10271771 0.025001835
0000d0 d2 19 85 be 0d e5 75 3e eb 51 30 be e7 c1 85 3e
       -0.25996262 0.24013157 -0.17218749 0.26124498
0000e0 9d 6c c1 3d c7 dd 31 bd f7 33 83 be 43 72 29 3d
       0.094445445 -0.043424394 -0.25625584 0.041368734
0000f0 80 06 2b be ff 46 97 3e d6 e3 83 be 51 06 b8 bd
       -0.16701698 0.29546353 -0.25759763 -0.0898558
000100 45 e3 11 be f8 b6 47 be 2e cc 62 be e1 9c 83 bc
       -0.14246853 -0.19503391 -0.22148201 -0.016066017
000110 7d d9 5e 3c 81 16 9c 3d 04 66 37 3e 8e 34 f0 bd
       0.013601658 0.0762148 0.1791001 -0.11728774
000120 72 96 69 be 74 90 93 bd 48 a8 a5 3e 94 e2 2a bd
       -0.22811297 -0.072052866 0.3235495 -0.041719988
000130 38 19 90 be 9c 24 88 3e b6 db 65 3d 21 6d a0 3d
       -0.2814424 0.2659043 0.056117736 0.07833315
000140 74 d5 90 3d 2f da 6d 3e 3c 34 0e be a8 d5 7c 3e
       0.07071963 0.23227762 -0.13887113 0.24690878
000150 e1 6d a8 3e b8 ae 8f bd 95 26 67 3e c4 e9 4d 3e
       0.3289633 -0.07015747 0.22573312 0.20108706
000160 6c 91 a4 3e 0a 72 7f bd 21 ab 5f be fb bb d0 bd
       0.32142198 -0.062364615 -0.21842624 -0.101921044
000170 1f eb 4b be 56 04 01 3d 2c 8f a8 3e 01 20 aa 3e
       -0.1991391 0.031498276 0.3292173 0.33227542
000180 6a 12 67 3e 1a 73 41 3d b2 3e e6 3c 04 15 4b 3e
       0.22565618 0.04722891 0.028106067 0.19832236
000190 01 1a 4b 3e c5 98 f7 bc cd 96 bb bd b5 c0 0c 3e
       0.19834138 -0.030224213 -0.09159622 0.13745387
0001a0 c5 84 d1 3c 0e 5b 5d be 46 b0 2a be 16 ac 8e 3e
       0.025576005 -0.21616766 -0.16668805 0.27865666
0001b0 74 d5 91 3e 08 90 de bd 9c 46 5b bd 1b 87 2d be
       0.28483164 -0.108673155 -0.053534135 -0.1694607
0001c0 76 8b c2 bd a3 1d 9c 3e 7a 18 a8 be b1 2c 1c 3e
       -0.09499256 0.3049136 -0.32831174 0.15251423
0001d0 6a 39 99 be 56 8f 10 be 58 78 51 bd 22 0a a5 3c
       -0.29926616 -0.14117178 -0.05114016 0.020146433
0001e0 cd bb 0d bd f1 6e 28 be e3 4e 06 be ac 5e 51 be
       -0.03460293 -0.16448571 -0.1311603 -0.2044627
0001f0 dd ec 62 be 47 e5 4d be 48 8f a8 3e e9 8c 00 be
       -0.22160669 -0.20106994 0.32921815 -0.12553753

weight f4 [128, 128]
000000 3c af bc bd 6a 12 90 3d 04 b9 22 3d 41 aa 8a 3d
       -0.09213111 0.07034762 0.039727226 0.067707546
000010 e3 d2 b0 bd 9c f1 a0 bd 0c 58 88 bd 00 fe 53 bd
       -0.086339734 -0.07858583 -0.066574186 -0.051755905
000020 22 61 59 bc fb 04 40 3d 98 3c 63 3d d7 00 84 bd
       -0.013267787 0.04687975 0.05547771 -0.06445473
000030 a3 ba 01 3d fb 27 cf bc df 31 d9 3b 22 ba 28 3d
       0.03167213 -0.025287619 0.0066282596 0.041193135
000040 29 fc e3 3c 82 7f df 3c 4c ff 83 bb 03 7c 81 3d
       0.0278302 0.02728248 -0.0040282365 0.063224815
000050 e9 3e b7 3c 2d 09 9c 3d cc d7 7a 3c db f6 17 bd
       0.022368865 0.07618938 0.015310239 -0.037100654
000060 f5 83 2b 3d 31 22 80 3b a1 8e c5 3d ac 39 8d bc
       0.04187389 0.003910326 0.09646345 -0.017239414
000070 5b 46 9d 3d e5 6b 61 bd 78 3d 23 3d 09 b5 5e bd
       0.07679435 -0.055034537 0.039853543 -0.054371867
000080 2f c0 5e 3d 80 02 af 3c a8 be 7f 3d 0a 72 9f bd
       0.0543825 0.021363497 0.062437683 -0.07785423
000090 d0 fe bb bd 84 6f 29 3d d8 aa b6 bc 96 3b 12 3d
       -0.09179461 0.041366115 -0.022298262 0.035701357
0000a0 54 6e 48 bd 26 6a c9 bc de 2b 91 3c 53 6f 50 3d
       -0.048933342 -0.024586748 0.017721113 0.050887417
0000b0 83 76 00 3d a9 f4 a3 3b a3 1d 01 bd e6 d8 1b 3d
       0.03136302 0.005003531 -0.031522404 0.038048647
0000c0 5f f9 ca 3c 3c 33 7f bd e3 09 a8 bc b3 a5 c6 bd
       0.024777113 -0.06230472 -0.020512527 -0.09699573
0000d0 69 46 49 3c 39 7f 3b bc 99 5c 4b 3d 4a 28 ac 3d
       0.0122848535 -0.011443906 0.049648855 0.08406122
0000e0 ee d7 92 bd 78 17 ed bc fd ae 79 bd 88 14 b3 bb
       -0.071700916 -0.028941855 -0.060957897 -0.005465094
0000f0 5d b4 3e bd c0 d8 81 bd 63 fd 06 bd d2 69 ff bb
       -0.046558727 -0.0634017 -0.032956492 -0.007794597
000100 35 b0 72 3d df 9a a7 bc 35 e8 7d 3d 4d ac 8a bd
       0.059250075 -0.02045959 0.061989028 -0.06771145
000110 fb 54 e6 3b 41 37 5d bd 0e 8b b5 bd 1a cd 48 3c
       0.0070291734 -0.054007772 -0.08864413 0.012255931
000120 b4 e1 2e bd 22 6a 84 3d 05 4c 71 3d 8b 40 9f bd
       -0.042695716 0.06465556 0.05891039 -0.077759825
000130 5d 2e 9e 3b fc 92 f6 bb de c9 36 bd a1 be 2e bd
       0.0048273043 -0.007524846 -0.04462611 -0.042662267
000140 87 51 52 bd 5c 07 41 3d 14 a3 db 3b 3f d9 88 3d
       -0.05134728 0.04712616 0.00670279 0.066820614
000150 78 b7 41 bc 1b 59 29 3d 4d ee 38 3c 66 e2 8f bc
       -0.0118235275 0.041344743 0.011287284 -0.01756401
000160 db 10 ae bc 5b d1 b8 bd fe de a5 bc 08 75 e8 bc
       -0.021248272 -0.090243064 -0.020247933 -0.028376117
000170 1d 40 42 bd da 68 02 bd e2 3a 36 bd 7d 39 89 bd
       -0.047424424 -0.031838275 -0.04448975 -0.06700418
000180 44 88 24 3c e6 17 0b bb 52 05 1a bd 92 70 b5 3d
       0.010042254 -0.0021223961 -0.03760273 0.08859362
000190 96 03 8f 3d 39 eb 2b 3d c2 de 48 bd a4 8d 87 bb
       0.06983106 0.041972373 -0.049040563 -0.004136758
0001a0 74 8a a9 bd 2b f1 69 3d f8 97 92 3d 66 86 4c bc
       -0.08278361 0.05711476 0.07157892 -0.012483215
0001b0 12 b8 6b 3d e6 46 95 3d 66 5e 63 bc 4b 6d 1e bd
       0.05754859 0.072889134 -0.013877487 -0.03867845
0001c0 30 7b 14 bc 02 08 08 3c 5e a0 79 bd 50 4b 1d 3c
       -0.009062573 0.00830269 -0.060943954 0.009600475
0001d0 19 34 aa bc 3c 07 83 3d ad 63 1c bd 10 d4 8c 3d
       -0.020776795 0.06397864 -0.038180996 0.06876385
0001e0 f4 f8 6a 3d 43 80 ae bc b8 70 1b 3d fb 07 6e bc
       0.057366326 -0.021301394 0.037949294 -0.01452827
0001f0 45 b8 06 bd 03 c3 1c bd d2 7e 4b 3b c0 71 b4 3c
       -0.032890577 -0.038271915 0.0031050933 0.022026896
000200 fb 87 3a bc d5 2c 76 3c db c7 75 3d 67 e5 1b 3d
       -0.011384959 0.015025337 0.06000505 0.038060572
000210 6e 35 2f 3d 47 2f e8 3c e1 47 7e bd e7 d6 53 bd
       0.042775564 0.028342856 -0.062080268 -0.05171862
000220 d5 22 74 bd 9a c2 81 3d f9 8b 9a bd 55 a7 7f bd
       -0.05960353 0.063359454 -0.07546229 -0.06241544
000230 12 8a 65 3d cc 3c 5c 3d 5d bd a2 bd b6 9a 63 3d
       0.056039877 0.053768918 -0.079462744 0.055567466
000240 27 e6 ba bc 91 e5 88 3c b0 b1 4b bd 92 5d 65 bc
       -0.022814823 0.016711028 -0.049730003 -0.01399936
000250 d4 d2 8f 3c 69 ab 86 3d c5 2f 63 3d 4c 86 2a bd
       0.017556585 0.06575663 0.05546548 -0.04163198
000260 ec 11 72 bd 29 44 fe 3a 5a 7b e0 3c 13 e7 6e 3d
       -0.059099123 0.0019398975 0.027402569 0.05832584
000270 49 a6 ac bd 9a cb 25 3b dd 0c 36 3c 83 e1 33 bd
       -0.08430154 0.0025298358 0.011111465 -0.043916237
000280 f4 1e 9c 3d b3 40 60 bc 3e 07 a0 bd 3b c5 3f bd
       0.07623091 -0.0136873005 -0.07813881 -0.046818953
000290 5a 25 eb 3a 59 0b 64 bd 88 6d c7 3c 2c f0 99 3d
       0.0017940209 -0.055674884 0.02434422 0.07516512
0002a0 c5 ed 28 3c 75 35 49 bc 09 61 bf 3d 7a f6 93 3d
       0.010310595 -0.012280812 0.0934468 0.07224746
0002b0 b5 e5 83 3d 53 28 67 3c 83 ed 2a 3c b5 dd 78 bd
       0.064402975 0.014108735 0.010432604 -0.06075831
0002c0 63 ad 76 3c 97 c2 c3 3d 32 fa 33 3c dc 86 90 bd
       0.015055987 0.095585994 0.010984944 -0.070569724
0002d0 3e e2 0f 3d 02 5d ab 3d f7 3f a4 3d 67 71 43 3c
       0.03512787 0.08367349 0.08020013 0.011928893
0002e0 bc 9c b6 3c f0 0e a0 3c 13 9a 10 bd 11 64 38 bc
       0.022291534 0.019538373 -0.035303187 -0.011254326
0002f0 9e 40 84 3d 5c 91 96 3c c5 35 ad 3d 4d 7d 85 bd
       0.06457637 0.01837986 0.08457521 -0.0651804
000300 b7 60 11 bc 2d 94 34 3b f5 e3 37 bd 33 9d 91 3d
       -0.008873156 0.002755414 -0.04489513 0.071100615
000310 8d c7 82 3d cd b5 2f bd 18 e7 a9 3d 80 42 97 3d
       0.063857175 -0.042897988 0.08296031 0.07385731
000320 d4 92 49 bd b2 d9 c1 3a d0 7d b8 3d 78 b8 65 bd
       -0.04921229 0.001478961 0.09008372 -0.056084126
000330 d0 fd 02 bc a7 c5 6e bd 49 82 92 3d 15 74 aa 3c
       -0.007995084 -0.058293965 0.07153756 0.020807305
000340 e1 8f 2c 3d 20 0c 95 3d 88 f0 8e bc 39 c9 90 bd
       0.0421294 0.07277703 -0.017448679 -0.0706963
000350 c1 60 50 3c e5 a5 6a bb ce 12 23 3d 0d d7 46 3d
       0.01271838 -0.0035804447 0.039812855 0.048544932
000360 1f d2 14 bd 4e 65 fd bc 96 e1 6b 3d 14 14 e6 3c
       -0.0363332 -0.030932095 0.057588182 0.028085746
000370 98 1a ac 3c a8 c8 4e 3d b1 db 37 3d 1f 21 69 bd
       0.021008775 0.05048433 0.04488725 -0.056916352
000380 af 47 82 3c e0 9a b0 3b 75 20 a2 bd 35 24 cb 3c
       0.015903322 0.0053895563 -0.07916347 0.024797538
000390 72 2c c7 3b 3c a9 92 3d d2 27 b3 bd 24 d5 b4 3d
       0.0060782963 0.07161185 -0.087478295 0.08829716
0003a0 13 6b 27 bd 3f 06 37 3d 4f 8f 71 3d cb bf 6e bb
       -0.0408736 0.04468369 0.05897456 -0.0036430235
0003b0 ad 83 28 bd be 69 48 bc 92 68 74 bd 4a fc 66 3c
       -0.0411412 -0.012232242 -0.05967004 0.014098236
0003c0 de 07 0e 3d 3e fa c2 3c ac 65 58 bd e8 cf 7c 3d
       0.03467547 0.023800965 -0.052831337 0.061721712
0003d0 de 62 9b 3d 93 c7 e1 bc 2d 3d 3b 3d 80 8d 07 bc
       0.07587217 -0.027560985 0.04571264 -0.008273482
0003e0 74 12 17 3d 00 ff 88 bd 0a bf 8f bd d7 41 74 bc
       0.036882833 -0.066892624 -0.0701886 -0.014908276
0003f0 3d 70 8b bd 47 2e 0c 3d 5b 34 b6 3d f9 a9 9a bc
       -0.06808517 0.03422382 0.08896705 -0.018879877

bias f4 [128]
000000 58 15 85 3d b1 d9 78 3d 64 51 b2 bc 06 9f 3e 3d
       0.064982116 0.06075448 -0.021767326 0.046538375
000010 9c fb f6 bc 5f d5 15 bc b9 93 a1 bd ef d6 34 3d
       -0.030149274 -0.00914511 -0.07889504 0.04415029
000020 88 03 84 3d b6 08 3c 3c 66 ae b6 bd 47 6d 74 bb
       0.06445986 0.011476686 -0.089199826 -0.003729658
000030 95 d9 71 bd af cc 25 bd 81 45 6c bc 4c 65 28 3d
       -0.059045393 -0.040478405 -0.014420868 0.04111223
000040 49 fb 40 3d 0e 42 a9 bd 4f 65 4c bd a2 8e 4f bd
       0.047114644 -0.08264552 -0.049901303 -0.050673135
000050 1d 5c e2 3c 39 2c 82 3b 75 4f 8c bc f2 09 4b 3c
       0.027631814 0.003972557 -0.017127732 0.012392508
000060 3a 6b b8 3b 0d bb a0 bd e9 89 0c 3d b8 cf a3 3c
       0.005628017 -0.07848177 0.03431121 0.019996509
000070 f1 d2 9f 3c 3b 02 54 3d 1d a9 91 3c 16 00 51 bd
       0.019509764 0.05175994 0.017780835 -0.051025473
000080 85 8a d8 3d ea 53 36 3d 87 6b bf 3d 95 8c 83 3c
       0.105732955 0.04451362 0.09346681 0.016058246
000090 8d a6 90 3d 86 36 22 bb c7 2a 9a ba 4f 9f 49 3d
       0.07063017 -0.0024751737 -0.0011762016 0.049224194
0000a0 2b 7f 11 bd 2a f8 a2 bd 59 f5 de 3c 33 42 8a 3d
       -0.035521667 -0.0795749 0.0272166 0.06750908
0000b0 71 aa c4 3d fb 23 bb bb 60 9e c0 bc d1 4c 5c bd
       0.096028216 -0.0057110763 -0.02351302 -0.053784195
0000c0 5f ed c6 3d 94 5d 9c 3b 7c c4 3b bd 97 ac 76 bd
       0.09713244 0.0047718976 -0.04584168 -0.06022319
0000d0 01 9e a0 bc 0e 11 b4 3d 7e 8d 31 3d bb a4 8e bd
       -0.019606592 0.087923154 0.043347828 -0.069650136
0000e0 a2 62 4c 3d 35 02 cc bc 62 dd bc 3d 78 09 c0 bc
       0.04989875 -0.024903396 0.09221913 -0.023442015
0000f0 7a 97 3d 3b 46 49 03 3d e6 4a d8 bb 29 c2 32 bd
       0.0028929398 0.0320523 -0.0066007255 -0.043642197
000100 72 c4 e7 ba 41 77 cc 3d ea c7 85 bd 1f 5b 8b 3d
       -0.0017682447 0.099836834 -0.06532271 0.06804489
000110 94 f9 4a 3d e8 ce b9 3d 13 8a e1 3c 0d d4 4b 3a
       0.049554422 0.09072667 0.02753166 0.00077754335
000120 df 3d 44 bd fc 25 d5 3d 87 58 1c 3c 7d 9b 41 bb
       -0.047910567 0.104076356 0.009542591 -0.002954214
000130 3f fb 01 3d 77 0c 83 bc 74 e3 23 3c 2e 6d c4 3c
       0.031733748 -0.015997155 0.0100029595 0.023977842
000140 b9 15 8d 3d 34 75 7d 3d 05 b2 c0 bd 7a ef 40 bc
       0.06888909 0.06187935 -0.094089545 -0.011775846
000150 08 a7 48 3b d9 72 3b 3d ed 36 4a bd d0 2f 2d bc
       0.0030617137 0.045763824 -0.049368788 -0.010570481
000160 02 96 2b bd 6d ca 68 bd 1d d1 ab 3c bf 07 93 3d
       -0.041891105 -0.056833673 0.020973736 0.07179212
000170 52 ec 05 3d bd dc 22 bd bd 0c 7a bb 2f b7 ca bc
       0.032696076 -0.039761294 -0.0038154565 -0.024745552
000180 73 e8 cc 3d f9 9a 09 3d 26 a0 51 bd 28 a9 92 bd
       0.10005274 0.03359506 -0.05117812 -0.0716117
000190 c0 ab 03 bd 77 27 8e bd 47 8b fd 3c cb 9c 09 bd
       -0.032146215 -0.06941121 0.030950202 -0.033596795
0001a0 0e 24 b4 bd 0e 25 bc bc 0a 5d 11 bd 9b 09 d4 bc
       -0.087959394 -0.022966888 -0.03548912 -0.025883486
0001b0 32 1e a4 3d d4 2d 2e 3b c1 c2 60 bd f5 87 32 bd
       0.08013572 0.0026577609 -0.05487323 -0.04358669
0001c0 3e 6d be 3d ea 2b c3 bb e0 92 c7 bc ed 8c dc bc
       0.0929818 -0.0059561627 -0.024362028 -0.026922667
0001d0 fb 98 2c 3d d3 58 a8 3d 4e ec 1c bc fe de 47 ba
       0.04213808 0.08220067 -0.009577824 -0.0007624476
0001e0 0d 89 e7 bc 4e 75 71 bd c7 93 64 3d b7 96 9f 3c
       -0.028263593 -0.05894976 0.055804994 0.019481046
0001f0 bd 4c 5f 3c d5 8d b6 3c 7f f5 dd 3c e7 cd a3 3d
       0.013629136 0.022284428 0.0270946 0.07998257

weight f4 [128, 128]
000000 c8 38 33 3a 8e 78 2b 3d 82 c5 0e 3c af 14 ff 3c
       0.0006836769 0.041863017 0.008714082 0.031137792
000010 5c d4 8d bd 61 e4 5d 3d d0 8d 7c bd eb 72 4d 3c
       -0.0692527 0.054172877 -0.06165868 0.012539606
000020 09 80 a2 3d cf 3e 9b bc 31 12 1e bd 0a 26 4c 3d
       0.07934577 -0.018950848 -0.038591567 0.049840964
000030 e5 4a ab bd 32 48 0b bd 3a be 4b bc 34 f5 10 3d
       -0.083638944 -0.034004398 -0.01243549 0.035390094
000040 0c 29 76 3d 3f ea 11 bd 20 cf 26 3c 50 46 f6 3d
       0.06009774 -0.035623785 0.010181218 0.1202513
000050 cd fb 91 3d 2e d4 67 bd bb 54 23 bd 2f a6 fd bb
       0.07128105 -0.056598835 -0.039875727 -0.007740758
000060 7a d0 60 bd 32 1c f0 bc 59 35 f9 bb 67 dc 00 bd
       -0.05488632 -0.02931032 -0.0076052365 -0.031460192
000070 38 e9 55 bd fb 89 0f bd 6a 5f ee 3c f6 e1 8a bd
       -0.052224368 -0.035043698 0.029098231 -0.0678138
000080 c1 08 9d 3d 2c 1c b0 3d a9 08 c2 3c 41 54 21 bd
       0.07667685 0.08599123 0.02368577 -0.03938699
000090 15 26 a7 3c ed 56 9b bd ec 49 34 3d 98 ed 65 3d
       0.020403901 -0.07584939 0.04401581 0.05613479
0000a0 b6 7f 64 3d 34 0c 87 3d 60 6c 4b 3d 77 56 bb bd
       0.055785857 0.065941244 0.0496639 -0.09147351
0000b0 5e 46 58 bd 52 75 68 bc 4c 2d 7d 3c f7 62 5e 3d
       -0.052801482 -0.014188128 0.015452694 0.0542936
0000c0 18 d9 bb bd b9 45 60 bd 81 7d 45 3d 9e a4 68 3d
       -0.09172267 -0.054753993 0.048215393 0.056797616
0000d0 73 8e 80 3a c8 fa 27 3d 71 68 9c 3d 2e 62 a7 3d
       0.0009808078 0.041010648 0.07637108 0.08173023
0000e0 4a e6 a6 3c ec ac 9e bd c6 58 07 bd 8b 37 57 bd
       0.020373482 -0.07747826 -0.033043645 -0.052543204
0000f0 75 ba 68 bd 15 b7 7f 3d f3 b5 a5 3b db 9f 61 bd
       -0.056818444 0.06243046 0.0050570904 -0.05508409
000100 c0 b8 1b 3d 33 08 05 bd ed 14 4e bd 1d 84 92 bb
       0.03801799 -0.032478523 -0.050312925 -0.0044713155
000110 25 0d 33 bd db a2 62 bd ae 74 47 bd c7 d4 82 bd
       -0.043713707 -0.055331092 -0.04869526 -0.0638824
000120 01 af ec bc 85 ee 4a 3d 5e 3a 3c bd 8f 4c c4 3d
       -0.028892042 0.049543876 -0.0459541 0.09584915
000130 2b ef 52 3c 67 ad 9e bc c5 b2 e4 bb 12 ea 02 bc
       0.012874405 -0.019369794 -0.006979319 -0.007990377
000140 f7 df a0 3c c7 c1 69 3d c0 50 bd 3c 6a e1 c1 bd
       0.019638045 0.057069566 0.023109794 -0.094668224
000150 09 32 ed 3b 21 e1 ce 3c 3a 6c 88 bd 15 fb 86 bd
       0.0072386307 0.025253834 -0.066612676 -0.06590859
000160 51 aa 1e 3d dc 7f b7 bd 1f 5b 90 bd 02 e0 90 3d
       0.038736645 -0.08959934 -0.0704863 0.07073976
000170 8a 08 e5 bb a1 d3 43 bc c5 fe 61 3d c9 f1 fc 3c
       -0.0069895433 -0.011952312 0.055174608 0.03087701
000180 bb eb a6 bc d3 71 32 3b e5 98 61 3d 21 f9 9e 3d
       -0.020376077 0.002722849 0.055077452 0.07762361
000190 c3 fe 1b bd 50 cd d5 bb 26 10 60 3d 64 2c 6b 3d
       -0.038084757 -0.0065247193 0.0547029 0.05741538
0001a0 52 d2 2d 3c 74 42 cb 3c cd 75 85 3d 47 b1 63 bd
       0.010609226 0.02481196 0.06516609 -0.055588987
0001b0 bf 16 1b 39 a3 61 5c 3c 22 cc 90 bc cc cb 38 bd
       0.00014790425 0.013451013 -0.017675463 -0.04511623
0001c0 bc f6 50 bc 58 b3 ec bd 49 24 89 bd fb 9e 43 bd
       -0.012754139 -0.115576446 -0.06696374 -0.047759037
0001d0 94 8c de bc 1a a1 76 bd 52 8d ba 3c e0 05 ba bd
       -0.027166642 -0.060212232 0.022772465 -0.09083152
0001e0 ad 8d 9a bc a4 0f b6 bd e3 92 8b 3c f5 d5 b9 bc
       -0.018866384 -0.08889702 0.017037814 -0.02268503
0001f0 e2 b5 f4 3a 62 6b c4 bc ce 08 9e bd e1 0e 78 3d
       0.0018669928 -0.023976985 -0.07716523 0.060561065
000200 86 ef 9c bd 79 10 d6 3c 1d 42 c7 3d c8 a0 95 3d
       -0.07662873 0.026130902 0.09729407 0.07306057
000210 0a 25 84 3d 73 aa 81 bd dd 1c 44 3d df db e8 bc
       0.06452377 -0.06331339 0.04787909 -0.028425155
000220 15 1d 1b bc 6f 5d 82 bd e8 3d bc 3d 01 0e 46 3d
       -0.009467383 -0.06365477 0.09191495 0.0483532
000230 0c b0 5f bd aa 5d 99 3d 35 75 62 bd 8e 49 db bc
       -0.05461125 0.07488568 -0.05528756 -0.026768472
000240 89 1d 20 bc de 54 0d bd 42 28 29 3d af 5f 7a 3d
       -0.009772667 -0.034504764 0.04129816 0.061126407
000250 4e 1e db bb c5 38 e2 3c a4 9e 6f bd d4 23 e9 3c
       -0.006686962 0.02761496 -0.0585009 0.028459467
000260 c7 80 72 bd 25 d7 a2 3d e8 12 53 bd d5 83 ae 3d
       -0.059204843 0.07951192 -0.051531702 0.08521239
000270 d1 c2 22 bd a0 3a b8 3c 04 2b 01 3c 69 7f 60 bc
       -0.039736573 0.022488892 0.007883791 -0.013702252
000280 88 22 6d 3d c2 be 54 3d ab d7 24 bb 88 6b 4b 3a
       0.05789426 0.051939733 -0.0025152962 0.0007759859
000290 68 62 63 bd 6d b5 eb 3c dc fd c8 bc c7 5b 6a 3d
       -0.05551377 0.028773034 -0.024535112 0.057216432
0002a0 36 98 b8 bd ab c4 88 3d 70 b9 86 bd 16 e9 b9 bd
       -0.09013407 0.066781364 -0.06578338 -0.09077661
0002b0 19 e1 0f 3c 4a 71 99 3d 8f d7 d2 bc 30 ad 8e 3d
       0.008781695 0.07492311 -0.025737552 0.06966627
0002c0 bc 40 41 3d 9f bc d9 bc 94 8b 19 bd 31 df 19 bd
       0.047180876 -0.0265792 -0.037486628 -0.037566368
0002d0 93 96 50 3d 71 e5 c0 3c 3c 66 6c 3a 46 9b 0a bd
       0.05092485 0.023546906 0.00090179197 -0.033839487
0002e0 ec cd a8 3d 17 82 7b 3d ae 6e b1 bd e9 39 78 bd
       0.082424015 0.06140336 -0.086636886 -0.060602102
0002f0 6a 0c 94 bd 28 c1 a4 3c ab fc 30 bd d6 07 97 bc
       -0.0722893 0.020111635 -0.043209713 -0.018436354
000300 23 4d 96 bd 8d 88 98 bd 92 96 c4 ba 41 5e af bd
       -0.073389314 -0.0744792 -0.0014998487 -0.085628994
000310 a9 88 bb bc 5d cf 09 3b 9f e9 ef 3c fd 0d b8 bd
       -0.022892313 0.002102814 0.029286204 -0.08987043
000320 a4 cf 24 3c 7d 25 91 3d 4f df 7f bd 9a a0 16 bd
       0.010059271 0.070872284 -0.062468823 -0.036774255
000330 3d 99 ea 3c 76 72 91 bb e7 08 2a bd a2 ad 3f 3d
       0.028637523 -0.0044386936 -0.041512396 0.04679645
000340 4f 90 b5 bd b5 78 b7 bd 21 e0 4d 3d 8f 3d 0c 3d
       -0.08865415 -0.0895857 0.050262574 0.034238394
000350 f0 55 23 3c 90 3d 9e 3d 8a 56 9f bd 94 af 82 3d
       0.00996922 0.07726586 -0.07780178 0.06381145
000360 27 95 44 3c d4 50 80 3d 5f 98 26 3d a4 3b df 3c
       0.011998451 0.06265417 0.040672656 0.027250119
000370 32 33 a8 bd eb bc 9d 3b a2 7f 06 bd 61 71 56 bc
       -0.0821289 0.0048137805 -0.032836564 -0.013088555
000380 b0 01 92 3d 89 a4 9b bc f3 f4 3b bd 47 d1 08 bd
       0.07129228 -0.018999355 -0.0458879 -0.033402707
000390 6b a5 ad bc 58 f0 56 3d 54 1b 2d 3c 30 ea 31 3c
       -0.021197041 0.052475303 0.010565598 0.010859057
0003a0 c9 26 5c bd 6a 24 b2 3d 4c 8c b6 bc de 3d fe 3c
       -0.053747926 0.08698352 -0.022283696 0.03103536
0003b0 7d 8a 9d bd 90 26 37 3d d0 aa 0a 3d b8 cd 86 3d
       -0.0769243 0.04471451 0.033854306 0.065822065
0003c0 e4 70 36 3d d6 94 01 be 9c e7 ed bc 2b 8b 64 3d
       0.044541255 -0.12654433 -0.029041104 0.055796783
0003d0 76 50 07 3d 06 c4 ab bc 73 27 42 3d e7 19 93 3d
       0.033035718 -0.020967495 0.047400903 0.07182675
0003e0 f8 76 18 3c 5e 4f 89 3b f3 ae a2 3d 3c d2 94 3d
       0.009305708 0.0041903695 0.07943525 0.072666615
0003f0 86 ea 09 bd 7e d4 72 bb cb d2 62 bc 3c 04 1f 3d
       -0.033670925 -0.0037052925 -0.013844202 0.038822398

bias f4 [128]
000000 b8 be 5a bd 7d 9b 39 bd eb 47 f7 bc 15 00 9d bd
       -0.05340454 -0.0453143 -0.03018566 -0.07666031
000010 63 4e b6 3d cd 2d 94 3d 51 c4 3d 3c 1f 90 ed 3a
       0.0890167 0.07235298 0.01158245 0.0018124616
000020 57 91 93 3d 5b f5 9d 3d be 03 fc bc 79 8d 23 bd
       0.07205456 0.077128135 -0.030763503 -0.03992984
000030 34 b8 31 3d 44 be 7b bd e9 27 47 3d 47 fc 9e bd
       0.04338856 -0.06146075 0.048622046 -0.07762962
000040 8d cf 36 bd 56 0d 0b bc 5f 54 42 bd 8f 1f d5 3c
       -0.04463153 -0.008487066 -0.047443744 0.026016025
000050 76 4b a3 3b 4b 38 a6 3b 71 26 97 3d 58 30 0c 3d
       0.004983361 0.0050726286 0.07380379 0.03422579
000060 e2 68 69 bd aa c5 69 bd 36 74 e6 3c dc 75 3b bd
       -0.05698479 -0.057073273 0.028131586 -0.045766696
000070 fd 1f 92 3d 7d bd c8 3d e5 51 ab bc 84 6b aa bd
       0.071350075 0.09801767 -0.020913074 -0.08321288
000080 d5 87 c7 bd cf 81 90 bd cc f3 a6 bd 51 48 80 3d
       -0.09742705 -0.07056009 -0.08151969 0.06263793
000090 9e a2 75 bd f0 2b 9b bd 9d df c1 3d 47 96 7b bd
       -0.059969537 -0.0757674 0.09466479 -0.061422613
0000a0 aa 75 92 3d 9a e0 06 bd a0 03 9b bc 1c 21 1d 3d
       0.07151349 -0.03292904 -0.018922627 0.038361654
0000b0 29 92 68 3d 72 cf 9f bc b8 d7 bc 3d 19 e3 13 3d
       0.056780014 -0.019508097 0.092208326 0.03610525
0000c0 ca 73 9d 3d 07 27 a5 3d 4d c9 6f bd 34 5f 94 3c
       0.07688101 0.080640845 -0.058541585 0.018111803
0000d0 a5 61 8b bd e1 c1 92 bd b6 07 31 3c 86 f3 01 bd
       -0.068057336 -0.07165886 0.010805061 -0.031726383
0000e0 93 e3 6a bd ce 5f a0 3c f0 56 08 bd 48 a0 a9 bd
       -0.057345938 0.019576933 -0.033286035 -0.08282524
0000f0 81 75 2a 3d b6 58 bf bb 24 f7 2c 3d 16 81 41 bd
       0.041615967 -0.0058394326 0.04222788 -0.047242247
000100 80 08 ce bc bf 1b 55 3d 39 3d 90 bd ed ce b1 3b
       -0.025150537 0.052028414 -0.07042927 0.005426279
000110 10 70 ce 3d 44 3d 2e 3c 4f 53 27 3d e8 40 9f bd
       0.10079968 0.010634724 0.040850934 -0.07776052
000120 e7 37 04 3d 75 58 af bd f7 6b ad 3d d8 4c 65 3c
       0.032279875 -0.08561794 0.08467858 0.013995372
000130 48 36 80 bd ba 77 9f 3c a3 62 d1 3d 7c cd 4a bd
       -0.06260353 0.01946627 0.102238916 -0.04951237
000140 56 1b d8 bb bf 48 be 3d d9 85 cf 3b 64 e6 5d 3d
       -0.0065950556 0.09291219 0.0063330946 0.054174796
000150 e1 2f 82 3d 85 eb b3 bc d1 8d c6 3d ec a1 e8 bc
       0.063567884 -0.02196289 0.09695018 -0.028397523
000160 46 19 d3 3d 8c ba 9f bc a4 25 c3 3c 2b 57 c0 bd
       0.10307555 -0.019498132 0.02382166 -0.09391626
000170 0d 63 24 3d 41 66 a2 bb d9 02 b3 bd 64 db 2c bd
       0.040133525 -0.0049560373 -0.087407775 -0.042201415
000180 3e 78 9d 3d 4c e7 b7 bd 22 4a 04 3d 6a 7d 50 bb
       0.0768895 -0.08979663 0.03229726 -0.0031813034
000190 21 4e 56 3c 20 86 f5 3a 08 9a c5 3a 97 48 02 bd
       0.013080151 0.0018731989 0.0015075812 -0.03180751
0001a0 20 cd cc bd 9f e5 b0 bc 9b cc 86 3d 12 17 c3 bd
       -0.10000062 -0.021593867 0.06581994 -0.09525885
0001b0 69 ad 2c bd a2 dc 7b bd 2e 6c 84 bd 5e 24 fa bc
       -0.042157564 -0.06148971 -0.06465946 -0.03053492
0001c0 16 ac 6d 3d ee 9a 78 3d 6a 1b 1f 3d 2a b5 5c 3d
       0.058025442 0.060694627 0.038844503 0.05388371
0001d0 ea 2d d7 bd 91 0e c0 bd de 0d c5 3d 5f 8e a2 3d
       -0.10506804 -0.09377778 0.096217856 0.079373114
0001e0 1a 27 30 3d 6d 75 b4 bd f0 9b 9f bd 25 02 b7 3d
       0.04300604 -0.0881146 -0.077934146 0.08935956
0001f0 16 e3 8e bd 17 48 bd bc 1f de 8f 3c 86 9a d1 3d
       -0.06976907 -0.023105664 0.01756197 0.10234551

weight f4 [1, 128]
000000 80 98 8f 3c e7 58 83 3c 3e bd 93 3c ed b6 cd 3a
       0.017528772 0.016033603 0.018034574 0.0015694775
000010 41 27 19 bc 1e 24 14 bc 87 5a 2b bc 99 96 99 3b
       -0.009347738 -0.009041814 -0.010458595 0.004687142
000020 40 a5 a1 bc 23 9a 7c bb 91 03 6a 3c c1 c1 6d bc
       -0.019732118 -0.003854402 0.014283077 -0.014511527
000030 02 00 9a 3a 60 fb 83 3c 05 0a 54 bb 87 e3 3a 3c
       0.001174927 0.016111076 -0.0032354605 0.011406786
000040 e3 da 9e 3c 33 93 3a 3c eb cf 78 bc e8 57 ab bb
       0.019391483 0.011387634 -0.01518629 -0.005228985
000050 c7 a8 fe ba 9b f7 9e 39 a2 e0 57 bc 6e 1d 43 3c
       -0.0019428962 0.0003032059 -0.013176115 0.011908872
000060 ee b6 6c bc 1a f7 0e 3c d0 b0 a7 bc ec 0d 75 3c
       -0.014447911 0.008725906 -0.020470053 0.0149569325
000070 39 8c e6 3a 47 96 d9 bc bd 7c 89 3c da ea 13 3c
       0.0017589397 -0.026560916 0.016783113 0.009028161
000080 e8 ee 1f 3c 75 01 d1 3c da 92 e9 3c 24 60 1e bc
       0.0097615495 0.02551339 0.028512407 -0.009666476
000090 cb f2 8d 3c 41 12 6d 3c a6 3c 28 bb fc 1a 49 bc
       0.017327687 0.014469684 -0.0025670915 -0.0122745
0000a0 3d 1a b2 bb 6a 17 85 3c c7 36 20 3b d2 16 37 bb
       -0.0054352568 0.016246516 0.0024446712 -0.0027937186
0000b0 53 00 f9 bc 06 cb e8 bb dd 22 5f bc 8e 58 77 bc
       -0.030395662 -0.0071042804 -0.013619152 -0.015096797
0000c0 ed ee a3 bc db 64 20 bc a1 6c 12 3c 0f ec 64 bc
       -0.02001139 -0.009789671 0.008937032 -0.013972296
0000d0 79 fe e1 bb 86 af ba 3b 5c 5b 03 3c ec 4c 8f 3c
       -0.0068967906 0.0056971936 0.008017387 0.017492734
0000e0 f7 dd 0d 3a 09 9d 84 b9 a8 3a de bc 49 b3 d5 3c
       0.00054117985 -0.00025294002 -0.027127579 0.026086466
0000f0 1f 52 b8 bc 76 4a 93 3c e9 3f 06 bc 0e 0f c8 3b
       -0.022500096 0.017979842 -0.008193948 0.0061053103
000100 f9 34 32 3d 07 f0 02 bc 92 ac 45 3c 2d 18 af bb
       0.04350755 -0.007991797 0.01206507 -0.005343458
000110 1f d2 05 bc de 52 97 3c d4 97 7a bc 2a 01 9a 3c
       -0.008167773 0.018472131 -0.015294988 0.018799383
000120 6f 8d 63 3c 87 6c 73 3c c0 c8 0b bc a1 7e be 3b
       0.013888701 0.014857418 -0.008531749 0.005813435
000130 67 e0 0b bc e7 41 9b bb 87 f8 a6 bc 61 dc 89 bc
       -0.008537388 -0.004738081 -0.020382179 -0.016828718
000140 31 b6 d7 3b a0 6a 7c bc 7b 1b a3 bc 43 ce 0c bc
       0.006582998 -0.015406281 -0.019910565 -0.0085940985
000150 1d c4 b8 bb a8 4f 52 3c a0 81 00 bd 61 ff 58 3c
       -0.005638613 0.012836374 -0.03137362 0.013244481
000160 50 dc 88 bc 60 de 4d 3b eb ad 07 3c a1 93 c7 3c
       -0.016706616 0.0031413063 0.008281211 0.024362387
000170 01 2b 65 bc 0a b1 2d 3c 29 9e 34 b9 72 cc 9d 3c
       -0.013987304 0.010601291 -0.00017225057 0.019262526
000180 85 d1 db bc ae 20 82 3c da ab bf bc 11 a6 57 3c
       -0.026833305 0.015884724 -0.023397375 0.013162152
000190 4b 55 81 bb 3b 17 f4 ba 4a b6 71 3c 38 9d a7 3c
       -0.0039469353 -0.0018622646 0.014752934 0.02046071
0001a0 7d 62 06 3c 48 04 84 bc 14 95 8d bc 02 34 a0 3c
       0.008202192 -0.016115323 -0.017283 0.01955605
0001b0 fd 84 80 bc 67 4f a8 bb c4 9f c8 3c a2 dc e2 3c
       -0.015688414 -0.0051364186 0.024490245 0.027693097
0001c0 af f3 0e 3c d1 3f cd bc d9 a5 e2 bb c8 c5 c4 bb
       0.008725091 -0.025054844 -0.0069167432 -0.0060050227
0001d0 45 1b e0 3c f2 58 be 3b 00 00 95 bc 07 d7 bc bc
       0.027356753 0.005808943 -0.018188477 -0.023051752
0001e0 37 84 90 3c 32 7f 93 3c c6 aa 19 3c f4 7a 10 bc
       0.01764117 0.018004987 0.0093790945 -0.008818377
0001f0 2a 38 8a 3c 12 31 8c 3c 11 8b 0c 3c a5 27 e2 bb
       0.016872484 0.017113242 0.008578078 -0.0069016987

weight f4 [3, 128]
000000 3d 28 42 bc 04 d7 05 3c e1 b3 5d 3b 31 03 b7 3b
       -0.011850414 0.0081689395 0.003382914 0.0055850972
000010 23 58 00 bc ba 68 e3 3a 84 7e 4a 3c 36 0a f3 ba
       -0.007833513 0.0017349937 0.012359265 -0.0018542472
000020 4f 8e c5 3b fc 17 23 3c 96 4c cd 3b 4d 57 af 3c
       0.0060289274 0.009954449 0.0062652333 0.021403933
000030 87 45 25 3c c3 96 99 ba 1b 3e fd bb 5b 2e 8b bb
       0.010087377 -0.0011717904 -0.007728351 -0.0042474694
000040 e5 03 36 3b 5e 01 fe ba e5 ca d7 b9 2d 54 01 bb
       0.0027773317 -0.001937907 -0.00041159164 -0.001973401
000050 c7 51 3b 3c 31 b4 de 3b b7 e7 65 3c 87 ca 4b bc
       0.011433071 0.006796383 0.014032296 -0.012438423
000060 f4 88 51 bc 03 f4 b1 3b 07 6a 21 3c 83 65 4b 3b
       -0.012789 0.0054307 0.009851939 0.0031035847
000070 13 36 cb bb 61 87 4b bc 6c 9f 80 bb 40 30 72 bb
       -0.0062015145 -0.012422414 -0.0039252546 -0.0036955029
000080 46 31 c1 3b a8 8b e4 bb 34 3f 87 3c 18 8a 6b 3c
       0.0058957664 -0.006974656 0.01650963 0.014376186
000090 03 78 63 bb ab 01 3d 3b 29 72 01 3b 0e dd 56 bc
       -0.0034708984 0.0028840106 0.0019751883 -0.013114227
0000a0 07 79 83 bb 9e f4 44 ba 6a f6 87 3b 0c 93 70 3b
       -0.0040122303 -0.00075132574 0.004149248 0.003670874
0000b0 ba f6 c2 ba a0 43 ad 3c 40 b2 4b 3c 19 30 8d bb
       -0.0014874556 0.02115041 0.012432635 -0.004308712
0000c0 e4 1a cd 3a fd 7a 8f bb 22 0a 56 bb 74 0b 68 3c
       0.0015648273 -0.004378675 -0.0032659848 0.014162887
0000d0 81 f1 14 3c 6d 33 4e 3c 36 f2 d5 3b 3b 37 49 3c
       0.009090782 0.012585503 0.006529118 0.012281234
0000e0 fe cb 7c 3a 70 8f 1f bb 54 fa 32 bc b8 d2 30 bb
       0.00096434343 -0.002434697 -0.010923941 -0.0026981067
0000f0 84 12 8b b9 bb a8 6a bc bf 26 33 bc 3c 95 a2 ba
       -0.0002652594 -0.014322455 -0.010934531 -0.0012404094
000100 13 d8 db ba e8 29 a1 bb 1f e9 36 bb b9 fe 58 3c
       -0.0016772769 -0.0049183257 -0.0027909947 0.013244324
000110 bc 0b 9a ba 88 3b 88 3a 80 44 e6 39 4a 65 13 bc
       -0.0011752765 0.0010393718 0.00043920055 -0.008996317
000120 68 b7 ca 3a c8 7e 95 39 8e 17 49 bc 74 95 75 3c
       0.0015466036 0.00028513954 -0.012273682 0.014989246
000130 27 4b af ba fb 42 1c 3b 54 60 11 3b a1 47 c1 bb
       -0.0013373838 0.0023843634 0.002218266 -0.0058984314
000140 d1 83 23 3b fc e3 a2 b9 8d be 12 3c 7d bc 72 3a
       0.0024950395 -0.0003106891 0.008956564 0.00092596543
000150 a7 e2 8b 3c a5 6f e3 bb d0 f1 12 3c a1 ff 23 bc
       0.01707585 -0.0069407993 0.008968785 -0.010009677
000160 1d 56 0f 3c 59 bc 5a bc 10 d0 82 3b f2 81 ca 3b
       0.008748558 -0.01335057 0.003992088 0.0061800415
000170 a1 5a 1c bb de 26 62 bc 5d 9b 53 3c 00 3f 10 bc
       -0.002385773 -0.013803212 0.012915459 -0.008804083
000180 bb 3b 48 bc 6e 7d 03 3c 86 78 ae bb 09 bc ae bb
       -0.012221272 0.00802551 -0.005324426 -0.005332474
000190 46 94 0a bc 4c a8 47 3b 80 7d 3c 3c 4e 74 0e 3c
       -0.008458203 0.0030465303 0.011504531 0.008694721
0001a0 ae b0 dc 3b 37 49 5d 3c 4c 97 07 bc 7b 98 07 3c
       0.006734929 0.013506225 -0.008275818 0.0082761
0001b0 d5 a7 8f ba 2e 14 95 3b 33 bb 19 bc ce 80 38 3b
       -0.0010960052 0.0045495247 -0.009383011 0.0028152945
0001c0 0b 8b 2b 3b 10 1a 99 3b b7 55 de ba a0 48 cc 3a
       0.0026175405 0.0046722963 -0.0016962801 0.0015585609
0001d0 5b 53 7f 3b 0b 7b 51 3b b9 58 64 b8 bc ff ad bb
       0.0038959596 0.0031964208 -5.4442065e-05 -0.005310027
0001e0 e3 9e c8 3b 41 2c ce ba e1 e2 9c b9 46 a6 1a bb
       0.0061224564 -0.0015729741 -0.00029923677 -0.0023597642
0001f0 ed 7d 58 bc b1 3a 3d bc 94 93 90 3b 08 1f 0f bb
       -0.013213617 -0.011549638 0.004412124 -0.0021838564
000200 60 22 51 3b 88 1c 8b bb ad 52 91 bb 95 bf 62 3c
       0.0031911358 -0.0042453445 -0.0044349045 0.013839622
000210 d4 01 29 3c c8 f3 c6 bb 4e 28 50 3c 0d 92 8b bb
       0.010315377 -0.0060715415 0.012704922 -0.004259354
000220 fc 5d 6f bb 47 69 0b 3c c5 03 55 bb 8b 79 8c 3c
       -0.0036524525 0.008508987 -0.0032503468 0.0171478
000230 b5 a9 05 3b 01 37 b9 bc f2 b5 01 3c b2 89 6a 3c
       0.0020395343 -0.022609236 0.007916914 0.014315056
000240 6a 46 2a 3b a5 ee aa bb 69 77 31 3c 4e 69 70 bb
       0.0025981911 -0.005216437 0.010831692 -0.003668386
000250 0a dd 91 bb 43 45 7d 3c 24 29 b6 3b db 40 b3 ba
       -0.0044513987 0.015458408 0.0055591036 -0.0013675945
000260 33 e7 06 bb ad 3a 9f bb 23 a4 c8 3b 04 10 9e bb
       -0.0020584583 -0.0048592896 0.0061230822 -0.0048236866
000270 48 73 55 3c 56 0f ad ba 42 bd 4d 3c 80 f7 93 bb
       0.0130279735 -0.0013203423 0.01255733 -0.0045155883
000280 ac 71 ac bb a2 1b 2c bb df 72 55 3c 73 5f 54 bb
       -0.005262574 -0.0026261588 0.013027876 -0.0032405525
000290 93 10 a7 ba 2a 66 90 3b 60 44 27 3a 8c 34 dc bb
       -0.0012746028 0.00440671 0.0006380733 -0.0067201313
0002a0 e0 bc a4 3b 78 9b 4a 3c 77 8d 37 b9 6a a4 28 bc
       0.0050273985 0.012366168 -0.0001750494 -0.010293106
0002b0 9e 8c 94 3b 19 f8 0a bc 32 1e 90 bb ea 33 62 bb
       0.0045333644 -0.008482003 -0.004398131 -0.0034515806
0002c0 5c f8 75 bc 3e e3 d7 3b f7 2f 2a bb 9a 38 61 bb
       -0.015012827 0.0065883687 -0.002596853 -0.0034366013
0002d0 95 a1 4b 3b ef 94 5f 3c 60 9f 14 3c fd ec 0f 3c
       0.0031071652 0.013646348 0.009071201 0.00878453
0002e0 97 f2 65 bc 2a a5 ae ba 6a 05 d1 ba 02 95 38 3b
       -0.014034889 -0.0013324369 -0.0015947048 0.0028164987
0002f0 1d a0 31 3b 88 bb d0 3b 16 9b 88 bb 34 3a 42 bc
       0.0027103492 0.0063700117 -0.0041688783 -0.011854697
000300 49 fb 86 3c a4 7e 41 3c 96 f2 03 3c ee 0d ed bb
       0.016477244 0.011809979 0.008053442 -0.0072343266
000310 5e eb 60 bb c2 fe 0e 3c 5f 1a 15 bc d0 06 8e 3a
       -0.0034319977 0.008727731 -0.009100526 0.001083577
000320 21 8b 71 bb 82 cc 95 bc f0 ad 2e 3c 03 08 ef 3a
       -0.003685661 -0.018285993 0.010661587 0.0018236641
000330 32 5c 60 3b ca b8 b1 39 bc f8 81 bb d9 38 74 bc
       0.003423464 0.0003389775 -0.003966419 -0.014906132
000340 91 19 69 3c 95 a1 75 39 39 21 11 bc f0 e4 1f 3a
       0.014227287 0.00023425215 -0.008858019 0.0006099483
000350 55 56 2e 3c f2 1f 02 3a 88 3f e8 3b ef 38 08 ba
       0.0106407 0.00049638667 0.0070876516 -0.0005196472
000360 a5 ea 5a 3b 41 39 93 bc 41 a6 0d 3c e0 a6 b0 bb
       0.003340402 -0.017971637 0.008645595 -0.005390987
000370 9d f9 57 3b 70 e2 b0 3b 62 a2 89 3b aa 00 33 3c
       0.0032955178 0.005398087 0.0042002657 0.010925451
000380 21 c5 0d bc 05 cb 2b 3c 70 3f 26 3b f8 ff 1f bc
       -0.008652956 0.010485415 0.0025367402 -0.009765618
000390 75 98 ec 39 d1 a7 49 3b 28 e3 1b bc 3d 9b e1 3b
       0.00045127017 0.0030770192 -0.0095146075 0.006884961
0003a0 34 6c 8c 3b be 07 0b ba 41 da dc 3a 34 0a b3 3a
       0.0042853598 -0.0005303583 0.0016849713 0.0013659657
0003b0 17 45 2c bb 04 52 15 3c 3c 72 a1 3c c5 87 de 3b
       -0.0026286298 0.009113792 0.019707792 0.0067910873
0003c0 e9 1b 13 3c 83 24 d0 3b 52 ad 44 3b 48 9e 58 3c
       0.008978822 0.006352009 0.0030010534 0.013221331
0003d0 12 99 21 bb f5 83 83 3b 57 5c 30 bc 81 61 f8 3b
       -0.0024657887 0.0040135332 -0.010764203 0.0075799827
0003e0 9c 4b b5 3b 6a 47 50 bc c6 6b 9c ba 02 02 bd bb
       0.005532695 -0.012712339 -0.0011933974 -0.0057680616
0003f0 ca b4 24 3a d0 1e a5 bb 0b 65 80 bc 7d ae 0e 3b
       0.0006283043 -0.0050390735 -0.015673181 0.0021771484

bias f4 [3]
000000 1c 15 16 3b 66 1c 8a 3b cb 56 8a bb
       0.0022900766 0.004214811 -0.0042217723

weight f4 [1, 128]
000000 35 71 4b 3c 19 3f d3 3c 52 47 67 3c 12 3f 8a 3c
       0.012417127 0.025786923 0.014116125 0.016875777
000010 3b 69 68 bc 4d f4 cf bc fa 98 b4 bb 24 6b 92 3c
       -0.014185245 -0.025385046 -0.0055114003 0.017873354
000020 5e 0c ea bc 87 bc 48 3b c9 6e 5c 3c 2d 70 aa bc
       -0.02857035 0.003062995 0.013454148 -0.020805443
000030 e5 fa bf 3c cd df 5e 3c 8d 8b fc 3a 01 eb 3d 3c
       0.023435066 0.013603163 0.0019267664 0.011591674
000040 8b 9f 24 3c 53 96 c8 3b b7 20 5e bc 18 39 0f 3c
       0.010047804 0.0061214357 -0.0135576045 0.00874164
000050 5b c6 5e bc f1 ed 76 3c d0 d4 79 bc ed c6 7c 3c
       -0.013597096 0.015071378 -0.015248492 0.015428287
000060 a8 9e 77 ba ef 41 10 3c ab 7e 91 bc a3 8b c5 3c
       -0.0009445944 0.008804782 -0.017760595 0.024114436
000070 52 67 61 bb 22 7f 6b bc ef 4f 64 3c fd 5e a6 3c
       -0.003439386 -0.014373573 0.013935073 0.020308966
000080 17 7f 0e 3c 64 4c 08 3d af f6 2c 3b d9 ee 58 3b
       0.008697293 0.033275977 0.0026392152 0.0033101349
000090 80 20 e3 3c 2d d9 69 3c 55 77 a9 bc 6e fa a7 bc
       0.027725458 0.01427297 -0.020686785 -0.020505156
0000a0 a5 15 da b9 97 44 f8 3b af 5f dc 3b c0 72 27 3c
       -0.00041596327 0.007576536 0.0067252736 0.01022023
0000b0 64 73 e0 bc 47 ec 53 bc 8c a7 4f bc 8b cf 72 bc
       -0.027398773 -0.012934751 -0.012674224 -0.01481999
0000c0 51 22 5a bc 7b ec 8a bc 1f aa a2 3b cd e7 29 bc
       -0.013313846 -0.016958466 0.0049641277 -0.010370207
0000d0 a6 3f 80 bc 06 e3 43 3c d4 53 a6 3c 91 a2 0b 3c
       -0.01565535 0.011955982 0.020303644 0.008522646
0000e0 7a d4 10 3c 39 7b 73 bc 63 0e 0c bc 51 59 5f 3c
       0.008839721 -0.014860922 -0.008548352 0.013632135
0000f0 9f 3d b0 bc fe 52 26 bc 76 9e 25 bc e7 f3 40 3c
       -0.021513758 -0.010151623 -0.010108581 0.011776901
000100 06 90 47 3c 03 96 a9 bc 84 14 6f 3c 26 b9 4d 3b
       0.012180334 -0.020701414 0.014592294 0.0031390875
000110 2b 29 2c bc 15 d8 96 3c 49 d4 ab bc 35 23 85 3c
       -0.010507862 0.018413583 -0.020975249 0.01625214
000120 e4 0c 7f 3b 2e 94 08 3b e4 6d 8e bc 82 7c a1 3c
       0.0038917596 0.0020840275 -0.017386384 0.01971269
000130 46 4d 82 3c d4 ee 3b bc 51 77 11 bc a7 9f ea 3b
       0.015905987 -0.011470515 -0.008878545 0.0071601453
000140 ea 2b 7b 3c 1c 83 f1 bb 14 15 5e 3b 57 ff a7 bb
       0.015330294 -0.007370366 0.0033887075 -0.0051268744
000150 7e 9d 81 bc a4 47 c2 ba 15 be 79 bc 34 16 5d 3c
       -0.015822168 -0.0014822376 -0.015243073 0.013494063
000160 53 72 b2 bc 0f 1e 08 3c cc 11 5a 3a d7 9d f1 3c
       -0.02178303 0.008307948 0.0008318692 0.02949421
000170 55 66 91 bb 5d 5b bb 3b 33 46 2e 3c 9c fe 24 3c
       -0.0044372478 0.0057176785 0.010636854 0.010070469
000180 54 e2 ad bc f9 64 8b 3b 79 a8 c1 bc 2c 6a 74 3c
       -0.021226086 0.0042539802 -0.023639904 0.0149178915
000190 d4 57 96 bc 92 51 47 bc f9 30 05 3c 4f 82 d6 3c
       -0.018352427 -0.012165444 0.008129352 0.026185183
0001a0 31 11 d6 3c b0 4b 45 3c 72 ca c0 bc b7 0e 3e 3c
       0.026131244 0.012041971 -0.023534033 0.011600188
0001b0 7b 49 33 bb 65 ff 20 bc fc a5 d9 3c 2e 2d 1d 3c
       -0.002735703 -0.009826516 0.026568405 0.009593291
0001c0 c3 07 e9 3b 5c 54 27 bb 58 66 3d bc b3 f2 90 bc
       0.007111521 -0.002553246 -0.011560045 -0.017693853
0001d0 79 6e 7e 3c 3d cf b5 3c 50 a1 f8 bb 97 5d a1 bc
       0.015529268 0.022193545 -0.0075875893 -0.019697947
0001e0 b8 a8 cf 3c df b3 ba 3a f5 47 ab 3c a3 db 43 bc
       0.025349006 0.001424428 0.020908335 -0.011954221
0001f0 41 26 f6 3b 70 9e 82 3c ac 92 7e 3c f5 44 a5 bc
       0.0075118844 0.01594469 0.015537899 -0.020174483
